Saved Models/model_checkpoint_bigfish_42_5e-05_400_6_256_0.99_0.95_0.2_1024_0.5.pth (torch, 153018 bytes, 21 tensors)

layers.0.weight f4 [32, 3, 8, 8]
00000000: aca9 24bd 67ed 863d b2ec 1c3d 414e dbba
00000010: c99b 2abd 9b96 3d3d b216 88bc e566 673d
00000020: f964 88bd 48ce 6abc 79db 90bc 7305 363d
00000030: 5f7c f73c eafe 51bc 2927 febc c576 ee3b
00000040: 1625 6c3d 75ac d83c 6b6b 1d3b 12ec 7d3d
00000050: eb2f 18bd 88d3 1b3d 4d06 823d 9d1c 343d
00000060: b270 00bc 4a18 1bbd bf30 4cbc e02c e03c
00000070: 77ab 003d 4c24 80b7 fb19 8d3a 73a6 01bd
00000080: 5f59 35bd 5f23 02bd 9d24 9c3c 21d6 9bbc
00000090: 8253 83bd 8445 c2bb 0e2d 41bc fef8 d73c
000000a0: 04b7 17bd 23f6 973d 25ab 59bd 85f5 6f3d
000000b0: 4d3e 263d 9cd6 c73c 584d ac3c b166 4c3d
000000c0: 5899 48bd 9f27 0a3c be41 6b3d e27f e83c
000000d0: f978 fabc b096 2e3d 92b5 a83b b9a7 87bc
000000e0: 9cc2 0d3c eb50 54bc f8a1 dd3c 53cd d93c
000000f0: a566 0cbc 046c 1ebc f883 47bd 2bca cfbc
00000100: 2f70 f93b ecc6 8b3d c7d4 6e3d 8421 233c
00000110: 4b5e 583d 903b 0cbd ed69 c13c dac8 943c
00000120: 6b53 de3b fc41 8dbc b8ab 7abd 629d 853d
00000130: 275f 46bd 345b 133d ae9a 66bd 910d 89bd
00000140: 0072 82bc e908 85bd 3765 753d 783a 2e3d
00000150: 3c84 8f3d c9dc 2cbd 87a5 73bd e7e1 d03c
00000160: ae6c 723d efe6 a8bb d077 a6bc abf8 a8bb
00000170: 8a8f a3bc b538 84bd 92c9 84bd 55bf ad3c
00000180: ac8b a0bc 5809 ccbc 7a9e 57bd 4970 81bd
00000190: 9c5d 503c 6b33 8bbd d576 6ebc 5d65 083c
000001a0: e42b 94bc 7829 933d 1238 febc 0eae 9e3c
000001b0: 2f45 50bd a41d 893d 18bd 7f3d d1a8 1cbc
000001c0: 7462 1c3d 0cdb 003c 6c2a 3fbd fbca 96bb
000001d0: 6276 a1bc 8488 a13c af11 62bd df99 4b3b
000001e0: d421 e73c 5a47 353d e1a0 143d 43ab 28bd
000001f0: 7a15 7cbd 3c8f 74bd ec0a ec3c 7296 173d
00000200: 56fc 99bc 588f 80bd bc84 75bd 6b3d 923d
00000210: 1ff9 9cbb 5540 13bc b989 8fbc 8b9e 8a3c
00000220: 059f 21bd 0f3b 673c 57ee 3d3d 3890 1bbc
00000230: fecc 5abd 9134 6ebc 21ce ec3c 76e5 59bc
00000240: 871c 40bd beb1 b1bc 2b2c 773d 8b39 88bd
00000250: aa22 183d 2c02 43bd 24c8 59bd f9e2 70bd
00000260: f856 2cba 5ed4 f83c c853 823c 4e47 f8bb
00000270: 091d 813a 074b c53c 6f8c 743d 024e 22bd
00000280: c04e 56bd 4e8b 563d 597d 6c3d 5d6d 663d
00000290: 22c6 96bc b7d1 893d 5958 763d bfdd 723d
000002a0: 6222 90bc 8181 583d 77ad 873d 44e0 2dbd
000002b0: 93ab 76bd e1f2 2e3d 3a53 f3bc 9b87 323d
000002c0: 207a 973d 6fc2 5abc 66d5 c63b e884 f5bc
000002d0: 19e6 053d b8e0 88bc 08f8 843c 7c8c 4d3d
000002e0: d16a 54bd d5a5 e23c 47ad d93c d795 95bb
000002f0: 0ade d93c 60a1 46bd a7da 0dbd c674 64bb
00000300: 11a8 3d3d 9de5 2cbd 565e 48bd 971d 383d
00000310: 5b24 72bd 8b02 813d 4dc8 8d3d 18fe 84bc
00000320: 5e30 70bc b370 673d f859 eabc 6ee9 5bbd
00000330: abb0 7e3d ac3f 8dbb edbd 9dbc 7ff8 65bd
00000340: c689 8e3d e992 af3c 0afc 863d 6ed1 13bd
00000350: ec92 8c3d 986a 4d3d d0d6 2f3d f950 293d
00000360: ea2c 73bd 02a8 d23b d000 6fbd ef59 1c3d
00000370: f026 97bb 1997 e4bc bb70 afba 142c 2e3c
00000380: 558b 66bd fdf1 fbbc b6f0 7b3d a80d 46bd
00000390: 137c 09bd 2f4f 733c 4503 da3c f9e0 64bc
000003a0: 78c1 973c 005d 6a3d f017 073c bd22 273d
000003b0: d098 8ebd e5ac 99bc d717 683d 185b d9bc
000003c0: 183c 64bd 253c 2ebd c134 ee3c 7ef7 8e3d
000003d0: 7485 8e3d 2433 21bd c231 a43b 2feb 82bd
000003e0: 2c22 a13c fd99 073d 7b79 b3bc c8b7 5d3d
000003f0: b2fb eebb 0e76 0ebd c435 913d ed7a 143d
-0.040200874 0.0658825 0.038311668 -0.0016731696 -0.041652475 0.046286207 -0.016612384 0.056494612
-0.06659884 -0.014331408 -0.017682778 0.04443879 0.030210672 -0.012817124 -0.031024532 0.007277342
0.057652555 0.026449421 0.0024020325 0.061992712 -0.037155073 0.03804353 0.06348858 0.0439726
-0.007839369 -0.03786496 -0.012462794 0.027365148 0.03141352 -1.5275691e-05 0.0010765189 -0.03165288
-0.044274684 -0.031772014 0.019060427 -0.019023003 -0.06412412 -0.005928697 -0.011790527 0.026363846
-0.03703977 0.07419994 -0.05314173 0.058583755 0.04058676 0.024394326 0.021032974 0.04990262
-0.048974365 0.008432298 0.057435744 0.028381292 -0.030575262 0.042624176 0.005148598 -0.016559469
0.0086523555 -0.0129587455 0.027054772 0.026587164 -0.008569394 -0.009669308 -0.04870984 -0.025364956
0.0076122503 0.06825051 0.05830839 0.009956721 0.0528243 -0.03423649 0.02361008 0.01816218
0.0067848465 -0.017243378 -0.06119892 0.06524159 -0.048430588 0.03597565 -0.056299858 -0.06692041
-0.0159235 -0.0649584 0.05991098 0.04253623 0.070076436 -0.042202745 -0.05948403 0.025498344
0.059185676 -0.0051544826 -0.020320803 -0.0051565967 -0.019965906 -0.064561285 -0.06483759 0.021209398
-0.01959785 -0.0249068 -0.05264137 -0.06320245 0.012717631 -0.067969166 -0.014554699 0.008324948
-0.018087335 0.07185644 -0.031032596 0.019370105 -0.05084723 0.066951066 0.062436193 -0.009561733
0.03817983 0.007864725 -0.046671316 -0.004601834 -0.01970977 0.019718416 -0.055192646 0.0031067056
0.028214373 0.0442575 0.03628624 -0.041178953 -0.06154392 -0.05970691 0.028813802 0.03700871
-0.018797081 -0.06277341 -0.05994104 0.07140621 -0.0047904397 -0.008987506 -0.017521726 0.016921302
-0.039458293 0.014113202 0.046369877 -0.009494834 -0.053418152 -0.0145389 0.028906884 -0.013299337
-0.046902206 -0.0216912 0.060344856 -0.066516005 0.037142433 -0.047609493 -0.053169385 -0.058810208
-0.00065742387 0.030374702 0.01590909 -0.0075768596 0.0009850572 0.024083627 0.05970424 -0.039625175
-0.052321196 0.052378945 0.05773673 0.05625664 -0.018405024 0.06729453 0.06014285 0.059293505
-0.01759452 0.05285788 0.06624883 -0.042450204 -0.06022222 0.042712096 -0.029702771 0.043586355
0.0739634 -0.013352021 0.0060679195 -0.029970601 0.03269014 -0.016708717 0.016231552 0.050182804
-0.05185968 0.027666965 0.026571883 -0.0045649814 0.026595134 -0.048493743 -0.03463235 -0.0034859641
0.04630286 -0.042211164 -0.04891809 0.044950094 -0.059116703 0.06299313 0.0692297 -0.016234443
-0.014659969 0.056503963 -0.028607354 -0.053689413 0.062180202 -0.004310569 -0.019255603 -0.056145187
0.06959872 0.021432357 0.065910414 -0.0360884 0.068639606 0.050150484 0.04292947 0.041336987
-0.059369005 0.0064287195 -0.058350384 0.038171705 -0.004612796 -0.02790408 -0.0013385037 0.010630626
-0.05628522 -0.030755037 0.061508857 -0.048352867 -0.033565592 0.014850422 0.026612887 -0.013969653
0.01852487 0.057217598 0.008245453 0.040804613 -0.069627404 -0.0187592 0.05666336 -0.026532695
-0.055721372 -0.042537827 0.02907789 0.06980799 0.06959048 -0.039355412 0.0050108144 -0.06392514
0.019669615 0.03310584 -0.021908512 0.054130346 -0.007293188 -0.034780554 0.07090333 0.036250044

layers.0.bias f4 [32]
00000000: 93cb 2a38 63f7 88bd 67cb af3c 393c 19bd
00000010: 1033 b7bc a6bb 16bd 9bc0 3cbd e7c5 0c3d
00000020: 3712 3cbd 60f6 753c 08f6 823d 0f60 e53c
00000030: 9e6a 01bd c8db 163d 5cdf dd3c 010c 65bd
00000040: 3b41 62bd 75a8 813d 8087 453c 15e2 18bd
00000050: c550 453d f041 6dbd 7e30 733b f329 83bd
00000060: 4bf8 0f3c 3f81 f7bc a650 71bd c8b5 91bc
00000070: 0e43 82bd 81dd 90bd 536a bbbb ba87 eb3c
4.072075e-05 -0.0668781 0.021459294 -0.03741095 -0.022363216 -0.03680005 -0.04608212 0.034368422
-0.04591581 0.015012354 0.06394583 0.027999906 -0.03159582 0.036830693 0.027084045 -0.05591965
-0.05523799 0.06330959 0.0120562315 -0.037324984 0.04817273 -0.05792421 0.003710776 -0.064044856
0.008787225 -0.030212997 -0.058914803 -0.017786875 -0.06360446 -0.070734985 -0.005719462 0.028751243

layers.2.weight f4 [32]
00000000: 617e 803f bf1a 803f cd5f 7f3f 5cba 7e3f
00000010: aaaf 803f 5b4f 803f f6db 7f3f 5310 7f3f
00000020: 326a 803f e28c 803f f370 803f 9e75 803f
00000030: 4dc9 7f3f 3ba1 803f 40a2 7f3f 8dcc 7e3f
00000040: c028 803f 9684 7f3f b39e 7f3f cfbc 7f3f
00000050: 74ac 7f3f ec5f 803f 8bf0 7f3f d951 803f
00000060: 247c 803f 07af 7f3f 6ed3 7f3f fbfe 7d3f
00000070: db4f 7f3f b9ae 803f 83cc 7e3f 94d4 7e3f
1.0038568 1.0008162 0.99755555 0.9950311 1.0053608 1.0024217 0.9994501 0.99634284
1.0032408 1.0042994 1.0034469 1.0035894 0.99916536 1.0049204 0.9985695 0.9953087
1.0012436 0.99811685 0.9985153 0.99897474 0.9987252 1.0029273 0.99976414 1.0024978
1.0037885 0.99876446 0.9993199 0.99217194 0.99731225 1.0053321 0.9953081 0.9954312

layers.2.bias f4 [32]
00000000: 780d b8bb 2d2c 1e3b 0ef1 0d3b 694c b03a
00000010: de6c a1ba 4731 45b9 58ff 6c3b 966b e13a
00000020: 8aae 953b 0dd5 9abb 5025 4eba 9287 073a
00000030: b2ca 80bb 7796 7c3b a122 7e3b bc71 bcba
00000040: 1d5c 553b 57a6 5f3b 4c76 533a e1ab 4b39
00000050: 5d93 a9bb a9bc 9fbb 3071 e7bb 50cb 7fbb
00000060: e7da 62bb d3d3 f7ba 89ca 1a3b a44e 623b
00000070: f32d 013b 6b3e fbbb d601 473b d8d1 f6b9
-0.00561684 0.0024135218 0.0021658572 0.0013450506 -0.001231577 -0.00018805741 0.003616294 0.0017198201
0.004567926 -0.0047251047 -0.00078638364 0.0005170043 -0.003930413 0.0038541832 0.0038777965 -0.0014377157
0.0032556124 0.0034126246 0.0008066639 0.00019423619 -0.005175038 -0.004874785 -0.0070630535 -0.0039031096
-0.003461534 -0.0018907733 0.0023619256 0.0034531737 0.0019711226 -0.007667353 0.0030366085 -0.00047077122

layers.2.running_mean f4 [32]
00000000: 3ba3 963c 8027 ed3b 94fc b93c 9f2d 203c
00000010: b612 813c 4b25 6c3c 2c42 aa3b 4f35 093d
00000020: a752 c93b 8ece ce3c a144 bc3d ba2f 8a3d
00000030: bd3e 823c 5bbd 6f3d 2cfb f53c b18d 1b3c
00000040: bea6 943c c455 a13d 0fc7 293d d1e3 043c
00000050: 0c29 843d 99af f03b 173e 823c 301f 0c3c
00000060: 2cd9 433c 6ae6 183b 0ac9 0b3b ff7f 1a3a
00000070: 5a69 073c 05b0 aa3b dadf ab3c d958 923d
0.018388381 0.007237375 0.022703446 0.009776502 0.015755992 0.014413188 0.0051958766 0.033498105
0.006143886 0.025244977 0.091927774 0.06747384 0.015899057 0.058530193 0.030026995 0.009494231
0.018145915 0.078776866 0.041449603 0.008110956 0.064531416 0.0073451516 0.015898747 0.008552358
0.011953633 0.0023330697 0.0021329545 0.00058937067 0.008264864 0.0052089714 0.020980764 0.071458526

layers.2.running_var f4 [32]
00000000: 7899 263b 735a 7b3a 9af4 2b3a e51c cc3a
00000010: a5cf 283b 67c2 063b 0b3d 223a 3105 4e3a
00000020: f8e4 3c3a 7362 ec3a 8d3f 013c c166 363c
00000030: f452 593b 95dc a83b 84c9 9e3a 3882 bc3a
00000040: a79c 6d3b 44ec b63b 5277 033c 2f9a 973a
00000050: 8174 4b3b d408 6f3a 2c8a e63a 30d2 a23a
00000060: f56f f339 8073 1739 83a2 3939 300d c737
00000070: 2acb a93a f3c4 433a a275 883b 58c8 433c
0.0025421064 0.0009588368 0.0006559581 0.0015572576 0.0025758531 0.002056265 0.00061889057 0.000785905
0.000720575 0.0018034711 0.007888687 0.011132897 0.0033161016 0.0051532486 0.00121145 0.001438207
0.0036256702 0.0055823643 0.008024054 0.0011566336 0.0031044784 0.0009118442 0.0017588786 0.001242226
0.00046431986 0.0001444351 0.00017703515 2.372879e-05 0.0012954224 0.00074680074 0.0041644135 0.011949621

layers.4.weight f4 [64, 32, 2, 2]
00000000: ca29 0d3d 5fc5 4e3c 2cf4 82bd 3c5d 11bd
00000010: 4c61 4dbd c056 18bd bf30 81bd 3e63 12bd
00000020: 9755 a5bd af61 b53c e198 93bd cbc9 fdbc
00000030: 02a4 c03c 82bd da3c df95 bf38 824a 5d3d
00000040: d55c fe3b 727b 35bc 993d 183d 1b37 203d
00000050: 2b72 90bc 7bd4 593c 1721 37bd 54c0 873d
00000060: f124 2bbd ebed 66bd 7a24 ffbc c8ed 23bd
00000070: 17ae e8bc abfa 043d 72c9 0f3d 21b3 5ebd
00000080: 2dea 9f3d 2b97 943d 7b5f c8bc 47ed a6bd
00000090: e162 67bc e0a5 513d bb1c 883d 0a69 33bc
000000a0: 2170 30bd fee3 6a3c 40f7 edbc 46f0 e3bb
000000b0: 9441 6dbc fb86 70bd 01ed ab3c c50f e13c
000000c0: 6bdf 683d 834f 59bd 34d7 ef3c f626 36bd
000000d0: 0e7b 823c c3ed afbd e21d b2bd ec89 313c
000000e0: 8ef6 85bd 83d4 c33a fb4b e03c 35a7 82ba
000000f0: c28e 673d 3721 0fbd 78ba 39bd 4375 4abd
00000100: 1107 83bd e45e 0a3d a5dd 623c 51a4 763d
00000110: eaf3 34bd 3f03 093d 8287 a9bd ca3e a13d
00000120: b056 b23d f713 9abd bdd6 373d 775f bf3c
00000130: 5508 d0bc 223c e33b 3d46 763d a5ae 873d
00000140: be03 67bd 9d8f 9dbd 1ad2 533d ac62 6f3d
00000150: b12c 68bd ba39 063d 31b8 763c 171c 993d
00000160: 7e05 8d3d c8c4 9f3d 3761 aebd 9266 043c
00000170: a9b8 88bd d9e3 94bd a6b3 b4bd a0e6 f73c
00000180: 96fb 093d c0d4 a1bc 30ee 253d 1333 803c
00000190: d6ef b23d dab6 c5bc bc5c 3cbd 6c70 073d
000001a0: f890 18bd 794d 5c3d d255 0fbd c709 583c
000001b0: 9560 503d c583 42bc 3bc8 493d 7f06 3ebd
000001c0: aa73 91bd 684a 87bd 6b62 8ebd a046 853d
000001d0: a48c e63c 890c 453d 99cc 4c3d 8a4c 693d
000001e0: 8812 c33c 96b9 83bc e0db 58bc 8e0b 88bb
000001f0: 1732 96bd 9909 62bd 3cd6 64bd 6f67 383d
00000200: 1bf0 19bc 85c0 8bbc c1e3 13bd 56c9 a73d
00000210: f9e7 603b 3aa2 49bd e166 97bc ef13 b139
00000220: 9078 98bd 18d8 5ebb b3e8 713d fb7f 423d
00000230: 45a1 34bd 1e28 73bd 8267 763c d249 633a
00000240: ad4c 89bd a514 743d 55ed 54bd ab24 cebc
00000250: 8745 a9bd bff4 29bd 698f 33bd 91f7 5dbd
00000260: dd7b b23d c42d b43c 60b0 8c3a d493 4dbc
00000270: 0e8c 903d cfaa 313d 11ea a7bd 16e0 9bbc
00000280: 8048 b3bc ec0a 2d3b 9bf0 9bbd 9efb 9abd
00000290: 496f b538 9783 cebc 6334 37bc c70c b3bd
000002a0: 2dc7 203d e2c4 0dbd 80d9 1bbb c791 56bd
000002b0: 8015 743d 9033 aabb 05ea 743d e47d 26bd
000002c0: a29c dfbb e908 a93d 3d5b 77bd 87be 233d
000002d0: 3ce1 a73d 8a98 07bc a878 0e3d 62d7 5cbd
000002e0: b6c7 053d db6d 163d ed76 2b3d cf6c 4ebd
000002f0: 4303 92bc d69f 2dbc e04c c8bc e255 e73b
00000300: ebeb 733d 7562 273d 1ddc 8bbd 22df 243d
00000310: b72d 983c 9fbf a43c e8b8 573d fb74 853d
00000320: d2bd 3bbd 6295 ed3c 6ddd 8abc c76b 353d
00000330: e9d1 d9bc 57d2 32bd 1ec5 103a 08a5 bd3c
00000340: 44d5 5d3c 0154 81bd 339f b0bd bef8 b13d
00000350: 77b2 4f3d 8c25 b23d 35d9 efbc 87d5 873c
00000360: d0df 08bc 356c a53d c111 7abd 90fa 83bc
00000370: 845e 7e3d b026 a53d 740b aa3d d85a 17bc
00000380: 452f 443b 6484 8bbd 4a30 2c3d e0cc 89bd
00000390: 7aa6 6d3b 2c06 873c 2628 58bd 4d8e aebc
000003a0: 9ea6 6b3d bbe2 f33c fd4f 933d b825 a93d
000003b0: 4f7d a93d 9b4f 0e3d 86d2 6ebd 006a a4bd
000003c0: f456 45bd 5411 c63c bfe4 37bd e315 a53c
000003d0: 792c 5f3d cb02 b5bd 9f14 513d c7d3 99bd
000003e0: b975 a63d 5c46 84bd f8bf 4c3d 38e2 a93d
000003f0: 8582 b63d 39d7 08bd 2d50 5abd 2500 383d
0.03446368 0.012620299 -0.06394228 -0.035489306 -0.050141618 -0.037192106 -0.06308126 -0.035739176
-0.080729656 0.022141306 -0.07206894 -0.030980011 0.023515705 0.026701692 9.1355054e-05 0.054026134
0.0077625313 -0.011076795 0.03716812 0.039115053 -0.017632565 0.013295288 -0.04470929 0.066284806
-0.041783277 -0.05637924 -0.031145323 -0.040021688 -0.028403325 0.032465618 0.035104223 -0.05437005
0.07808337 0.072553955 -0.024459591 -0.08150726 -0.014122696 0.05118358 0.06646105 -0.010950336
-0.043075684 0.014336584 -0.029048562 -0.006956133 -0.014480967 -0.058722477 0.020987036 0.02747334
0.056853693 -0.053054344 0.029277422 -0.04447075 0.015927818 -0.08590271 -0.08697106 0.010836106
-0.06541167 0.0014940653 0.02737998 -0.0009968044 0.05653263 -0.034943786 -0.045343846 -0.049428236
-0.06397832 0.0337819 0.0138467895 0.060215298 -0.044177927 0.03345036 -0.08277799 0.07873304
0.087079406 -0.07523339 0.044882525 0.02336095 -0.025394598 0.0069346586 0.06012558 0.06625108
-0.056400053 -0.07693408 0.05171404 0.05844371 -0.056683246 0.032769896 0.015058563 0.07476061
0.06885813 0.07801205 -0.08514636 0.008081095 -0.06675846 -0.07270021 -0.08823328 0.030261338
0.033687197 -0.019754767 0.040510356 0.015649354 0.08737151 -0.024135042 -0.045986876 0.0330662
-0.037247628 0.05378482 -0.034993954 0.013185925 0.050873358 -0.011872237 0.04926322 -0.046392914
-0.07102139 -0.06605989 -0.069523655 0.06507611 0.028143235 0.048107658 0.049999807 0.05695776
0.023812547 -0.016079705 -0.013236016 -0.004151768 -0.07333773 -0.055184934 -0.055868372 0.045020517
-0.0093956245 -0.017059574 -0.036105875 0.08192699 0.0034317954 -0.049226977 -0.018481674 0.00033774922
-0.074448705 -0.0034003314 0.05905981 0.047485333 -0.04409911 -0.05936443 0.015039327 0.0008670363
-0.06704078 0.05959 -0.05198415 -0.025163969 -0.082652144 -0.041493174 -0.04383794 -0.054191176
0.08715031 0.021994479 0.0010733716 -0.012547452 0.07057963 0.043375786 -0.081989415 -0.019027751
-0.021885157 0.0026404215 -0.07614251 -0.075675234 8.651481e-05 -0.025209231 -0.011181924 -0.087426715
0.03925245 -0.03461159 -0.0023780763 -0.052385118 0.059590816 -0.005194135 0.05979349 -0.040647402
-0.006824092 0.082536526 -0.060389746 0.039976623 0.08197257 -0.008276114 0.034783036 -0.053916343
0.032661162 0.03672586 0.041861463 -0.050396737 -0.017823821 -0.01059719 -0.02445072 0.0070597986
0.05955116 0.04086538 -0.06829093 0.04025186 0.018576486 0.020110903 0.052666575 0.06516453
-0.045835324 0.029001895 -0.016951287 0.044292238 -0.02658935 -0.043657627 0.0005522537 0.023149982
0.013539616 -0.063148506 -0.08624115 0.08690022 0.050707307 0.08698568 -0.029278377 0.01658131
-0.008354142 0.080772795 -0.061052088 -0.016110688 0.062101856 0.0806402 0.08302966 -0.009237967
0.0029935401 -0.06812361 0.04203824 -0.0672853 0.0036262558 0.016482435 -0.052772664 -0.021308089
0.057531945 0.0297712 0.07192991 0.082591474 0.08275854 0.034743886 -0.05830624 -0.080280304
-0.048178628 0.024178185 -0.044895884 0.020152038 0.05448577 -0.08838423 0.051045056 -0.075110964
0.081279226 -0.064587325 0.049987763 0.08295101 0.089116134 -0.033408377 -0.053299118 0.044922013

layers.4.bias f4 [64]
00000000: 9c44 94bc bc82 b0bc 9bbd 9abd 9040 afbc
00000010: 78c1 cabc 6cea a5bd c120 49bd 7dba fdbc
00000020: a8ad a0bd b279 983d 90cb 0bbd a2d4 243a
00000030: 9658 36bd e7dd 353c 80af 3e3d c272 65bd
00000040: e3c2 463d 8f06 073d 56c3 4dbb e52e 1bbd
00000050: 8c84 b73b 512c f13b 5557 58bd dbe5 a2bd
00000060: e98f e23c b768 e1bc 85a7 8c3d f5fe 25bd
00000070: 1445 363d 13b8 33bd 9ca8 b03d 3834 99bd
00000080: 6e7d 6dbd 718e 833d ae5a 993c f8f2 b2bc
00000090: 004b 90bd 3ed9 433d e0c7 43bc 1240 e0bc
000000a0: 62d8 933d 84ee 7f3c 7f7e 37bd d809 3c3d
000000b0: 41e3 f6bc 6da2 963d 27b1 573d dc7b 58bd
000000c0: ca1f 823d 1042 b73d a09b 70bd 4e97 90bd
000000d0: a98a 54bd e039 01bd eed3 183d d2b9 52bd
000000e0: be79 99bd 81b4 56bb 7e3a ca3c e505 07bd
000000f0: 9ae3 853d 962a 103c 3d5b 933c 445d f1bc
-0.018099122 -0.021546714 -0.075556956 -0.02139309 -0.024750456 -0.08101353 -0.049103502 -0.030972714
-0.07845622 0.074450865 -0.03412968 0.0006287788 -0.044518076 0.011100269 0.04655409 -0.056017645
0.048525702 0.03296524 -0.0031396947 -0.03788652 0.0056005176 0.0073600193 -0.05281766 -0.07953998
0.027656512 -0.027515752 0.06867889 -0.04052635 0.04449947 -0.04387672 0.0862591 -0.07480663
-0.057980947 0.06423653 0.018719997 -0.021844372 -0.07045555 0.0478146 -0.011949509 -0.027374301
0.07219006 0.015620831 -0.04479837 0.045907825 -0.03013766 0.07355199 0.05265918 -0.052852497
0.063537195 0.08948147 -0.058742166 -0.07060109 -0.05189005 -0.031549335 0.037311487 -0.051446743
-0.074939236 -0.0032761397 0.024686094 -0.032964606 0.06537552 0.008799216 0.017987842 -0.029463418

layers.6.weight f4 [64]
00000000: f766 803f 8c17 803f 2911 7e3f a38f 7f3f
00000010: 7747 7f3f 68f2 7f3f cf93 7e3f b403 803f
00000020: 3445 803f f265 803f 7f35 7f3f 3367 803f
00000030: ac50 803f 2f72 7f3f 2dd8 803f 4b4b 7e3f
00000040: 4b09 7f3f 45af 803f f65b 7e3f 9eaa 7e3f
00000050: c0bb 7f3f b914 7f3f 37c2 803f 63a3 7f3f
00000060: c6aa 7e3f eb00 803f 9041 803f a3fa 7e3f
00000070: a9c9 803f 40a9 803f b41a 803f bef6 803f
00000080: bb00 803f 48e0 7e3f 92db 803f 3b4c 803f
00000090: 94e2 7f3f fd28 7f3f d1a6 803f a31e 803f
000000a0: 8be9 803f 34ca 7e3f 3822 7f3f f119 7f3f
000000b0: 87eb 803f 3e18 7f3f bae2 7f3f 17bf 7f3f
000000c0: be08 7f3f 39be 7e3f c208 803f f1dc 803f
000000d0: 7c77 7e3f 41fb 7e3f b641 7f3f 9e4b 803f
000000e0: a8c9 7f3f 7c91 803f 12ef 803f fe55 7e3f
000000f0: b244 803f be77 7f3f a8bb 7e3f 63fc 7f3f
1.0031422 1.0007186 0.99244934 0.9982855 0.9971842 0.9997926 0.9944429 1.000113
1.0021119 1.0031111 0.99691004 1.0031494 1.0024619 0.99783605 1.0065972 0.9933364
0.99623555 1.0053488 0.9935907 0.9947909 0.9989586 0.99640995 1.005927 0.99858683
0.9947933 1.000028 1.0020008 0.9960119 1.0061542 1.0051651 1.0008149 1.00753
1.0000223 0.99560976 1.0067008 1.0023264 0.99955106 0.9967192 1.0050908 1.000935
1.0071272 0.9952729 0.9966159 0.9964896 1.0071877 0.99646366 0.9995533 0.99900955
0.99622715 0.99509007 1.0002673 1.0067426 0.9940107 0.99602133 0.9970964 1.0023077
0.9991708 1.0044398 1.0072958 0.99349964 1.0020964 0.9979209 0.9950509 0.99994487

layers.6.bias f4 [64]
00000000: 0047 01bc b2ac 02b9 6272 bc39 ddf3 f6ba
00000010: 1fac bcba dccc 12bc 4ffb 57bb a7c3 78bb
00000020: b4f5 0dbc 8e51 f4bb 0e09 f6b9 0a08 17bc
00000030: 1056 e83b 94d5 85bb b3cd ac3b 6a8b 81bb
00000040: 3a68 cebb f6e3 bdbb 17ad 7b3b c344 a93b
00000050: 4f47 7a3b a212 e93a 6d49 8c3b 582e 593b
00000060: 3e63 03bc 43e3 a0bb 51a1 273b e118 203a
00000070: 7e20 d7bb 73a0 dcba 2f50 743b ca99 123c
00000080: 4671 14bc 0451 ccbb 2da1 02bc 03f2 673b
00000090: 4f16 05bc 74a0 a9bb 83d7 bd3a 3083 d83b
000000a0: 80b2 c73b 4dd8 e739 6760 c03a 4519 e43b
000000b0: 254a 0ebc 0590 ed3b 6707 483a 23e3 a0bb
000000c0: fae8 f7bb 717a c63b ff6f abbb b619 16bc
000000d0: 8ae4 203c 1601 8b3b 9009 3639 9fd9 723a
000000e0: eb92 e8bb f3f6 c0bb a5be 19bc cec8 b6bb
000000f0: 1705 f8bb 3e86 e3bb 8537 fbbb 923c f2bb
-0.007890463 -0.000124621 0.00035943376 -0.0018840987 -0.0014394558 -0.008959975 -0.0032956188 -0.0037958415
-0.008664537 -0.007456011 -0.00046927523 -0.009218225 0.0070903376 -0.0040842984 0.0052735447 -0.003953387
-0.006299046 -0.0057949973 0.003840273 0.0051656677 0.0038189476 0.0017782042 0.004281214 0.0033139195
-0.008019267 -0.004909904 0.002557833 0.0006107223 -0.0065651527 -0.0016832486 0.0037279238 0.008947799
-0.00906021 -0.0062352438 -0.007972998 0.0035392053 -0.008122995 -0.005176598 0.0014483783 0.0066074356
0.006094277 0.0004422091 0.0014677168 0.00696102 -0.00868467 0.0072498345 0.00076304976 -0.0049098893
-0.007565615 0.0060570766 -0.005231857 -0.009161403 0.009820113 0.004242073 0.00017360435 0.00092639955
-0.007097592 -0.0058888136 -0.009383832 -0.005578137 -0.007568966 -0.006943493 -0.0076665306 -0.0073924745

layers.6.running_mean f4 [64]
00000000: 2b92 0c3e 2b3c 573e d64c 1c3e 9273 ae3e
00000010: f6e2 d83d 5bba a53e 55db 323e abe7 113e
00000020: 0048 c83e 3e09 003f ada1 873e 01df 593e
00000030: 01da b03e 4415 513e a776 d43e db2c fc3d
00000040: e034 ed3e 0f51 003f f7ce 3c3e e415 253e
00000050: 9d44 8e3e 13c7 073f 21c3 383e 7107 863e
00000060: ec94 583e cdcc 1a3e 5acd 8d3e 7cfa 2b3e
00000070: b4de 363e a0b6 8f3e 9bd7 b03e dad9 2d3e
00000080: 6d8b a33e ea0a fd3e 6a26 413e fb80 8b3e
00000090: b4f8 303e 61d1 553e c6fd cb3e 3d1c ed3d
000000a0: 1e5c 7e3e e647 883e 85cc 0f3e 3f70 4c3e
000000b0: bedc a93e 819d 8f3e cdc3 813e cef8 cd3e
000000c0: 5c5a 533e b391 8c3e 9f37 0a3e 0c0f 2a3f
000000d0: f388 1e3e 698d 323e 5b1e 3c3e 7788 573e
000000e0: 5400 8d3e 47fa 993e 3095 df3e 64d0 3d3e
000000f0: 8992 593e df26 3d3e 7d59 543e 86f0 a13e
0.13727634 0.21019046 0.15263686 0.34072548 0.10590164 0.3236874 0.17466481 0.1424853
0.39117432 0.500141 0.26490536 0.21276475 0.34541324 0.20418268 0.41496775 0.12313243
0.46329403 0.50123686 0.18438326 0.16121632 0.27786723 0.5303814 0.18043186 0.26177552
0.21150559 0.15117188 0.27695733 0.16794771 0.17858392 0.2806902 0.34539494 0.16977635
0.3194231 0.4942239 0.1886231 0.27246842 0.17282373 0.20880653 0.3984205 0.11577652
0.24839827 0.26617354 0.14042862 0.19964693 0.33176225 0.28049853 0.25344697 0.40228885
0.20639938 0.2745491 0.1349778 0.6642921 0.1548193 0.17436756 0.18370955 0.21048151
0.27539313 0.3007376 0.4366851 0.18536526 0.21247305 0.1847186 0.20737262 0.31628817

layers.6.running_var f4 [64]
00000000: 106c 823d cb74 813e 4610 233d e08e ee3e
00000010: 67f4 8b3d deff 073f 78ff 803e f027 2f3e
00000020: 8e0f 113f de1a 4b3f 8903 b53e 4d78 793e
00000030: d88d f63e 03de 433e 90ca 1a3f 3bf1 c53c
00000040: da8d 293f 6688 643f 044e 793e 7cbf 263e
00000050: b3e3 d13e 9158 2f3f 882a 253d 089f b73e
00000060: 78d6 273d 7512 0f3e 4e10 1c3e 8936 2a3d
00000070: 799c e93d 3bc0 c43e cc39 1b3f f356 1e3e
00000080: 67b7 f23e 101c 4a3f a3a7 883e 8e4e ac3e
00000090: f13f 513e e217 263d 88a8 423f 2c6d 7b3d
000000a0: 79ea e43d cc5b 0e3e f535 a73d 59bb a73d
000000b0: 7acb fe3e c9a2 b73e 1ad2 af3e f682 243f
000000c0: 6c32 4d3d 5f6a c23d ab08 ae3d 6872 a13f
000000d0: b81d 1b3e aa62 213e 89ed 083e fd3d 553e
000000e0: 9856 853e d2d4 d83e 9060 573f 6c09 2c3d
000000f0: 7566 823e ee2c f93d 022f c33d 51c5 ca3e
0.063682675 0.25284418 0.03981044 0.4659338 0.068337254 0.531248 0.25194907 0.17105079
0.5666436 0.7933787 0.3535426 0.24362297 0.48155093 0.1912766 0.60465336 0.02416288
0.66232073 0.8927063 0.24346167 0.16283983 0.40994033 0.68494517 0.040323764 0.3586352
0.040976018 0.13971885 0.15240595 0.041555915 0.11406798 0.3842791 0.60635066 0.15462856
0.4740555 0.7894907 0.26690397 0.33653682 0.20434548 0.04055012 0.7603841 0.06138341
0.111775346 0.13902205 0.08164588 0.081900306 0.49764615 0.35866383 0.34339982 0.6426233
0.050096914 0.09492945 0.08497747 1.2613039 0.15148056 0.15760294 0.13371862 0.20824428
0.26042628 0.4234987 0.8413172 0.042001173 0.25468794 0.12166773 0.095304504 0.39603665

layers.8.weight f4 [64, 64, 2, 2]
00000000: d2f3 2c3b 98f3 05bd 0c5a 5fbd 6948 bf3c
00000010: 9de7 d33c e4e7 2abc 3e4e 2abd dafe afbc
00000020: 177f b9bc ca85 a3bc 480c 02bc 0e7a aebc
00000030: ba91 9cbc be6b 4abc e9ca 9abc 5660 bf3c
00000040: 0b7a 8e3c ce72 3a3d d2ae 4b3c 7143 e1bb
00000050: 0cbd 23bc 01be 17bc be20 21ba deb8 3cbd
00000060: b33e 35bc dde4 103d 3186 6bbd 9b4d 61bc
00000070: 4464 1f3c b23f 623d 0ded 193d 5641 33bd
00000080: 686c 5dbd 2394 8abc 7818 023d 0e0a 62bd
00000090: 65c3 313d 1384 e03c 93f0 9b3c 2172 0abc
000000a0: d630 11bd f3d6 33bc 63b9 5bbb 190c 62bd
000000b0: 8692 7a3d 1ff0 513d b2c9 f0bc 295d 9bbc
000000c0: 6024 aa3b bde1 f939 8fde f5bc 7160 723d
000000d0: a28d f7bb c5ac 55bd a12e 933b a751 363d
000000e0: 73a1 733d f0d6 04bd 3e43 413d 8de7 d9bc
000000f0: 083b 62bd 9492 8dbd 7270 78bb 5474 683d
00000100: b318 633d 88c8 0fbd 3bbe 51bd 52dc 113c
00000110: fda0 6bbd e70c d33c 8cb9 ea3c f1bd 1c3d
00000120: 7ba9 7d3d d366 a6bc 5f37 f63c 082b 9abc
00000130: abb2 263b 895c 8f3d 88c1 cf3c c22c ca3b
00000140: e48d 013d 9076 793d 5150 11bd 41ab 64bd
00000150: eed6 dfb9 a135 0cbc f248 383d 7989 05bd
00000160: 6329 65bc 1e2c 563d 1135 0b3d 8db7 ee3c
00000170: 44bc 7b3d e7f8 db3c 86ab 343d b764 463d
00000180: 9e7c 6abd c1a0 d3ba 894f 273c 290e 6abd
00000190: c696 313d a10a db3c f3f3 943b 8b6c 80bc
000001a0: 9960 72bd 7d9f 343d f748 8d3c 5777 1a3d
000001b0: 5f18 4b3d 8005 d93c 4dbd 0cbd 590c 4bbc
000001c0: a61d 1f3d 5a4e 473d 7f19 56bd 5ee2 cebc
000001d0: 7352 b63c 66b5 2d3d 015b 4c3d 93ff dbbc
000001e0: 3be8 54bd a6d9 ac3c f921 b6bc c6fd 9ebc
000001f0: 5784 c0bb f04e 49bd 1658 edbc 91be db3c
00000200: 461a d93c 8bd3 183d bb42 d2bc 3231 b9bc
00000210: 6991 3f3d 68e3 0e3d 75a8 1a3d f99b afba
00000220: 5f71 293d 27c8 553d 306c 813c 2271 b83c
00000230: fc94 f4bb 4ac3 57bd fe67 d53c aad0 6bba
00000240: 4ccb 743d 043c cfbc 5358 8b3c 2150 093d
00000250: b1df 153d 45b3 d23b 8c3d 813d 1f32 7a3d
00000260: 39fc 583d 84f4 df3b f06c 49bd 62e7 a33c
00000270: 6bf1 643d 2a25 bf3c af74 6f3c 78ac 41bd
00000280: a19a 71bd ea8a ff3c 4a51 49bd f604 3abd
00000290: a01a 483d ff1b b3bb f796 3b3d b88d 833c
000002a0: 9de8 d13c 0c84 4c3d 5fb7 143d f357 3bbd
000002b0: 3628 38bd 4ea5 093d 7304 c13b 7b22 283d
000002c0: 2362 063d 5da2 dfbc 149f c03c 231e 623d
000002d0: bfa6 413d 6675 6d3d 325e 0bbd 03a7 233d
000002e0: 8786 623c 5c0b d1bc 0172 85bd 5e28 613d
000002f0: f250 5ebd 5410 21bb 70c4 88ba caba 25bc
00000300: 5b6e 883d c041 7a3c 6e3d e53c fecd 21bc
00000310: 701f 653d 7bb5 b1bc 89b5 95bc bdd3 48bc
00000320: aa1d 073b a1bc 7f3d 6fcd 96bc 8a06 953c
00000330: 6302 453d 53c6 82bc 2fa2 6cbd 6da2 ca3c
00000340: a143 9f3c ce4a 59bd 166c 2c3d cd11 103d
00000350: d6df c83c 5ed8 2f3d 096f 333d ce12 683b
00000360: 9940 85bd e46f cdbc c303 64bd 9ddd 323c
00000370: 7431 eabc 2219 b3bc 4f6d bd3c b7af c6bc
00000380: a8b1 3a3d 34d7 b4bc afbd fbbc 175a bb3b
00000390: f816 a9bc e217 bebc 5284 3abd 39f3 ef3c
000003a0: 279c d0bc 1b12 003b 3aa6 57bd 7897 0cbc
000003b0: 3a89 0cbc 1b67 c83c 7406 3fbd e3e4 323d
000003c0: fcfa 27bd 759b e0bb 36f1 79bd 51f1 5d3d
000003d0: cef1 ce3c bf04 1cbd 090f 15ba de48 29bd
000003e0: c248 40bd 4e50 cd3c 30da 0c3d f9fd 95bc
000003f0: 10b7 60bd 8063 5c3c 6ceb 083d 4ade 91bc
0.0026390445 -0.032703012 -0.054529235 0.023349958 0.025867278 -0.010431264 -0.041578524 -0.021483827
-0.022643609 -0.019961257 -0.007937498 -0.021298435 -0.019112457 -0.012354789 -0.018895583 0.023361366
0.017392179 0.045519643 0.012431817 -0.0068744947 -0.009993803 -0.009261609 -0.00061465416 -0.04607474
-0.011062312 0.03537451 -0.05750102 -0.013751413 0.009728495 0.055236526 0.037579585 -0.04376348
-0.054058462 -0.01691634 0.031761616 -0.05518537 0.043399233 0.027406728 0.019035613 -0.008450062
-0.035446964 -0.010976541 -0.0033527247 -0.05518732 0.061174892 0.051254388 -0.02939305 -0.01896532
0.0051923245 0.0004766117 -0.03001335 0.059174005 -0.0075547257 -0.05216672 0.0044916426 0.044511463
0.05948014 -0.032431543 0.047183268 -0.02659967 -0.055232078 -0.06912723 -0.003790882 0.056751564
0.055443477 -0.03510335 -0.05120681 0.008902626 -0.057526577 0.025762988 0.028652929 0.03826708
0.061929207 -0.020312702 0.0300557 -0.018819347 0.0025436084 0.070000716 0.025360838 0.0061698863
0.031629458 0.060904086 -0.035476986 -0.055827383 -0.0004269401 -0.008557708 0.04499144 -0.032601807
-0.013986918 0.052288167 0.033986155 0.029140258 0.06145884 0.026852084 0.04410889 0.048435893
-0.05724775 -0.0016145931 0.010211834 -0.05714241 0.04335668 0.026738467 0.0045456826 -0.015676757
-0.059174154 0.044097412 0.017246706 0.037711468 0.04958379 0.02649188 -0.03436022 -0.012393081
0.038846634 0.048658706 -0.05227041 -0.025254425 0.022256112 0.042409323 0.049891476 -0.026855266
-0.051979285 0.021099877 -0.022232996 -0.019408118 -0.005875151 -0.049147546 -0.028972667 0.026824268
0.026501786 0.037311118 -0.025666585 -0.022606466 0.046769533 0.03488484 0.03775831 -0.0013397924
0.041367885 0.052192833 0.015798658 0.022514883 -0.0074640494 -0.052676477 0.026050564 -0.0008995632
0.05976419 -0.025297172 0.01700989 0.033523683 0.036590282 0.006430062 0.06310567 0.061082955
0.052974913 0.0068345685 -0.049176157 0.020007793 0.055894297 0.02333315 0.014615222 -0.04728362
-0.058985356 0.03119417 -0.04914979 -0.045414887 0.048853517 -0.005465984 0.04579827 0.016058788
0.025623614 0.049930617 0.03630769 -0.04573817 -0.044960223 0.033604912 0.005890423 0.04104851
0.032808434 -0.0272991 0.023513354 0.055204522 0.047278162 0.057973288 -0.03402538 0.039954197
0.013826019 -0.025518112 -0.06515885 0.054970138 -0.054276414 -0.0024576383 -0.001043452 -0.010115335
0.06661674 0.015274465 0.027983394 -0.0098757725 0.055938184 -0.021692982 -0.01827504 -0.012257514
0.0020617046 0.06243575 -0.018408505 0.018191595 0.04809798 -0.015963709 -0.057771858 0.024735654
0.019441428 -0.053049855 0.042095266 0.035173226 0.024520796 0.042930953 0.043807063 0.00354116
-0.06506462 -0.025077768 -0.05566765 0.010917095 -0.028588034 -0.02186257 0.023123411 -0.02425371
0.045579582 -0.022075273 -0.030730097 0.0057175267 -0.020640835 -0.023204748 -0.045536347 0.029290782
-0.025465084 0.0019542042 -0.05264876 -0.008581035 -0.008577639 0.024463227 -0.046637014 0.043675315
-0.04101084 -0.0068544694 -0.061021052 0.054185215 0.025261786 -0.038090464 -0.00056861393 -0.041329257
-0.046944387 0.025062706 0.034387767 -0.01830958 -0.054862082 0.013451457 0.03342764 -0.017806191

layers.8.bias f4 [64]
00000000: 0213 373d baba c73c 0340 ee3a 1c99 e63c
00000010: c0fd 01bd c85d 4f3d 35c7 53bd 0bf9 6dbd
00000020: 3792 013d b8a9 183c 68c2 cc3c d3bc 673d
00000030: 1fea 5d3d 2b47 a6bc ca00 fcba cbd9 c3bc
00000040: 15cb 42bd 12ce 42bd e6d6 253d 3521 1fbd
00000050: 0700 09bd f215 193d ba36 fa3c 41a2 6bbd
00000060: 22e5 163d 4279 babc 9a30 823d d55a 2ebc
00000070: 48a0 9bbc c8ae 89bd 99e3 9dbc d03a c53b
00000080: 4351 183d 3392 abbc 3f71 6abd bbbf 373d
00000090: 9018 d8bc b738 403d 937b 23bc de1c 0f3d
000000a0: 53d3 10bd 44c5 f33c 5857 53bc 3efa 0f3d
000000b0: 73e3 483d b3b0 37bd 5011 7b3d 864a 50bd
000000c0: 5808 683d 2aa1 a43b d5aa 4c3c 8aa4 323d
000000d0: 5a78 5e3c 2bf2 6ebd 8bbf 0ebd 73f0 ff3c
000000e0: 64ac 61bd 337e 313d 9c35 79bd eb83 fb3c
000000f0: 1b19 043d 6825 393c b9fc 75bc 0983 9c3c
0.04469586 0.02438103 0.0018177036 0.02814918 -0.031736135 0.050626546 -0.05170365 -0.058098834
0.031633582 0.009317808 0.024995044 0.05657656 0.054178353 -0.020297607 -0.0019226309 -0.023907563
-0.047556955 -0.047559805 0.040488146 -0.038850028 -0.03344729 0.037374444 0.030543674 -0.057527784
0.03683961 -0.022762898 0.06356926 -0.010641773 -0.018997326 -0.0672279 -0.019273566 0.006018974
0.037186872 -0.020943737 -0.057236906 0.044860583 -0.0263789 0.046929087 -0.009978193 0.03493964
-0.035357784 0.02975715 -0.012899242 0.03515076 0.049045037 -0.044846248 0.061295807 -0.05085232
0.056648582 0.005024095 0.012491901 0.043613948 0.013578499 -0.058336418 -0.03485064 0.031242585
-0.055096045 0.043333244 -0.06084214 0.030702552 0.032250505 0.011300422 -0.015013867 0.019105451

layers.10.weight f4 [64]
00000000: 0a6c 7e3f a21c 813f 5b22 7e3f d75d 813f
00000010: 0820 813f 083b 813f 2830 813f f832 803f
00000020: 5635 813f 1664 813f 5379 7d3f 2ada 803f
00000030: fc2c 803f c13e 813f 9b64 813f b219 813f
00000040: b6f1 803f c8cc 803f 2926 803f 6350 813f
00000050: 9e9a 7d3f e834 7e3f 7e62 813f c0f3 7f3f
00000060: 09d9 7f3f 3a52 813f 6530 813f 2e5f 813f
00000070: a29e 7d3f 887c 803f af7d 7d3f b725 813f
00000080: c70e 813f 9f4e 813f 24e8 7e3f 6ae0 7f3f
00000090: a730 813f ea0d 7e3f 5a61 813f 4363 813f
000000a0: 7018 7e3f 2358 813f 587f 803f db1a 813f
000000b0: 4902 813f 4f69 813f 5062 813f 6868 813f
000000c0: 1a29 803f 2331 813f 26f2 7e3f ef64 813f
000000d0: 31e2 7e3f f014 803f cb06 813f a951 813f
000000e0: 4741 813f dd54 7f3f 881f 813f 0c43 803f
000000f0: de88 7d3f 851e 813f d550 813f 856a 7f3f
0.99383605 1.0086863 0.9927117 1.0106763 1.00879 1.009614 1.0092821 1.0015554
1.0094402 1.0108669 0.9901325 1.0066578 1.0013728 1.0097276 1.0108827 1.0085967
1.0073764 1.0062494 1.0011646 1.0102657 0.9906405 0.9929948 1.0108182 0.9998131
0.99940544 1.0103219 1.0092894 1.0107172 0.9907018 1.0038004 0.990199 1.0089635
1.0082635 1.0102118 0.9957297 0.99951804 1.0092973 0.9923998 1.0107834 1.0108417
0.9925604 1.0105022 1.0038862 1.0086321 1.0078822 1.0110263 1.0108128 1.0109987
1.0012543 1.009312 0.9958824 1.0108927 0.9956389 1.000639 1.0080198 1.0103046
1.0098046 0.99738866 1.0087748 1.0020461 0.9903697 1.0087439 1.0102793 0.9977191

layers.10.bias f4 [64]
00000000: 190e 2abc 1723 f7ba e33c 26bc c1fd 313c
00000010: 05f0 17bb d913 323c d2f7 323c c083 28bc
00000020: 52ca 323c 7798 313c 77e0 f7bb 1d04 353c
00000030: e299 17bc 5ec2 323c 222e 313c 06b0 313c
00000040: 7781 13bc 456f 323c 118b e5bb affc 303c
00000050: e204 2bbc 438e 25bc f067 333c 90b2 023b
00000060: 9f45 27bc d1fd 343c a94d 323c 6c54 323c
00000070: 8c74 23bc d49a 1bbc f126 2bbc d8e7 323c
00000080: 5eae 333c a405 323c 73ba 23bc 8f6c f1ba
00000090: 4d01 f63b 1b5a 2abc de8c 333c 173f 323c
000000a0: dd52 24bc c4ee 323c 9b56 0f3b 0ef8 323c
000000b0: 5dfa 1d3c d6ae 323c 241a 353c 3846 333c
000000c0: 8f44 0dbc 5e46 2f3c 02f4 c3bb 5c94 313c
000000d0: c050 24bc 5af3 16bc bfa4 0abc a909 373c
000000e0: bacc 323c 8511 36bb 7e35 f83b 0fba 29bc
000000f0: 4b2f 2bbc 7f9d c2bb 6e90 333c 1417 09bc
-0.010379338 -0.0018855062 -0.010146352 0.010863722 -0.0023183834 0.01086899 0.010923343 -0.010285318
0.010912495 0.010839573 -0.0075646 0.011048344 -0.009252997 0.010910599 0.010814222 0.01084519
-0.009003035 0.010890787 -0.0070051034 0.010802432 -0.010438176 -0.010104719 0.010950074 0.0019942857
-0.01020947 0.011046843 0.010882773 0.010884386 -0.009976517 -0.009497363 -0.010446296 0.010919534
0.010966865 0.010865603 -0.009993183 -0.0018419194 0.0075074793 -0.010397459 0.010958878 0.0108793
-0.010029522 0.010921184 0.002187169 0.010923399 0.009642211 0.010905942 0.011053596 0.010942034
-0.008622303 0.010697929 -0.0059800157 0.010838594 -0.010029018 -0.009213293 -0.00846213 0.011171737
0.010913068 -0.0027781439 0.007574736 -0.010359301 -0.010448287 -0.005939185 0.010959728 -0.008367319

layers.10.running_mean f4 [64]
00000000: 4805 163f b83c ed3d 65c3 3d3f be3b 4e3e
00000010: 673d 8a3e cd93 983e c55a b23e 3c5e fd3d
00000020: c529 893e 0037 023e 95aa 513f 6cd5 803e
00000030: a5ca 343e cc6f 133e 8b3b 653e f0fa 603e
00000040: 9ca2 0f3f 340c b13e 9e38 ec3e 1bb3 5f3d
00000050: 1bc4 bd3f c5b5 403e 65d5 b83e 0d39 b93e
00000060: 749d 2f3e 89f4 213e d68e 123f 7e4f 1e3e
00000070: 6c83 283f 3859 aa3d 66ae 2c3f 1134 bc3e
00000080: 41f7 873e 6125 463e c75e 0a3f 084a df3d
00000090: b626 a83e 684c 1a3f 05c0 fb3d 88bf e93e
000000a0: 78f5 6a3e 33ae 8d3e a623 e03e a3b8 843e
000000b0: 5290 903e 2b83 be3e 5cdf ac3e 9261 e53e
000000c0: 689c ab3d 64cf a13e fa96 e73d 23bf a23e
000000d0: c7a2 c33e 61d5 a23e 71a3 b33e 7c7b c33e
000000e0: 81b0 bf3e 5e76 533e c741 8b3e b324 6e3f
000000f0: bcb5 463e 2206 0c3f 03fe b23e 0024 6e3e
0.5860181 0.11583847 0.74126273 0.20139977 0.2699997 0.29800263 0.34834877 0.123714894
0.2678968 0.12716293 0.8190091 0.25162828 0.17655428 0.14398116 0.22385995 0.21970725
0.561075 0.34579623 0.46136945 0.054614168 1.4825472 0.1881934 0.36100307 0.3617634
0.17149907 0.15815939 0.572492 0.15460011 0.65825534 0.083177984 0.6745361 0.36758474
0.26555827 0.19350196 0.5405087 0.10902792 0.32842034 0.60272837 0.12292484 0.4565394
0.22945201 0.27671966 0.43777198 0.25922117 0.28235108 0.37209448 0.3376416 0.44801003
0.083794415 0.3160354 0.11308093 0.3178645 0.38210127 0.3180342 0.35085633 0.3818015
0.3743935 0.20650622 0.27198622 0.9302475 0.19405264 0.5469686 0.3495942 0.2325592

layers.10.running_var f4 [64]
00000000: 2fd1 6c3f 55c2 623d 2338 1e3f d20a 063e
00000010: bf4f 3b3e 7b39 0c3e 78ab 283e cbed d93d
00000020: 20e4 fa3d 5142 813d 106d aa3f a77a 2e3e
00000030: 0e10 d83d 3b31 d43d 5a08 023e 70de c33d
00000040: 9a6d 603f dc1b 303e 77de cd3e aae9 063d
00000050: 44f6 2240 9976 643e c200 903e 8041 e53e
00000060: 868b fd3d 14fe b13d 6eab 083f 499e c33d
00000070: 76da e43e 51e2 8f3d 7d29 803f 10d0 633e
00000080: 16cc 843e eccd d33d aafc fe3e 6500 5d3d
00000090: 1f77 413e d89c 393f 2bf5 903d 5ccb cc3e
000000a0: 45cb df3d c9d9 123e 4437 b83e 007a 0e3e
000000b0: 9fa9 d33d 209c 823e 5024 6b3e 4395 a63e
000000c0: e06b 223d 9f17 8f3e d4de 333d 0e83 3a3e
000000d0: 4540 e13e cb20 903e 7c08 403e 48c5 5b3e
000000e0: e8a7 a93e 06d5 a23d cc44 863e c099 f03f
000000f0: 4ed4 253e a85c 5a3f f97f 863e 2b04 d63d
0.9250669 0.05536111 0.6180441 0.13090065 0.1829214 0.13693802 0.1647166 0.106410585
0.12250543 0.06311477 1.3314533 0.17038976 0.10549937 0.103609525 0.12698498 0.09563911
0.8766724 0.17198128 0.4020879 0.032937683 2.5462809 0.22310866 0.28125578 0.44776535
0.123801276 0.0869104 0.5338658 0.09551675 0.44697922 0.07025588 1.0012661 0.22247338
0.25936955 0.10342011 0.49802142 0.053955454 0.18893097 0.7250495 0.07078012 0.399989
0.109274425 0.14340891 0.35979664 0.13913727 0.10335087 0.2550974 0.22963071 0.32535753
0.03965366 0.2794771 0.043913677 0.18214056 0.43994346 0.2815002 0.18753237 0.21461976
0.33135915 0.07950787 0.26224363 1.8796921 0.16194269 0.8529763 0.2626951 0.10450014

actor_classifier.weight f4 [15, 256]
00000000: 165d 30bd 980a 2bbd 6a41 d03c a91a 3abd
00000010: 7ddf 24bb faa1 4ebd beb1 213d 5c4f 2a3d
00000020: 6aed 50bd bcdf 863c 174f c93c 6689 d83c
00000030: c01a 7fbd 94fb f1bc 6f93 923c 3618 053a
00000040: ad28 2cbd d179 8a3c 7ca5 6b3d 33dc 05bd
00000050: e72d 31bd dd69 0ebd 35fd 4cbd 5e0c 203d
00000060: 1a77 c63c 278a f2bc a2ca 16bd 3d5a 1abd
00000070: d15c 703d 2574 20bd 4726 e3bc 7a4a 3c3d
00000080: 92d9 b639 85d9 56bd 1ba2 483c bf79 8a3c
00000090: 48c7 ecbc 641d c4bc 4802 aaba 459c 4ebd
000000a0: 20d0 1dbd 42fb 4e3d bb49 413d be5c 27bd
000000b0: 7b3a 23bb e476 34bc 0143 7cbd bbae 1fbc
000000c0: 247a 5a3d c1bd 18bd 48cf dbbc 34c2 32bd
000000d0: 42e8 fdbc 74d3 2abd 88dd fc3c 1593 ccba
000000e0: 99e8 cc3a 2083 5e3c a448 03bd 62f7 f6bb
000000f0: c4cc 26bd 6d1e 1dbc a712 b63c ea0d 0e3d
00000100: 30f7 2bbd b3a6 1a3d 45c7 80bc c7fd 20bd
00000110: 77fe 413d 3948 173d 8ee8 403d 8f3c 56bd
00000120: 561f 003d 0260 53bd ac6d 803d fa84 68bd
00000130: a5ae fdbc 2fda 03bc 3922 d33c 2e73 7dbd
00000140: 7894 ba3c 0005 07bd ac5c 403d 85dd 9ebb
00000150: 24e2 0e3d e1c3 b9bb 2dbe 5a3d b30c 50bd
00000160: 21e8 65bc 8cc4 bb3c 2ac2 17bc d9a5 673d
00000170: b788 c9bc a9cc 61bd c9b9 10bd a690 5ebd
00000180: 1944 ccbc 96f3 a2bb ee79 01bc 34ec 783c
00000190: 2a6f 213d f1c7 523d 5e01 61bd 786d 253d
000001a0: 2429 2b3d cc4a 1abd 8041 fabc 1e35 febc
000001b0: 09dc 4fbd db4a 6fbd 47ef 623d 8328 313c
000001c0: e1b3 2b3c d97a 89bc 61ed 4f3d 93bf 02bb
000001d0: 7065 01bd 96bd 7e3d 8934 9bbc 99ab 2abd
000001e0: 8b72 383d aff5 0c3c 3f9e 533d d31f 3a3c
000001f0: 8642 e53c 296e 263d 3ec9 62bd 8f0a 0a3d
00000200: ed6d 3abd eb6f 643d ad34 01bd 3118 163d
00000210: 9738 663d c022 203d d3ea 553d e76b 2cbc
00000220: f89e 09bd db5b 023d 0d99 c0bc fc30 2abd
00000230: bc20 b43b af8a 773c aa3b a6bb db8c 333d
00000240: f557 283c a158 29bc 4af3 84bc 8c2d b1bc
00000250: 4376 f1bc e1c0 013d 1924 31bd 523f a6bc
00000260: 856a e43c e905 5cbd 761a 2f3d 9895 443c
00000270: a32a 903c f9da 983b a164 41bd e19c 6039
00000280: 2e5e b53c b464 3a38 f290 723d 70bb 233d
00000290: 2d15 17bd f0af b4bc 4c2a 1d3d 9885 d03c
000002a0: fcd9 5bbd 1b7e 523d d7dd 7c3c f8bc 243d
000002b0: de33 1cbd 0350 35bb cdb0 49bd ee9a e53b
000002c0: b8dd ef3c a4c6 62bd 475e 223d b4bc 613d
000002d0: 86e4 84bc 8e77 1dbc ab94 2ebc d1d7 c33b
000002e0: bf17 653d ed22 743d 5abf 89bc 5ab1 39bd
000002f0: 6227 0f3c 8e65 85bc 4d09 b0bc 76da 13bc
00000300: 530b 1a3d db78 3f3d b612 75bd 64b2 3cbd
00000310: d183 8939 d895 653d 1025 90bc 8870 10bc
00000320: 1006 0fbd 098c eabc 0f0b 74bc 793b c43c
00000330: 0f1b 6e3d dfdf 94bc bc1b 253c 1504 d0bc
00000340: eef2 933c 1c5b 79bd de87 5b3d d4f6 afbc
00000350: 370d 05bc 211c b83c a16b 593d 8e6b 6d3c
00000360: 3cb9 70bc 910d 953c dcab 443d b9fc 8ebc
00000370: e11c 27bd 4768 e53c 9433 6f3d 92a1 0bbd
00000380: e7e0 393d 9e73 643d e63e f73b 2297 76bd
00000390: 8148 db3c b526 ecba 6911 57bc d254 50bb
000003a0: 7675 123d 78dd 013d ad46 ce3c 39aa aebc
000003b0: 66f7 3a3d 47c2 6fbd b0bb 81bd 68b8 723c
000003c0: c3c2 17bc 031e c0bc b147 833d fdeb b0bc
000003d0: 39b0 2ebc 82f5 f63c f68f 763d 5840 b9ba
000003e0: f200 373d a7d1 73bc 880f 2ebc 7a93 893c
000003f0: bafa 06bb 1647 913a 8951 91bc 7afd b63c
-0.043057524 -0.04175815 0.025421817 -0.04543558 -0.0025157623 -0.05044744 0.03947615 0.04157959
-0.051007666 0.016464107 0.024573846 0.026432704 -0.06228137 -0.029538907 0.017892567 0.0005077155
-0.04203098 0.01690379 0.057530865 -0.0326807 -0.043256667 -0.034768928 -0.050046165 0.039074294
0.024226714 -0.029606892 -0.03681434 -0.037683714 0.058682267 -0.039173264 -0.027728213 0.045969464
0.00034875848 -0.052453537 0.01224568 0.016903756 -0.028903618 -0.023939796 -0.001297065 -0.050442
-0.03852856 0.050532587 0.047189455 -0.04085993 -0.0024906683 -0.011014674 -0.061587337 -0.009746249
0.05333914 -0.03729034 -0.026832238 -0.043642238 -0.030994538 -0.041705564 0.030867353 -0.0015607799
0.0015633284 0.013581067 -0.032051697 -0.0075368145 -0.040722623 -0.009589774 0.022225691 0.03468124
-0.041983783 0.037756633 -0.01572002 -0.03930452 0.047361817 0.03693411 0.04709678 -0.052303847
0.031279884 -0.051605232 0.06270918 -0.05676744 -0.030967066 -0.0080476245 0.025773155 -0.061877422
0.022775874 -0.032963753 0.04696338 -0.0048481845 0.034883633 -0.0056691025 0.053404022 -0.05079336
-0.014032395 0.02292087 -0.009262601 0.05655465 -0.024601324 -0.05512682 -0.03533343 -0.054337166
-0.024934815 -0.0049728854 -0.007902605 0.015193034 0.039412655 0.05146021 -0.054932944 0.0403876
0.04178728 -0.037668988 -0.030548811 -0.031031188 -0.05074695 -0.058420997 0.055403974 0.010812881
0.010479898 -0.016782211 0.05076349 -0.0019950613 -0.03159088 0.062192522 -0.01894595 -0.041667555
0.04503111 0.008603497 0.051664587 0.011360127 0.027985822 0.0406324 -0.0553677 0.033701476
-0.04551499 0.055770796 -0.031544376 0.036644164 0.056206312 0.03909564 0.0522259 -0.010523773
-0.03359887 0.03182588 -0.02351048 -0.04155062 0.0054970663 0.015108748 -0.0050730305 0.043835502
0.010274877 -0.010336072 -0.01622929 -0.021628164 -0.029475337 0.031678084 -0.043247316 -0.020293865
0.027882824 -0.053716574 0.042749844 0.011998557 0.017598456 0.0046647754 -0.047215108 0.00021420747
0.022139635 4.4439643e-05 0.059220262 0.039973676 -0.03688543 -0.02205655 0.038370416 0.025454327
-0.053674683 0.051389795 0.01543375 0.040219277 -0.038135402 -0.00276661 -0.049240876 0.0070069944
0.029280528 -0.05536522 0.03964069 0.055111602 -0.01622225 -0.009611024 -0.010655562 0.005976655
0.05593085 0.05960362 -0.016814876 -0.04533515 0.008737417 -0.016283777 -0.02148881 -0.009024253
0.037608456 0.046746116 -0.059832297 -0.046068564 0.00026228887 0.056051105 -0.017595798 -0.008815892
-0.03491789 -0.028631227 -0.014895215 0.02395414 0.058131274 -0.018173156 0.010077413 -0.025392571
0.018060174 -0.060877904 0.05359637 -0.021480002 -0.008120826 0.02247435 0.05308116 0.014490975
-0.014692601 0.018194946 0.04801546 -0.017454492 -0.040799025 0.028003825 0.058398798 -0.034089632
0.0453805 0.055774324 0.00754534 -0.060202725 0.026767971 -0.0018016907 -0.0131267095 -0.0031788838
0.03575655 0.03170535 0.025180185 -0.021321403 0.045646094 -0.058534887 -0.06334627 0.014814474
-0.009262743 -0.02345181 0.064101584 -0.021596903 -0.010662132 0.030146364 0.060195886 -0.0014133556
0.044678636 -0.014881528 -0.01062382 0.016793955 -0.0020596222 0.0011083807 -0.017739074 0.022337664

actor_classifier.bias f4 [15]
00000000: 2d7e 5fbd f7ee 123c 8fd3 74ba 6df8 bcbc
00000010: f613 56bd b6c8 9ebb 6779 61bd 6d22 69bd
00000020: 0efa 4ebd 054a 633b 3a54 3ebd ab39 79bc
00000030: 015f 0ebc d9a7 00bc a7f5 a23c
-0.05456369 0.0089681065 -0.0009339386 -0.023067677 -0.05226513 -0.004845704 -0.05504742 -0.056917597
-0.05053144 0.003468157 -0.046467043 -0.015211503 -0.008689643 -0.007852518 0.019892527
