Saved Models/model_checkpoint_bigfish_42_5e-05_400_6_256_0.99_0.95_0.2_1024_0.5_end_400.pth (torch, 154658 bytes, 21 tensors)

layers.0.weight f4 [32, 3, 8, 8]
00000000: 5032 c3bc 07c6 9a3d eef1 0d3d f4c2 a2bb
00000010: 99d2 15bd eaa7 1d3d 1f01 c5bc f890 3a3d
00000020: 9885 6abd 6887 09bc d76d a5bb 82ea 853d
00000030: ad07 6b3d d6f7 2cbc b2b6 23bd db96 9cba
00000040: daf3 393d 6870 fc3c 0267 223c 7aa7 953d
00000050: 92b6 a5bc 0797 1f3d bcc4 853d 96aa 283d
00000060: 7d1c b5bc 3fd7 27bd 4d46 b2bb c55a bc3c
00000070: 8fe1 223d aa6c 57bc ff65 92bc 4080 49bd
00000080: e65b 3ebd ec5c 20bd cfc8 143c 9e9f ccbc
00000090: 53cc 7cbd 3212 3abc d681 86bc 4eb0 f03c
000000a0: 0c22 15bd 8e28 793d 78b9 72bd 0eda 513d
000000b0: c42d 233d b390 473c d28c a03c 6b4f 433d
000000c0: 5c94 4ebd 3af3 a83b 7645 6b3d fce2 0e3d
000000d0: 4e21 cebc d49e e53c abdb 0bbc 92a1 d2bc
000000e0: 40ab 043d cb8d 633c 9c2a 5b3d 3ce4 1d3d
000000f0: 243f bf3b 9775 b93a d33a 50bd 9981 07bd
00000100: 7fe6 c33c 71cd 9e3d 0f1f 643d 7251 823b
00000110: 3e13 583d c511 26bd bdad 973c 6704 e93b
00000120: cb82 a63c a482 40bc d0a2 49bd 7671 a73d
00000130: da9c cfbc a0bc 123d 4587 80bd 0610 92bd
00000140: 734b cdbc 9148 74bd 5d73 863d f594 4c3d
00000150: 7138 a83d b268 1cbd ca5e 5cbd 2207 c73c
00000160: 6cda 5e3d 8771 a4bb 55c0 66bc 783c 56bc
00000170: be99 82bc f997 a2bd 2c9a b6bd 7f88 8abb
00000180: e8dd 7abc dfee dcbc de9e 7bbd ccda 8ebd
00000190: fef2 3b3c 0539 9dbd 19f0 e7bc 985c 97ba
000001a0: 2a0f ddbc d131 4a3d 10cf 2abd ec11 3a3c
000001b0: 3a74 5fbd a66b 423d 5b31 463d e94f c9bc
000001c0: ff6f 803c bbf8 e1bb b49e 56bd 44e7 58ba
000001d0: d683 9bbc 7366 44b9 ec34 95bd b390 8ebc
000001e0: 162e e03c 1677 423d 49ab 483d b196 e8bc
000001f0: c004 47bd fbf6 54bd 806e bd3c 0108 c43c
00000200: f9ac 1dbb 476b 50bd 49db 6cbd e096 933d
00000210: 862b 1fbb 090a 28bc f8e9 c7bc 0ac7 103a
00000220: d04c eabc 8359 8e3c 3a4f 653d 5d01 fb3b
00000230: 95be 13bd 5901 a2bc 08f0 bb3c ce95 54bc
00000240: 6d39 34bd 754e 50bc bec3 8d3d fa71 5dbd
00000250: 8b5c 473d 1a05 4bbd e987 6bbd 74fc a1bd
00000260: bafd acbb db10 0c3d 6ac9 d73c d8b4 0ebc
00000270: 3c6e 883b e890 4b3c 95df 2d3d 4d39 6dbd
00000280: 63ce 40bd 613d 473d 9101 403d 6ccf 4d3d
00000290: 29e1 79bc 2ef3 873d 105a 573d b67d 6a3d
000002a0: 1fe1 83bc ccd9 373d 5afb 833d 8786 25bd
000002b0: ee69 70bd 5a62 d93c bcbf 28bd cb35 f93c
000002c0: 3122 9a3d 0d75 b3bb 861e 7c3c 09bd 6fbc
000002d0: 4471 2b3d 10f4 d8bc 24a4 d63b 85c1 303d
000002e0: 0d25 48bd 6ba1 063d 6632 083d 9dc7 4e3b
000002f0: d055 e83c fcfe 74bd 66e2 58bd 1ae3 69bc
00000300: 9a81 783d 7eb5 e9bc eac2 1cbd 4f62 473d
00000310: c9e8 4cbd 4996 833d 0c65 783d f888 d5bc
00000320: 5671 b43b b149 923d da95 e8bb 37f3 2bbd
00000330: b515 853d 210f aebb 4c32 ccbc d7dd 8cbd
00000340: 2d95 983d 555a 0f3d c53b 9c3d 6963 e1bc
00000350: ae97 833d c9fa 693d 9e95 093d 08aa 213d
00000360: 65ab 7ebd a24f d73a 9036 7abd e90c 103d
00000370: 1dcd 7cbc 3985 18bd 5b30 a7ba 8f87 5d3c
00000380: b0db 9ebd 79eb 49bd 28e5 4d3d f925 47bd
00000390: a485 23bd 195a 753c 5351 d03c 5799 7ebc
000003a0: d562 b6ba 76dd 343d 8ce2 d8bb 7d69 be3c
000003b0: e451 a0bd 94f3 f3bb 4649 9a3d dc37 9cbb
000003c0: bdca 82bd 52fa 64bd ada9 4f3c a94b 6b3d
000003d0: 69d5 873d 69a6 d3bc b42d 023d 6fe1 00bd
000003e0: 7722 e63c c787 e53c 3743 fabc 13b4 1f3d
000003f0: c553 70bc 512c 8fbc 0e2b cb3d 345a 963d
-0.023827702 0.07557302 0.03465455 -0.004967088 -0.036577795 0.038490213 -0.024048386 0.04554841
-0.05725631 -0.0083941 -0.0050484943 0.065388694 0.057380367 -0.010557136 -0.039969154 -0.0011946814
0.04539857 0.030815318 0.009912254 0.07307334 -0.020228658 0.03896239 0.06531665 0.04117831
-0.02210831 -0.04097676 -0.0054405094 0.022992501 0.03976589 -0.013148466 -0.017870901 -0.049194574
-0.04647436 -0.039151117 0.00908108 -0.024978455 -0.061718296 -0.011356877 -0.016419332 0.029380944
-0.036409423 0.06082969 -0.059258908 0.051233344 0.039838567 0.012180495 0.019598398 0.04768316
-0.050434455 0.005155948 0.05743929 0.034884438 -0.025162365 0.028029837 -0.00853626 -0.025711808
0.03238988 0.013888787 0.053507432 0.03854774 0.0058363844 0.0014149424 -0.05083735 -0.03308258
0.02391362 0.077540286 0.055693682 0.003976994 0.052752726 -0.04054429 0.018515462 0.0071111205
0.020326039 -0.011749897 -0.049227536 0.08175938 -0.025343347 0.035824418 -0.062758006 -0.071319625
-0.025060391 -0.059639517 0.065649725 0.049946744 0.0821389 -0.038185783 -0.053801335 0.024295393
0.054407522 -0.0050184163 -0.0140839415 -0.01307594 -0.01594245 -0.07939143 -0.08916125 -0.0042276974
-0.015311696 -0.026969371 -0.061430804 -0.06975326 0.011471508 -0.07676891 -0.02831273 -0.0011547981
-0.02698477 0.049363915 -0.041701376 0.011356812 -0.0545542 0.047465943 0.048386913 -0.024574237
0.015678404 -0.006896106 -0.052397445 -0.00082742074 -0.018983763 -0.00018730182 -0.07285485 -0.017402982
0.027365725 0.04747685 0.048991475 -0.028392168 -0.048588514 -0.05199335 0.02312398 0.023929598
-0.0024059399 -0.050883558 -0.057826314 0.072065115 -0.0024287417 -0.010256299 -0.024403557 0.0005522823
-0.02860108 0.017376667 0.05598376 0.0076600746 -0.036070425 -0.019776033 0.022941604 -0.012975169
-0.044000078 -0.012714018 0.069221005 -0.054063775 0.04867224 -0.049565412 -0.05750266 -0.0790948
-0.00527927 0.034195762 0.026341159 -0.008710109 0.0041635316 0.012424685 0.042449553 -0.057915974
-0.047071826 0.04864252 0.046876494 0.05024664 -0.015251436 0.0663818 0.052576125 0.057248794
-0.016098557 0.04488544 0.06444426 -0.0404115 -0.058694772 0.026536155 -0.041198477 0.030421158
0.07526053 -0.0054766 0.015388137 -0.014632472 0.041856065 -0.026483566 0.006550329 0.043153305
-0.04886346 0.032868784 0.03325119 0.0031552084 0.028361231 -0.059813485 -0.052950285 -0.014275337
0.060670473 -0.028528925 -0.038271822 0.04867774 -0.05002669 0.06425149 0.06064324 -0.026066288
0.0055066748 0.07142962 -0.007097942 -0.041979995 0.06498281 -0.005311862 -0.024926327 -0.0687825
0.07450328 0.034998257 0.07628588 -0.027513223 0.06425415 0.057123933 0.03358995 0.039468795
-0.062175173 0.0016426931 -0.06108719 0.035168562 -0.015429762 -0.037236426 -0.00127555 0.013521089
-0.07756746 -0.04929683 0.05026737 -0.048620198 -0.03992237 0.014975094 0.025429403 -0.015539489
-0.0013914952 0.044156514 -0.0066188034 0.02324366 -0.078281194 -0.0074448083 0.07533507 -0.004767401
-0.063863255 -0.055902787 0.012674731 0.057445202 0.06632502 -0.025836186 0.031781867 -0.03146499
0.028092606 0.028018845 -0.030549629 0.03899009 -0.01466841 -0.017477186 0.099203214 0.07341424

layers.0.bias f4 [32]
00000000: 21bb f53b bc75 1fbd 313a be3c f463 aebc
00000010: 49a3 15bc 876e bbbc ed2f f3bb 4934 3d3d
00000020: 70a2 f7bc 91ec a23a e6c4 463d 4ec1 963c
00000030: 6bdf 1abd 93c5 1c3d 6c12 db3c 8ada 0ebd
00000040: 0fc1 cebc a584 973d 9d89 873c db65 b6bb
00000050: 8fc7 933c 660f 68bd bc6c 4b39 bd93 49bd
00000060: 6f9d 033c 6ed1 b4bb 3ecd d0bc 35b4 fe3a
00000070: 5fc8 21bd 51a2 21bd 0340 3cba dd57 9f3c
0.007499114 -0.03893064 0.023221107 -0.021287896 -0.0091331685 -0.022879852 -0.0074214847 0.04619244
-0.030228823 0.0012430121 0.04852762 0.018402722 -0.037810724 0.03827436 0.026742183 -0.034876384
-0.025238542 0.07398347 0.016545111 -0.0055663413 0.018039493 -0.05665531 0.00019400095 -0.04921316
0.008033141 -0.00551813 -0.025488492 0.0019432368 -0.03949773 -0.039461438 -0.00071811693 0.019451076

layers.2.weight f4 [32]
00000000: a1e3 7f3f cd7e 7d3f 750c 7f3f ecd5 7f3f
00000010: 1878 813f e189 823f e681 7c3f da3b 7a3f
00000020: 8987 803f 5876 7f3f c76d 833f 9f0d 813f
00000030: 4df8 7f3f 712b 7f3f 8941 803f 2660 7d3f
00000040: a0a8 7f3f cfb7 7c3f 0d69 7f3f 450f 813f
00000050: 32cd 833f c67c 7e3f 5688 7e3f cf7f 7f3f
00000060: 27bc 7c3f fd0c 813f 3905 7e3f e36d 7f3f
00000070: ab5a 813f e11d 803f a7e4 803f cdd1 803f
0.9995671 0.9902161 0.9962838 0.99935794 1.0114775 1.0198327 0.9863571 0.97747576
1.0041362 0.99789953 1.0267876 1.0082282 0.9998825 0.9967566 1.002 0.98974836
0.99866676 0.9871797 0.9976967 1.0082785 1.0296996 0.9940914 0.9942678 0.99804395
0.987246 1.0082089 0.9922672 0.9977705 1.0105795 1.0009118 1.0069779 1.0064026

layers.2.bias f4 [32]
00000000: 6737 c8ba 060f c33c 1f95 883c 760a e93c
00000010: 9664 98bb 1635 ca3b f46a 863c 3bf9 c1bc
00000020: 93af 88ba c25f 0cbb e660 1e3c c72f a9bb
00000030: 3e18 f0bb 55a5 fc3a f322 c9bb e7be 273c
00000040: 72ea 4fbb 6f32 a23c 8b06 363c edb3 cf3c
00000050: 4606 16bc 169e 5dbc cd61 26bc 2a68 62bc
00000060: 8fa8 003a 78a8 9dbb e3ec d53b 0ab8 033d
00000070: 30a8 283c 716e a0bb ef27 673a 7cb5 493a
-0.00152753 0.023810875 0.016672669 0.028447371 -0.0046506627 0.006170879 0.016408421 -0.023678413
-0.0010428302 -0.002141938 0.009666657 -0.005163166 -0.0073271086 0.0019275347 -0.0061381995 0.010238386
-0.0031725434 0.01979944 0.011109958 0.02535435 -0.009156769 -0.01352646 -0.010155153 -0.01381878
0.00049079297 -0.004811343 0.0065284832 0.032157935 0.010294005 -0.004895978 0.0008817901 0.0007694585

layers.2.running_mean f4 [32]
00000000: 24ae 863c 2dc8 a43b cd23 d73c 3d0b 173b
00000010: 4f78 3c3c 6ea3 083c e80a bf3b c95b 443d
00000020: f6b5 4e3b 640d 0a3c 145a 5c3d bcfd fa3c
00000030: 038d 8c3c 6374 693d 2032 0e3d 1ee0 033c
00000040: a587 4a3c 36e5 a13d c21a 023d 2f25 403b
00000050: 18f0 ba3c b1b3 303b 6578 233c 5b93 a53b
00000060: 398e 433c de18 b13a 0477 a03b 96a5 2a3b
00000070: bc55 513c d684 d13b 9d4e c03b cdc0 143d
0.016440459 0.0050287456 0.026262188 0.002304747 0.011503293 0.008339746 0.0058301575 0.047939096
0.0031541563 0.008426044 0.053796843 0.030638568 0.017157083 0.05699576 0.03471577 0.008049039
0.012361442 0.07905047 0.0317638 0.0029319038 0.022819564 0.0026962573 0.009977435 0.0050529665
0.011935764 0.0013511439 0.0048970003 0.0026038638 0.012776788 0.006394009 0.0058687464 0.03631668

layers.2.running_var f4 [32]
00000000: 1a56 df3a 4c3a 593a 00a7 2c3a cf1e 6039
00000010: b5bd 0a3b f192 d43a 567e 413a 4860 823a
00000020: f626 e439 93c3 813a 7c4f c43a 58e9 333b
00000030: 37cd b03b 8abe cf3b 8c40 103b 3df1 e53a
00000040: 0e03 543b 6a55 153b a87e 9e3b 9443 a239
00000050: 76a0 773a 88ca 9339 892f 013b 5806 9f3a
00000060: d83b 173a 736a e738 81d9 293a 904d 8138
00000070: f001 393b 5a69 903a 1e31 883a 2d8b a73b
0.001703921 0.000828658 0.0006586164 0.00021373782 0.0021170203 0.0016218108 0.0007381191 0.0009946907
0.00043516577 0.0009900205 0.0014977301 0.0027452316 0.0053955573 0.0063398527 0.002201113 0.0017543208
0.0032350454 0.0022786506 0.004836876 0.00030949397 0.0009446213 0.00028188922 0.001971217 0.0012132628
0.000576911 0.00011034766 0.0006479249 6.1656465e-05 0.0028229915 0.0011017725 0.0010390615 0.0051130266

layers.4.weight f4 [64, 32, 2, 2]
00000000: 4372 b53c befa 1d3c d3d0 8fbd a37b f7bc
00000010: a05e 5bbd 65e6 12bd c348 93bd b64c 6fbd
00000020: 3d27 b9bd 9fb8 fd3c cf49 b0bd ac84 22bd
00000030: 88c6 323c b7ab 013d e21d 59bc fcb0 483d
00000040: 840b 82bb 84d7 3abc 568d 8a3c c662 d83c
00000050: 3842 273b 10da da3b 0f54 94bd 33bd 823d
00000060: c7e3 c5bc f864 79bd 46f3 1bbd b5cc 3dbd
00000070: 0eef 11bd e428 a53c e7a9 283d d78b 87bd
00000080: b7b5 933d cf8b c53d 55fd dbbc 3dba bbbd
00000090: c645 8ebc e5c8 013d 159d 733d da41 aabb
000000a0: e88d e6bc 7844 cc3c 303c 26bd 25a5 e1bc
000000b0: 4ada dc3a 87fb 81bd 696b f33c 71c3 783c
000000c0: bf3e 393d ab6e 9dbd 45f9 463d f852 56bd
000000d0: 3268 bc3c e4a2 9ebd 4b35 a6bd 8e91 3cbc
000000e0: a21b 53bd a069 8c3c 036b 993c cb88 5b3a
000000f0: 7a78 1c3d 2d9e 1bbd 84de 82bd 1031 8ebd
00000100: a3d7 3cbd e71e f63c 4da3 b93c ca4e 123d
00000110: d0f2 31bd 61b5 b83c 6723 c3bd 218e 763d
00000120: 3789 873d 02fa 93bd d142 d13c 4ce1 ecbb
00000130: 573a b7bc 3085 c83c 53e3 913d 09cf 7e3d
00000140: a582 71bd 2e48 d8bd 397d 673d e665 343d
00000150: 7792 66bd a9f9 503c acb8 89bb 8bb2 353d
00000160: 8400 5b3d 0618 673d 4585 aebd 8265 0bbc
00000170: 41d8 90bd 8a64 80bd b2f4 d8bd e50a 133d
00000180: e243 0b3d 0af4 1abd 92ba 0c3d 1895 4fbc
00000190: 0fd2 cc3d 5a93 5cbd 2289 26bd 94de 153d
000001a0: 5934 46bd 9b39 5c3d e8a8 c3bc ccb1 6bbb
000001b0: ad22 803d 48f0 33bc c054 023d 8dae 40bd
000001c0: 02e3 9ebd b3df 95bd 4f53 abbd d863 8b3d
000001d0: 1672 293c 030e 873c 3e18 4b3d d524 603d
000001e0: 0ae8 303d 3ba6 1cbc 78d9 e5bb cd4e cdbb
000001f0: cc47 9cbd 8129 38bd 383f 5abd a1b0 7c3c
00000200: 7f10 08bd a9fa e9bc 8c24 25bd 147b 943d
00000210: 05bb 5cbc 2ed4 59bd eb7b 8bbc e170 4e3b
00000220: 9d0b a7bd 8858 92bc f0bf 843d 05cd 2e3d
00000230: 09d2 4ebd 8868 8fbd e484 473c c58b 30bb
00000240: 0c12 99bd 014c 223d e4d2 6abd 93fe f5bc
00000250: 6034 bcbd 79e0 3bbd 7157 74bd 7bee 42bd
00000260: 00d7 833d 199c e6bb 43ad 50bc 5571 debc
00000270: 635c 9b3d 1ff2 7e3c b79f 92bd 0533 00bd
00000280: 6daa d7bc 0e6e 39ba 87a0 a8bd 6d0b 9ebd
00000290: 783a 663b 6d0c 50bd 68c8 98bc 6064 9cbd
000002a0: 10ed 073d 236b 3ebd b498 efbb 4e8d 59bd
000002b0: f675 7c3d 8888 f7bc 6035 523d 676e 50bd
000002c0: 11c0 1abc 499c 673d 86b9 93bd d2ac c43c
000002d0: 8a2d 823d 2a4b fabc 9b25 ac3c a53d 76bd
000002e0: affa a93c 8e29 003d 968f 5f3d 22db 3fbd
000002f0: 9019 46bd ef46 e6bc cc65 1bbd 2bca 8bba
00000300: 7c69 503d a16e 603c ab83 8bbd b7b4 013d
00000310: 0b41 cd3a 581a 923b b7c9 5f3d 1033 993d
00000320: ea98 63bd 639b 6e3c dc09 8ebc 4612 1d3d
00000330: 2e0e a0bc fcee a9bd ee17 b4bb c011 543c
00000340: 05d5 313c 26e8 c3bd 6e65 bfbd 3247 9f3d
00000350: 20fd 2a3d 94b4 ab3d 2616 0ebd d23c 0f3c
00000360: 1094 9fbc 54c7 593d 8446 88bd 8c1f 6dbc
00000370: eb45 3b3d cbe7 9a3d 2663 8d3d ff6c 24bc
00000380: 685b 913c ce85 bbbd dc0e 153d df87 a9bd
00000390: f420 c03c c49f 62bc 12aa 52bd 9f55 c4bc
000003a0: 54d4 313d 6c6a 553c bd94 693d 9f6c 983d
000003b0: 3b42 be3d dd85 ec3b f05b 94bd d792 acbd
000003c0: 48b2 8dbd 3537 373c 9fab 58bd 8537 193c
000003d0: 41d6 163d efe1 f0bd dc8e f03c a24b b7bd
000003e0: 816b 9c3d 3a2f b5bd 70f4 123d 7462 993d
000003f0: 46cb a23d 6d07 6cbd 1f56 7dbd 643e 303d
0.02214921 0.009642301 -0.07022252 -0.030210322 -0.05355704 -0.035864253 -0.071916126 -0.058422767
-0.09040687 0.030971823 -0.08607828 -0.039677307 0.010911591 0.0316579 -0.0132517535 0.04899691
-0.003968658 -0.011403922 0.016913097 0.026414286 0.0025521647 0.006678827 -0.072425954 0.06383743
-0.024156464 -0.060887307 -0.0380738 -0.046337802 -0.03562837 0.0201611 0.041177657 -0.06618469
0.07212394 0.09645807 -0.026854197 -0.091663815 -0.017367255 0.03168573 0.059475977 -0.0051958384
-0.028143838 0.024934992 -0.040584743 -0.027544567 0.0016849723 -0.06346803 0.029714303 0.015183316
0.045225855 -0.07687124 0.048577566 -0.05232522 0.022998903 -0.07745913 -0.081156336 -0.011509312
-0.051540025 0.01714021 0.018727785 0.0008374571 0.038200833 -0.037992645 -0.06390098 -0.06942952
-0.046104085 0.030044032 0.022660876 0.03571967 -0.043444455 0.022547426 -0.09528237 0.06019414
0.066179685 -0.072254196 0.025544556 -0.007229006 -0.022366686 0.024477571 0.07123437 0.062209163
-0.058962483 -0.10560642 0.056515906 0.04404249 -0.056292024 0.012754836 -0.004202923 0.044359725
0.05346729 0.056419395 -0.08521513 -0.008508088 -0.07072497 -0.06269176 -0.10593547 0.03589906
0.034000285 -0.03783039 0.034357615 -0.012669824 0.10001003 -0.053851463 -0.040658124 0.03658922
-0.048389766 0.053765874 -0.023884252 -0.003596413 0.06256614 -0.0109825805 0.031819105 -0.047041465
-0.07758142 -0.07318058 -0.08365499 0.06806153 0.010342142 0.016486173 0.049583666 0.054722626
0.04319004 -0.009561117 -0.0070144497 -0.0062654973 -0.07630882 -0.044961456 -0.053282946 0.015422971
-0.033218857 -0.028561907 -0.040318057 0.07250038 -0.013472323 -0.053180866 -0.017026862 0.0031500387
-0.08156512 -0.01786448 0.06481922 0.04267599 -0.050493274 -0.0700236 0.01217768 -0.0026938778
-0.07474145 0.039623264 -0.057330027 -0.030028617 -0.09189677 -0.04586837 -0.059653703 -0.047590714
0.06437492 -0.0070376513 -0.012736621 -0.02715365 0.07585981 0.015560656 -0.071593694 -0.031298656
-0.026326383 -0.00070735894 -0.08233743 -0.07717023 0.0035130065 -0.0507931 -0.018650249 -0.076363325
0.033185065 -0.046488892 -0.007311905 -0.053113274 0.061635934 -0.03021647 0.051320434 -0.050886538
-0.009445206 0.05654553 -0.0721312 0.024008188 0.06356342 -0.03055342 0.021014025 -0.060117383
0.020749418 0.03128963 0.054580294 -0.04683984 -0.048364222 -0.028109996 -0.037938878 -0.0010665109
0.050881848 0.013698251 -0.06812223 0.031666484 0.0015659643 0.004458707 0.05463573 0.074804425
-0.055565752 0.014563414 -0.017338686 0.038347505 -0.019538011 -0.08297536 -0.0054960167 0.012943685
0.0108540105 -0.09565763 -0.09345518 0.07777251 0.041745305 0.08384052 -0.03468909 0.008742528
-0.019479781 0.05316861 -0.06654075 -0.014472853 0.045720976 0.07563742 0.06903677 -0.010035752
0.017743781 -0.091563806 0.036391124 -0.082778685 0.023453213 -0.013832036 -0.051431723 -0.023966609
0.043415383 0.013025861 0.057026614 0.07442593 0.09289976 0.007218106 -0.07244098 -0.08426445
-0.0691877 0.011182596 -0.052898046 0.009351616 0.036825422 -0.117618434 0.029364996 -0.08949973
0.07637692 -0.088468984 0.035877645 0.074894816 0.079489276 -0.05762427 -0.06184971 0.04302825

layers.4.bias f4 [64]
00000000: 9c85 10bd 2edf 4dbd 3bd2 56bd 8197 daba
00000010: 3eae f5bc e61d 92bd bb08 19bd d3ae f1bc
00000020: c5ed 87bd c31c e73d abcc aeba 48ae 893c
00000030: 72e0 d3ba d93e e5bb c7ed b13d 9640 55bd
00000040: 7055 913d 374f 6a3c cc23 a53c 1767 b13a
00000050: 47a6 e03b 6555 0cbc ab91 6dbd 9498 1dbd
00000060: fc42 873c c90b cebc 3c5a 8b3d 24d1 c8bc
00000070: 6724 953d 4d48 d1bc bbff a13d af85 3dbd
00000080: 23de 61bd 5b5b 593d b6c7 363d 8268 94bc
00000090: 0b3c 59bd 8aed 533d 502d 563c d4dd 94bc
000000a0: 0faf 923d 6cca d13c 492b 12bd 2729 813d
000000b0: ebdd 0fbd 89f7 c93d 2887 b33d 9819 64bd
000000c0: 7d9c 483d 9516 b83d 56ee 9cbd 7698 9abd
000000d0: d6e3 85bc 13d6 22bd 8cd0 2a3d 1421 9dbd
000000e0: 619e 48bd 8fde 023c afcc cb3c b61d 2fbd
000000f0: 8b7f 8f3d eb14 683c a32d f03c 3ad2 cdbb
-0.03528367 -0.05026167 -0.052446585 -0.0016677232 -0.029990312 -0.07134609 -0.03736184 -0.029502308
-0.06637148 0.11284783 -0.0013336142 0.016806737 -0.0016164912 -0.0069960174 0.086879306 -0.052063547
0.07096374 0.014301113 0.02015867 0.0013534751 0.0068557593 -0.0085652815 -0.058000248 -0.038475588
0.016511433 -0.025152104 0.0680432 -0.024513789 0.07282334 -0.025547171 0.07910105 -0.04627007
-0.055143487 0.05306564 0.044624053 -0.01811624 -0.053035777 0.051740207 0.013072327 -0.018172182
0.07162296 0.025609218 -0.03568581 0.06306677 -0.035123747 0.09861667 0.087660134 -0.05568847
0.048977364 0.08988682 -0.076626465 -0.07548611 -0.016343992 -0.03975494 0.041702792 -0.07672325
-0.048979167 0.007987632 0.024877874 -0.042752944 0.07006749 0.0141651435 0.029318636 -0.0062811645

layers.6.weight f4 [64]
00000000: 5599 853f 7217 843f 7cf6 733f e89c 7c3f
00000010: 27c1 803f c10b 7d3f 2df7 763f b58a 763f
00000020: c17a 7c3f 4bb6 7b3f 77f5 773f f5e1 803f
00000030: f9c7 7b3f 0187 813f 1850 7a3f 7f2b 803f
00000040: 1fd1 763f ef01 823f 5355 783f 63a1 7b3f
00000050: e785 7b3f de21 833f ce40 843f 655e 783f
00000060: 9f39 813f dd7b 803f fdf0 813f 531e 7f3f
00000070: 2760 793f eb33 7b3f 47ba 7d3f f5ff 7b3f
00000080: d758 813f 9381 7e3f efd8 7b3f f8a0 7d3f
00000090: 8d2d 7f3f b19d 803f 7ca8 7f3f ffc4 7f3f
000000a0: 10a6 843f ecb3 803f ca25 7d3f 3ba0 813f
000000b0: f5ab 833f c034 7d3f ca97 7b3f c147 7c3f
000000c0: ac4b 813f d07c 813f 684f 813f 299a 7e3f
000000d0: 9fde 7a3f b627 833f 19c7 803f b22c 813f
000000e0: 63ae 773f 1b99 7e3f e4ea 803f 9db3 803f
000000f0: 9764 7c3f b354 7a3f eba9 793f 16f5 793f
1.0437418 1.0319655 0.9529798 0.9867692 1.0058945 0.9884606 0.9647091 0.963054
0.9862481 0.9832503 0.96858925 1.0068957 0.9835201 1.0119325 0.97778463 1.0013274
0.96412843 1.015684 0.97005194 0.9829313 0.98251194 1.024471 1.0332277 0.97019035
1.009571 1.00378 1.0151669 0.99655646 0.9741234 0.98126096 0.9911236 0.98437434
1.0105237 0.99416465 0.9837789 0.99073744 0.9967888 1.0048124 0.9986646 0.9990997
1.0363178 1.0054908 0.98885787 1.0127023 1.0286852 0.98908615 0.98278487 0.9854699
1.0101218 1.0116215 1.0102358 0.9945398 0.9799594 1.0246494 1.006076 1.0091765
0.9675047 0.9945237 1.0071683 1.0054814 0.9859099 0.9778549 0.975249 0.97639596

layers.6.bias f4 [64]
00000000: affa 78bc a409 86bd 9473 5bbd 4202 2dbc
00000010: 5d00 81bd 11d2 84bd 18cc afbc d486 84bd
00000020: 2e3e 60bd d777 98bd 3173 6fbd 0d7e 76bd
00000030: 8aa6 fc3c ed27 a0bd db2a 9b3d 74b4 693d
00000040: 12ae 30bd c619 b5bd b7cf 573d 8cb4 803d
00000050: ebc6 27bc 45f0 82bd 9303 863d 5c58 083d
00000060: 0c57 8dbd 946b 40bd 8537 723d dd7d 903d
00000070: c1fa cbbc 6d5a 603d cf63 13bc 51b4 8b3d
00000080: cd3d 85bd 8baf 34bd 7dbd 97bd b361 64bd
00000090: ce0b aabd 4840 783d 16b1 fd3a 5fd5 943d
000000a0: 11aa 6c3c f29e 7f3d 9c6d 2b3d 62cd b33d
000000b0: 26cd 9ebd 8c4f 1d3d e177 8e3d cf61 81bd
000000c0: fd59 393c 6287 653d c482 96bd bb0b 963c
000000d0: 1492 8c3d 362c 37bc c4e7 8b3d ca3f cabc
000000e0: 9e24 13bd bf08 523d 1773 07bd fdfd 113d
000000f0: 8cb0 82bd 6aeb 0bbd 52a9 b1bc cfc0 e33a
-0.015196486 -0.065448076 -0.05357702 -0.01055962 -0.062988974 -0.064853795 -0.021459624 -0.06471029
-0.0547468 -0.07444733 -0.058459464 -0.060178805 0.03084113 -0.07820115 0.075765334 0.05705686
-0.043134756 -0.088428065 0.052688327 0.062844366 -0.010240297 -0.06393484 0.065436505 0.03328739
-0.069013685 -0.046977594 0.05913498 0.070552565 -0.024899842 0.054773737 -0.008995964 0.06821502
-0.06505928 -0.044112723 -0.07409189 -0.055757236 -0.08303033 0.06060818 0.0019355144 0.0726726
0.014444844 0.06240744 0.04185258 0.08779408 -0.07753973 0.03840594 0.06956459 -0.06317484
0.011312959 0.056037314 -0.0734916 0.01831614 0.068638 -0.011179974 0.06831315 -0.02468862
-0.035923593 0.051277872 -0.033068743 0.035642613 -0.0638133 -0.034160055 -0.021687184 0.0017376187

layers.6.running_mean f4 [64]
00000000: 9ac3 2a3e 4432 123e 3a58 573e b8a3 853e
00000010: 55b4 a33d 3f12 b03e 8422 db3d 5b6c 1f3e
00000020: c1bd bf3e 33c6 d83e 52b3 ce3e 88b6 9a3e
00000030: 9233 903e d353 343e 692b c93e 82c9 423e
00000040: ac3c 0c3f c8d2 4a3e f5a7 e03d 1063 513e
00000050: 71a6 7b3e eb4c 0f3e 693b 823e aa0f a53e
00000060: c85a 283e ea78 183e 3ff5 a23e 42e3 6a3e
00000070: 5ded 473e 1435 0e3e 17f6 b73e f868 413e
00000080: f8e0 5c3e 4733 9f3e e0e2 4f3e 01e8 103e
00000090: 9e2b 163e 0dfa 843e 9c1e 723e 4c48 5d3e
000000a0: cd0d 893e 8bd5 833e d4d0 383e a9e9 883e
000000b0: 13c1 bf3d ca36 5d3e 4bb6 8f3e 5530 ae3e
000000c0: e55a a43e 6311 9e3e 0ac6 303e 8ffd c03e
000000d0: 82f2 873e 102d 493e 4424 733e 9e58 f93d
000000e0: 6bd9 e53e b3fe 8c3e 557a 643e acca 3c3e
000000f0: 2dd6 663e 1e28 6e3e ff21 513e d172 e23e
0.16676179 0.14276987 0.2102975 0.2610147 0.0799338 0.3438892 0.10699943 0.15568678
0.37449458 0.42338714 0.40371186 0.30217385 0.28164345 0.17610101 0.39290932 0.19022182
0.5478008 0.19806969 0.10969535 0.20447946 0.24575211 0.13994186 0.2543595 0.32238513
0.1644088 0.14889875 0.31827733 0.22938254 0.1952414 0.13887435 0.3592994 0.18887699
0.21570194 0.3109381 0.2030139 0.14151002 0.14665076 0.25972024 0.23644489 0.2160961
0.26768342 0.25748858 0.18048412 0.2674077 0.09362998 0.21602932 0.28068766 0.3402125
0.32100597 0.3087264 0.17263046 0.3769345 0.26552206 0.19646096 0.23744303 0.121751055
0.4489244 0.2753807 0.22312291 0.18436688 0.22542639 0.23257491 0.20423125 0.44228223

layers.6.running_var f4 [64]
00000000: 2f8c 923d 27c2 933d 9709 f13e f0cd f93e
00000010: 7c98 d23d c892 713f 5d60 ea3d 351f a83e
00000020: 6fed 813f b959 633f a13b 9b3f 2029 a13e
00000030: 024c f93e 39c1 923e d9e1 683f 83f4 893d
00000040: 7897 c83f 3767 1e3e 6e6e 1a3e 9de1 9b3d
00000050: b36a 063f c4e9 1e3e 2701 233d f8c9 523f
00000060: c242 8d3d bd2f ee3d 93f9 dd3d 0845 bc3c
00000070: 7ed7 843e 8f4c 343e e9ee aa3f bc52 f33d
00000080: 5b00 963e 22c0 ac3e c1d2 ed3e b2dc 9b3e
00000090: 1dad 873e 593c e43c 88a7 0a3f 8786 a63d
000000a0: 2ab0 013e 31a9 313e cf99 743e 2c09 233d
000000b0: 48fa 1a3e 3c64 723e b52a d33e d2bb 453f
000000c0: f758 5f3d 0b82 9f3d 1e7b 893d d98a 753f
000000d0: 1397 433e c51c 333e eb8a 4c3d 58a3 8b3c
000000e0: 42db 7e3f bb06 213f ee38 d83e 9069 f43c
000000f0: b633 923e 7179 f13d f3be c63e f5ff 943f
0.07155644 0.07214766 0.4707763 0.4878993 0.1028299 0.94364595 0.11444161 0.3283631
1.0150584 0.8880878 1.2127572 0.31476688 0.48690802 0.28663042 0.90969616 0.0673609
1.5671225 0.15469061 0.15081188 0.07611392 0.5250656 0.15518862 0.03979602 0.8233943
0.06897499 0.11630199 0.10838618 0.022982135 0.25945657 0.1760733 1.335416 0.11881015
0.29297146 0.33740336 0.46449855 0.30441815 0.26499262 0.027860807 0.5416188 0.08131128
0.12664858 0.17349698 0.23886798 0.03980367 0.15134537 0.23671049 0.4124352 0.77239716
0.054528203 0.077884756 0.06712936 0.9591499 0.19100599 0.17491443 0.04993717 0.017045662
0.9955331 0.62900895 0.42230934 0.029835492 0.28555077 0.11790741 0.38817558 1.1640612

layers.8.weight f4 [64, 64, 2, 2]
00000000: 733b 0c3d 7bad 3abd 0b9e a1bd 463c 763c
00000010: 728c 513d e297 01bd 9642 21bd be03 11bd
00000020: 69c7 c9bc 4a1e d8bc a9f7 063c ca6e 6fbc
00000030: 41d0 2ebc 680f 23bd 099f d4bc bdfb e33c
00000040: 4a9c b93c 8218 0c3c 4d01 c2bc 956c b9bc
00000050: b57a bfbc 52cb 88bc 649f 9e3b 26ad 23bd
00000060: 58dc 8ebb 5e6f 423c 3817 84bd a2be b8bc
00000070: 8187 073b ed21 573d 2b1a ea3c b9d9 4ebd
00000080: c128 8dbd c2ea 89bc da1b f63c 69ea 3bbd
00000090: 7ffe 223d 712e ab3b 4b48 1b3c 6c1d 28bc
000000a0: 395b 62bd 5736 67bc 29c4 723a eed9 23bd
000000b0: 6c94 cb3c cb1c f83c 7dbc cf38 560d 9bbc
000000c0: 3678 b9ba c10d 343c c45d 47bc 7433 6e3d
000000d0: 0ecb 433c b3ef 60bd 7d45 b5bc d5fb 4f3d
000000e0: ad71 5a3d 5aa6 4abd 1562 8f3d 47bd c3bc
000000f0: 6ab5 50bd fc06 7fbd dbae 833c bc69 513d
00000100: 71f6 4f3d bf67 38bd 40c0 33bd 09b8 9a3c
00000110: 3ea0 47bd 46f7 5a3c ab84 30bc 7737 db3c
00000120: e091 773d 1083 ebbc d0ed da3c b21a 5abc
00000130: 037c 57bb a51a 153d 9696 0f3d 3c9e 55bc
00000140: b733 9a3b 8f64 7c3d 8cb7 14bc f21e 6bbd
00000150: 71d4 c33c b713 e4bc 9d66 273c fec1 3cbd
00000160: 1390 50bc 6bbe 313d 4f1a 683d 4ba3 733c
00000170: 7cbf 7a3d 3fb9 353c f02d 213d ec48 513d
00000180: cab9 f9bc 99e9 0bbd 833c a9ba d6e2 95bd
00000190: b6a4 c93c 2e73 c13b 092d b03c 8412 08bd
000001a0: ad84 10bd 9c54 9c3c 07be f23c 8e6c 253d
000001b0: ed16 663d ad9e 353d 7c7b 07bd 88cf eebb
000001c0: a161 303d 2277 b23c 36e6 4bbd 2bb9 a9bc
000001d0: b05e b83c d534 c83c 0cf9 6a3d dd1e 97bc
000001e0: 7659 6bbd 1b9e dc3c 9946 6abc 4e67 84bc
000001f0: d08e 013c 059e 9abd 7f38 4dbc 94a7 153d
00000200: 433c 023d 627c f73b 4003 46bc 50d0 49bc
00000210: c878 363d aa2f ea3c 830a 273d 2edb 13bc
00000220: 6ad1 733c 5b1a 133d d11a 203b 69fe a03c
00000230: 8d26 17bc fa81 72bd 337a b33c 8e31 0e3c
00000240: 3f28 7a3d 3142 4dbd e3e0 393b c4fc 123d
00000250: 7139 3f3d 3f84 263c cfe4 5a3d 77c6 6a3d
00000260: d3e6 833d d10c 2b3c a85b 06bd 3154 c33c
00000270: 1a83 a83d 945a 74bb 2210 ea3b 9169 52bd
00000280: 9460 43bd 9946 00bb 500a d1bc 5b2b 58bd
00000290: 4188 323d 6425 d5bb 48f9 8a3d 2c91 25bb
000002a0: a56b e9ba 449d 623d d50c 633d 32f2 57bd
000002b0: ef72 18bc db22 dc3c aa80 563c f639 cd3c
000002c0: d78f 173d 3d41 68bd 1b1d 01bc 61bc 393d
000002d0: 5dbb 4b3d 8491 7c3d abcf 0abc 8187 613d
000002e0: dac5 003c f7a2 01bd 3409 6dbd d022 7c3d
000002f0: e2e1 61bd 450c d6bc b5c5 03bb 454e 96bb
00000300: 9c16 3a3d a735 063c 5060 ab3c 311b dabc
00000310: 265f b13d 3198 42bd c3e0 343c e6a7 20bc
00000320: 6b2a b93c a5f5 0b3d d941 acbc f708 213c
00000330: 68f9 213d 17c6 bbbc e835 63bd 6b3f 193d
00000340: f49d a83c 0680 81bd a80a 573d 2efe 0d3d
00000350: 7cbb 3c3d e31f 7e3b a3d6 643c 1a6e f2bb
00000360: 76c8 2abd 46e5 ffbc 8999 a2bc 27bc 7e3c
00000370: 28aa 2bbd 1d15 23bd daaa 1f3d 119e 8abc
00000380: e751 2b3d 04f6 cabc 2529 02bd d65c 703c
00000390: ad35 b7bc 795f b0bc 579b eabc 3673 1d3d
000003a0: 8304 c0bc 6a11 d03a 568a 53bd 05c5 64ba
000003b0: 8a0d 61bb 0200 7a3c 4a2d 4ebd 2b53 753d
000003c0: 41ad 3dbd a9b1 98bc c7b7 acbd 65f9 5c3d
000003d0: c760 363d 629d 9ebd edda 4e3b 6af4 33bd
000003e0: a7bf 2ebd 9ec1 f23b 8ffb d13c 6d89 afbc
000003f0: d7de 89bd cb83 913c 3af4 0c3d 313d aebc
0.034236383 -0.0455756 -0.078914724 0.015029019 0.05115933 -0.031638987 -0.039370142 -0.03540396
-0.024631219 -0.02638163 0.008237758 -0.0146138165 -0.010669769 -0.039809614 -0.02595474 0.02783
0.022657532 0.008550765 -0.02368226 -0.022634784 -0.023373941 -0.016698513 0.004840778 -0.03996005
-0.004359763 0.011867372 -0.06449741 -0.022551838 0.0020680132 0.05252259 0.028576931 -0.050500605
-0.06892539 -0.016835574 0.030042578 -0.045877848 0.039793488 0.005224042 0.009477685 -0.010260921
-0.055262778 -0.014112077 0.00092607975 -0.040002756 0.024851047 0.030287167 9.905638e-05 -0.018927258
-0.0014150206 0.010989607 -0.012168352 0.05815454 0.0119502675 -0.054916095 -0.022127861 0.050777275
0.053331066 -0.04947505 0.070011295 -0.023893965 -0.05095426 -0.06226252 0.016074589 0.051126227
0.050772134 -0.045020815 -0.043884516 0.018886583 -0.048736803 0.013364619 -0.010773818 0.026759846
0.06044185 -0.028749019 0.026724726 -0.013312029 -0.0032880313 0.036402363 0.03505572 -0.013038214
0.004705872 0.061619338 -0.009076964 -0.05740256 0.02390501 -0.027841432 0.010217336 -0.046083443
-0.0127296625 0.043394487 0.056665715 0.014870475 0.06121777 0.011091529 0.03935045 0.051094934
-0.030484099 -0.034158323 -0.0012911711 -0.07318656 0.024614673 0.005903623 0.02150585 -0.033220783
-0.03528278 0.019083314 0.029631628 0.04038673 0.056174207 0.04434078 -0.03307675 -0.0072879232
0.043061856 0.021785323 -0.049780093 -0.020718178 0.022506088 0.024439255 0.057366416 -0.018447334
-0.057458363 0.02693086 -0.014299058 -0.01616254 0.007907584 -0.07549671 -0.012525677 0.036536768
0.03179575 0.0075526694 -0.012085736 -0.012317732 0.04454878 0.028587181 0.04078151 -0.0090244245
0.014881471 0.035913806 0.0024430046 0.019652562 -0.0092255 -0.059205987 0.021908855 0.008678807
0.061073538 -0.050111953 0.0028362803 0.035885587 0.04668564 0.010163366 0.053440865 0.057318177
0.064405106 0.010440067 -0.032802254 0.023843857 0.08228131 -0.0037285434 0.0071430365 -0.051370207
-0.047699526 -0.001957333 -0.025517613 -0.052775722 0.043586973 -0.0065047015 0.06785828 -0.002526353
-0.001780857 0.05532576 0.05543216 -0.05272121 -0.009304746 0.02687209 0.013092199 0.025052052
0.03700241 -0.05670284 -0.007880474 0.045345668 0.04973923 0.061662212 -0.008472363 0.055060867
0.0078596715 -0.031649556 -0.057870105 0.061556637 -0.05514706 -0.026128897 -0.0020106856 -0.004586967
0.04543172 0.008191503 0.020919949 -0.026624294 0.08660726 -0.047508422 0.0110399155 -0.009805655
0.022603234 0.03416981 -0.021027492 0.009828798 0.039544493 -0.022921605 -0.05547133 0.037413996
0.02058313 -0.06323247 0.052500397 0.034666233 0.046077237 0.003877633 0.013967189 -0.007398379
-0.04169508 -0.031237256 -0.019848602 0.015547789 -0.04191032 -0.039815057 0.038981296 -0.016921075
0.041826155 -0.024775513 -0.03177752 0.014670571 -0.022364462 -0.0215299 -0.028638525 0.03843995
-0.023439651 0.001587433 -0.0516456 -0.0008726868 -0.0034340345 0.015258791 -0.05033616 0.05989377
-0.046307806 -0.018639402 -0.0843349 0.05394878 0.044525888 -0.07744862 0.0031563595 -0.043934263
-0.042663243 0.007408335 0.025632648 -0.021427834 -0.067319565 0.01776304 0.0344126 -0.021269413

layers.8.bias f4 [64]
00000000: d502 523d 2e7f 713d 6d34 313d ff15 913d
00000010: 3b75 da3b addb c73d cab6 883c d54e 9cbc
00000020: e774 7c3d a8e0 813d 879f 873d 8d30 943d
00000030: 9e40 a03d 26e9 983c 2a9b 6a3d 5155 063d
00000040: c93e 973a b672 803c 3c4f c53d 60ee ae3c
00000050: bdee 5bbb 5b34 b53d 8613 863d 774c 513c
00000060: 1872 543d eb8b 2b3d 604d b63d 83d9 403d
00000070: 21fb 4a3d 92a5 4bbc 7754 723c d6f5 483d
00000080: 9e97 6a3d c948 013d 9bdc a0bb 6387 b13d
00000090: 3ce2 fb3c 4a9e a63d cb62 4b3d 2304 933d
000000a0: 8d6f 2b3c fc62 a73d 56a9 123d ec2e a83d
000000b0: 12f5 a63d 3608 453b 4ba8 e33d 3447 68bc
000000c0: 8a47 cf3d d047 823d 49c7 7d3d 3e18 a53d
000000d0: 0fa7 963d 8472 e2bb 5f5b 963c ab0c ab3d
000000e0: 86c8 1a3b 21db 873d 3f21 0fbd a7d1 623d
000000f0: 1ff7 883d 041d 5f3d dfa4 363d e317 2f3d
0.051272232 0.05895918 0.043262888 0.070842735 0.006666807 0.09758697 0.016688723 -0.019080559
0.061634924 0.06341678 0.06622224 0.07235823 0.07824825 0.018665861 0.057276882 0.032796208
0.0011539097 0.015679698 0.096342534 0.0213539 -0.0033559047 0.08847877 0.065466926 0.012774578
0.05186662 0.041881483 0.08901477 0.047082435 0.0495559 -0.012429612 0.014790646 0.049062572
0.0572735 0.031563554 -0.0049091107 0.08668401 0.030747525 0.0813566 0.049654763 0.071785234
0.0104636075 0.08173177 0.035806023 0.08212075 0.08152212 0.0030064709 0.11116084 -0.014177132
0.10121067 0.063613534 0.06195763 0.080612645 0.07356083 -0.006910624 0.018354116 0.083520256
0.0023618056 0.066335924 -0.034943815 0.05537572 0.066877596 0.05447103 0.044590827 0.04274739

layers.10.weight f4 [64]
00000000: 03cd 8a3f 1c32 8d3f c467 8b3f dc6c 8d3f
00000010: 85ca 8d3f 9090 8d3f 8382 8d3f 0c76 8c3f
00000020: 5b73 8d3f 7aa7 8d3f 7ddf 8a3f fb6c 8d3f
00000030: 00de 8c3f f698 8d3f 47b1 8d3f 646e 8d3f
00000040: 3732 8e3f a5ab 8d3f fa9a 8d3f 4981 8d3f
00000050: 154c 873f 7c40 8b3f 6fbd 8d3f 2e4b 8d3f
00000060: 8052 8c3f 39ef 8d3f d797 8d3f f99b 8d3f
00000070: e29e 8a3f 348b 8d3f 8889 863f d533 8d3f
00000080: 2d60 8d3f 3284 8d3f 56c6 8b3f d82d 8d3f
00000090: c904 8e3f c954 883f bc4c 8d3f 0ba5 8d3f
000000a0: 32f5 8a3f a79a 8d3f 026e 8d3f 1364 8d3f
000000b0: 733c 8d3f cb74 8d3f bae0 8d3f c98e 8d3f
000000c0: ee82 8d3f b0b9 8d3f 7ce4 8c3f ff56 8d3f
000000d0: 1dfa 8b3f f53c 8d3f 3210 8e3f 33d0 8d3f
000000e0: 66ce 8d3f fdf2 8c3f 8a4d 8d3f 06f2 8b3f
000000f0: 3435 863f 0c33 8e3f 5c89 8d3f 2aac 8c3f
1.0843815 1.1030917 1.0891042 1.1048846 1.1077429 1.1059742 1.1055454 1.0973525
1.1050829 1.1066735 1.0849453 1.1048883 1.1005249 1.1062305 1.1069726 1.1049314
1.1109074 1.1068007 1.106292 1.105508 1.0570093 1.0879054 1.1073436 1.1038568
1.0962677 1.108863 1.1061963 1.1063224 1.0829737 1.1058106 1.0510721 1.1031443
1.1044976 1.1055968 1.0919902 1.1029615 1.109521 1.0650874 1.1039042 1.1065992
1.0856078 1.1062821 1.1049197 1.1046165 1.1034073 1.1051267 1.1084206 1.10592
1.1055582 1.1072292 1.1007228 1.1042174 1.0935704 1.1034228 1.1098692 1.1079162
1.1078613 1.1011654 1.1039288 1.0933235 1.0484986 1.1109328 1.1057544 1.099004

layers.10.bias f4 [64]
00000000: 3a1b 7e3d fd03 d33d 23e1 a33d fb08 d93d
00000010: 81e4 d03d 9662 d73d 0122 d83d 20e5 903d
00000020: 068c d73d e6e7 d83d 9eff c73d 1a0a e23d
00000030: 034c ba3d b65b dc3d 5f2f d73d 5f8c d83d
00000040: 62b7 c03d e83b dd3d 27af c83d 71ce de3d
00000050: 1478 403d cbf2 a23d ce8a da3d 13c0 d73d
00000060: 1207 833d b7cd dc3d 4dbe d93d f1fe d93d
00000070: c455 aa3d dded b73d 8b0b 463d 1a9c d73d
00000080: 25e6 dd3d 603f d83d 007c a43d b863 d33d
00000090: 9e05 e03d aea7 5e3d c92f de3d e000 da3d
000000a0: 687f 963d 0188 d73d 313e d83d 6ebb d93d
000000b0: 1137 e33d ae0c da3d 1037 df3d 1c9d da3d
000000c0: 324c c33d 0b08 e33d 3187 cc3d 7f29 d23d
000000d0: 6cc4 9f3d 1402 bd3d 2a78 c43d ea18 e03d
000000e0: 6768 de3d 5c02 d13d c35d e13d 07f5 863d
000000f0: 1841 2d3d 57c9 cc3d 48f4 da3d 235a c23d
0.062037684 0.10303495 0.08001926 0.10597416 0.10199834 0.10516851 0.10553361 0.07074952
0.10524754 0.10591106 0.09765552 0.11037083 0.09096529 0.1075968 0.10507082 0.10573649
0.094099775 0.10802442 0.09799033 0.10879219 0.046989515 0.07956465 0.10671006 0.10534682
0.06397833 0.107814245 0.10632 0.10644329 0.0831714 0.08980916 0.048350852 0.10527821
0.10834912 0.10558963 0.080314636 0.10321754 0.109385714 0.05435913 0.10848958 0.10644698
0.073485196 0.105239876 0.10558737 0.106314525 0.110944875 0.1064695 0.10899174 0.106744975
0.095360175 0.110855184 0.09986723 0.10261821 0.078011364 0.09228912 0.09593232 0.10942252
0.10859757 0.10205528 0.11004212 0.06589704 0.042298406 0.0999934 0.10691124 0.094898485

layers.10.running_mean f4 [64]
00000000: 5f32 f93e 7bec cd3e 723e a53e 6be5 1f3f
00000010: 50ea f13e 93d7 153f bec5 f13e 2089 b73e
00000020: be3f cf3e 875e 003f 9936 fd3e 4ac8 fd3e
00000030: a238 b63e 0106 0b3f 8a01 ed3e 4103 e23e
00000040: 23c4 e73e 7db9 f13e 0327 013f 3755 db3e
00000050: 92d5 413f f902 c03e 16dc c73e 662b ee3e
00000060: 111e bd3e 6658 cc3e b192 003f 9b90 f73e
00000070: 9382 cd3e 4a05 b83e d5ec b23e d343 013f
00000080: 42e6 fb3e ce6e dc3e b3d7 f93e 220d ce3e
00000090: 2da0 063f f4e4 213f 1563 bd3e a176 ed3e
000000a0: 38c8 f43e 678e 063f 4b38 143f 7069 133f
000000b0: 0682 db3e 1f4f e13e 9a7d 063f f690 f13e
000000c0: cf1a b63e d0cd d63e 3895 cf3e c56d e03e
000000d0: 40ad cf3e cbdc b23e 2a63 e83e 6512 e03e
000000e0: a94a d83e 0bc2 013f 3e57 b43e 8779 283f
000000f0: 293b a93e 474c dd3e e902 db3e f2e2 ce3e
0.48671243 0.40219483 0.32274204 0.6245944 0.4724908 0.58532065 0.47221178 0.35846806
0.4047832 0.5014424 0.49455717 0.4956687 0.35590082 0.54306036 0.46290237 0.44143108
0.45266828 0.4721183 0.5045015 0.4283845 0.7571651 0.37502268 0.390351 0.46517485
0.36937 0.39911193 0.50223833 0.48352513 0.40138683 0.35941535 0.34946314 0.50494117
0.4919911 0.43053287 0.48797378 0.40244395 0.5258816 0.6323998 0.36989656 0.4637957
0.47809005 0.5256104 0.57898396 0.5758276 0.42872638 0.44005677 0.525354 0.4718091
0.35567328 0.41953897 0.40543532 0.43833748 0.40561867 0.34934077 0.45388156 0.43764034
0.4224446 0.5068671 0.3522281 0.65810436 0.33052948 0.43222257 0.42775658 0.4040752

layers.10.running_var f4 [64]
00000000: 0f90 e43e c744 d03e 6da6 793e 7c76 523f
00000010: 9cc4 cb3e eade fd3e d44f f03e a939 873e
00000020: deb0 853e e40a ed3e d75c bf3e e542 093f
00000030: 43e9 7a3e 4712 183f eaf7 e13e 00ca 7d3e
00000040: 9756 d73e 09a8 113f dd59 b13e edd8 b73e
00000050: 2e49 863f 8dc9 8a3e 0ea5 893e 581b e83e
00000060: 5699 b13e 6b60 6e3e 4262 c73e 7794 e13e
00000070: e14f 903e aea7 693e e6d8 5e3e 7c1e c53e
00000080: 13c6 043f a899 e43e 3cee 003f e7d5 4b3e
00000090: f958 1b3f 0b2c 123f ebc3 d33e cf0d b43e
000000a0: 58d9 e63e 52fc 003f 5131 243f 7b73 043f
000000b0: 4c48 c83e 72d5 a73e 497e f33e 2abe ae3e
000000c0: 3ed3 4c3e eb6f 6a3e 1fa0 9b3e 4c7b bc3e
000000d0: 289f a93e 346c 813e 244d c43e 846a d63e
000000e0: 9d94 a63e c18b c83e 696e 8c3e 7ab3 5f3f
000000f0: e5bc 6f3e 18ad a83e cb41 b13e 7a16 a83e
0.44641158 0.40677473 0.24379893 0.8221204 0.3979844 0.49584132 0.46935904 0.2641118
0.261115 0.4629737 0.3737552 0.536177 0.24503045 0.5940289 0.44134456 0.24784088
0.4205825 0.56897026 0.34638873 0.3590769 1.0491083 0.27106896 0.2688374 0.45333362
0.346873 0.23278968 0.38942152 0.44058582 0.28185943 0.22817871 0.21762428 0.3849982
0.5186474 0.4464848 0.50363517 0.19905816 0.60682636 0.57098454 0.4136041 0.35166785
0.45087695 0.5038501 0.6413775 0.5173871 0.39117658 0.32780033 0.47557285 0.3412946
0.20002457 0.22894256 0.303956 0.36812818 0.3312924 0.25277865 0.38340104 0.4187814
0.32535258 0.39169124 0.27427986 0.87383235 0.23411901 0.3294456 0.3462051 0.32829648

actor_classifier.weight f4 [15, 256]
00000000: 5c71 42bd 10dd ecbc 2a56 d73c 3105 2abd
00000010: a76a 1dbc 52db 2abd eb6b 133d c17e 2b3d
00000020: 69da 74bd 75b3 943c 5594 8d3c 3702 053d
00000030: 3a29 63bd 2719 e5bc 231f d33c 771c 223b
00000040: 59b2 30bd 5a03 933c 1089 833d 7702 18bd
00000050: 51e4 34bd 7c0c 1cbd e1ff 56bd 3392 243d
00000060: 07d4 da3c 8ff2 e2bc eccf e5bc 5ef9 15bd
00000070: 0d37 673d f4af 07bd 7910 f1bc 529d 3a3d
00000080: 2432 b6bb 3af9 34bd 87d9 0f3c 1d1b 7a3c
00000090: 62b9 dfbc 77d7 2dbc 64d7 19ba 38d8 2abd
000000a0: 99c7 23bd a77b 383d 4894 473d 42fa 07bd
000000b0: 0f5a 7dbb 3a2f 25bc d65d 7dbd e840 7d3a
000000c0: de94 403d 89b7 febc d879 ecbc 39db 41bd
000000d0: 9d9b ebbc 9c2f 1cbd 4306 093d 059c 5f3b
000000e0: 88c9 423b 9765 883c 8d1b dbbc 2177 83bb
000000f0: 5db6 26bd 4385 2dbc 6ba3 da3c f4b7 1c3d
00000100: 11b6 3bbd 34a0 4b3d 4bb1 3bbc 85d6 2dbd
00000110: a06f 2a3d a1b8 0c3d 575e 423d d49f 33bd
00000120: 8b2a d53c a6b0 42bd a4ee 863d 8e87 51bd
00000130: 2e8a 01bd 747e 19bb baf5 cf3c 039e 71bd
00000140: 8850 eb3c 7701 e7bc 73a9 653d 4eaa ca3b
00000150: 5f71 163d c387 5fba 7b26 5e3d d671 3abd
00000160: e143 abbc 5006 dc3c 5962 38bc c165 7a3d
00000170: ed8a a4bc 8e2c 49bd 0ef6 08bd 5312 59bd
00000180: 1869 02bd d1f6 c13b 6d5f 47bc 6e87 853c
00000190: a064 1d3d a539 593d 13b1 66bd 453c 2b3d
000001a0: 0d88 273d 2d45 07bd a266 cfbc 5509 d4bc
000001b0: 7eef 59bd a04b 4ebd 45c3 673d 28bc 783c
000001c0: 5f8f 4a3c 0236 91bc 7ec3 423d be29 5fbb
000001d0: 46da 10bd a8ae 873d bdf0 bdbc 9e6c 07bd
000001e0: 8fc1 3f3d 4dfe ba3b 8f56 653d c17f 423c
000001f0: ddb6 be3c f076 1d3d aebd 51bd 60ec f53c
00000200: 8071 49bd 0f8f 6a3d fa3b cbbc 4a19 213d
00000210: 714a 533d 8c11 383d 0604 583d 300f 22bc
00000220: efc3 03bd 73b3 1b3d 40d2 babc de48 2bbd
00000230: de11 383b e212 343c 3653 b3bb 316a 3e3d
00000240: 9df5 af3b cc2b f9bb 6bca 47bc b605 a9bc
00000250: b41d f5bc e739 1c3d 366d 03bd c430 70bc
00000260: 55a2 8e3c 8b2b 56bd dd21 1d3d b9f0 4b3c
00000270: 100b 2d3c 190d 963b 0ee7 21bd ccd7 403b
00000280: 0ee7 c43c aac3 f6bb 3a86 7a3d 8bd5 253d
00000290: ba5d 18bd 014a b0bc 7715 373d 1c8d b23c
000002a0: 6848 47bd de7a 583d d610 b83c 1583 153d
000002b0: ed0f 12bd 6fca 83bb b1c5 22bd c983 1a3c
000002c0: 0bd0 c03c 2fe8 54bd d47d 213d 2782 5f3d
000002d0: 7b6d a0bc 3938 bebb 2426 99bc 3b9e 293c
000002e0: 5411 583d 0d17 853d 42de 74bc 5b99 3abd
000002f0: 6352 003c fe77 69bc f266 9abc 2ea1 0bbc
00000300: e501 0e3d 69ef 2c3d c24e 7ebd d046 24bd
00000310: fd2d 96bb 7dc5 6e3d 4b82 b3bc 2110 cabb
00000320: d719 06bd acfe bbbc 6a9e 38bc 6e7f b33c
00000330: 7325 4b3d e547 57bc 4ab9 fc3b 88f5 8bbc
00000340: 5526 973c 5474 5ebd 986a 673d 3b1e 85bc
00000350: 41e6 12bc 81f6 063d 4092 5a3d d8d4 1d3c
00000360: 6990 82bc 043b cf3c a62e 563d 8a04 59bc
00000370: d110 1ebd 73ae ef3c 606d 7c3d eea2 17bd
00000380: b712 293d 2ee7 733d ae4a f33b a182 70bd
00000390: ffa2 d33c 5597 90bb a4ba cfbb af9f 703b
000003a0: 37c0 e13c f44a 083d 1898 903c 1439 afbc
000003b0: 2beb 483d 394a 5dbd 0412 48bd 6b89 c73c
000003c0: 11ca 79bc 0122 d6bc 3337 773d cd78 b9bc
000003d0: 77df 4abc e1d3 ff3c d25b 813d f0a8 bc3a
000003e0: 1da2 333d f0fb bebb 0cf6 2ebc 1127 8c3c
000003f0: 136e 5abb c061 523b ef3e 5ebc 3051 fa3c
-0.04747139 -0.028914005 0.026286203 -0.041508857 -0.009607947 -0.041713066 0.03599159 0.04186893
-0.059778605 0.018151978 0.017282644 0.032472815 -0.05545924 -0.027966095 0.025771683 0.0024736205
-0.043138836 0.017945934 0.06422627 -0.037111726 -0.044163052 -0.038097844 -0.05249012 0.04017849
0.02671243 -0.027703552 -0.028053246 -0.03661477 0.056448985 -0.033126786 -0.0294268 0.04556019
-0.0055601764 -0.044182993 0.00877989 0.015265253 -0.027310077 -0.010610453 -0.00058685825 -0.04171011
-0.039985273 0.0450398 0.048725396 -0.03319765 -0.0038658415 -0.0100820605 -0.061857067 0.0009660856
0.04701697 -0.031093376 -0.028866693 -0.047328208 -0.028760726 -0.03813134 0.033453237 0.0034120094
0.0029722173 0.016650004 -0.026746536 -0.004012004 -0.04070126 -0.010590854 0.026689252 0.03826137
-0.04582793 0.04971333 -0.011455844 -0.04244091 0.04161036 0.034355763 0.04745325 -0.043853596
0.026021263 -0.047531746 0.06588486 -0.051154666 -0.03162592 -0.002342132 0.025385726 -0.058988582
0.028724924 -0.02819894 0.056069802 0.0061848527 0.036729213 -0.0008527005 0.054235917 -0.04551872
-0.02090639 0.026858479 -0.011253917 0.061132196 -0.020085776 -0.049114756 -0.03343778 -0.05299599
-0.031838506 0.0059193154 -0.012168747 0.01629993 0.03842604 0.05303349 -0.056321215 0.041805524
0.040901233 -0.033024956 -0.025317494 -0.025883356 -0.053206913 -0.05036509 0.056582708 0.015181579
0.012363284 -0.017725948 0.047549717 -0.003405198 -0.03536441 0.0662511 -0.023186082 -0.03306257
0.04681545 0.0057065845 0.05599075 0.011871279 0.023280555 0.038443506 -0.051206283 0.030019939
-0.049180508 0.057265338 -0.024808872 0.03933076 0.051584665 0.04493861 0.052738212 -0.009891316
-0.03216928 0.038012933 -0.022805333 -0.04181754 0.0028086822 0.01099083 -0.005472566 0.04648799
0.0053698556 -0.007604098 -0.012194256 -0.020632606 -0.02992139 0.038141157 -0.032086574 -0.014660064
0.01741139 -0.05228762 0.038362373 0.0124475295 0.01056172 0.004579198 -0.03952699 0.00294255
0.024035957 -0.007530649 0.061163165 0.040486854 -0.03719876 -0.021519663 0.044698205 0.021795802
-0.048653036 0.05285155 0.022468966 0.036501963 -0.03565972 -0.0040219347 -0.039739314 0.009430834
0.023536703 -0.05197924 0.03942664 0.054567482 -0.019583454 -0.005805042 -0.018694945 0.0103526665
0.0527509 0.06498537 -0.0149455685 -0.045556407 0.0078321425 -0.0142498 -0.018847916 -0.008522315
0.034669776 0.042220507 -0.062086828 -0.040106595 -0.004583119 0.05829381 -0.021912714 -0.0061664735
-0.032739487 -0.022948585 -0.011268238 0.02191135 0.04959626 -0.0131397 0.007712518 -0.017084852
0.018450895 -0.054310158 0.05649814 -0.016249767 -0.00896603 0.03294993 0.05336213 0.009633265
-0.015938 0.025296696 0.05229058 -0.013245711 -0.038590256 0.029257989 0.061627746 -0.037020616
0.041277613 0.059546642 0.007424674 -0.058718327 0.025834559 -0.0044125714 -0.006339388 0.0036716273
0.027557475 0.033274606 0.017650649 -0.021389522 0.0490524 -0.054025862 -0.048845306 0.024357518
-0.01524593 -0.026139261 0.060355376 -0.02264061 -0.01238238 0.031228961 0.063163415 0.0014393609
0.043855775 -0.005828373 -0.010678779 0.017108472 -0.003332977 0.003210172 -0.013564809 0.030556291

actor_classifier.bias f4 [15]
00000000: ad3e 69bd 11bf e93b 942e 41bb 2f17 b8bc
00000010: c73f 58bd 61e5 f3bb 2ff3 45bd 9c53 6fbd
00000020: b4e3 57bd df76 de3b 6f72 24bd 5a03 26bc
00000030: 9b17 a2bb e1bc 2cbc c733 953c
-0.056944538 0.0071333726 -0.0029477226 -0.022471992 -0.052795198 -0.0074431156 -0.04832762 -0.058429345
-0.05270739 0.006789073 -0.040148195 -0.010132635 -0.0049466616 -0.010543079 0.018213166
