Saved Models/model_checkpoint_bigfish_42_0.0004_1200_6_256_0.99_0.95_0.2_1024_0.75.pth (torch, 153169 bytes, 21 tensors)

layers.0.weight f4 [32, 3, 8, 8]
0.17678349 0.1480599 -0.06927581 -0.03387184 0.20894213 0.15790929 0.010832827 -0.068716586
-0.07313036 -0.099832915 -0.11070695 -0.16356686 -0.12684858 -0.1710967 -0.18216078 -0.15157698
-0.044315644 -0.016363682 0.010353195 -0.023215178 -0.06573302 -0.06791384 -0.006711936 -0.035143714
0.03307153 -0.035640966 -0.04057182 -0.1435307 -0.044449404 0.034529664 0.052867673 0.024348851
-0.013392895 0.019366466 -0.029772347 -0.08162976 -0.054335658 -0.01689722 0.04699657 -0.02262594
0.037503928 -0.04107063 -0.04770047 -0.026276363 -0.0829579 0.03191589 0.037880987 -0.011773433
0.088479936 -0.06535287 -0.06902754 0.01290672 -0.025230525 -0.0084219435 0.019086499 -0.08201371
0.2369795 -0.040167745 -0.15607375 -0.11881057 -0.0072713154 0.08654034 0.023632744 -0.074450426
0.20384756 0.050312232 -0.066542484 -0.048547573 0.13267168 0.1527378 0.020702302 -0.044585876
-0.047042947 -0.14331411 -0.10147965 -0.10512518 -0.11280841 -0.06192808 -0.19524157 -0.2471842
-0.090440266 -0.102560766 -0.19380005 -0.12707113 -0.08166457 -0.016811423 0.011546072 -0.043033604
0.045972526 0.080003455 0.01034942 -0.047899034 -0.14584546 -0.059201356 0.03975591 -0.006305173
0.1019487 0.13470487 0.06677271 0.04814653 -0.055871125 0.047581486 0.026771268 0.067467615
0.055583358 0.13144189 0.17626832 0.053167176 -0.0027303628 0.028680092 0.14433452 0.18198602
0.058348287 -0.019462753 -0.046365358 -0.08862477 -0.01867248 0.04559557 -0.08171814 0.04167407
0.27725694 0.09402677 0.07345797 -0.017764216 0.12644538 0.22219022 0.15509567 -0.043400817
0.025962403 -0.07896965 -0.22227022 -0.12297299 -0.1316116 -0.031100469 -0.06702133 -0.12040575
0.11103474 -0.10604322 -0.24774589 -0.360848 -0.26001996 -0.066273205 -0.06918747 -0.020302918
0.03706451 -0.18206137 -0.05496154 -0.13156827 -0.029515231 0.12026236 -0.04450981 -0.08957785
0.008598327 0.06193587 0.01256333 0.035837505 0.052127305 0.10595652 0.23154573 0.19047411
0.041183997 0.016091527 0.105345465 0.05995491 0.05859095 0.12459425 0.11604835 0.14646713
-0.05212159 0.005174532 0.14564453 0.07411519 0.083377525 0.059642345 0.1421295 0.058540557
-0.19885188 -0.12944314 -0.06636 -0.08726468 -0.031570844 0.040070824 -0.043607533 -0.045601577
-0.12245025 -0.07533651 -0.07713829 -0.07752287 -0.03998132 -0.040120654 -0.0348046 -0.20319304
-0.06333435 0.08225887 0.018766113 0.012290319 0.118872635 0.050639845 -0.13967386 -0.18912473
-0.07683127 -0.093125895 0.09782421 0.004838243 0.0016884287 0.0039800657 -0.05241943 0.019075368
-0.062711604 -0.12541461 0.02423752 0.0035224783 -0.0575109 -0.01850551 -0.027713673 -0.1708252
-0.078833595 -0.08166686 0.04918765 0.049082026 0.02241976 -0.19786648 -0.18225366 -0.09027214
-0.028348299 -0.07214894 0.03194266 0.09878234 0.087294035 -0.12191905 -0.07533459 -0.12621494
0.06424302 0.007847053 0.028061064 0.025936352 0.0150570655 -0.019459106 -0.079477586 0.019405294
-0.102263115 0.112120494 0.12575452 0.068562366 0.03772225 0.08313343 0.12521377 0.017789537
-0.20279038 -0.2554778 -0.16240798 -0.218852 -0.12545338 -0.09289395 0.13771416 0.17184052
00000000: bb06 353e 049d 173e 7ae0 8dbd 33bd 0abd
00000010: edf4 553e f9b2 213e 2b7c 313c 48bb 8cbd
00000020: 5fc5 95bd 3375 ccbd 53ba e2bd 127e 27be
00000030: 98e4 01be f933 2fbe 5b88 3abe ff36 1bbe
00000040: 5284 35bd 210d 86bc 72a0 293c c22d bebc
00000050: 099f 86bd 6916 8bbd cdef dbbb dbf2 0fbd
00000060: 0376 073d 43fc 11bd a32e 26bd b6f9 12be
00000070: 9410 36bd fa6e 0d3d c68b 583d 3e77 c73c
00000080: e06d 5bbc 6ca6 9e3c 23e5 f3bc 812d a7bd
00000090: 118f 5ebd 0a6c 8abc 7a7f 403d 095a b9bc
000000a0: b89d 193d ad39 28bd 9161 43bd 8741 d7bc
000000b0: d5e5 a9bd 3cba 023d 1829 1b3d 5be5 40bc
000000c0: f834 b53d bad7 85bd 505e 8dbd b576 533c
000000d0: 3fb0 cebc 31fc 09bc 4a5b 9c3c cef6 a7bd
000000e0: c1aa 723e ef86 24bd ccd1 1fbe f552 f3bd
000000f0: 3744 eebb 103c b13d 7599 c13c 7779 98bd
00000100: 6abd 503e 3314 4e3d 6d47 88bd d2d9 46bd
00000110: 16db 073e 4c67 1c3e e097 a93c ae9f 36bd
00000120: 1bb0 40bd efc0 12be 90d4 cfbd df4b d7bd
00000130: 1808 e7bd 4ca8 7dbd 68ed 47be db1d 7dbe
00000140: bf38 b9bd 610b d2bd 8573 46be ef1e 02be
00000150: c13f a7bd 1cb8 89bc bc2b 3d3c 0144 30bd
00000160: b04d 3c3d dad8 a33d 9d90 293c c731 44bd
00000170: 8358 15be 1f7d 72bd 18d7 223d a09b cebb
00000180: 7bca d03d 13f0 093e 21c0 883d 4c35 453d
00000190: 1fd9 64bd cee4 423d 6b4f db3c 762c 8a3d
000001a0: 60ab 633d b498 063e af7f 343e d3c5 593d
000001b0: e3ef 32bb 83f2 ea3c 6ecc 133e 8b5a 3a3e
000001c0: 9dfe 6e3d 5a70 9fbc 9ae9 3dbd e780 b5bd
000001d0: 07f7 98bc 6cc2 3a3d d75b a7bd 6eb2 2a3d
000001e0: 9ff4 8d3e 1b91 c03d 2271 963d 4386 91bc
000001f0: e67a 013e d585 633e 66d1 1e3e 0ec5 31bd
00000200: 1baf d43c d7ba a1bd ce9a 63be 43d9 fbbd
00000210: 31c5 06be 69c6 febc 7b42 89bd 4a97 f6bd
00000220: 2f66 e33d 302d d9bd 19b1 7dbe 12c1 b8be
00000230: 5621 85be 3fba 87bd 29b2 8dbd 4e52 a6bc
00000240: f5d0 173d 4c6e 3abe 5a1f 61bd d5b9 06be
00000250: edc9 f1bc 1d4c f63d eb4f 36bd 9874 b7bd
00000260: ffdf 0c3c 78b0 7d3d 6dd6 4d3c 59ca 123d
00000270: 7183 553d bbff d83d 531a 6d3e a50b 433e
00000280: 8db0 283d 61d2 833c 5dbf d73d 4893 753d
00000290: 10fd 6f3d 452b ff3d c2aa ed3d 7bfb 153e
000002a0: 737d 55bd 1f8f a93b d723 153e b4c9 973d
000002b0: d6c1 aa3d 884b 743d 658a 113e 39c8 6f3d
000002c0: d49f 4bbe be8c 04be c0e7 87bd d3b7 b2bd
000002d0: 6e50 01bd 4e21 243d d09d 32bd b8c8 3abd
000002e0: 32c7 fabd 074a 9abd aefa 9dbd 4fc4 9ebd
000002f0: 74c3 23bd 8e55 24bd 458f 0ebd d611 50be
00000300: 71b5 81bd 5777 a83d 64bb 993c 565d 493c
00000310: 7f73 f33d ba6b 4f3d aa06 0fbe eaa9 41be
00000320: b659 9dbd cab8 bebd 0f58 c83d 208a 9e3b
00000330: 444e dd3a 366b 823b c2b5 56bd f243 9c3c
00000340: f16e 80bd b06c 00be c38d c63c 61d9 663b
00000350: 8d90 6bbd de98 97bc c907 e3bc cdec 2ebe
00000360: 8273 a1bd f440 a7bd fd78 493d 3c0a 493d
00000370: a5a9 b73c 839d 4abe b4a0 3abe 9ae0 b8bd
00000380: b13a e8bc d3c2 93bd 4fd6 023d 654e ca3d
00000390: 37c7 b23d b2b0 f9bd 0649 9abd 7d3e 01be
000003a0: d891 833d ed90 003c 51e0 e53c 7978 d43c
000003b0: e9b1 763c b468 9fbc 25c5 a2bd daf7 9e3c
000003c0: 536f d1bd 6e9f e53d cbc5 003e 6d6a 8c3d
000003d0: a582 1a3d dc41 aa3d 0a38 003e 5dbb 913c
000003e0: 48a8 4fbe fccd 82be 474e 26be bd1a 60be
000003f0: da76 00be 2f3f bebd f104 0d3e f6f6 2f3e

layers.0.bias f4 [32]
0.099633455 0.07483705 0.0020853602 -0.099383034 0.11130042 0.066285424 0.013928682 0.0070846095
0.08588082 -0.022571485 0.09757937 0.057572756 0.03222988 0.019205248 -0.19977817 0.020009011
-0.21705167 0.0064167776 -0.019520491 -0.013754262 0.040568866 0.025762606 -0.15808721 -0.062016577
0.08340958 0.00985286 -0.119065665 0.07233372 -0.0067023067 -0.12525444 0.02379424 0.07901573
00000000: a00c cc3d 2b44 993d 8aaa 083b 5589 cbbd
00000010: 79f1 e33d a7c0 873d 2035 643c 0326 e83b
00000020: 49e2 af3d d6e7 b8bc b1d7 c73d 69d1 6b3d
00000030: 7b03 043d 5354 9d3c a692 4cbe f0e9 a33c
00000040: cb42 5ebe d543 d23b 70e9 9fbc 8e59 61bc
00000050: 8a2b 263d 1a0c d33c 9de1 21be 1805 7ebd
00000060: a4d2 aa3d e46d 213c b3d8 f3bd b423 943d
00000070: 069f dbbb b342 00be 23ec c23c 00d3 a13d

layers.2.weight f4 [32]
1.0704713 0.97244555 1.0885096 1.0596802 0.9325573 0.93808556 0.87061685 0.99041736
1.0851192 0.93650204 1.1145142 0.9274474 1.0334588 0.92998576 1.0031729 1.1486261
1.0064583 0.9982191 1.138103 1.047517 0.93966275 0.84490854 1.0275065 1.0568223
1.0337158 0.9929514 1.0977103 1.1578954 1.0006515 1.0407504 0.8892079 1.0932482
00000000: 3405 893f 31f2 783f 4854 8b3f 9aa3 873f
00000010: 13bc 6e3f 6026 703f bfe0 5e3f fe8b 7d3f
00000020: 30e5 8a3f 99be 6f3f 67a8 8e3f 316d 6d3f
00000030: 6148 843f 8c13 6e3f f867 803f 2e06 933f
00000040: a0d3 803f 498b 7f3f 5cad 913f 0915 863f
00000050: bd8d 703f ed4b 583f 5585 833f f445 873f
00000060: cd50 843f 1032 7e3f c581 8c3f eb35 943f
00000070: 5915 803f 4f37 853f 21a3 633f 8fef 8b3f

layers.2.bias f4 [32]
0.13033147 0.08697189 0.03154911 0.14690687 0.12545116 0.0035993063 0.08618426 0.17038488
0.14079818 -0.038314957 0.18880045 0.1292915 -0.008896403 0.093210526 0.089700185 0.08092298
0.15056252 0.0791204 0.027011149 0.112769686 0.04064129 0.14240393 0.019430732 0.1003612
0.09995331 -0.004751989 0.1393204 0.14613718 0.1408425 0.016226782 0.116512045 0.13639304
00000000: 9d75 053e 511e b23d a439 013d c16e 163e
00000010: 4576 003e 57e2 6b3b 6081 b03d 6079 2e3e
00000020: 662d 103e 25f0 1cbd e854 413e fe64 043e
00000030: 38c2 11bc 29e5 be3d bbb4 b73d f3ba a53d
00000040: 102d 1a3e e009 a23d 7c46 dd3c cbf3 e63d
00000050: 7b77 263d 56d2 113e 332d 9f3c 2c8a cd3d
00000060: 52b4 cc3d 93b6 9bbb 02aa 0e3e fca4 153e
00000070: 0439 103e 07ee 843c de9d ee3d 9eaa 0b3e

layers.2.running_mean f4 [32]
0.11262783 0.07183196 0.0066646584 0.007344137 0.13212658 0.061732527 0.017139912 0.018481726
0.09771368 0.0056391163 0.11375996 0.061704285 0.03682359 0.028315417 0.0059764665 0.027256249
0.017168956 0.011046306 0.009152394 0.0065382104 0.03942355 0.058372386 0.0054972516 0.007907293
0.07987537 0.013078844 0.024581112 0.073430605 0.011475287 0.0036093947 0.023495253 0.087978736
00000000: 6ba9 e63d a21c 933d 3563 da3b 16a7 f03b
00000010: 314c 073e 3fdb 7c3d 0069 8c3c fd66 973c
00000020: 1c1e c83d 56c8 b83b fbfa e83d a2bd 7c3d
00000030: 55d4 163d bcf5 e73c 3cd6 c33b 7f48 df3c
00000040: e9a5 8c3c 91fb 343c ecf3 153c 7c3e d63b
00000050: 977a 213d e217 6f3d 4a22 b43b 978d 013c
00000060: b395 a33d a648 563c 545e c93c c962 963d
00000070: d802 3c3c 988b 6c3b 1e79 c03c 322e b43d

layers.2.running_var f4 [32]
0.009592176 0.0017774043 0.0009946397 0.0038134898 0.019670002 0.0009914024 0.0013654513 0.00401842
0.008528677 0.002083246 0.014113375 0.0044644345 0.0031898718 0.005750685 0.0024432137 0.004750008
0.010172295 0.001757257 0.0043782294 0.0023002804 0.0009206721 0.031104723 0.0023295523 0.0037587334
0.0030963756 0.0011036977 0.019750481 0.0026787936 0.0054989643 0.0009688741 0.0012298235 0.00867315
00000000: 8128 1d3c cbf7 e83a 925e 823a beeb 793b
00000010: fc22 a13c f2f1 813a f1f8 b23a f3ac 833b
00000020: ddbb 0b3c 1187 083b c93b 673c 644a 923b
00000030: 2b0d 513b 3e70 bc3b 531e 203b f5a5 9b3b
00000040: b3a9 263c c353 e63a 4077 8f3b 4dc0 163b
00000050: 4259 713a 55cf fe3c 67ab 183b 1555 763b
00000060: 90ec 4a3b f3a9 903a c3cb a13c b38e 2f3b
00000070: a830 b43b 0afc 7d3a 0732 a13a d419 0e3c

layers.4.weight f4 [64, 32, 2, 2]
-0.002460549 0.06213 0.08295144 -0.0054296833 -0.07755919 0.0015376452 -0.018598521 0.02119755
0.07698803 -0.103237495 -0.19492713 -0.09860465 -0.1484344 0.050631072 0.06301092 0.075809546
-0.14344917 -0.07165314 0.06323284 0.05253109 -0.051367387 -0.07157608 0.10388343 0.004840651
0.14673081 -0.0045769108 -0.16380852 0.069843344 -0.05012932 -0.0076635242 -0.05828103 0.10178645
-0.075501725 0.06727481 -0.11851726 -0.0117426785 -0.011233218 -0.02286933 0.01590229 -0.14559293
-0.038222324 -0.029705156 -0.17437656 -0.014154051 -0.021528387 0.0510214 0.09117669 -0.093229026
-0.04138411 -0.044898715 -0.042249475 -0.067018405 -0.03559213 -0.14867477 -0.061303984 -0.15579137
-0.10532589 -0.1410032 0.0329188 0.041211963 0.024547826 -0.04784332 -0.11538586 0.011524344
-0.06995606 -0.09464659 0.0017404336 -0.16553588 0.118607394 -0.16373561 0.0063820896 0.12248167
0.09120156 0.21720907 -0.13218693 -0.19829693 -0.13142985 -0.05282527 -0.017823646 -0.100500144
0.09648474 -0.06471659 -0.058049053 -0.11846491 -0.10675542 0.00016384522 -0.03429381 0.050862804
0.0819788 -0.3077625 -0.094673105 0.073020935 -0.25371608 -0.08838933 0.09268157 0.17248853
-0.11789663 0.015193196 -0.0950534 0.11131231 -0.13897002 0.078481324 -0.129325 0.021803813
-0.15331635 -0.22693582 0.12694041 0.014366725 0.16806585 0.039731115 -0.1113208 -0.14860545
-0.30256996 -0.17792284 0.037825145 -0.122266956 0.17720014 -0.21797583 0.06489541 -0.10437876
0.06657203 -0.07424834 0.07997348 -0.0069187563 0.07390569 0.12706187 -0.08795834 -0.0914115
0.16289935 -0.19476488 -0.007625219 -0.059392113 -0.011216457 -0.02320003 0.01443152 -0.009996566
0.052250847 0.07579533 -0.09678199 0.033880997 -0.08751191 -0.22373715 -0.13881806 -0.0061489763
0.10600717 0.03833212 0.0048129912 -0.051970143 0.16324224 0.020253288 0.08130884 -0.03676309
0.002673999 -0.20265763 0.023866042 -0.13007557 0.21597585 -0.17938459 0.04503942 -0.13798982
0.10552506 -0.05846301 -0.019853983 -0.07935803 0.08740749 -0.088963 -0.06802662 -0.011697909
0.02937868 -0.13090906 -0.08537968 -0.21282935 0.086524814 -0.087958574 0.14924248 -0.1614904
0.00059822894 -0.043338202 -0.064260215 -0.08164657 -0.10732544 -0.07394973 -0.0019890433 0.09738844
-0.035704184 0.017898278 -0.1037793 -0.0715093 0.0908841 -0.17550878 0.04363274 -0.10130304
-0.0020532976 0.076318204 -0.16103287 -0.119007066 -0.05728559 -0.16618414 0.22965118 0.051799115
-0.037341867 -0.15691477 -0.04359395 -0.094587594 -0.045039136 -0.04579517 0.08314945 -0.033367064
0.036169365 0.017033929 -0.0087630665 -0.1316393 -0.08570358 -0.081857756 0.107738025 -0.16568087
-0.09823028 -0.101760775 -0.060447372 0.11292344 -0.025426334 -0.07027899 -0.18581146 0.08219314
0.016291933 -0.16150562 0.070834845 -0.1562663 0.16286612 -0.1530233 0.16283213 -0.15375577
-0.088204436 0.16004327 -0.058703948 0.04871093 -0.06822872 -0.13736619 0.0023959144 -0.18168172
-0.0100608505 0.03446151 0.10315497 -0.06214813 -0.066246465 0.030498734 -0.059537455 0.13332064
-0.02051751 -0.026185663 0.0645968 -0.1753692 0.07848243 -0.18767628 -0.020847812 -0.16861299
00000000: 2941 21bb 077c 7e3d 72e2 a93d 7ceb b1bb
00000010: 5ad7 9ebd d08a c93a ed5b 98bc 7ca6 ad3c
00000020: e6ab 9d3d 2e6e d3bd fa9a 47be 3cf1 c9bd
00000030: 30ff 17be 8762 4f3d df0b 813d 0942 9b3d
00000040: 57e4 12be e2be 92bd 3880 813d d72a 573d
00000050: 9c66 52bd 7b96 92bd d6c0 d43d 539e 9e3b
00000060: 9a40 163e e9f9 95bb 6cbd 27be 070a 8f3d
00000070: 6754 4dbd 4d1e fbbb 17b8 6ebd 6a75 d03d
00000080: a6a0 9abd 60c7 893d 2db9 f2bd 5d64 40bc
00000090: 880b 38bc 7658 bbbc 8545 823c 5016 15be
000000a0: 038f 1cbd 3a58 f3bc c58f 32be 65e6 67bc
000000b0: 4d5c b0bc d1fb 503d d8ba ba3d dcee bebd
000000c0: 6282 29bd b7e7 37bd c90d 2dbd f240 89bd
000000d0: 0ec9 11bd 333e 18be e319 7bbd c687 1fbe
000000e0: 1ab5 d7bd 2563 10be ddd5 063d e0cd 283d
000000f0: 8618 c93c 5bf7 43bd 6c4f ecbd 9ad0 3c3c
00000100: 1f45 8fbd 12d6 c1bd 431f e43a 3d82 29be
00000110: 6fe8 f23d 4faa 27be d920 d13b abd7 fa3d
00000120: e2c7 ba3d 0e6c 5e3e 035c 07be 5a0e 4bbe
00000130: 8c95 06be 4f5f 58bd e502 92bc 05d3 cdbd
00000140: cb99 c53d 228a 84bd d8c4 6dbd bb9d f2bd
00000150: 96a2 dabd decd 2b39 ab77 0cbd 8455 503d
00000160: 80e4 a73d 0c93 9dbe f9e3 c1bd 008c 953d
00000170: 13e7 81be 7705 b5bd d6cf bd3d d5a0 303e
00000180: ca73 f1bd e2ec 783c 5bab c2bd b5f7 e33d
00000190: 284e 0ebe d1ba a03d c66d 04be e99d b23c
000001a0: f6fe 1cbe dd61 68be abfc 013e 6a62 6b3c
000001b0: 7419 2c3e 18bd 223d 29fc e3bd 072c 18be
000001c0: 73ea 9abe 6831 36be 8aee 1a3d 1967 fabd
000001d0: f473 353e 0e35 5fbe e2e7 843d 88c4 d5bd
000001e0: eb56 883d 840f 98bd 23c9 a33d bcb6 e2bb
000001f0: de5b 973d 821c 023e 8123 b4bd f435 bbbd
00000200: 16cf 263e 7270 47be f9dc f9bb 2545 73bd
00000210: 3bc5 37bc fd0d bebc 2f72 6c3c a3c8 23bc
00000220: fc04 563d 953a 9b3d a335 c6bd cdc6 0a3d
00000230: 7239 b3bd 5a1b 65be 5226 0ebe 5a7d c9bb
00000240: 4a1a d93d 2402 1d3d 4cb6 9d3b a5de 54bd
00000250: f928 273e 39ea a53c 4085 a63d e594 16bd
00000260: 423e 2f3b 7b85 4fbe b882 c33c 8832 05be
00000270: c628 5d3e 98b0 37be 417b 383d 344d 0dbe
00000280: 861d d83d e976 6fbd d2a4 a2bc 7686 a2bd
00000290: b302 b33d 3c32 b6bd 8a51 8bbd 96a8 3fbc
000002a0: 8fab f03c 060d 06be 8bdb aebd f0ef 59be
000002b0: ec33 b13d a023 b4bd 05d3 183e bd5d 25be
000002c0: 77d2 1c3a 6683 31bd dc9a 83bd 5136 a7bd
000002d0: 71cd dbbd f572 97bd 9c5a 02bb 9773 c73d
000002e0: 8d3e 12bd 699f 923c 3e8a d4bd 7873 92bd
000002f0: 7121 ba3d 93b8 33be 3eb8 323d f877 cfbd
00000300: 9e90 06bb b84c 9c3d cde5 24be fab9 f3bd
00000310: 4ba4 6abd 2d2c 2abe ae29 6b3e 4f2b 543d
00000320: c9f3 18bd 44ae 20be 928f 32bd 24b7 c1bd
00000330: f57a 38bd b793 3bbd 424a aa3d e7ab 08bd
00000340: 5426 143d bd8a 8b3c f792 0fbc 74cc 06be
00000350: 5c85 afbd 0aa5 a7bd c1a5 dc3d 3fa8 29be
00000360: f52c c9bd f467 d0bd aa97 77bd 6844 e73d
00000370: e34a d0bc 6eee 8fbd 5c45 3ebe e154 a83d
00000380: a976 853c bb61 25be dc11 913d 4604 20be
00000390: 60c6 263e 24b2 1cbe 77bd 263e 2772 1dbe
000003a0: 87a4 b4bd 62e2 233e 8d73 70bd 1d85 473d
000003b0: 80bb 8bbd b9a9 0cbe c604 1d3b c60a 3abe
000003c0: 44d6 24bc 8327 0d3d ea42 d33d 0a8f 7ebd
000003d0: 3aac 87bd 7bd8 f93c 8cdd 73bd 3585 083e
000003e0: 5614 a8bc 5183 d6bc 544b 843d fc93 33be
000003f0: 65bb a03d 362e 40be 08c9 aabc e2a8 2cbe

layers.4.bias f4 [64]
0.09927658 0.023978734 -0.22320427 0.0756024 -0.077615194 -0.15937197 -0.12870362 0.101637565
-0.10877214 0.056661297 -0.019692674 0.021942874 0.055833336 0.013979774 0.009633242 -0.059395675
0.13477232 0.07422864 -0.021162769 0.054258298 0.009872517 0.13113078 -0.092357054 0.18318522
0.008078952 0.019921355 0.050527412 0.15215972 -0.06587286 -0.33319494 -0.11988577 0.13906305
0.11616063 0.18209128 -0.093964435 0.056711562 -0.055383146 -0.02483604 0.010213477 -0.14881219
-0.15487213 0.044170193 -0.11487161 0.22340561 -0.028317135 0.034251336 -0.03722788 -0.066967025
-0.14853992 -0.0025075898 -0.028786728 0.058436777 -0.06307427 0.17539889 -0.18207015 0.21166286
0.08727581 -0.114631 0.08547645 0.014395386 -0.055320516 -0.094501525 -0.028606785 -0.20179968
00000000: 8551 cb3d 0d6f c43c a98f 64be 6ed5 9a3d
00000010: b7f4 9ebd 6832 23be e2ca 03be 5b27 d03d
00000020: eec3 debd ad15 683d 8852 a1bc 8bc1 b33c
00000030: 7fb1 643d 6c0b 653c bfd4 1d3c e148 73bd
00000040: c101 0a3e 2f05 983d 8b5d adbc f33d 5e3d
00000050: 56c0 213c 2647 063e b225 bdbd e894 3b3e
00000060: 955d 043c 1c32 a33c d5f5 4e3d c2cf 1b3e
00000070: 5ae8 86bd 8798 aabe ac86 f5bd 8b66 0e3e
00000080: a0e5 ed3d 2376 3a3e 6d70 c0bd 624a 683d
00000090: 70d9 62bd f374 cbbc 6d56 273c 3962 18be
000000a0: cd96 1ebe ceeb 343d cf41 ebbd 71c4 643e
000000b0: 56f9 e7bc 214b 0c3d 437c 18bd 0226 89bd
000000c0: d91a 18be 6056 24bb 25d2 ebbc 675b 6f3d
000000d0: 152d 81bd c49b 333e 9970 3abe 26be 583e
000000e0: a9bd b23d a8c3 eabd 470e af3d a0da 6b3c
000000f0: c497 62bd 048a c1bd c758 eabc 93a4 4ebe

layers.6.weight f4 [64]
0.9652879 1.0353736 0.8998263 0.9618187 1.1104789 0.87173057 0.9454354 0.9581085
1.0379114 1.088205 0.9066831 1.0295913 1.0130366 0.9818619 0.9119966 0.8471311
0.9182495 0.9975771 1.0237862 0.95141995 1.0150341 1.0008566 0.99408394 0.88156533
0.9307164 0.9725979 0.91947436 0.9136128 1.0159467 1.0295969 0.91770726 0.977042
0.9344174 0.9482874 0.9625396 0.9750767 1.0373098 1.0246468 0.88210905 1.0621809
1.1350822 0.98093784 0.8813771 0.915193 0.89993125 1.1513754 0.99410033 0.92803895
1.320113 1.0949134 1.0847605 1.0560992 1.036741 1.0068312 1.115897 0.83779734
1.0020329 1.0451597 0.96941245 1.0211346 1.0384269 1.067686 0.9982469 1.1727787
00000000: 1c1d 773f 1f87 843f 045b 663f c039 763f
00000010: 2c24 8e3f bc29 5f3f 0e08 723f 9946 753f
00000020: 48da 843f 4d4a 8b3f 621c 683f a6c9 833f
00000030: 2fab 813f 4d5b 7b3f 9c78 693f 95dd 583f
00000040: 6612 6b3f 3661 7f3f 6d0b 833f 4290 733f
00000050: a3ec 813f 121c 803f 497c 7e3f 44ae 613f
00000060: 6e43 6e3f 2dfc 783f ac62 6b3f 87e2 693f
00000070: 8b0a 823f d5c9 833f ddee 6a3f 6d1f 7a3f
00000080: fb35 6f3f f7c2 723f ff68 763f a09e 793f
00000090: 91c6 843f a027 833f e6d1 613f 8bf5 873f
000000a0: 604a 913f be1e 7b3f eea1 613f 174a 6a3f
000000b0: e561 663f 4560 933f 5c7d 7e3f f693 6d3f
000000c0: 76f9 a83f 1f26 8c3f 6fd9 8a3f 422e 873f
000000d0: eeb3 843f d8df 803f b7d5 8e3f e379 563f
000000e0: 9d42 803f cbc7 853f 6a2b 783f 8ab4 823f
000000f0: 2ceb 843f efa9 883f 1c8d 7f3f 9d1d 963f

layers.6.bias f4 [64]
0.091192454 -0.061255757 -0.15267034 -0.19761345 -0.18889466 -0.10097043 0.077036805 0.11849365
0.22459094 0.04454112 0.21342956 -0.14496562 -0.047239944 -0.106990635 -0.06719996 -0.10706019
0.1753304 -0.048056506 0.213979 0.1111253 0.21939263 0.1956007 0.049026273 0.14927927
0.013672545 -0.088630944 -0.14843148 0.0541402 -0.07740476 -0.14139687 -0.13994588 0.21715839
0.030814625 0.082988575 0.116217755 0.1948257 -0.050742544 -0.06627127 0.14333025 -0.091223456
-0.14549698 0.12083779 -0.16869977 0.20955208 -0.044908676 -0.124731675 0.023759829 0.15202227
-0.19419782 0.12630309 -0.16738865 0.078527555 3.563451e-05 -0.10358143 -0.19200304 0.061112005
0.11665415 0.13472112 0.13280715 -0.015284247 -0.17839666 0.12454088 -0.18686496 -0.09824615
00000000: 1cc3 ba3d 51e7 7abd 9d55 1cbe 2e5b 4abe
00000010: 9a6d 41be 96c9 cebd 79c5 9d3d ccac f23d
00000020: 2bfb 653e c070 363d 478d 5a3e de71 14be
00000030: ac7e 41bd e81d dbbd 22a0 89bd 5f42 dbbd
00000040: d089 333e e6d6 44bd 501d 5b3e a995 e33d
00000050: 76a8 603e 8d4b 483e c6cf 483d aadc 183e
00000060: cf02 603c 2484 b5bd 6cfe 17be 1dc2 5d3d
00000070: 6386 9ebd 57ca 10be f94d 0fbe c55e 5e3e
00000080: f46e fc3c eaf5 a93d 9303 ee3d 6380 473e
00000090: 6ad7 4fbd 3bb9 87bd 2ac5 123e 5dd3 babd
000000a0: 29fd 14be ce79 f73d a2bf 2cbe d294 563e
000000b0: 29f2 37bd 5273 ffbd f9a3 c23c baab 1b3e
000000c0: cbdb 46be 9955 013e ee67 2bbe 0ed3 a03d
000000d0: 4476 1538 8022 d4bd 729c 44be 9550 7a3d
000000e0: 5fe8 ee3d 55f4 093e 99fe 073e c76a 7abc
000000f0: 9dad 36be 4a0f ff3d 8759 3fbe 4735 c9bd

layers.6.running_mean f4 [64]
0.20588908 0.10482342 0.09704111 0.2677895 0.18489891 0.18852292 0.21841289 0.37726793
0.07219064 1.3201156 0.16743982 0.18695673 0.6667918 0.12654972 0.029629711 0.041279256
0.7386711 0.2598748 0.38289043 0.17138419 0.14239405 1.3950292 0.25877398 1.1307364
0.44059685 0.24389467 0.8384415 1.1129718 0.62095386 0.40936527 0.621022 1.1143625
0.30060753 0.7495039 0.036484707 1.3642664 0.34517515 0.18038182 0.348714 0.013327284
0.012467981 0.2882715 0.024032587 0.96583474 0.3901379 0.34259772 0.25881827 0.17365904
0.08513561 0.14135401 0.30599684 0.27090415 0.1445026 0.3980679 0.16574322 0.6479068
1.0827769 0.026474608 1.1462234 0.06710074 0.018121934 0.1545422 0.8676175 0.38207898
00000000: 96d4 523e a9ad d63d 7dbd c63d b51b 893e
00000010: 2456 3d3e 270c 413e a1a7 5f3e 4329 c13e
00000020: b0d8 933d 8cf9 a83f 5875 2b3e 9671 3f3e
00000030: deb2 2a3f 4096 013e 02ba f23c 7014 293d
00000040: 8d19 3d3f 4f0e 853e 370a c43e 567f 2f3e
00000050: bfcf 113e 5190 b23f 067e 843e f8bb 903f
00000060: e995 e13e 86bf 793e 1aa4 563f dc75 8e3f
00000070: d5f6 1e3f 5398 d13e 4cfb 1e3f 6ea3 8e3f
00000080: 3be9 993e 7ddf 3f3f fd70 153d 48a0 ae3f
00000090: ccba b03e 03b6 383e a48a b23e ae5a 5a3c
000000a0: 8146 4c3c 5298 933e fddf c43c f240 773f
000000b0: 28c0 c73e f868 af3e d483 843e add3 313e
000000c0: 945b ae3d 1bbf 103e 9eab 9c3e f3b3 8a3e
000000d0: 7df8 133e 8ecf cb3e 97b8 293e 38dd 253f
000000e0: 6f98 8a3f 47e1 d83c 73b7 923f 1d6c 893d
000000f0: 7374 943c 4f40 1e3e 2e1c 5e3f db9f c33e

layers.6.running_var f4 [64]
0.10984285 0.37937638 0.2722673 0.19843102 1.010127 0.51675326 1.0288181 1.1793209
0.15787321 7.7430525 0.51619565 0.53980756 4.649318 0.052695565 0.0470474 0.057395753
3.155193 0.97928315 1.4121835 0.5462229 0.22684261 11.775811 1.1115317 7.5778823
1.1192347 0.933865 5.5614862 7.4037457 2.6739185 2.6327941 4.656185 6.1939354
0.061916914 2.4678116 0.04914598 9.428963 1.2397325 0.51894766 1.2259874 0.012527903
0.019198252 1.2678878 0.038552877 3.2853053 3.159221 1.2135715 2.0986264 0.63726175
0.31299612 0.42361116 1.7994843 0.57643545 0.42790467 0.8500496 0.82667005 5.2116013
8.719397 0.04215174 6.930578 0.17132317 0.01882421 0.5892253 7.680605 1.298553
00000000: 4af5 e03d 9f3d c23e 9f66 8b3e 8031 4b3e
00000010: d74b 813f f149 043f 50b0 833f fdf3 963f
00000020: 84a9 213e 16c7 f740 6625 043f d430 0a3f
00000030: 37c7 9440 4ed7 573d c6b4 403d cf17 6b3d
00000040: afee 4940 4db2 7a3f 6ec2 b43f 44d5 0b3f
00000050: 6e49 683e b969 3c41 ac46 8e3f 037e f240
00000060: 1543 8f3f c711 6f3f b2f7 b140 7ceb ec40
00000070: 7b21 2b40 b37f 2840 78ff 9440 b834 c640
00000080: 979c 7d3d a0f0 1d40 4c4d 493d 08dd 1641
00000090: 8eaf 9e3f c1d9 043f 28ed 9c3f d541 4d3c
000000a0: a745 9d3c 264a a23f 9fe9 1d3d 7142 5240
000000b0: ad30 4a40 5056 9b3f e54f 0640 9623 233f
000000c0: 0741 a03e 90e3 d83e 8055 e63f 4691 133f
000000d0: 5216 db3e da9c 593f a6a0 533f 70c5 a640
000000e0: a682 0b41 4ea7 2c3d 4cc7 dd40 576f 2f3e
000000f0: 3b35 9a3c 78d7 163f 84c7 f540 fc36 a63f

layers.8.weight f4 [64, 64, 2, 2]
-0.003983342 0.13697752 -0.13807559 -0.03701702 0.04200223 -0.16291839 0.14155862 -0.016779792
-0.14550969 -0.12906606 -0.034323443 0.049745604 0.06888263 -0.16627291 -0.059714414 0.06387512
0.100292124 0.016899064 -0.27828205 -0.03417158 0.053800885 -0.0742936 -0.019469537 0.1201085
0.11482918 0.14783873 0.031712495 0.016733238 0.050448913 -0.13786416 0.06850866 -0.06444136
0.003387027 -0.034489315 0.16195133 -0.0854923 0.10132498 0.052612618 -0.12524492 0.0047499198
0.09931399 0.0043497905 -0.055984102 -0.09875625 -0.016908502 0.022499908 0.066471465 -0.18901671
-0.17234652 -0.04389527 0.071101785 0.025845492 0.11306732 -0.11001042 -0.096387915 0.06956033
-0.097854234 -0.09868945 0.04160198 0.0147246085 -0.050224874 -0.0097895665 0.09940927 -0.08393899
-0.026493855 -0.08595884 0.13762599 0.032403674 -0.09435526 0.12290046 -0.042484056 -0.11090935
0.04231823 0.16019604 -0.032302458 -0.014160317 -0.074057914 0.07711261 0.0585509 -0.15478826
-0.040353347 0.032960378 0.11506529 0.12885182 0.083068065 0.09999866 0.018429663 0.079592906
0.03559827 0.06945313 -0.12176251 0.13643897 0.10456968 0.005855172 0.0068790857 0.08475317
-0.046434723 -0.12589723 0.0031572473 0.068728924 0.09160519 -0.08021136 0.079771884 -0.088581234
-0.08553082 -0.11903122 -0.057388008 0.04213226 0.06427863 -0.034961127 0.08864152 -0.05488079
-0.020970747 -0.032329105 -0.15570627 0.066577934 0.03685809 -0.07791463 -0.118552886 -0.04456365
0.03548334 0.00897838 -0.06053285 -0.12663244 0.018468862 0.075221136 0.10867055 0.012574481
-0.12990798 -0.002134992 0.116698466 0.014610827 -0.06986299 -0.1270715 0.013094148 0.117128864
-0.062494934 -0.027305182 0.06364872 0.008570196 0.093681045 0.121344164 0.028444255 0.04558665
0.11686326 0.02324671 0.018449998 -0.14578792 0.0009340523 -0.08728304 -0.108883835 0.13008304
0.060150985 0.055070195 -0.13735123 -0.02607497 -0.020218933 -0.0573478 0.1449937 -0.097458445
-0.031322915 -0.017498974 0.15928504 -0.12887052 -0.12532927 -0.04863895 0.1452872 0.032137357
-0.09083195 -0.100094326 -0.0653533 0.124597095 -0.049852554 -0.046295863 0.08847415 0.11123486
-0.09169462 -0.08690599 0.014467171 0.10041351 0.09635431 -0.1605276 0.06042802 -0.13875273
0.1279988 0.040553585 -0.18008268 0.04692103 0.021541847 0.10252447 0.023826398 -0.0032186287
0.16827579 -0.3174563 -0.1825518 -0.08459889 -0.03829598 0.12141637 0.080357924 -0.17506674
-0.009887925 -0.051954087 -0.197258 -0.034239072 0.042150572 -0.24766167 0.010433051 0.05429567
0.15748402 -0.12717116 -0.13123003 -0.053870246 -0.02644138 0.12580791 -0.11871175 -0.0047807326
-0.059575435 0.11232549 -0.12877582 -0.19951902 -0.13842176 -0.012947395 0.09771054 -0.009121509
-0.11365863 0.084691286 0.09004608 0.05912403 0.06379192 -0.15119861 -0.02023869 0.09960984
0.04009488 0.023952333 0.15929687 -0.12843175 0.048092853 0.016337309 -0.19337109 0.10355931
-0.033903528 -0.07887001 -0.1750437 0.0610113 0.032619633 -0.11168107 -0.06624706 0.16282071
-0.09999456 -0.033096842 0.030091502 -0.14771052 0.025834199 -0.09106064 -0.16661188 0.16518147
00000000: b286 82bb d643 0c3e b063 0dbe 299f 17bd
00000010: 880a 2c3d 14d4 26be bef4 103e c675 89bc
00000020: 7e00 15be e529 04be bd96 0cbd 0cc2 4b3d
00000030: 5612 8d3d 7243 2abe 1a97 74bd f5d0 823d
00000040: f565 cd3d e86f 8a3c fc7a 8ebe 80f7 0bbd
00000050: 515e 5c3d 3e27 98bd 947e 9fbc 72fb f53d
00000060: 902b eb3d 0963 173e f6e4 013d 2514 893c
00000070: 85a3 4e3d 432c 0dbe 454e 8c3d d5f9 83bd
00000080: e2f8 5d3b ab44 0dbd 92d6 253e 9616 afbd
00000090: 7983 cf3d 5480 573d 3440 00be 37a5 9b3b
000000a0: 2265 cb3d b088 8e3b 964f 65bd b840 cabd
000000b0: b383 8abc ba51 b83c 3122 883d 998d 41be
000000c0: 9b7b 30be 87cb 33bd d09d 913d edb9 d33c
000000d0: d78f e73d 254d e1bd 0767 c5bd a575 8e3d
000000e0: cd67 c8bd b21d cabd d666 2a3d 7c3f 713c
000000f0: 99b8 4dbd 6b64 20bc 1697 cb3d 35e8 abbd
00000100: a409 d9bc 300b b0bd d4ed 0c3e b7b9 043d
00000110: 553d c1bd 3db3 fb3d c303 2ebd 7124 e3bd
00000120: e155 2d3d 6e0a 243e 954f 04bd ad00 68bc
00000130: adab 97bd 37ed 9d3d 12d3 6f3d d080 1ebe
00000140: 8d49 25bd 7601 073d 5aa7 eb3d bbf1 033e
00000150: 971f aa3d 19cc cc3d cef9 963c 9b01 a33d
00000160: 7ecf 113d 713d 8e3d 9f5e f9bd a8b6 0b3e
00000170: a128 d63d bedc bf3b f469 e13b 1293 ad3d
00000180: 5632 3ebd 34eb 00be d2e9 4e3b c0c1 8c3d
00000190: 809b bb3d da45 a4bd 715f a33d 146a b5bd
000001a0: c82a afbd a4c6 f3bd b00f 6bbd e092 2c3d
000001b0: 84a4 833d 6633 0fbd af89 b53d aeca 60bd
000001c0: d8ca abbc 866b 04bd 7771 1fbe 035a 883d
000001d0: 82f8 163d b591 9fbd dbcb f2bd 6088 36bd
000001e0: fb56 113d 0e1a 133c 4bf1 77bd efab 01be
000001f0: 034c 973c 8a0d 9a3d aa8e de3d 3205 4e3c
00000200: 9906 05be 39eb 0bbb 9bff ee3d 4062 6f3c
00000210: 5414 8fbd 081f 02be d688 563c 42e1 ef3d
00000220: b0fa 7fbd 1eaf dfbc 435a 823d 026a 0c3c
00000230: d9db bf3d 4a83 f83d ed03 e93c 11b9 3a3d
00000240: 0156 ef3d e26f be3c 7324 973c 6e49 15be
00000250: 30db 743a 73c1 b2bd 7dfe debd 7d34 053e
00000260: e160 763d 4991 613d cda5 0cbe 2d9b d5bc
00000270: 2da2 a5bc 87e5 6abd 3a79 143e 4b98 c7bd
00000280: 754c 00bd 025a 8fbc 9e1b 233e a2f6 03be
00000290: 5156 00be a339 47bd 2bc6 143e 76a2 033d
000002a0: 1a06 babd 41fe ccbd f3d7 85bd c32c ff3d
000002b0: 3132 4cbd bba0 3dbd ef31 b53d 1acf e33d
000002c0: 64ca bbbd c5fb b1bd b707 6d3c 99a5 cd3d
000002d0: 6955 c53d 5961 24be 5f83 773d 3215 0ebe
000002e0: 1e12 033e 841b 263d 9867 38be 4430 403d
000002f0: 8778 b03c 59f8 d13d 942f c33c a1ef 52bb
00000300: 7d50 2c3e a289 a2be dcee 3abe 2f42 adbd
00000310: 3fdc 1cbd 25a9 f83d b292 a43d b244 33be
00000320: f700 22bc cfcd 54bd 00fe 49be 453e 0cbd
00000330: 14a6 2c3d 059b 7dbe 63ef 2a3c 2365 5e3d
00000340: 7e43 213e 2839 02be 2a61 06be 0ca7 5cbd
00000350: 989b d8bc cad3 003e 251f f3bd b1a7 9cbb
00000360: 5f05 74bd e80a e63d cfdd 03be b74e 4cbe
00000370: 6fbe 0dbe 5021 54bc 771c c83d 6272 15bc
00000380: dbc5 e8bd a072 ad3d 146a b83d 0a2c 723d
00000390: 57a5 823d cfd3 1abe 9ccb a5bc 3e00 cc3d
000003a0: 873a 243d af37 c43c b81e 233e 9d83 03be
000003b0: 03fd 443d d2d5 853c 1203 46be e716 d43d
000003c0: 6dde 0abd 9a86 a1bd a83e 33be fce6 793d
000003d0: 2a9c 053d 0bb9 e4bd 8aac 87bd 79ba 263e
000003e0: f3c9 ccbd 8e90 07bd 7482 f63c 6d41 17be
000003f0: 3ea2 d33c 007e babd 4e9c 2abe 5525 293e

layers.8.bias f4 [64]
0.14753108 0.15680268 0.16416807 0.15764423 0.15343261 0.14998104 0.13725848 -0.29530734
0.1481427 0.16761687 0.15495706 0.14555529 0.15298738 0.14608353 0.13925646 0.17009024
0.15661673 0.15879673 0.16976523 0.16001295 0.16743408 0.15346654 0.16104122 0.13940416
0.15655576 0.17665575 0.14983757 0.15183848 0.140655 0.16503151 0.14589407 0.16731113
0.15988836 0.12641494 0.15483578 0.17313384 0.15103045 0.16451927 -0.28471476 0.17314611
0.16105637 0.14902276 0.15433298 0.15039012 0.1575508 0.14714162 0.14693569 0.17016049
0.14714947 0.17904073 0.1790744 0.15090756 0.14495221 0.14881644 0.1454477 0.17262219
0.14219423 0.15046209 0.13112104 0.14114374 0.1499224 0.15405954 0.12923631 0.14157131
00000000: 6312 173e e290 203e ad1b 283e 7d6d 213e
00000010: 701d 1d3e a194 193e 7d8d 0c3e 8632 97be
00000020: b8b2 173e c2a3 2b3e 10ad 1e3e 720c 153e
00000030: b9a8 1c3e ec96 153e 3f99 0e3e 232c 2e3e
00000040: 2360 203e 9c9b 223e f0d6 2d3e 6fda 233e
00000050: d773 2b3e 5526 1d3e fde7 243e f7bf 0e3e
00000060: 2750 203e 3fe5 343e 056f 193e 8c7b 1b3e
00000070: dd07 103e 05fe 283e 4165 153e 9c53 2b3e
00000080: c6b9 233e eb72 013e 458d 1e3e ff49 313e
00000090: baa7 1a3e bd77 283e 22c6 91be 374d 313e
000000a0: f6eb 243e 6c99 183e 7709 1e3e deff 193e
000000b0: ff54 213e 4bac 163e 4f76 163e 8d3e 2e3e
000000c0: 5aae 163e 7456 373e 485f 373e 8387 1a3e
000000d0: 5a6e 143e 5663 183e 3ef0 143e dfc3 303e
000000e0: 5d9b 113e bc12 1a3e 9844 063e fc87 103e
000000f0: 4285 193e c9c1 1d3e 8656 043e 12f8 103e

layers.10.weight f4 [64]
3.3562813 3.359313 3.3428245 3.3392477 3.33349 3.354936 3.3630753 3.2691998
3.3496516 3.349486 3.3361797 3.3385868 3.3330276 3.3701675 3.3696942 3.3258612
3.354552 3.3286984 3.3463542 3.348533 3.3770213 3.3502364 3.3590837 3.3770742
3.3605993 3.3478103 3.3380568 3.362835 3.3732924 3.3380754 3.338902 3.35904
3.3365753 3.3672488 3.3456304 3.350404 3.3490176 3.3552046 3.2600389 3.3521647
3.3261278 3.34578 3.3578062 3.3394568 3.3500679 3.3383503 3.3498883 3.3599117
3.3423817 3.3297412 3.3049147 3.3581223 3.3523765 3.3548486 3.3589237 3.3444757
3.3494005 3.3576229 3.335519 3.3411925 3.3525646 3.3498254 3.3599765 3.32549
00000000: 50cd 5640 fcfe 5640 d6f0 5540 3cb6 5540
00000010: e657 5540 45b7 5640 a03c 5740 923a 5140
00000020: b160 5640 fb5d 5640 f883 5540 68ab 5540
00000030: 5350 5540 d3b0 5740 12a9 5740 e9da 5440
00000040: fbb0 5640 6509 5540 ab2a 5640 5d4e 5640
00000050: 1e21 5840 466a 5640 3afb 5640 fc21 5840
00000060: 0f14 5740 8642 5640 b9a2 5540 b038 5740
00000070: 06e4 5740 07a3 5540 92b0 5540 83fa 5640
00000080: 738a 5540 0181 5740 cf1e 5640 056d 5640
00000090: 4e56 5640 acbb 5640 7aa4 5040 de89 5640
000000a0: 47df 5440 4221 5640 4ce6 5640 a9b9 5540
000000b0: 8367 5640 88a7 5540 9264 5640 cb08 5740
000000c0: 95e9 5540 7b1a 5540 b983 5340 7aeb 5640
000000d0: 568d 5640 d7b5 5640 9bf8 5640 e40b 5640
000000e0: 945c 5640 4be3 5640 2579 5540 19d6 5540
000000f0: 6b90 5640 8a63 5640 db09 5740 d4d4 5440

layers.10.bias f4 [64]
2.361474 2.3433998 2.3199754 2.3160233 2.3176954 2.3496554 2.3430204 -2.3527532
2.3323119 2.2820437 2.3239448 2.3328106 2.3327405 2.2766736 2.2982001 2.2340748
2.3394322 2.3104856 2.3214726 2.269081 2.2331586 2.3465827 2.285117 2.273815
2.300606 2.327619 2.3147542 2.345223 2.2486472 2.3153036 2.3168437 2.21061
2.3311486 2.2760742 2.325999 2.3298788 2.3330815 2.3535914 -2.358244 2.3471007
2.3271515 2.326992 2.344184 2.3162801 2.3317232 2.3226118 2.3526306 2.3400152
2.3295968 2.0074682 2.172801 2.351622 2.3350303 2.3553548 2.3567092 2.3331172
2.3379314 2.3554666 2.303249 2.3521705 2.3481653 2.331748 2.3522935 2.3176875
00000000: 6422 1740 43fa 1540 7a7a 1440 ba39 1440
00000010: 1f55 1440 c160 1640 0cf4 1540 8293 16c0
00000020: 9944 1540 010d 1240 83bb 1440 c54c 1540
00000030: 9f4b 1540 05b5 1140 b615 1340 15fb 0e40
00000040: 42b9 1540 ffde 1340 0293 1440 a038 1140
00000050: 12ec 0e40 692e 1640 5b3f 1240 2f86 1140
00000060: 213d 1340 b6f7 1440 ef24 1440 2218 1640
00000070: d6e9 0f40 ef2d 1440 2b47 1440 a27a 0d40
00000080: 8a31 1540 33ab 1140 2bdd 1440 bc1c 1540
00000090: 3551 1540 3ea1 1640 78ed 16c0 e636 1640
000000a0: 0df0 1440 70ed 1440 1c07 1640 ef3d 1440
000000b0: f43a 1540 aca5 1440 8091 1640 cfc2 1540
000000c0: 1d18 1540 5c7a 0040 2c0f 0b40 fa80 1640
000000d0: 2371 1540 22be 1640 53d4 1640 cb51 1540
000000e0: aba0 1540 f7bf 1640 6e68 1340 f689 1640
000000f0: 5748 1640 5c3b 1540 fa8b 1640 fe54 1440

layers.10.running_mean f4 [64]
1.5192446 1.4691159 1.4636818 1.4711362 1.4716804 1.4589612 1.4438171 0.46662477
1.4649608 1.4599046 1.4756551 1.4610776 1.4695415 1.4739085 1.4845514 1.5024564
1.4575126 1.4763907 1.4899424 1.51833 1.5175304 1.4715881 1.4810139 1.4751887
1.4859681 1.4485945 1.4502476 1.4992512 1.5115062 1.4527118 1.4511836 1.4781393
1.4977424 1.475147 1.486172 1.462065 1.4464425 1.4731038 0.46636775 1.4805413
1.4747273 1.4612858 1.4691987 1.4775621 1.4433575 1.4709522 1.4734204 1.4635127
1.4725065 1.5281134 1.4854528 1.466521 1.4766651 1.4906201 1.463773 1.4714308
1.461713 1.4727135 1.4883254 1.4532542 1.4883318 1.4665974 1.4710575 1.455786
00000000: 9b76 c23f fd0b bc3f ed59 bb3f 314e bc3f
00000010: 0660 bc3f 3ebf ba3f 00cf b83f 71e9 ee3e
00000020: d683 bb3f 27de ba3f 44e2 bc3f 9704 bb3f
00000030: f019 bc3f 09a9 bc3f c805 be3f 7e50 c03f
00000040: c68f ba3f 5ffa bc3f 6fb6 be3f a358 c23f
00000050: 703e c23f 005d bc3f dd91 bd3f fcd2 bc3f
00000060: 3434 be3f 8b6b b93f b7a1 b93f 77e7 bf3f
00000070: 0979 c13f 76f2 b93f 62c0 b93f ab33 bd3f
00000080: 06b6 bf3f 9ed1 bc3f e23a be3f f224 bb3f
00000090: 0725 b93f aa8e bc3f c1c7 ee3e 6182 bd3f
000000a0: ddc3 bc3f 6a0b bb3f b40e bc3f c120 bd3f
000000b0: f0bf b83f 2948 bc3f 0a99 bc3f 6254 bb3f
000000c0: 187b bc3f 3899 c33f 5123 be3f f6b6 bb3f
000000d0: 5d03 bd3f a4cc be3f ea5c bb3f d857 bc3f
000000e0: 6919 bb3f e081 bc3f 7281 be3f 3c04 ba3f
000000f0: a881 be3f 77b9 bb3f 9d4b bc3f 3257 ba3f

layers.10.running_var f4 [64]
3.8741157 3.6133502 3.5792363 3.5996056 3.6127715 3.544523 3.4727867 5.5353303
3.5980847 3.5449784 3.6355362 3.5384269 3.6076543 3.6289327 3.6701522 3.7567139
3.5408807 3.6397543 3.695133 3.8664222 3.8710954 3.615982 3.670696 3.602796
3.6907928 3.4792285 3.4849117 3.7483048 3.8037448 3.4921756 3.5145257 3.668936
3.7599695 3.629387 3.6702116 3.551261 3.5281017 3.6124258 5.5331287 3.6622193
3.630456 3.5533416 3.6030228 3.631556 3.4697037 3.6166184 3.641949 3.5786035
3.6544855 3.9176629 3.6946123 3.6109307 3.6279793 3.741629 3.579092 3.635076
3.5528274 3.6262047 3.7286701 3.560873 3.7074964 3.5865688 3.5889115 3.5419
00000000: 83f1 7740 2141 6740 3512 6540 f05f 6640
00000010: a637 6740 77d9 6240 2342 5e40 6d21 b140
00000020: 0547 6640 ede0 6240 a0ac 6840 9675 6240
00000030: cfe3 6640 6f40 6840 c6e3 6a40 006e 7040
00000040: ca9d 6240 bcf1 6840 0f7d 6c40 7673 7740
00000050: 07c0 7740 406c 6740 afec 6a40 3694 6640
00000060: f335 6c40 aeab 5e40 cb08 5f40 3ae4 6f40
00000070: 8e70 7340 ce7f 5f40 fded 6040 d9cf 6a40
00000080: 57a3 7040 e047 6840 bfe4 6a40 dc47 6340
00000090: 6bcc 6140 fc31 6740 640f b140 cd61 6a40
000000a0: 6459 6840 f369 6340 ed97 6640 6a6b 6840
000000b0: a00f 5e40 ad76 6740 b115 6940 d707 6540
000000c0: 17e3 6940 fdba 7a40 8774 6c40 7d19 6740
000000d0: d030 6840 d976 6f40 d80f 6540 16a5 6840
000000e0: 8661 6340 bd13 6840 88a2 6e40 58e5 6340
000000f0: 9f47 6d40 588a 6540 bab0 6540 7dae 6240

actor_classifier.weight f4 [15, 256]
0.034803342 -0.13457112 0.13476713 -0.022620808 0.09300348 -0.06985802 0.11089292 -0.029638147
0.06274813 -0.14101362 0.07715345 -0.035399187 0.04505989 -0.1465628 0.09336958 -0.10323424
0.067185566 -0.12252472 0.04457332 -0.012868261 0.05397223 -0.13668333 0.12695247 -0.07014234
0.076937184 -0.08164717 0.037128758 -0.08594 -0.41027302 -0.3705321 -0.40970543 -0.37962908
0.08452002 -0.07702519 -0.0225597 -0.01973102 0.056239545 -0.10987644 0.042105585 -0.12503755
0.09119186 -0.07437763 0.02407018 -0.055830635 0.06905716 -0.07836763 0.05808587 -0.11613853
0.018943962 -0.09207849 0.111227065 -0.11154806 0.068189904 -0.13716774 0.07041376 -0.08991752
0.09409182 -0.037450936 0.011267553 -0.09450488 0.04157472 -0.07087524 0.13918594 -0.09177665
0.09520861 -0.105897725 0.0039147357 -0.08038593 0.069423735 -0.08370115 0.04226656 -0.041816898
0.132594 -0.048538145 0.042702764 -0.10934401 0.04188371 -0.13122754 0.060088698 -0.070011385
0.0137694 -0.1646129 0.008004828 -0.08364052 0.11458175 -0.042495824 0.069120765 -0.06385861
0.042122632 -0.20346303 0.10578955 -0.067690484 0.07032013 -0.14498284 0.05841254 -0.057769697
0.11065793 -0.096887894 -0.026340596 -0.025826687 0.053016838 -0.15624698 0.027474906 -0.0344812
0.06388664 -0.08585258 0.073361054 -0.06037642 0.022448491 -0.13865688 0.104149036 -0.11434116
0.07810634 -0.1337031 0.07841937 -0.004984705 0.053977534 -0.12156339 0.07914337 -0.03142716
0.10334926 -0.10244278 0.03604012 -0.11031673 0.09021472 -0.14141296 0.06780677 -0.09295879
0.04248693 -0.0802807 0.059869774 -0.1069647 0.12199999 -0.11904609 0.089710675 -0.13179769
0.08309407 -0.092486545 0.064990185 -0.031203292 0.08770547 -0.117672436 0.072898336 0.0008607461
0.045039702 -0.036195673 0.04220411 -0.085299425 0.085065246 -0.043479845 -0.009970435 -0.026105981
-0.42782843 -0.3244965 -0.35845646 -0.3143279 0.114048846 -0.06503284 0.10183261 -0.10052758
0.09617038 -0.09346996 0.07802188 -0.031577077 0.012654726 -0.073923655 0.10498724 -0.09666673
0.08266265 -0.068369664 0.038918894 -0.05631508 0.1124579 -0.056201205 0.060736675 -0.12277326
0.07359363 -0.108216934 0.15221897 -0.10744953 0.03424574 -0.11983027 0.012856078 -0.07595096
0.060387295 -0.101629555 0.14748439 -0.03915113 0.1074673 -0.084419206 0.07636019 -0.10212533
0.13256046 -0.06584508 0.07641601 -0.13778019 0.08520223 -0.12868886 0.022312017 -0.123625755
0.060955446 -0.12015687 0.13365449 -0.086565696 0.09295335 -0.13127656 0.045772944 -0.06026451
0.040940322 -0.1462178 0.05394333 -0.09797497 0.08265675 -0.040800683 0.037545532 -0.08818648
0.064454764 -0.14415982 -0.00017005969 -0.027427865 0.11690805 -0.08049767 0.034641836 -0.0055494336
0.06604173 -0.11995142 0.062152706 -0.0013013035 0.03990472 -0.09135466 0.07299285 -0.040809497
0.048768483 -0.10726006 0.053344805 -0.0748133 0.12223275 -0.031810418 0.098297566 -0.10823228
0.10228683 -0.11283095 0.10664244 -0.10585808 0.10247183 -0.0494654 0.015232026 -0.067131534
0.10620903 -0.03745833 -0.0014521751 0.012974736 0.08288136 -0.057745386 0.06760381 -0.08887505
00000000: f38d 0e3d 03cd 09be 6500 0a3e 464f b9bc
00000010: 9c78 be3d b911 8fbd d41b e33d b3cb f2bc
00000020: 1782 803d e065 10be a102 9e3d bdfe 10bd
00000030: b890 383d 8f14 16be 8d38 bf3d 796c d3bd
00000040: 9698 893d 3eee fabd 8392 363d 66d5 52bc
00000050: fc11 5d3d b7f6 0bbe d4ff 013e caa6 8fbd
00000060: 3e91 9d3d a236 a7bd 5314 183d 5001 b0bd
00000070: 4e0f d2be 62b6 bdbe e9c4 d1be be5e c2be
00000080: d518 ad3d 62bf 9dbd 1fcf b8bc f3a2 a1bc
00000090: 705b 663d e606 e1bd e876 2c3d d809 00be
000000a0: ccc2 ba3d 4d53 98bd d32e c53c aaae 64bd
000000b0: d76d 8d3d 357f a0bd 73eb 6d3d 0ada edbd
000000c0: 5e30 9b3c a693 bcbd 04cb e33d 4f73 e4bd
000000d0: 26a7 8b3d b375 0cbe 1735 903d ad26 b8bd
000000e0: 36b3 c03d 2766 19bd 8b9b 383c c68b c1bd
000000f0: 414a 2a3d 0a27 91bd c286 0e3e 65f5 bbbd
00000100: bbfc c23d e8e0 d8bd 2f47 803b 61a1 a4bd
00000110: 082e 8e3d 826b abbd b31f 2d3d 3248 2bbd
00000120: b9c6 073e efcf 46bd 18e9 2e3d c1ef dfbd
00000130: 418e 2b3d 8360 06be 911f 763d 2162 8fbd
00000140: 0d99 613c 4990 28be af26 033c b94b abbd
00000150: d6a9 ea3d 1a10 2ebd 308f 8d3d 4ec8 82bd
00000160: c888 2c3d 9d58 50be 31a8 d83d 4fa1 8abd
00000170: 0004 903d 6276 14be fd41 6f3d eb9f 6cbd
00000180: a0a0 e23d 296d c6bd 3cc8 d7bc 7d92 d3bc
00000190: 2f28 593d 35ff 1fbe 0e13 e13c 293c 0dbd
000001a0: 00d7 823d 7ad3 afbd 523e 963d 444d 77bd
000001b0: e6e5 b73c 12fc 0dbe 174c d53d b32b eabd
000001c0: 37f6 9f3d 77e9 08be 569a a03d bc56 a3bb
000001d0: 8c17 5d3d 3af6 f8bd eb15 a23d c4b9 00bd
000001e0: c7a8 d33d 85cd d1bd ce9e 133d bded e1bd
000001f0: 7fc2 b83d 8fce 10be 47de 8a3d 2e61 bebd
00000200: c606 2e3d 356a a4bd 023a 753d 4f10 dbbd
00000210: 21db f93d 70ce f3bd 3bba b73d f9f5 06be
00000220: 392d aa3d 9669 bdbd 9319 853d 0c9e ffbc
00000230: ed9e b33d 3ffe f0bd b94b 953d b1a3 613a
00000240: 8d7b 383d ea41 14bd 38de 2c3d 77b1 aebd
00000250: b036 ae3d ec17 32bd 095b 23bc 36dc d5bc
00000260: 540c dbbe 6824 a6be 9b87 b7be 96ef a0be
00000270: 7192 e93d f02f 85bd 9e8d d03d 67e1 cdbd
00000280: faf4 c43d 2e6d bfbd efc9 9f3d f756 01bd
00000290: c555 4f3c 4965 97bd 8d03 d73d 35f9 c5bd
000002a0: 094b a93d 6505 8cbd 6b69 1f3d a4aa 66bd
000002b0: 5450 e63d 3c33 66bd 05c7 783d 8c70 fbbd
000002c0: 42b8 963d d7a0 ddbd 4adf 1b3e 800e dcbd
000002d0: 4345 0c3d 9369 f5bd 4da2 523c 2d8c 9bbd
000002e0: ab58 773d 2823 d0bd 2606 173e ef5c 20bd
000002f0: d117 dc3d fae3 acbd bb62 9c3d 1627 d1bd
00000300: eebd 073e c9d9 86bd ff7f 9c3d 4016 0dbe
00000310: 827e ae3d 03c7 03be b1c7 b63c 802f fdbd
00000320: 6bac 793d ce14 f6bd b9dc 083e 5b49 b1bd
00000330: 535e be3d 5d6d 06be 697c 3b3d ebd7 76bd
00000340: 0ab1 273d 1eba 15be aef3 5c3d 1aa7 c8bd
00000350: f147 a93d 9e1e 27bd 58c9 193d 1d9b b4bd
00000360: dc00 843d a29e 13be 0d52 32b9 67b0 e0bc
00000370: 7d6d ef3d f6db a4bd 99e4 0d3d 06d8 b5bb
00000380: e340 873d 17a9 f5bd d693 7e3d 8090 aaba
00000390: 2273 233d 2718 bbbd 467d 953d dc27 27bd
000003a0: 76c1 473d 2aab dbbd 1580 5a3d b737 99bd
000003b0: 2a55 fa3d a44b 02bd 3c50 c93d e3a8 ddbd
000003c0: c27b d13d ea13 e7bd 5a67 da3d 1fcc d8bd
000003d0: c0dc d13d 3b9c 4abd bf8f 793c 427c 89bd
000003e0: 1f84 d93d e86d 19bd e956 beba fd93 543c
000003f0: b4bd a93d 6d86 6cbd de73 8a3d 1f04 b6bd

actor_classifier.bias f4 [15]
0.40351686 -0.018804621 -0.18928018 -0.26184568 -0.14570959 -0.18592334 -0.25580788 -0.071307175
-0.13017417 -0.23177627 -0.17744128 -0.16338828 0.16274494 -0.23595269 -0.29753774
00000000: c399 ce3e 260c 9abc aad2 41be a310 86be
00000010: e534 15be b062 3ebe 40f9 82be 7f09 92bd
00000020: 614c 05be c256 6dbe 2bb3 35be 424f 27be
00000030: 9ca6 263e 959d 71be de56 98be

critic_classifier.weight f4 [1, 256]
2.1737876 2.1322844 2.1925812 2.2226608 2.2077324 2.1107643 2.1863725 2.2245119
2.232674 2.2360277 2.1810362 2.2663002 2.2318335 2.2608485 2.1783261 2.276644
2.2709026 2.2164116 2.2498221 2.1966662 2.2323012 2.1950314 2.1460168 2.240047
2.1979742 2.2502267 2.0963743 2.1483457 -2.324063 -2.2514095 -2.1564054 -2.1303566
2.24079 2.1662264 2.1247735 2.2130556 2.1665554 2.1506016 2.110937 2.2600968
2.2399454 2.229684 2.2007773 2.225422 2.2486782 2.2182047 2.1944692 2.1718047
2.1841795 2.2271297 2.2020953 2.223058 2.1602607 2.252835 2.0907748 2.113458
2.1756778 2.2092264 2.124394 2.1646786 2.125338 2.1618679 2.1704357 2.170732
2.2521098 2.2057986 2.116255 2.2244627 2.263897 2.246211 2.2202618 2.2612176
2.1982377 2.2619443 2.1910698 2.25814 2.1264756 2.0700107 2.2038896 2.182669
2.034458 2.012467 2.1982114 2.1876824 2.231927 2.1329865 2.2562726 2.1479466
2.0661278 2.0308752 2.212771 2.222866 2.1539903 2.2382045 2.1211548 2.124018
2.138789 2.2358184 2.151376 2.1912367 2.2115262 2.236901 2.1411972 2.2724447
2.2547863 2.2759593 2.15017 2.2817278 2.1854265 2.2392347 2.135054 2.2006123
2.2160342 2.1769664 2.103599 2.085353 2.224281 2.262508 2.2198064 2.2415395
2.2375188 2.2582774 2.196207 2.246631 2.0487206 2.0473301 2.1153831 2.2167456
2.2160099 2.1637065 2.2536151 2.2335494 2.2048035 2.2051404 2.1139402 2.1093693
2.2366154 2.2231798 2.1523073 2.2686021 2.191761 2.2589607 2.15367 2.241953
2.2052903 2.169286 2.2158585 2.2444992 2.1707518 2.2450435 2.169032 2.1584408
-2.29894 -2.243934 -2.093312 -2.2253213 2.1927378 2.221693 2.168896 2.2298026
2.1919072 2.2368736 2.222808 2.2174113 2.2441852 2.2310615 2.1250641 2.2644267
2.188739 2.2454839 2.145702 2.204127 2.2529268 2.246752 2.171798 2.2725046
2.177108 2.2734268 2.1349828 2.2673695 2.1581364 2.283261 2.2285514 2.2275934
2.2117157 2.108442 2.230265 2.2078328 2.1846657 2.2160022 2.141571 2.2416964
2.1855476 2.1550822 2.2596319 2.2544496 1.8698888 1.9161544 2.1164768 2.1803377
2.0465226 2.1813574 2.1522093 2.1645288 2.0879998 2.081466 2.1978137 2.2615726
2.2058074 2.2437847 2.1405919 2.229429 2.1498065 2.2299647 2.166573 2.2542968
2.1820192 2.2537072 2.1608582 2.1591778 2.1653347 2.2511072 2.2192776 2.2067862
2.2366688 2.2538824 2.1326957 2.1691601 2.158294 2.2459753 2.147764 2.2095063
2.1692088 2.1052659 2.182154 2.1855152 2.187559 2.2112956 2.1811285 2.222559
2.2675316 2.1728725 2.136531 2.25074 2.2419624 2.1917458 2.140079 2.270424
2.198349 2.25459 2.1822653 2.114251 2.242183 2.2736118 2.2394216 2.1829863
00000000: 561f 0b40 5977 0840 4053 0c40 1340 0e40
00000010: 7d4b 0d40 c316 0740 87ed 0b40 675e 0e40
00000020: 21e4 0e40 141b 0f40 1996 0b40 100b 1140
00000030: 5cd6 0e40 beb1 1040 b269 0b40 89b4 1140
00000040: 7856 1140 b0d9 0d40 16fd 0f40 2e96 0c40
00000050: 06de 0e40 657b 0c40 5758 0940 ee5c 0f40
00000060: 9cab 0c40 b703 1040 ff2a 0640 7f7e 0940
00000070: 73bd 14c0 1817 10c0 8c02 0ac0 c357 08c0
00000080: 1a69 0f40 74a3 0a40 4afc 0740 b4a2 0d40
00000090: d8a8 0a40 75a3 0940 9819 0740 6da5 1040
000000a0: 445b 0f40 25b3 0e40 89d9 0c40 506d 0e40
000000b0: 58ea 0f40 11f7 0d40 2f72 0c40 d9fe 0a40
000000c0: 99c9 0b40 4b89 0e40 21ef 0c40 9546 0e40
000000d0: b641 0a40 732e 1040 41cf 0540 e542 0740
000000e0: 4e3e 0b40 f763 0d40 12f6 0740 188a 0a40
000000f0: 8a05 0840 0b5c 0a40 6be8 0a40 46ed 0a40
00000100: 9122 1040 ce2b 0d40 b970 0740 995d 0e40
00000110: b0e3 1040 ecc1 0f40 c518 0e40 cab7 1040
00000120: edaf 0c40 b2c3 1040 7d3a 0c40 5e85 1040
00000130: 2d18 0840 0e7b 0440 870c 0d40 d9b0 0b40
00000140: 8f34 0240 42cc 0040 7faf 0c40 fd02 0c40
00000150: e4d7 0e40 da82 0840 c566 1040 f577 0940
00000160: 703b 0440 dcf9 0140 0a9e 0d40 7043 0e40
00000170: fada 0940 be3e 0f40 00c1 0740 e9ef 0740
00000180: ebe1 0840 a617 0f40 25b0 0940 393d 0c40
00000190: a589 0d40 6329 0f40 6009 0940 bc6f 1140
000001a0: 6b4e 1040 51a9 1140 639c 0940 d407 1240
000001b0: 07de 0b40 9f4f 0f40 baa4 0840 d5d6 0c40
000001c0: 81d3 0d40 6b53 0b40 5ea1 0640 6c76 0540
000001d0: 9f5a 0e40 eecc 1040 4f11 0e40 6275 0f40
000001e0: 8233 0f40 9e87 1040 a88e 0c40 cdc8 0f40
000001f0: 3d1e 0340 7507 0340 7062 0740 29df 0d40
00000200: 1bd3 0d40 2b7a 0a40 3b3b 1040 79f2 0e40
00000210: 801b 0d40 0521 0d40 cc4a 0740 e8ff 0640
00000220: b524 0f40 9448 0e40 67bf 0940 c730 1140
00000230: d045 0c40 d092 1040 bbd5 0940 287c 0f40
00000240: 7a23 0d40 95d5 0a40 a0d0 0d40 e0a5 0f40
00000250: 99ed 0a40 cbae 0f40 6cd1 0a40 e523 0a40
00000260: d521 13c0 9d9c 0fc0 d3f8 05c0 aa6b 0ec0
00000270: d155 0c40 3830 0e40 31cf 0a40 16b5 0e40
00000280: 3548 0c40 f028 0f40 7c42 0e40 11ea 0d40
00000290: bba0 0f40 b6c9 0e40 0d01 0840 5eec 1040
000002a0: 4d14 0c40 02b6 0f40 2e53 0940 6b10 0d40
000002b0: f42f 1040 c9ca 0f40 bdfe 0a40 b770 1140
000002c0: bd55 0b40 d37f 1140 8fa3 0840 951c 1140
000002d0: e81e 0a40 f320 1240 96a0 0e40 e490 0e40
000002e0: c08c 0d40 b7f0 0640 a9bc 0e40 224d 0d40
000002f0: 90d1 0b40 fbd2 0d40 800f 0940 f477 0f40
00000300: 03e0 0b40 deec 0940 cf9d 1040 e748 1040
00000310: 8458 ef3f 8c44 f53f 5b74 0740 a78a 0b40
00000320: 3afa 0240 5c9b 0b40 ccbd 0940 a487 0a40
00000330: caa1 0540 bd36 0540 fba8 0c40 9bbd 1040
00000340: f32b 0d40 2b9a 0f40 75ff 0840 f7ae 0e40
00000350: 6e96 0940 beb7 0e40 22a9 0a40 6646 1040
00000360: 34a6 0b40 bd3c 1040 804b 0a40 f82f 0a40
00000370: d894 0a40 2412 1040 a508 0e40 fc3b 0d40
00000380: 9525 0f40 9c3f 1040 167e 0840 85d3 0a40
00000390: 7d21 0a40 0fbe 0f40 f774 0940 8d68 0d40
000003a0: 51d4 0a40 adbc 0640 69a8 0b40 7bdf 0b40
000003b0: f700 0c40 de85 0d40 9c97 0b40 683e 0e40
000003c0: 3d1f 1140 5810 0b40 edbc 0840 200c 1040
000003d0: 507c 0f40 9045 0c40 0ef7 0840 a04e 1140
000003e0: c0b1 0c40 344b 1040 3caa 0b40 e34f 0740
000003f0: ed7f 0f40 db82 1140 af52 0f40 0cb6 0b40
