Saved Models/model_checkpoint_coinrun_42_5e-05_400_3_256_0.99_0.95_0.25_1024_0.5_end_400.pth (torch, 154751 bytes, 21 tensors)

layers.0.weight f4 [32, 3, 8, 8]
00000000: a23e b43d 2e9d 1b3d d829 153d e22d 813d
00000010: ec78 383a 350a b63c c2c0 6dbc 9397 37bd
00000020: 8ce3 1f3d d7b8 0e3d a0c4 8fbc bc75 863d
00000030: ba7b 86bb 1eee eb3b 1053 4f3d a9dd 5f3d
00000040: 904c b2bb 5a9c 113d 8132 323d 6e18 02bd
00000050: faeb 86bd a4d6 3c3d 0658 43bd eec1 4a3c
00000060: cf04 d33c ee44 b3bc a1c7 6f3d 2c4d e53c
00000070: 3f84 583d bc82 3dbd 8f15 3cbd 6d76 5e3d
00000080: 88b7 26bc e937 98bd 2fa0 aabd 82e2 adbd
00000090: bb20 013d 9f4b fa3c 4679 6abd e4a3 70bd
000000a0: afb9 153d 43e6 083d ad3f 203d 0920 903d
000000b0: b040 6f3d 83f7 d43b fdbf 843c 46a3 2f3d
000000c0: be31 b3bd 6f5f 7f3c 374e e5bb 0ec4 42bd
000000d0: 5dfd 783d 22fc 263d 0746 9a3b 3751 c43c
000000e0: 0bea 073d cf9a 753d 8d26 4dbd c301 6ebd
000000f0: 027e 39bd e894 4dbd b42b 48bd 5c68 723d
00000100: e3bb 9b3c 5cab 913c c5b7 1c3d a9ab a739
00000110: 9464 fabc 805c 25bd 826a dfbc 158a 60bc
00000120: 651a 083c 4544 d5bc 4e6d b5bc a51f 3a3d
00000130: cf5c 75bc 4091 40bd 288a 04bd fcce 77bc
00000140: 8e76 963d 8e96 19bd dc6d 8a3d 227c 2abd
00000150: 78c1 353c 7c26 153d 306b bb3c d21a 803c
00000160: d213 123d abe3 e9bc a5bf 7d3c b8b0 893c
00000170: 87c1 6f3d 50e0 be3c ea55 553d d12a 63bd
00000180: ef14 34bd 7ee3 103d 7db9 d13c 663a 35bc
00000190: ec22 25bd 49e9 803d 45c6 433b ced2 3cbd
000001a0: 1c9f 08bc 67ef 0bbd af8c fe3c 19fd 5abd
000001b0: 0a1f 69bd e7fb 35bd 62a2 803a 6088 453c
000001c0: 35dd e63c 9edc 24bd 2444 1d3d dbdc 833d
000001d0: cdb5 1abd 149c 5e3d c027 923c 4522 9a3c
000001e0: fc91 74bd 4164 e5bc 36a0 953d 97e3 f93c
000001f0: b310 11bd 4cc0 64bd b8b6 d03b a8a6 1dbd
00000200: 2598 57bc 5375 163d d77a dabc b63f b53d
00000210: 646e 3c3d 6d37 4dbd 11eb 363c aff2 7c3d
00000220: 13c4 babc 3ce6 96bc d8f5 883c 4d1b 49bc
00000230: 73e7 cebc 0a88 96bd 0bf5 8ebd 73dc 46bd
00000240: db36 363d 058c 49bc c221 23bd 4da3 8b3d
00000250: 9060 163d 39f0 713d 8669 edbc e4e0 0ebd
00000260: bf41 bc3c 9e1f efbb 87e7 233d 2acf 06bd
00000270: 71bc ae3c ddbb 9bbc da54 0c3d 3971 5abd
00000280: 5583 7ebd ed56 6ebd 8620 523d d1cd 5bbd
00000290: 90a4 713d 699a 6f3d 4161 5b3d 87ad b63b
000002a0: 3031 7d3d 183b 463d fc00 1a3d 2b91 f43c
000002b0: ef6e fcbc c1be 753d f914 f0bc 8a6b 0f3d
000002c0: 0177 973b 85cd eabc 9595 93bc 6085 2cbd
000002d0: 31ea 963d 4082 49bd fd4d b5bb 961c 59bd
000002e0: 9ec7 e9bc b49e 223d 9fbc 8ebc 9cd2 52bd
000002f0: 8306 99bc 82b6 973d b9d5 3bbc 6aef 0bbd
00000300: 427f 57bd 775b 82bd c26c ccbc 85df 63bd
00000310: 1e3b 00bd 57a6 dc3c 3005 4ebc c638 b63c
00000320: 4f60 37bd 0602 953b 914d b2bc d071 40bd
00000330: a305 f1bc 1a03 5d3d b094 e33c 0eeb 48bd
00000340: 754c 81bd a5e7 46bb 1043 2abd 65a5 4bbd
00000350: 6c8e e43c c045 9ebc 91cf 9abd ee51 62bc
00000360: 0965 6abc 86bc 163d 665d 98bb 7bbf 4d3d
00000370: 2843 623d c25b 843d 7700 cfbc 29bc df3c
00000380: 19ce 793d 394d ffbc f703 f23c acfb 96bc
00000390: a44f 59bd 47a8 90bc 008c ed3c d19e b23c
000003a0: 2566 603d 2612 4c3d a90c 923d dad7 77bd
000003b0: 5d87 1abd 1cd1 91bd 07d1 83bd fad5 14bd
000003c0: 9529 99bc 735e d83b 5c1c 39bd e36b 933b
000003d0: 088b c33b ca93 433c daf2 7e3d c06b 35bd
000003e0: 1a84 473c e31d 78bd d365 92bc 2b38 edbc
000003f0: 9ea3 9cbc eadc 43bc c538 603d a0de e83c
0.08801009 0.037991695 0.03641686 0.063075796 0.0007037062 0.022221664 -0.014511289 -0.044822287
0.039035365 0.034844246 -0.017549813 0.06565425 -0.004104105 0.0072000166 0.050616324 0.05465475
-0.005441256 0.0355495 0.043505196 -0.03176158 -0.06587978 0.046103135 -0.047691368 0.012375338
0.025759129 -0.021883454 0.05853999 0.0279909 0.052860495 -0.046267256 -0.045918997 0.05431216
-0.010175593 -0.07432539 -0.08331334 -0.084904686 0.031525355 0.030553637 -0.05724456 -0.05875005
0.036554035 0.03342272 0.039123226 0.0703736 0.0584113 0.0064992323 0.016204828 0.04288032
-0.08749722 0.015586718 -0.0069978493 -0.047550254 0.0607885 0.040767796 0.004708055 0.023964508
0.033182185 0.05996209 -0.050085593 -0.05810715 -0.045286186 -0.050190836 -0.048869804 0.059181556
0.01901049 0.017781906 0.038261194 0.0003198062 -0.030565538 -0.040371418 -0.027272467 -0.013704796
0.008307074 -0.02603353 -0.022146847 0.045440335 -0.014975741 -0.04701352 -0.03235832 -0.0151250325
0.07346831 -0.037497096 0.06759235 -0.04162229 0.01109349 0.036413655 0.02287826 0.015637789
0.035663433 -0.028550943 0.015487586 0.016807899 0.05853417 0.02330032 0.052083887 -0.055460755
-0.043965276 0.035373203 0.025601143 -0.011061287 -0.040316507 0.062944956 0.0029872817 -0.046099477
-0.008338716 -0.03416386 0.031072943 -0.05346403 -0.056914367 -0.044429686 0.0009814019 0.01205644
0.028181652 -0.04024946 0.038395062 0.06438609 -0.037771035 0.054348066 0.01784122 0.01881517
-0.059709534 -0.028001906 0.073059484 0.030504031 -0.035416316 -0.05584745 0.006369438 -0.038489014
-0.013158833 0.036732983 -0.026669903 0.088500425 0.046003714 -0.050101686 0.011164443 0.06175488
-0.022798574 -0.018420331 0.01671879 -0.012274575 -0.025256848 -0.07350166 -0.06980332 -0.04855008
0.044485908 -0.01230145 -0.039827116 0.068182565 0.036713183 0.059066985 -0.028980982 -0.03488244
0.022980569 -0.0072974702 0.040015724 -0.03291241 0.02133009 -0.019010479 0.03426061 -0.053330634
-0.062136967 -0.058188368 0.051300548 -0.05366308 0.05899483 0.058496866 0.053559545 0.0055748853
0.061814487 0.0483962 0.037598595 0.029854378 -0.030814616 0.05999637 -0.029306876 0.035014667
0.0046223407 -0.028662452 -0.018015662 -0.042119384 0.07368887 -0.04919648 -0.0055329786 -0.053005777
-0.028537568 0.039702132 -0.017423926 -0.051470384 -0.018679863 0.074078575 -0.01146453 -0.03416387
-0.052611597 -0.06365102 -0.024954204 -0.055633087 -0.03130638 0.026934786 -0.012574479 0.022243869
-0.04476958 0.0045473604 -0.021765502 -0.04698354 -0.029421633 0.053958036 0.02778086 -0.04905229
-0.06313411 -0.0030350473 -0.041567862 -0.04971828 0.027899943 -0.019320369 -0.075591214 -0.013813479
-0.014306315 0.036800884 -0.004649806 0.050231438 0.055239826 0.06462814 -0.025268776 0.027311401
0.060987566 -0.031164752 0.029542906 -0.018430553 -0.053054467 -0.017658366 0.028997421 0.021804245
0.054784913 0.049821995 0.07131321 -0.060508586 -0.03772675 -0.071199626 -0.06436353 -0.036336876
-0.018696586 0.006603056 -0.04519306 0.004498945 0.0059675016 0.011937091 0.06224332 -0.04429221
0.012177492 -0.060575377 -0.01787082 -0.028957447 -0.019120988 -0.0119545255 0.05474164 0.028426468

layers.0.bias f4 [32]
00000000: 726b 98bd 571f ab3d b7c6 8a3d f9d5 d0bc
00000010: d5ce 513d 1b60 a2bd c6b7 0cbd 511d ce3d
00000020: 6e04 84bd 6f1b 5ebd 6394 10be 3931 20bd
00000030: 84d6 453d da73 80bc 1565 34ba 0ee6 4cbd
00000040: 9b4d e03c 6893 5dbb d828 5a3d 9339 bf3c
00000050: 66c1 063d 2d80 60bd 17c2 61bd a8a6 c3bd
00000060: 0a94 7dbd e89c 17bd 473d ea3c d220 21bd
00000070: 47a1 b9bd 4e7f 4abb 75d9 6dbc ff7d d6bc
-0.074423686 0.08355587 0.06776183 -0.025492655 0.05122264 -0.07928487 -0.034354948 0.100641854
-0.064461574 -0.05422538 -0.14119105 -0.039109442 0.04830028 -0.015680242 -0.00068815175 -0.050024085
0.027380755 -0.0033809785 0.053261608 0.023342883 0.032899283 -0.054809738 -0.05511674 -0.095532715
-0.06190876 -0.03701487 0.028593672 -0.03933794 -0.09063964 -0.0030898633 -0.014517178 -0.026183126

layers.2.weight f4 [32]
00000000: 4a76 7c3f 4adf 813f 1205 7a3f 5567 7f3f
00000010: 85d9 783f 13de 7a3f b974 7e3f 0a91 7f3f
00000020: 4fc3 7e3f 3979 7f3f 662d 833f d606 813f
00000030: 0705 803f 67e1 803f f9d4 7c3f 947c 7d3f
00000040: 0d6f 823f 6cf0 7b3f 76b9 7d3f 16f3 863f
00000050: 84fb 823f 6187 843f 8238 883f 2168 7e3f
00000060: 655d 6e3f dadc 803f e4e1 813f 6fc9 753f
00000070: 6714 6f3f c7c2 7f3f ac14 803f 93d7 7d3f
0.98617995 1.0146267 0.97663987 0.9976705 0.9720691 0.9799511 0.99396855 0.9983069
0.9951677 0.99794346 1.024823 1.0080211 1.0001534 1.0068787 0.9876247 0.99018216
1.019014 0.9841373 0.99111116 1.0542934 1.0233006 1.0353814 1.0642245 0.9937764
0.9311126 1.0067399 1.0147061 0.9601049 0.93390507 0.9990658 1.0006309 0.99157065

layers.2.bias f4 [32]
00000000: 6bfe 02bd 173b 0dbc 3819 873b 7472 02bd
00000010: 4933 1fbd b7f3 0f3d 3b9b 97bc c115 2d3d
00000020: 9ad9 00bd e1df b93c 07a7 f73b e9e2 ddbc
00000030: e1c1 433b b7b8 4fbc 11aa 263d aadc 823c
00000040: 57fa 213d 6201 ed3c 5c3f c1bc 750c 7abc
00000050: 7b79 dcbc 0816 36bc a697 8abc 84c3 943c
00000060: 6fdb 633c 8173 803b b890 acbb 9f13 d63b
00000070: 5c11 84bb 124a 583b 945a 16bd 4eb0 6fbd
-0.031980913 -0.008620045 0.0041228794 -0.031847432 -0.03886727 0.035144534 -0.018506637 0.042257074
-0.03145752 0.022689762 0.007557753 -0.027085738 0.00298702 -0.012678317 0.04068953 0.015974361
0.039545383 0.028931323 -0.023589782 -0.015261759 -0.026913395 -0.011113651 -0.016918015 0.018159635
0.0139072975 0.003920019 -0.0052662753 0.0065331007 -0.0040303897 0.0033003134 -0.036707476 -0.058517747

layers.2.running_mean f4 [32]
00000000: 3ae3 2542 fd9d 9141 41be a53e 9fd6 a241
00000010: 7961 9c3f 51d0 553f 21a3 6e42 47e8 0f41
00000020: 9c54 9341 24bc b440 e6f6 3d3e 710f 2a42
00000030: 25fb 2042 a658 8e42 8885 9b3c 9eb7 2042
00000040: 645e 4c3e 87d9 553f 633f b242 fdd9 8a3f
00000050: 0483 553e 0cee f840 1861 c33e b58f 653e
00000060: fccb 513f 7084 2d42 d1b3 1440 0be4 4440
00000070: 13a9 ec40 752b 9841 90fa 4642 0bf0 d442
41.4719 18.202143 0.32371715 20.354795 1.2217246 0.8352099 59.659306 8.994208
18.416313 5.6479664 0.18551216 42.51508 40.24526 71.17314 0.018984571 40.179314
0.19957882 0.83535045 89.1238 1.0847775 0.2085076 7.7790585 0.38160014 0.22418101
0.8195188 43.379333 2.3234751 3.0764186 7.395639 19.02122 49.74469 106.468834

layers.2.running_var f4 [32]
00000000: 919f 0345 1765 1844 cbff 4241 9e23 0544
00000010: b396 0042 ed1f 8d41 2faa 5d45 f237 9a43
00000020: 2441 e943 0b85 8742 845d 9940 3129 0445
00000030: bc49 d844 da72 9145 ac38 bc3e 0f5b 0e45
00000040: 4a07 f640 834f 6741 21b1 0146 36c2 ed41
00000050: 7369 a740 08ec 1f43 0d32 9941 9c54 9640
00000060: df48 b841 4719 0545 3610 d341 45e9 3743
00000070: cf37 7043 2946 0b44 6c2f 3245 67ee 4e46
2105.973 609.5795 12.187449 532.5565 32.147167 17.640589 3546.6365 308.43707
466.5089 67.75985 4.7926655 2114.5745 1730.3042 4654.3564 0.36761987 2277.6912
7.68839 14.456912 8300.282 29.71983 5.231622 159.922 19.149439 4.6978283
23.035582 2129.5798 26.382915 183.91121 240.218 557.09625 2850.9639 13243.601

layers.4.weight f4 [64, 32, 2, 2]
00000000: b6f7 3a3d 833a 69bd d582 843d e3d4 78bd
00000010: 7f3f 2f3d 64ed a43d 531d 363d 3c4d 2dbd
00000020: 6003 803b 5e5b 863c bd84 67bd ef5a b93d
00000030: 76b7 6c3d 9677 bc3d 1d1f 2c3d 6063 7bbd
00000040: d544 a2bd dd6f 2a3d b0a7 ac3c aca6 b1bc
00000050: ea52 473c 4716 b33d 5488 05bd 3842 81bd
00000060: a58d e1bc dd47 49bc 45d8 303d b5e7 063c
00000070: 853c c83c 56c1 4abc 1069 2b3d 3c24 303c
00000080: c557 86bd 8b05 553d e7d6 a03d d316 b93c
00000090: 6ca9 6bbd 3854 9c3d 9966 3f3d 0066 873d
000000a0: ca01 eb3c 3237 183c ff05 8f3c af17 00bd
000000b0: 1dfb a5bd bcf4 84bd bedf 6dbc 414c a2bd
000000c0: 87a4 333d 1fcc b0bd e817 a73d 457c 843d
000000d0: 89f4 3cbd 554f 7cbd 4e46 23bb 5ea8 d3bc
000000e0: 8d2d 0fbd b6b8 853d c7df 25bd 9fb0 413c
000000f0: 23cf 6d3c abe8 ac3d ab49 b2bc a435 04bd
00000100: 5826 54bc 02a8 a33d 321a 1e3d f782 85bd
00000110: 95ed 743c d552 393d d213 a4bc 34a7 093d
00000120: 06db da3c 3732 71bd 8879 d5bc 27f9 033d
00000130: eddc 1e3d d55c 8b3c f48a 223d db19 193d
00000140: 05ea 9a3d 18c3 993c a4d4 173d 2f63 713d
00000150: 1139 bf3c 76e6 443d 7f84 1fbd 7e39 e13c
00000160: 2c98 86bd 3b63 1938 e518 af3d df5f f3bc
00000170: 5a35 83bd 054b 833c 5108 f63b c4a3 abbc
00000180: 8307 f5bb 3ca7 983c 5246 9a3d 5753 6f3c
00000190: b0fa 803d ddd8 9b3d 7400 34bd cd76 a3bd
000001a0: 2639 843d 2023 593d 11bd 2a3d 6acf 1b3d
000001b0: a39b 2d3d b52c bf3d 3acb c0bb 90e9 9f3d
000001c0: 4654 af3c b534 8e3d 883c 0c3d cb56 233d
000001d0: 93af 54bd 5184 9d3d 4d87 543d 9657 56bd
000001e0: 89a1 863d b0eb 90bc 5da9 7eba 2194 b73d
000001f0: e31a 9a3d cf8c afbb 1d4c 273d f0a9 2c3c
00000200: a0f0 40bc 0ac0 71bd 24d3 a03d 19be 933d
00000210: b285 f13b a179 09bd a8ba a4bd b6d5 9cbc
00000220: 82d9 823d b874 963d 3099 53bd 628a 553d
00000230: c055 ab3d 0370 4b3d ce39 8dbb 9740 ecbb
00000240: 8a8f 703c 7cf7 663d 7927 39bd 2279 9bbd
00000250: 8b4d 303d c385 8bbd 9e90 9bbb 83fb b33d
00000260: 5718 8cbd 06d5 a23d 6463 aabd 769a 653d
00000270: 4372 8bbb d8b1 47bb aa07 1cbd e96d 0c3d
00000280: 1386 0c3c fb2a 043d 478b 6f3d 9cfc ad3c
00000290: 1c3e bbbb dd9a 90bd ddcb a13c 365e ba3d
000002a0: a48f 90bc 929a 47bd fff6 ab3d b150 dbbc
000002b0: f981 3c3c 01a2 963d 968f d73c f7be 3b3d
000002c0: e018 30ba d8d7 aebc 2b3d 553d a2eb 9f3b
000002d0: d79f 61bd cda9 e4bc f131 053d 846d 85bd
000002e0: 5614 8f3d 223b 7a3d 9d2c 76bd 56e9 cb3c
000002f0: dd98 a4bd fde5 7fbd f0bd 283c fbba 713d
00000300: 639b 6fbd a7ec 1b3d e9fe ca3c 7fb9 9d3d
00000310: 4c47 263d 9608 dabc 7b9a d4bb 0511 9e3c
00000320: 38a5 9a3d a93b 4a3d 150e 8e3d bac2 26bc
00000330: 420b 52bd 8a1a 1fbd 33c5 67bc cc63 4cbd
00000340: a0c6 30bd 0aae 21bd 44bd de3d cecc 813b
00000350: 39f5 c73d 9fd8 67bd d2b3 1d3d 78f7 9dbb
00000360: 0c35 313d ad20 de3d a78a 943b 4a22 d33c
00000370: f6cf a5bd d682 5d3c 08da e4bc 2185 17bd
00000380: d070 0a3d 4314 7abc a144 d93b 89f7 64ba
00000390: cc35 cf3c 3c67 083d bcfa d03c 0181 073d
000003a0: 6b38 0b3d 546a 45bd 8424 a7bc 1be9 9ebd
000003b0: f091 90bd 4dab 38bc 6755 65bd 3457 81bd
000003c0: a846 d23c 7bc6 09bd b473 5dbc fc41 713d
000003d0: 2381 663d 28e4 a33d 3c55 63bd 8c0e dc3c
000003e0: 393a 903d e5bc 75bd 27c4 c0bd 2a75 9bbd
000003f0: 0f7f 1b3d f0f4 81bd 2b93 2b3b f8d6 293b
0.04564639 -0.056940567 0.06470267 -0.0607499 0.042785164 0.08053091 0.04446156 -0.042309985
0.0039066523 0.01640099 -0.056523073 0.09050547 0.05779215 0.09202497 0.04202186 -0.06137407
-0.07923285 0.041610587 0.021076053 -0.02168592 0.012165764 0.087444834 -0.032600716 -0.06311458
-0.027533362 -0.0122852 0.043175 0.008233954 0.02444292 -0.012375196 0.041848242 0.010750826
-0.065597095 0.05200724 0.07853489 0.022593891 -0.05753462 0.07633251 0.046728704 0.06611252
0.028687377 0.009290503 0.017458914 -0.031272586 -0.08104537 -0.06491992 -0.014518676 -0.079247005
0.043858077 -0.08632683 0.08158857 0.06469015 -0.046131644 -0.061599094 -0.002491373 -0.02583712
-0.03495555 0.065293714 -0.040496614 0.011821895 0.014514717 0.084428154 -0.021763643 -0.03227772
-0.012948595 0.07991029 0.0385992 -0.0651912 0.014949222 0.04524501 -0.020028982 0.033606723
0.026715767 -0.05888578 -0.026058927 0.032220032 0.03878491 0.01701204 0.039683297 0.037378173
0.07564167 0.018769786 0.037068024 0.05893248 0.023342641 0.048071347 -0.038944717 0.027493235
-0.06571993 3.6570458e-05 0.0854967 -0.0297088 -0.064066604 0.016026983 0.0075083156 -0.020952113
-0.007477702 0.018634431 0.07532944 0.014607272 0.06297815 0.07609723 -0.043945745 -0.07981644
0.06456213 0.053012013 0.041684214 0.038039602 0.042384755 0.09334699 -0.0058836015 0.078082204
0.02140249 0.06943647 0.034237415 0.039877694 -0.051925253 0.07691253 0.051886845 -0.052329622
0.06573779 -0.01769051 -0.0009714568 0.089638 0.075246595 -0.005357362 0.04084407 0.010538563
-0.0117761195 -0.059021033 0.07852772 0.072139926 0.007370674 -0.03356326 -0.08043414 -0.019144874
0.063891426 0.07346481 -0.051659763 0.052133925 0.08365965 0.04966737 -0.0043098694 -0.007209848
0.01468266 0.056388363 -0.04520366 -0.075914636 0.0430427 -0.068126224 -0.0047474643 0.087882064
-0.0684058 0.07950787 -0.083197385 0.05605551 -0.0042555644 -0.0030470993 -0.038093247 0.034284506
0.008576888 0.032267552 0.058482435 0.021238618 -0.005714191 -0.07060788 0.01975053 0.091000006
-0.017646618 -0.048731394 0.0839672 -0.026771875 0.011505597 0.073551185 0.026313584 0.045836415
-0.0006717574 -0.021343157 0.052060287 0.0048803845 -0.055084076 -0.027912999 0.03251833 -0.06515029
0.06986301 0.06109155 -0.06010114 0.024891537 -0.08036969 -0.062475193 0.010299191 0.05901621
-0.058497798 0.038067486 0.024779754 0.07701396 0.040595338 -0.026615422 -0.006488142 0.019295225
0.07551044 0.049373303 0.0693628 -0.010178262 -0.051280268 -0.03884367 -0.014146137 -0.04989986
-0.043158174 -0.039472617 0.10875943 0.003961182 0.097635694 -0.05660307 0.03850157 -0.0048207603
0.04326348 0.10846076 0.00453313 0.025773186 -0.08096306 0.013519963 -0.027935997 -0.036992196
0.033798993 -0.01526362 0.0066304957 -0.00087343954 0.025294207 0.033301577 0.025510184 0.033082012
0.03398935 -0.048197106 -0.020403154 -0.07759305 -0.07059085 -0.01127131 -0.05598965 -0.06315461
0.025668457 -0.03363655 -0.013516355 0.05890082 0.056275498 0.08002502 -0.055501208 0.026862405
0.07042355 -0.059994597 -0.09412413 -0.07590707 0.03796297 -0.06345546 0.0026180248 0.0025915485

layers.4.bias f4 [64]
00000000: c3e4 403d a008 9ebd c3b0 7dbd 4a77 2bbd
00000010: 5366 84bd 25b7 e8bb b933 00bd 36a3 0abe
00000020: ef84 633d d060 18bd 247b 8dbd 9b15 b73d
00000030: a5bc 6dbd c560 dc3d 04ad b2bd f611 4bbd
00000040: d631 b9bd 211a 85bd 6538 c7bd 7f93 af3d
00000050: 44b6 0d3d 101d 79bd 06f0 e93d ffb2 b5bb
00000060: 57c7 423d bd1b ffba 3f34 83bd d0dd b1bc
00000070: 8c52 20bc 8bb0 a7bd 1f7f 503c 4ca4 963c
00000080: 0041 153d 6321 eb3d 1a81 1bbd 6443 5dbd
00000090: ea7e f7bc 3738 5e3d 0ca7 81bd 1a9c 92bb
000000a0: d38e d1bc e61a 63bd a658 dd3c 6fb3 64bd
000000b0: 3062 7abd d7ca 98bc 4737 0abd 4897 373d
000000c0: 43dc b83c 7f49 443d beb2 d53c c08e 6ebd
000000d0: 18a1 0bbd bd3f b8bd 080d ef3b a211 fbbc
000000e0: 6507 52bd 5127 83ba b7b7 2a3d c33c 2d3d
000000f0: a794 9d3d 6f0c 8abd 897a a8bd 1632 5dbd
0.047093164 -0.07716489 -0.06193615 -0.04186181 -0.06464829 -0.0071019107 -0.031299327 -0.13538823
0.055546697 -0.037201703 -0.06908253 0.08939668 -0.058041234 0.10760645 -0.08724406 -0.049577676
-0.090427086 -0.06499124 -0.09727553 0.085730545 0.03459765 -0.06081873 0.11422734 -0.0055450196
0.047553387 -0.0019463223 -0.064064495 -0.021712214 -0.009785306 -0.0818797 0.0127256205 0.01838889
0.036438942 0.114809774 -0.037964918 -0.054019347 -0.030211885 0.05425283 -0.0633069 -0.004474175
-0.0255808 -0.055445574 0.02701981 -0.055835184 -0.061128795 -0.01865141 -0.033744123 0.044822007
0.022565966 0.047921654 0.026086207 -0.058241606 -0.034089178 -0.08996532 0.0072952546 -0.030648056
-0.051276583 -0.0010006224 0.04167911 0.042294275 0.07694369 -0.06740653 -0.08226497 -0.054002844

layers.6.weight f4 [64]
00000000: 597f 7e3f b0fd 7b3f 1452 853f ddc0 803f
00000010: a114 7f3f 9560 853f 5970 803f 24e5 803f
00000020: 5d88 803f 86cc 7c3f ba0e 793f ca50 7c3f
00000030: 0857 7d3f f1d0 7c3f 17d6 803f 6037 823f
00000040: 399d 7d3f 9388 793f 6602 813f 4da0 7a3f
00000050: 86fe 823f b06f 7f3f d51b 783f 11e6 7d3f
00000060: 27bd 7a3f 406f 7a3f fceb 763f f024 7a3f
00000070: b924 843f 7fb8 803f beac 803f 4418 803f
00000080: 06b9 7c3f a5ae 803f 8e33 813f 18b9 813f
00000090: 024d 7c3f 6765 7d3f c28c 823f 134f 853f
000000a0: 5d7d 813f 4c0c 7f3f 7673 7d3f 789e 7c3f
000000b0: 9d78 813f b35c 783f b03d 7e3f 4558 813f
000000c0: 8de7 7e3f 3297 7c3f 61b6 7a3f f15e 7d3f
000000d0: 0f1f 7e3f 5ba4 803f d2fc 843f bf8f 7f3f
000000e0: aa8a 7a3f 5e45 763f 0baf 7a3f ddd0 7e3f
000000f0: c164 7a3f 17ec 7a3f 08ec 7f3f 88ab 7f3f
0.9941307 0.9843397 1.0415673 1.0058857 0.9964085 1.04201 1.0034286 1.0069928
1.0041615 0.9874958 0.97288096 0.98560774 0.98960924 0.9875632 1.0065335 1.0173149
0.9906803 0.9747402 1.0078857 0.9790085 1.0233924 0.99779797 0.9691747 0.9917918
0.97944874 0.97826004 0.96453834 0.9771261 1.0323707 1.0056304 1.0052717 1.0007405
0.98719823 1.0053297 1.0093858 1.0134611 0.98555005 0.9898285 1.0199206 1.0414757
1.0116383 0.9962814 0.99004304 0.98679304 1.0114933 0.9701645 0.9931288 1.0105063
0.9957207 0.98668206 0.9793454 0.98972994 0.9926614 1.0050157 1.0389655 0.99828714
0.97867835 0.96199596 0.97923344 0.9953745 0.9780999 0.98016495 0.9996953 0.9987111

layers.6.bias f4 [64]
00000000: 77b5 20bd 36ba 81ba a671 033d 7d60 4fba
00000010: 776e 533c 464e 9c3c 72ca 863c ca4d b2bc
00000020: e28b 2f3d 6a54 193a 6cf3 01bc 2497 843d
00000030: 4f4a 3ebd 429b 653c 2dec 0ebc 1aa0 7b3d
00000040: 0faf 4f3d 860f b2bc aea3 9c3d a0ca 463d
00000050: 6678 873d 2a75 71bd 7531 843d d5e2 73bd
00000060: 7a77 6c3a 9f42 b63c 5654 6b3d b309 89bd
00000070: 495b 503d 2900 8bbc 46df af3c 1bbc 603d
00000080: 93e0 d43c 964e 693d dd06 e6bc b833 71bd
00000090: d9f5 013d 75c8 70bd 226c ffbc 4f05 c03a
000000a0: 15fa 143d 9ee1 4ebd 4af2 c33c c6c0 f63c
000000b0: 332c 9abc 772a c63d a7bf 1a3d d216 0a3c
000000c0: 26e1 1a3d 8501 3a3d fc5b 853d cca2 623c
000000d0: 5c6a a83d 6c79 73bb 50a4 a1bd b30d c73c
000000e0: 0e28 873d ef51 2f3d 8a64 1dbd 7d80 833d
000000f0: 370e c53c ff79 153b e2c7 2c3d a1ee 553d
-0.03923556 -0.0009897414 0.032090805 -0.0007910801 0.012904755 0.019080292 0.016453955 -0.021765608
0.042858012 0.00058490655 -0.007931571 0.0647414 -0.046457585 0.014014067 -0.008723301 0.06143198
0.05070406 -0.021735918 0.07648407 0.048533082 0.06614761 -0.058949627 0.06454746 -0.059542496
0.0009020489 0.022248564 0.057453476 -0.06691303 0.050868306 -0.01696785 0.02146877 0.05486689
0.025985992 0.05695971 -0.028079445 -0.058887213 0.0317286 -0.05878492 -0.031179491 0.001465002
0.03637131 -0.050508134 0.023919243 0.030121218 -0.018819904 0.09676068 0.03778043 0.008428292
0.037812375 0.045411605 0.06511685 0.013832759 0.082234114 -0.003715123 -0.07892668 0.024298524
0.06599437 0.042802747 -0.03842596 0.064209916 0.02405463 0.002280831 0.04218281 0.052229527

layers.6.running_mean f4 [64]
00000000: 66c4 503f f86a 943e 37b3 6e3d a22b e83e
00000010: df3b d93d 1fc3 0b3e 6d15 823e 9d7b b13e
00000020: 4434 843e fd3a d03e 8ad7 123f 380a 8f3e
00000030: d30e 533e 0ebb bb3e 8d8b 9e3e 2587 0c3e
00000040: 1432 ef3d 3d53 e03e 78e5 9c3e 5256 c53e
00000050: 12de 4e3e a609 b23e a238 cd3e d3fd 973e
00000060: 4c3e 723e 5e32 6c3e 5560 013f 1e95 303f
00000070: 4611 f93d b3de 263e 9be1 e43e 5092 c63e
00000080: 496c 253e 2871 643e a879 913e 2c5e 8a3e
00000090: baa2 a03e 692c 173f d5f3 363e 891e 023e
000000a0: f857 7b3e 6e2c 283f 6e9d e73e 252b b53e
000000b0: b919 053e 7042 d83e a8d2 b03e 1e49 443e
000000c0: 05c5 ae3e e094 1a3f 406d d33e 0b2d 983e
000000d0: 3f11 7b3e f3bd aa3e be72 1f3e 52ad c73e
000000e0: c187 a03e 2194 903e f95d f53e 0caf 4f3f
000000f0: 180b 943e 0691 ac3e 5872 c73d 39d9 9b3e
0.8154968 0.2898786 0.05827638 0.4534579 0.10607123 0.13648652 0.25406972 0.34664622
0.25821126 0.40670004 0.57360137 0.27937484 0.20611124 0.3666615 0.30965844 0.13723429
0.116794735 0.43813506 0.3064382 0.3854242 0.202019 0.34772986 0.4008227 0.2968584
0.23656577 0.23066089 0.50537616 0.68977535 0.12161498 0.1629589 0.44703373 0.38783503
0.16154589 0.2230879 0.2841313 0.27024972 0.3137415 0.5905214 0.17866452 0.1270696
0.24545276 0.65692794 0.45237297 0.3538448 0.12998094 0.42238188 0.34535718 0.19168517
0.3413469 0.60383415 0.4129429 0.29721865 0.24518298 0.33348045 0.15571114 0.3899942
0.31353572 0.28238013 0.47923258 0.81126475 0.28914714 0.33704394 0.09738606 0.30439165

layers.6.running_var f4 [64]
00000000: cf21 b13f 94c4 ea3e 5c4d f53d 2412 093f
00000010: c6d0 833e 3701 333e 642a 463f 1338 5c3f
00000020: a0b3 cb3e 062a 293f 3b3d 823f 0a32 883e
00000030: 2909 023f 0877 3d3f 3aa5 d13e 20f1 a23d
00000040: b8ed 9f3e 1183 4e3f 1d1b d03e 07e9 ef3e
00000050: a73e a63e 83c3 713f 6aa3 c53e 2c8c 313f
00000060: 16ec 923e 82d8 a83e bb09 0d3f b557 a13f
00000070: d93b 033e d690 913e 5101 1a3f 959c b73e
00000080: 9a4e 493e 3e0a 013e 3771 103f b196 0a3f
00000090: da4a 803e 1fdc 843f 8ff4 223f d26b d63d
000000a0: c665 163f 48c2 583f f234 fa3e 8fa8 153f
000000b0: 247c ba3e efc6 d83e 63f6 2d3f 840d 8c3e
000000c0: 5ee2 403e b514 3e3f f26d f43e 7645 8a3e
000000d0: d836 dc3e 69bf 833f bd52 133f 4b83 733f
000000e0: 7caf c03e 7a67 873e cd3e 2b3f 0d3f 663f
000000f0: 30cc d23e f20a de3e e8a6 053e 9d88 983e
1.3838443 0.45853102 0.11977646 0.53543305 0.2574522 0.17480932 0.7740843 0.8602306
0.3978548 0.6607975 1.0174936 0.26600677 0.5079523 0.7400975 0.4094637 0.07956147
0.31236053 0.8066874 0.40645686 0.46857473 0.32469675 0.9443895 0.38601238 0.6935451
0.28695744 0.32977682 0.5509297 1.2604891 0.12815799 0.28430814 0.6015826 0.3586165
0.1965889 0.12601563 0.5642275 0.54136187 0.25057107 1.0379676 0.63654417 0.10469784
0.58749044 0.8467145 0.4886852 0.58460325 0.36422837 0.42339274 0.6795408 0.27354062
0.18836352 0.74250346 0.47740132 0.2700612 0.43010592 1.0292789 0.57548124 0.9512221
0.37633884 0.26446134 0.668927 0.8993996 0.41171408 0.43367726 0.13051951 0.29791728

layers.8.weight f4 [64, 64, 2, 2]
00000000: de49 7abd 55da 0c3d 0ae7 ac3b 8246 ec3c
00000010: 8b39 ac3b 441f bbbb 2428 3abd babe 83bd
00000020: 5c6b 12bd 91c4 2dbd 9c0a a939 dbd1 66bd
00000030: 499c d3bc 4668 80bc aaed 3fbd e661 873b
00000040: c986 d93c d67c 13bc 3917 17bd b500 53bd
00000050: e33a debc 6a3a 073d 8010 0abd a2c3 143c
00000060: 2ec8 cabc bad8 d73c 7626 36bd b9ab 21bd
00000070: cf9b e9bc 7131 fa3c 22e4 86bd 09b9 653d
00000080: f34d 12bd e1d2 713c 0f76 8a3d e392 e3bc
00000090: d694 e43b 1f75 f93c 74ee 093c 2a1f 0d3c
000000a0: 2386 673d 38b0 6cbd 001a 07bd 5f34 23bd
000000b0: 7235 bebc 1c83 ad3d c5a4 a8bc 5449 cf3b
000000c0: 5669 6abc d60f 4d3c 997d 0a3d e886 0bbd
000000d0: 36b8 703c a8ca 37bd a25c d63c 236b 863d
000000e0: 1d6c 5dbc cfe4 213d 0ac5 1fbd 6b0c 173c
000000f0: 8038 62b8 1210 033c ae7c ad3c d26a 3e3d
00000100: fe82 7ebc 52e9 273d 3026 853d 0ee3 523d
00000110: 843d c53b 45b3 76bd 6754 963d 2565 a13c
00000120: f3d4 e43c 9659 23bd 222b 183d ff51 863c
00000130: 03f3 3abd 5a6b 3b3d da98 04bd 30fc 14bd
00000140: 6345 a93a de8a 323d a25f af3c 1a46 2dbd
00000150: 4c16 1dbc b381 4b3d 3405 1ebd 1afa a9bc
00000160: ea4f 303c 7bdd fe3c b47b 1ebc 3282 a7bc
00000170: 2465 613b f859 483d 81ec 9437 d02a 72bd
00000180: 2784 973c ef67 7bbd cece 08bc 5d6c 3c3c
00000190: 4e6a 473c ba0a 21bd ee86 6dbd bc35 843c
000001a0: a412 13bd c6a1 643c 1b50 363d 2cef 2bbd
000001b0: 8713 e0bc ffdb e03c e2dd 2ebd cbc0 7d3c
000001c0: 77f1 a2bd 8054 d23c 579e 7ebc da63 713c
000001d0: e0eb 9e3c 58c7 27bd e3b5 35bc da25 e73c
000001e0: c270 05bc dc53 4fbc eaa0 2dbd 831e d83c
000001f0: 6b70 db3c 7bb8 b2bb 40f9 a6bd 22cf d7bc
00000200: 63ff 23bc 8ecd 47bc 7017 01bb e273 cabc
00000210: 3dae 203c 305b 35bd cc0a b43c 3222 b9bc
00000220: 8ce7 16bc 3635 16bd a277 66ba 7456 033d
00000230: 36fe a2bb b4b0 893d cfba 8a3d 8470 7ebc
00000240: cdf1 bc3c 67db 4ebd afa3 a63b 4bc8 54bc
00000250: 617d 5bbd 8c99 9bbc 0806 5dbc 3476 48bd
00000260: 3fed c2bc e313 9bbd d7c7 cb3c 0bfb 8abd
00000270: f674 a6bd acac bc3b e4a4 403c 21d9 80bc
00000280: 3c80 97bc 884c 43bc f0c5 babc e27e 2b3d
00000290: c4fd bbbc fc46 073d 79c3 f33c 3df5 6c3c
000002a0: 1dfd 153d 7744 39bd 054f 403d 9058 b7bc
000002b0: e786 a43b 57db 56bd 3459 1d3d 6050 6ebd
000002c0: 43bd b9bc 269e 4abd bee7 2b3d 2dc1 b0bc
000002d0: 7fbb 403c e06a 1dbd e1dc f2bc 7568 0fbd
000002e0: 6f2c 723d 4b03 053c 8481 37bc 0d35 95bc
000002f0: 1e3c c6bc 4248 47bc 8373 86bd 0c37 bdbb
00000300: 391a 83bc 0cb2 f6bc ccba 063d e938 52bd
00000310: 316c 86bc 88b6 92bc 8603 293d 5bef 02bd
00000320: 9902 473b 343f b93c 1596 d1bc 8426 783c
00000330: 9588 31bd 0b59 6cbc df0e 363d 93b7 2f3d
00000340: fa77 833d d1ee 393d d9e4 85bc 3353 2cbd
00000350: 930e 833d 5f8f 343d 82a2 f03c 6acd bb3c
00000360: 7845 4abd b917 b83c c9a4 58bd 0d0b 05bd
00000370: 6517 9c3c a2db 88bd 85e6 3bbd a7a1 5f3c
00000380: daf9 85bd 7378 a83c f07b 663c f2fe d9bc
00000390: 2cb6 62bc 68f9 1dbd b311 713c 132d 283d
000003a0: b8e5 7c3d e045 09bd 9a59 063d e175 86bb
000003b0: ee0a 68b9 f9da 113d a82a 013d abb8 49bc
000003c0: 1067 0ebd a964 743d 1e4a 87bd 8802 523c
000003d0: b550 a33b 5eef a7bc 3861 1b3d 2134 d9bc
000003e0: c259 b0bd f85e 3fbd b05e de3c a770 84bd
000003f0: cf87 8abc cd7c 923a dc6e 34bd 356e 6bbc
-0.0611056 0.034387905 0.0052765654 0.028842214 0.005255883 -0.0057105143 -0.045448437 -0.064328626
-0.035746917 -0.04242379 0.00032242096 -0.056352478 -0.025831359 -0.015674721 -0.046857513 0.0041315435
0.026553528 -0.009001931 -0.03688738 -0.051514346 -0.027127689 0.033014692 -0.033707142 0.009079846
-0.024753656 0.02634846 -0.044470273 -0.039470408 -0.028516678 0.030541154 -0.06586482 0.056084666
-0.03571887 0.01475975 0.06760799 -0.027780002 0.0069757504 0.030451356 0.008418668 0.008613387
0.056524407 -0.057785243 -0.03298378 -0.039844867 -0.023218844 0.08472273 -0.02058638 0.00632588
-0.014307341 0.012515983 0.033811186 -0.034064204 0.014692357 -0.044871002 0.026167218 0.065634035
-0.013514546 0.03952485 -0.03900627 0.009219269 -5.393522e-05 0.007999437 0.021177616 0.04648859
-0.015534161 0.040993996 0.06501424 0.051486067 0.006019296 -0.06022956 0.07340317 0.01970155
0.027933573 -0.039880358 0.03715051 0.01639652 -0.04564191 0.045756675 -0.032372333 -0.036373317
0.0012914356 0.043589465 0.021407906 -0.042303182 -0.0095878355 0.049684238 -0.03857918 -0.02074914
0.0107612405 0.03111147 -0.009673048 -0.020447824 0.003439256 0.048913926 1.7753106e-05 -0.05912286
0.018495632 -0.061378416 -0.008350087 0.011500445 0.012171341 -0.03931687 -0.057990007 0.016138904
-0.03590645 0.013954585 0.04450999 -0.04197614 -0.027353061 0.027448652 -0.042692073 0.01548786
-0.07956212 0.025675058 -0.015540681 0.014733279 0.019399583 -0.040961593 -0.011090728 0.028216291
-0.008144559 -0.012654271 -0.042389788 0.026381737 0.026787004 -0.0054541207 -0.081530094 -0.026343886
-0.010009619 -0.012195004 -0.0019697808 -0.02471346 0.009807167 -0.044276416 0.021977805 -0.022599313
-0.0092104785 -0.03667184 -0.00087916304 0.03206487 -0.004974152 0.067231566 0.06773912 -0.0155297555
0.023064518 -0.050502207 0.0050854306 -0.012987207 -0.053586368 -0.018994115 -0.0134902075 -0.048940852
-0.023794768 -0.075721525 0.024875565 -0.06786164 -0.08127777 0.005757889 0.011758063 -0.015728535
-0.018493764 -0.011920102 -0.022799462 0.04186905 -0.022948153 0.03302668 0.029756295 0.014462766
0.03661834 -0.04523131 0.04695036 -0.022381097 0.0050209644 -0.052455273 0.03841515 -0.05818212
-0.022673255 -0.04946723 0.041969053 -0.021576488 0.011763453 -0.038432002 -0.029646339 -0.035011727
0.059124406 0.008118461 -0.0112003125 -0.018213773 -0.024198588 -0.012163224 -0.06565001 -0.0057743844
-0.016003715 -0.030114196 0.032892987 -0.051323805 -0.016409012 -0.017909303 0.041263126 -0.03196655
0.0030366539 0.022613145 -0.02558426 0.015145902 -0.043343145 -0.014425526 0.044447776 0.04289968
0.06419368 0.04539377 -0.016344475 -0.042071532 0.06399264 0.04408204 0.029374365 0.022925097
-0.049382657 0.02247225 -0.052891526 -0.032481242 0.019054124 -0.06682517 -0.045874137 0.013649381
-0.06541796 0.020565247 0.014067635 -0.026610825 -0.0138373785 -0.03856793 0.0147136925 0.04105861
0.061742514 -0.033513904 0.032800294 -0.0041034077 -0.00022129316 0.03560922 0.03153482 -0.012312095
-0.034766257 0.05966631 -0.066059336 0.012817986 0.0049839863 -0.020499881 0.037934512 -0.026514115
-0.0861087 -0.04672143 0.02714476 -0.06466799 -0.016910462 0.001117611 -0.044051036 -0.014369537

layers.8.bias f4 [64]
00000000: f397 60bd 3fa0 caba 851a 193b b183 dfbb
00000010: 6d87 be3b a09c 9bbc 4ea5 d4bd 3792 f53b
00000020: 14d0 41bc c522 4abd 393b 003d 024f 0abd
00000030: 0c44 24bd af63 ce3b 4687 72bc 009c 313e
00000040: b87e aebb f5d9 d4bb 7ed9 c23d a9d6 4bbc
00000050: ddd5 8c3d 671f 3cbd c3fc 1dbd 89d9 643b
00000060: ff9f 97bd 42f7 84bd 3254 bb3c 4007 2dbc
00000070: 4524 42bc c5dd 27bc 7432 8bbd aaa0 323c
00000080: 5d2d 2f3b ae9c 72bc 3b67 c13c 13cc af3c
00000090: 8319 1b3d 97e4 c13b aaef 7dbd 0b96 0d3b
000000a0: 6021 35bd 06d9 a6bc 6999 433d a831 46bd
000000b0: 6f6f 113c 56ce 243e 672b 6d3c 377f 4e3d
000000c0: 9d57 58bc 9b07 a03d 1037 863c d361 65bc
000000d0: 300f 193e 3fdf d0bd c6f9 803c 44fc f73c
000000e0: 9d64 33bc 7a8c 163d bc2a b4b9 0e40 73bd
000000f0: b380 cf3c 1bdc f83c 7ba6 84bc 2dbd c6bc
-0.05483241 -0.0015459134 0.0023361754 -0.0068211188 0.005814484 -0.018995583 -0.10383092 0.007494237
-0.011829395 -0.049349565 0.03130648 -0.033766754 -0.040103957 0.0062985043 -0.0148027595 0.17344666
-0.0053251646 -0.006495709 0.095141396 -0.012441316 0.06876729 -0.045928385 -0.03857113 0.00349197
-0.07403564 -0.06492473 0.022867296 -0.010560811 -0.011849468 -0.010245745 -0.067967325 0.010902563
0.002672992 -0.014807863 0.023608794 0.021459615 0.037866127 0.0059171426 -0.06199614 0.0021604325
-0.044221282 -0.020367157 0.047753725 -0.0483872 0.0088766655 0.16094336 0.01447568 0.05041429
-0.013204482 0.07813951 0.016383678 -0.014000374 0.149472 -0.10198831 0.015744101 0.030271657
-0.010949281 0.036755063 -0.00034364115 -0.05938726 0.025329923 0.030378392 -0.016192665 -0.024260128

layers.10.weight f4 [64]
00000000: 56ed 923f 030c 933f 45f7 923f df0c 943f
00000010: 44f3 923f 3573 933f 5a78 933f eb60 933f
00000020: 792b 933f 21b0 913f 6309 933f d7ed 933f
00000030: aa86 933f 4615 943f 53e9 923f ad81 943f
00000040: 2905 933f 4f41 933f 776b 933f aa76 933f
00000050: 790e 933f 060a 933f 635f 933f cb5e 933f
00000060: d50c 933f e1bc 933f 39e8 933f 80b7 923f
00000070: 6079 933f 8807 933f a03c 933f 011a 933f
00000080: ab45 943f 8650 933f 7815 933f fb9e 923f
00000090: 4f86 933f 2435 933f a713 933f ee67 933f
000000a0: 5410 933f bb72 933f 6ef4 923f 47bc 933f
000000b0: e3d3 923f 5e54 943f 17a5 923f 9cb9 923f
000000c0: c024 943f 7304 933f 8964 913f bea0 923f
000000d0: 1943 933f 1369 933f 4b73 933f ca1e 933f
000000e0: 6562 943f 19bd 933f b92e 923f 3cb8 933f
000000f0: 4032 933f 1fde 933f e1c1 923f 6b1a 933f
1.1478679 1.1488041 1.1481711 1.1566428 1.1480489 1.1519533 1.1521103 1.1513952
1.1497642 1.1381875 1.148724 1.1556958 1.1525471 1.1568992 1.1477455 1.1602074
1.148595 1.1504306 1.1517171 1.1520588 1.1488792 1.1487434 1.1513485 1.1513304
1.1488291 1.1542016 1.1555244 1.146225 1.1521416 1.1486673 1.1502876 1.1492311
1.1583761 1.1508949 1.1490927 1.1454767 1.1525363 1.1500592 1.1490372 1.1516092
1.1489358 1.1519388 1.1480844 1.1541833 1.1470913 1.1588247 1.1456631 1.1462893
1.1573715 1.1485733 1.1358806 1.1455305 1.1504852 1.1516441 1.151956 1.1493771
1.1592528 1.1542083 1.1420509 1.1540599 1.149971 1.1552161 1.1465417 1.1492437

layers.10.bias f4 [64]
00000000: 9fbd 1b3e c8cf 163e 080e ffbd 8ba5 203e
00000010: 0f60 26be d5d4 183e 253e 0b3e 8714 193e
00000020: bda6 f33d 5c74 1abe 6ee2 0ebe c494 193e
00000030: def8 1e3e da44 233e 502e 063e ce38 fabd
00000040: 0f69 163e ddf0 013e 2db3 183e 2335 153e
00000050: f1c3 043e ff6f 1bbe 59e3 1d3e 31d8 18be
00000060: aa4b 153e 647d 0e3e 6d64 1a3e af04 20be
00000070: f585 1c3e f3ef abbd 5c1f 143e 59a8 143e
00000080: 5bf9 04be 0fb3 0abe 22d9 023e 73e8 13be
00000090: 2a8c 05be 1a3f 023e dc2f 1cbe 4112 23be
000000a0: 548d e3bd 06a2 093e 4724 ff3d 8f4a 05be
000000b0: 11e5 22be 4c4a 02be 7c04 9e3c cfea 23be
000000c0: fa50 19be 80e9 0cbe 9516 f1bd 3c7c eabd
000000d0: 1ca0 1a3e 4607 183e a821 0abe c57b 083e
000000e0: 056c 0f3e f5ce 17be 5a77 15be 3ac4 1abe
000000f0: c745 1fbe 336e 1d3e 13b2 143e a2e4 053e
0.15209053 0.147277 -0.12453848 0.1568815 -0.16247581 0.14924939 0.13597925 0.14949237
0.11897037 -0.1508345 -0.13953564 0.14998156 0.15524623 0.15944234 0.13103604 -0.12217866
0.14688514 0.12689538 0.149121 0.14571051 0.1296537 -0.15179442 0.15418757 -0.1492622
0.14579645 0.1391502 0.15077372 -0.15626787 0.15285476 -0.08395376 0.14465088 0.14517345
-0.12985747 -0.13544868 0.12778142 -0.14444141 -0.1304175 0.12719384 -0.15252632 -0.15924932
-0.111109406 0.13440713 0.12458091 -0.13016723 -0.15907694 -0.12723655 0.019289248 -0.16007541
-0.14972296 -0.13760948 -0.11771885 -0.11449477 0.1510014 0.14846525 -0.13489401 0.13328464
0.1400605 -0.14825042 -0.1459631 -0.15113917 -0.15553962 0.15374069 0.14521055 0.13075498

layers.10.running_mean f4 [64]
00000000: 73a7 643d 4743 263f 73bd 253f e113 f13e
00000010: ea8a 813f d870 1f3f 075c 873e c80a 2e3f
00000020: 4f55 0e3f c399 083f f1e6 613f 8350 e03e
00000030: 5163 cd3e 6465 4b3f ed2b 1f3f 1e52 763f
00000040: 800c 233f 94fd 783f 87b1 823f 8884 fc3e
00000050: b271 533f 8a49 813f 978a a63e 68c9 8c3f
00000060: 2a2b f53e 5c23 ac3e 7aa9 853d fe0f 1a3f
00000070: 7b53 b63d 5106 0a3c 6662 fb3e 8e4d e13d
00000080: fd8a a03f 86a6 4f3f 9258 8b3f 6f86 7d3f
00000090: 5ed5 953f fc7b 4f3f 7f84 1d3f 4241 193f
000000a0: 7657 663d f782 a73e 31ee 0f3f 9a84 a03f
000000b0: 1f6d 813f 0278 873f bc38 a63c bf4b 193f
000000c0: a482 863f 59bf 7a3f 43a2 623e e9fa f23c
000000d0: 3f3f 813f 3d96 fe3d 2015 b03f deff 393f
000000e0: 6626 d53d 9283 8c3f ec3b 4b3f 3698 813f
000000f0: d8f9 793f 8a63 513e 890a 963d 9965 883e
0.055823755 0.6494641 0.647422 0.4708548 1.0120518 0.6228156 0.264374 0.679852
0.5559892 0.5335962 0.88243014 0.43811426 0.40114835 0.79451585 0.621764 0.9621905
0.6369095 0.9726193 1.0210427 0.49319863 0.8259536 1.0100567 0.3252761 1.0998964
0.47884494 0.33620727 0.06526466 0.6018065 0.089026414 0.0084243575 0.4909851 0.110011205
1.2542416 0.8111347 1.0886405 0.99033254 1.170574 0.8104856 0.615303 0.598652
0.056235753 0.32717106 0.56222826 1.2540467 1.0111426 1.0583498 0.020290725 0.59881204
1.0508618 0.97948223 0.2213221 0.029660659 1.0097426 0.124309994 1.3756447 0.7265605
0.104077145 1.0977652 0.7938831 1.0124576 0.97646856 0.20448127 0.07326228 0.26640013

layers.10.running_var f4 [64]
00000000: 937a 1c3d 9fb6 0540 eb13 2640 1355 b83f
00000010: 262f 9040 5b0a 2b40 2471 573f 57d6 2c40
00000020: 46da cc3f e03f f33f 0b0c 1a40 f97d b73f
00000030: 5e7c 9b3f 66f5 4c40 a8e2 3140 6a85 583f
00000040: 42f8 1f40 17a8 5740 fd68 e63f 5eda ca3f
00000050: 26d8 1f40 fd69 4f40 fce3 3a3f 5f9d 8b40
00000060: ee59 c33f fa63 723f 3525 c23c 7ae2 1540
00000070: 5e7d 5b3d f184 c23a 86d2 d93f dcae a93d
00000080: 87f0 9640 a027 2b40 1641 9840 d847 3b40
00000090: 617d 8b40 8881 5040 c1b3 2240 3e6e 1140
000000a0: 200f 213d e8f2 8b3f 978f 913f 9e7d 9340
000000b0: 020c 7d40 5074 943f c844 8d3b b274 ea3f
000000c0: d39c 8540 30e7 5c40 a1ed 353f fa57 2c3c
000000d0: 2771 9f3f 6bfa 223e 7870 9540 fc23 1640
000000e0: 95bc 233d 689e 8740 6a52 4040 4dba 8140
000000f0: 5a20 7b40 acdb 1f3e 6016 b83d 9ced 163f
0.038202833 2.0892713 2.5949657 1.4400963 4.5057554 2.672507 0.84157014 2.7005823
1.6004112 1.9003868 2.406985 1.4335319 1.2147329 3.202478 2.779459 0.84578574
2.4995275 3.3696344 1.800079 1.584789 2.4975677 3.240844 0.73004127 4.3629603
1.5261819 0.946838 0.023699382 2.341948 0.053586356 0.0014840645 1.7017372 0.08285305
4.7168612 2.6742935 4.757945 2.92626 4.359055 3.257906 2.5422213 2.2723536
0.039321065 1.0933504 1.1371945 4.609084 3.953858 1.1597996 0.004311178 1.8316863
4.1753936 3.4516106 0.7106572 0.010519022 1.2456406 0.1591584 4.669979 2.3459463
0.039974768 4.2380867 3.0050302 4.053992 3.9238496 0.15611142 0.08988643 0.58956313

actor_classifier.weight f4 [15, 256]
00000000: 4103 3e3c 98e5 27bd 6229 5a3d 9cf1 ff3b
00000010: 0c96 483d 3cc1 663d ef29 463d c798 62bd
00000020: 682f 163b f326 05bd d395 c53c acc7 ed3c
00000030: c0e1 36bd d9e4 a73c eae5 9e39 a053 67bd
00000040: 9ffb dbbc 1dc2 5f3d fb80 13bd 8157 663d
00000050: 31c2 f33c 7a5c 8abc df72 54bd d4a3 bfbb
00000060: 0a39 763d a22f a03c c4f6 f2bc f855 7bbd
00000070: 52aa 2dbc 4c25 dfbc 761d 1a3d 70b3 433d
00000080: 118c 493c 849f 6dbd 08fb 4b3d 280b 3f3d
00000090: 66b0 133d 591d c33b 40e1 013d 2c8e 633b
000000a0: 1611 793b c101 223d 4676 883d 3da3 21bd
000000b0: 423a 983c 318e 24bd fe04 063d 120e 013d
000000c0: 159b 2a3d 16e2 07b9 4a98 5f3d d76b 6b3d
000000d0: 7f55 2dbd 5b83 55bd f9ab 523d 4f2e ed3c
000000e0: 09f8 483c e124 5b3d ddfd 48bd 67e0 dcbc
000000f0: 1001 133d d040 e43c 3ad4 0d3c 2e84 26bc
00000100: 913c 7fbd 3388 b53c 152f 533c 9a34 4d3d
00000110: ebd3 fcbb 7100 f23c c9de b6bc 6956 813c
00000120: 21db b4bc c2fc d6bc 277f 9aba b11e 623d
00000130: 9a9b 0cbd 8080 1bbd 4bfe 4cbc ddaa 353d
00000140: b1e5 763d 62b9 04bd bf7d a03c 20a1 c03c
00000150: 16aa b33c 7801 683d 826d 5bbd 8d45 4abd
00000160: 0e0a 2cbd ec55 183d e11b f33c 8b03 463d
00000170: 6cfe 863c f50d 2cbd 72f5 19bd 431b 45bd
00000180: fa1e 2cbd 34b1 98bc 3a86 82bb acad 66bd
00000190: 9c6f 0fbd 455a 463d c666 643b b621 673b
000001a0: cc06 933c 2a7b a13c d543 863c 800b 5c3d
000001b0: b876 a43c 6752 bcbb 94dc abbc a37e 863c
000001c0: cbd3 0f3d 4f29 aa3c 91a1 3bbc f16b 653d
000001d0: c513 94bc 53b5 e93c 125c 293d 9a00 5abd
000001e0: 528e 893b cda6 d9ba d563 84bd 0cbe 7b3c
000001f0: ce7f 7ebc 15fd babc 05ae 52bd 7fd5 443d
00000200: 7b32 68bd 9ff9 143d a010 2c3d d656 a8bc
00000210: 3193 473d b661 d0bc 7878 0ebd a385 593d
00000220: 386f 553c 45b9 18bd cff3 62bd c52f 3c3d
00000230: 874f 9bbc 0013 a73b d3f7 8d3c c309 543d
00000240: 9a2a 933c 1f57 653d d90b 733d 1572 e83c
00000250: 5a23 1c3d 2b3f 0a3d af06 4d3d 3395 73bb
00000260: 2c57 a0bc 312e 703d 1d97 a6bc 8e36 703d
00000270: e2b5 783b 1494 bb3c 50ce 73bd 8976 0abd
00000280: d4cd e93c 7536 0b3b 3803 c83c f18a 1f3d
00000290: c018 f93c 9908 52bc 817a 183d 5cd1 12bc
000002a0: 8f4a d2bc 3d1c 3abc 82c5 e3bc 1776 56bc
000002b0: aa95 0bbd a6c4 813c 37e8 b3bc 084e ca3b
000002c0: d89e f23a 09d5 ca3c 82e9 b53b 5924 1e3d
000002d0: 68a7 da3c 5fdc cebc 0284 313d 888e 70bc
000002e0: 5a00 99bb 40b8 3e3d 8216 acbc 91d1 c3bc
000002f0: d623 c3bc 68b3 473d edc6 c93c e6bc 3abd
00000300: 5b50 60bd 40f0 44bd 9a00 d63c 63d9 bc3a
00000310: 607c 52b9 d38c 2a3d bf92 30bc 89a4 3cbd
00000320: 46d9 2e3d 63c7 b0bb e7e4 7a3d 4513 143d
00000330: d95f 8fbd 45c2 653d 079c 3a3c 7151 35bb
00000340: 7baa eeba bf2d 253c 6329 6ebd 5da3 ebbc
00000350: aeef e2ba 0d9a 093d 18d9 0c3d ba34 1b3c
00000360: ba7c c43c 934f 693d 48a8 913c ba80 233d
00000370: 280b 083d 6136 ebbc 7ef6 4dbd 977d 513d
00000380: 2adc db3c c5f1 21bd 7c59 b2bc 5b2f f33c
00000390: dd84 a93c e1e4 473d 9e3e 08bd 49bc 39bd
000003a0: 3373 313c 69c0 4dbb 7af5 363c 8ac6 3abd
000003b0: bdcb 5cbb d4b2 3cbd e58a 11bc 6bb9 53bd
000003c0: dac8 153c 68d4 1d3d ac86 4abb 8110 15bd
000003d0: 01ce 463d 2fd3 36bd 87df 7a3d 4378 873a
000003e0: 4c5f 39bd f22c 913b fa4f 623d 5fcb 4abc
000003f0: 2ac3 6abd 805a f3b9 47e8 473d ec87 4fbd
0.0115974555 -0.040990442 0.053262122 0.0078107845 0.04897122 0.056336626 0.048379835 -0.05532148
0.002291644 -0.032507848 0.024119293 0.029025875 -0.044648886 0.020494865 0.00030307408 -0.056476235
-0.02685338 0.05462848 -0.036011677 0.056235794 0.029755684 -0.0168898 -0.051867362 -0.0058483873
0.06011299 0.019553963 -0.029658683 -0.061361283 -0.01059969 -0.027239464 0.037625752 0.047778547
0.012301461 -0.058013454 0.04979995 0.0466415 0.0360569 0.0059544262 0.031708956 0.0034722192
0.0038004569 0.039552454 0.06663184 -0.039462317 0.018582467 -0.040174667 0.032719605 0.03150756
0.041651804 -0.00012958827 0.054588594 0.05747589 -0.042317864 -0.052127223 0.051433537 0.028952746
0.012266167 0.053501967 -0.049070228 -0.026962472 0.035889685 0.027862936 0.008656556 -0.01016335
-0.06231362 0.022159671 0.012889643 0.050098993 -0.0077156923 0.029541226 -0.02232303 0.015788274
-0.022077145 -0.026243571 -0.0011787162 0.05520505 -0.03432808 -0.037964344 -0.0125118 0.0443524
0.060277645 -0.032403357 0.01959121 0.02351433 0.02193169 0.056642026 -0.05357123 -0.049382735
-0.042001776 0.037191316 0.02967638 0.048343223 0.01647874 -0.042005498 -0.03758759 -0.048121702
-0.04202173 -0.018639185 -0.003983286 -0.05631797 -0.03501855 0.04842593 0.0034851297 0.0035267896
0.017947577 0.01971205 0.016389767 0.053721905 0.02007614 -0.005747128 -0.020979203 0.016417807
0.03511409 0.02077165 -0.011452095 0.056011144 -0.018075833 0.028528845 0.04134757 -0.05322323
0.004197874 -0.0016605497 -0.06464354 0.015365135 -0.015533401 -0.022825757 -0.05143549 0.04805517
-0.056688767 0.03637087 0.042008042 -0.02054922 0.048724357 -0.025437217 -0.034782857 0.05310596
0.013027005 -0.03728606 -0.055408295 0.045943994 -0.01895882 0.0050987005 0.017330086 0.051767122
0.01796465 0.05599129 0.05933747 0.028374711 0.03811965 0.033751648 0.050055202 -0.0037167787
-0.019572817 0.0586378 -0.020335728 0.058645777 0.0037950207 0.022897758 -0.059522927 -0.03380445
0.02854053 0.0021242176 0.024415597 0.038950864 0.03040731 -0.012819433 0.037226204 -0.008961048
-0.025670318 -0.011359272 -0.02780414 -0.013089678 -0.034078278 0.01584084 -0.021961315 0.006173853
0.0018510474 0.024759786 0.005551518 0.038608883 0.026691154 -0.025251566 0.043338783 -0.01468242
-0.0046692314 0.046562433 -0.021006826 -0.02390364 -0.023820799 0.04875508 0.024630988 -0.045590304
-0.054764133 -0.048080683 0.026123334 0.0014408048 -0.00020073494 0.041638207 -0.0107771745 -0.04605535
0.042687677 -0.0053948625 0.061253455 0.03615119 -0.07000703 0.056093473 0.011389739 -0.002766695
-0.0018208766 0.0100817075 -0.05814494 -0.028764421 -0.0017313862 0.03359418 0.034386724 0.00947302
0.023985256 0.056960654 0.017780438 0.039917685 0.033213764 -0.028712453 -0.0502839 0.051145162
0.02683838 -0.03953721 -0.021771185 0.029685667 0.020693237 0.04880226 -0.03326284 -0.04534558
0.010830688 -0.0031395203 0.011166925 -0.045599498 -0.0033690773 -0.04606898 -0.008883213 -0.0516905
0.009142125 0.038532645 -0.0030903025 -0.036392692 0.048536304 -0.044634994 0.06124833 0.0010335523
-0.045256898 0.0044304067 0.055252053 -0.012377589 -0.05731503 -0.00046416 0.0488055 -0.050666735

actor_classifier.bias f4 [15]
00000000: 18e3 573c d38d 9ebb 4e1c 5b3d 9e3c 08bd
00000010: 14c7 5fbd b7a1 c0bc c070 08bd f0ed 26bd
00000020: 0cf5 a0bc d9ae 38bd 583f 19bd 7ed5 adbc
00000030: d218 143d 6f0d 10bd 9721 663d
0.013176702 -0.004838684 0.05349379 -0.033260934 -0.054633215 -0.023514612 -0.03331065 -0.04075426
-0.019648097 -0.045088623 -0.037413925 -0.021219965 0.036156483 -0.03516906 0.056184378
