Saved Models/model_checkpoint_coinrun_42_5e-05_400_6_256_0.99_0.95_0.25_1024_0.5_background.pth (torch, 153047 bytes, 21 tensors)

layers.0.weight f4 [32, 3, 8, 8]
0.037470806 0.0030734693 -0.056070946 0.049106132 0.046201628 0.042927887 -0.064179085 0.060778692
0.031388097 0.054887623 0.005282971 -0.025848633 -0.046921436 -0.0030395363 -0.019400245 -0.000994906
0.019388331 0.016883526 -0.0023114164 0.009465199 -0.046691023 0.053455986 -0.026383363 -0.05475956
0.08178696 0.027965056 -0.028763719 -0.00813571 -0.013575326 -0.0131236175 -0.029157655 -0.0030918056
-0.056886192 0.02169764 -0.007618431 0.048260085 -0.00038449533 0.04296004 0.025986223 0.009253107
0.082308255 -0.0419679 0.04522427 0.002467358 -0.04818016 0.029579043 0.025144773 -0.07166488
0.029505942 0.034725286 -0.03400208 -0.039345115 -0.03181282 -0.03452951 -0.06004697 -0.05636306
-0.054058604 0.06274642 0.022565033 0.016350998 0.05558415 0.027273618 0.0042228336 -0.0019024631
0.040302802 0.0582837 -0.03287216 -0.03500404 0.0031652686 0.05112563 -0.025174389 -0.015068084
-0.031810664 -0.015243984 0.024963656 0.012473544 0.050357133 -0.049662594 0.038986295 0.047578305
0.046738617 -0.03412867 0.062478572 0.06243874 -0.06801451 0.009712869 0.037841924 0.03827618
-0.032559335 0.019266931 0.032195408 -0.028126957 0.037468314 -0.027571796 0.048603803 -0.021548687
-0.044102415 0.05788051 0.025197566 0.047287077 0.034088913 -0.0012271841 -0.02785638 -0.04525813
-0.047823943 0.0573164 -0.06621124 0.043586023 0.06397812 -0.05003046 0.04138613 0.0143894525
-0.045617674 -0.03419708 -0.013688442 -0.033135284 0.008479116 0.008112636 0.0042837956 -0.051854152
-0.023814322 -0.039520085 0.06639321 0.03680299 0.035004612 -0.03142788 -0.07313446 -0.052597415
0.08116266 -0.016139714 0.0053034434 0.024100661 0.030689748 -0.06846168 0.012048037 0.0125618
-0.055220786 0.0024949382 -0.05310732 -0.00414487 0.021525225 0.035954654 0.043292634 0.036276165
-0.0038566312 -0.005347678 0.067500494 -0.031822156 0.024093028 0.008512813 -0.038484074 0.0154278325
0.023823291 -0.04186439 -0.07057403 0.050197337 -0.039467257 0.008221564 0.039520692 -0.04988173
-0.014679291 0.045566224 0.05485057 -0.028502764 -0.06190281 0.049125347 0.038045995 0.014495814
0.04954001 0.058840755 0.00038765042 0.060880266 -0.01741608 -0.0077836034 -0.03249994 0.018821562
0.056520957 0.03522912 -0.036106 -0.038997196 -0.041807946 -0.068377286 0.052851524 0.04283349
0.01448566 0.05926312 -0.043309223 0.004989639 0.02796716 -0.057518728 -0.009357681 -0.02338712
-0.03287073 -0.056275856 0.0049885414 0.06206894 -0.028606629 0.058715228 0.049494267 0.0011660261
-0.0188733 0.06610339 -0.013399641 0.017829731 -0.06929759 0.040653132 0.05933453 0.06463228
-0.055754226 -0.01125766 -0.029716222 -0.00042459602 0.06641488 0.0133989 0.032679293 -0.06247876
0.027509447 0.022147713 -0.058859624 0.024556624 -0.009128341 -0.061498832 -0.065514795 -0.020460999
0.064359844 0.030920379 -0.059198637 0.02288015 -0.032880098 0.022015138 -0.06119673 -0.03455633
0.0538216 0.05252066 0.07700117 0.04238364 0.02505374 0.023752559 0.04233586 0.04598825
-0.06746642 0.06490231 -0.037900575 -0.054771494 -0.02151929 -0.05949534 0.061651167 -0.06263211
0.060299743 0.01812526 0.028869666 -0.049415972 0.036830418 -0.010821198 0.05409959 0.068992406
00000000: fd7a 193d 426c 493b a6aa 65bd 8323 493d
00000010: eb3d 3d3d 27d5 2f3d 5370 83bd 14f3 783d
00000020: ce90 003d d8d1 603d c61c ad3b 83c0 d3bc
00000030: b130 40bd f532 47bb 43ed 9ebc 8167 82ba
00000040: 47d4 9e3c 524f 8a3c 227b 17bb ec13 1b3c
00000050: 163f 3fbd aaf4 5a3d ec21 d8bc 8f4b 60bd
00000060: ec7f a73d f916 e53c e4a1 ebbc a44b 05bc
00000070: 0b6b 5ebc 7104 57bc 09dc eebc e49f 4abb
00000080: 7f01 69bd 40bf b13c 08a4 f9bb 5eac 453d
00000090: 1796 c9b9 def6 2f3d 0fe1 d43c 589a 173c
000000a0: 3b91 a83d 88e6 2bbd 163d 393d 66b3 213b
000000b0: 8f58 45bd c04f f23c 69fc cd3c 09c5 92bd
000000c0: 72b6 f13c 1a3c 0e3d c445 0bbd 5828 21bd
000000d0: 294e 02bd d16e 0dbd d0f3 75bd f4dc 66bd
000000e0: 8e6c 5dbd 3281 803d 4eda b83c 87f2 853c
000000f0: 35ac 633d ec6c df3c b25f 8a3b 125c f9ba
00000100: 8d14 253d e4ba 6e3d f5a4 06bd 6560 0fbd
00000110: 6570 4f3b 1c69 513d 853a cebc 20e0 76bc
00000120: e64b 02bd e7c1 79bc 9580 cc3c d65d 4c3c
00000130: 4843 4e3d 016b 4bbd 18b0 1f3d 78e1 423d
00000140: fe70 3f3d 81ca 0bbd 88e9 7f3d c4bf 7f3d
00000150: 314b 8bbd ba22 1f3c 2200 1b3d 7cc7 1c3d
00000160: f05c 05bd afd5 9d3c 55df 033d 816a e6bc
00000170: 6078 193d 3fde e1bc c814 473d df86 b0bc
00000180: bca4 34bd 1d14 6d3d 206b ce3c 18b0 413d
00000190: d1a0 0b3d 77d9 a0ba 1033 e4bc 9760 39bd
000001a0: 0ae3 43bd 9ac4 6a3d c299 87bd 4287 323d
000001b0: f606 833d bdec 4cbd 8184 293d bdc1 6b3c
000001c0: 99d9 3abd 3d12 0cbd 7d45 60bc ddb8 07bd
000001d0: fdeb 0a3c ddea 043c 155f 8c3b 0565 54bd
000001e0: 4116 c3bc d0df 21bd 2af9 873d bbbe 163d
000001f0: ff60 0f3d 85ba 00bd 85c7 95bd 6370 57bd
00000200: 9c38 a63d 6f37 84bc 82c8 ad3b c06e c53c
00000210: 1169 fb3c a335 8cbd 2165 453c 02d0 4d3c
00000220: 312f 62bd 1e82 233b 1087 59bd b1d1 87bb
00000230: ab55 b03c 3045 133d 9e53 313d 5196 143d
00000240: 89bf 7cbb 933b afbb b33d 8a3d f357 02bd
00000250: be5e c53c 5379 0b3c 7aa1 1dbd 05c5 7c3c
00000260: 1029 c33c ff79 2bbd 1e89 90bd b99b 4d3d
00000270: 6ba8 21bd bdb3 063c 73e0 213d c950 4cbd
00000280: 6981 70bc a6a3 3a3d feaa 603d a17e e9bc
00000290: cd8d 7dbd a937 493d 1ed6 1b3d da7f 6d3c
000002a0: 77ea 4a3d 0103 713d 8f3d cb39 965d 793d
000002b0: 2bac 8ebc 990d ffbb a81e 05bd ad2f 9a3c
000002c0: 8582 673d 694c 103d e3e3 13bd 86bb 1fbd
000002d0: cf3e 2bbd 6409 8cbd d77a 583d 2b72 2f3d
000002e0: 4355 6d3c e3bd 723d 0365 31bd 2080 a33b
000002f0: 631b e53c c298 6bbd f550 19bc 5896 bfbc
00000300: 75a3 06bd 8381 66bd eb76 a33b 003c 7e3d
00000310: 7358 eabc 617f 703d 80ba 4a3d 58d5 983a
00000320: 2e9c 9abc 3761 873d 2b8a 5bbc a80f 923c
00000330: e5eb 8dbd e683 263d c408 733d ee5d 843d
00000340: 8b5e 64bd 0c72 38bc 6f6f f3bc 509c deb9
00000350: 8604 883d 0f87 5b3c b9da 053d bae9 7fbd
00000360: 7e5b e13c 1f6f b53c ca16 71bd f92a c93c
00000370: 0a8f 15bc 33e6 7bbd 9f2c 86bd d39d a7bc
00000380: 18cf 833d bc4c fd3c 457a 72bd 276f bb3c
00000390: 48ad 06bd 1759 b43c 6ca9 7abd f08a 0dbd
000003a0: 0a74 5c3d e71f 573d cab2 9d3d 789a 2d3d
000003b0: 803d cd3c ba94 c23c 5e68 2d3d 2d5e 3c3d
000003c0: d62b 8abd 81eb 843d a23d 1bbd 1358 60bd
000003d0: 3949 b0bc 63b1 73bd ef85 7c3d 4445 80bd
000003e0: ddfc 763d 6d7b 943c 1480 ec3c 6768 4abd
000003f0: 7edb 163d 654b 31bc 8897 5d3d e44b 8d3d

layers.0.bias f4 [32]
0.0669143 -0.023168154 -0.055272207 -0.02090269 -0.069649234 0.03401675 0.0019870703 0.06137397
0.020937871 0.0043701064 -0.0123589365 0.052860454 0.0063345935 -0.02140881 -0.040317267 0.031217333
0.0010214688 -0.057292998 -0.011557215 0.033446953 0.0027424598 0.052058615 -0.03189506 -0.024052208
0.050465077 -0.049126223 -0.057229992 -0.0037638159 -0.044277065 -0.028077776 0.025738055 -0.046141107
00000000: 5d0a 893d 24cb bdbc 1c65 62bd 1e3c abbc
00000010: 42a4 8ebd 2655 0b3d 8239 023b 4663 7b3d
00000020: e685 ab3c 1c33 8f3b 237d 4abc 3484 583d
00000030: 6c92 cf3b 8761 afbc b823 25bd 7ebb ff3c
00000040: cee2 853a 10ac 6abd 795a 3dbc acff 083d
00000050: d7ba 333b 6a3b 553d 65a4 02bd 2309 c5bc
00000060: 78b4 4e3d 9438 49bd ff69 6abd 5aaa 76bb
00000070: de5b 35bd 5d03 e6bc 9dd8 d23c 75fe 3cbd

layers.2.weight f4 [32]
1.0030552 0.9842262 0.99635154 0.9871956 1.01454 0.9884736 1.0126287 0.98532486
0.9860811 1.0028701 1.0049095 1.0081807 0.9872136 1.0019094 0.99688154 0.9836207
0.9895534 1.0062914 0.9981112 0.9920289 0.9848246 1.0068576 0.98839074 1.0021822
1.0111141 1.0177594 0.9970673 1.0050681 0.9984771 1.013858 0.9970437 0.9819161
00000000: 1d64 803f 40f6 7b3f e510 7f3f dab8 7c3f
00000010: 72dc 813f 9b0c 7d3f d19d 813f 403e 7c3f
00000020: d06f 7c3f 0c5e 803f e0a0 803f 110c 813f
00000030: 08ba 7c3f 913e 803f a133 7f3f 91ce 7b3f
00000040: 5f53 7d3f 28ce 803f 3784 7f3f 9bf5 7d3f
00000050: 771d 7c3f b6e0 803f 2d07 7d3f 8247 803f
00000060: 306c 813f f145 823f cd3f 7f3f 12a6 803f
00000070: 329c 7f3f 19c6 813f 423e 7f3f db5e 7b3f

layers.2.bias f4 [32]
0.0077837706 0.006577158 0.005559766 0.01241622 -0.00709359 0.002584174 -0.012457777 0.004479206
0.011061892 -0.017032903 0.013438312 -0.0029984927 -0.0031520692 0.006258993 0.0054181013 0.010345558
-0.0020357666 -0.014044958 -0.0029659697 0.007192146 -0.010497626 -0.01238999 -0.011125352 0.009080226
-0.009421603 0.0064785117 0.006125204 -0.01145144 -0.00536653 -0.013936648 -0.009992872 0.015064161
00000000: 000f ff3b 3385 d73b b32e b63b 676d 4b3c
00000010: 5971 e8bb 3f5b 293b b41b 4cbc 4ec6 923b
00000020: f03c 353c 9688 8bbc 5e2c 5c3c 5c82 44bb
00000030: f292 4ebb 3d18 cd3b 548a b13b 6a80 293c
00000040: 7f6a 05bb d31c 66bc b760 42bb 18ac eb3b
00000050: 3cfe 2bbc 62ff 4abc 1c47 36bc 3ac5 143c
00000060: 115d 1abc b249 d43b efb5 c83b d29e 3bbc
00000070: b7d9 afbb 8a56 64bc 25b9 23bc accf 763c

layers.2.running_mean f4 [32]
0.27909172 0.0034291507 0.13958329 0.0018759263 0.00030275117 0.39594316 0.0044905613 0.3070338
0.15475114 0.16844529 0.044271257 0.0061269957 0.00041535398 0.3576127 0.39116454 0.03241655
0.17969836 0.0035792089 0.3045121 0.09203445 0.060209103 0.0016009513 0.0025144315 0.25679538
0.376045 0.00048818928 6.779646e-14 0.15047349 0.29835093 0.0011689976 0.289592 0.003871116
00000000: 1ce5 8e3e 9abb 603b ecee 0e3e a4e1 f53a
00000010: 93ba 9e39 10b9 ca3e 8f25 933b 8933 9d3e
00000020: 1577 1e3e ec7c 2c3e c755 353d f7c4 c83b
00000030: dec3 d939 0319 b73e b846 c83e 37c7 043d
00000040: d902 383e 2991 6a3b 03e9 9b3e 8f7c bc3d
00000050: d29d 763d 03d7 d13a 29c9 243b af7a 833e
00000060: f888 c03e a8f3 ff39 00aa 9829 b915 1a3e
00000070: 74c1 983e 0d39 993a 6745 943e 8db2 7d3b

layers.2.running_var f4 [32]
0.034822203 0.00065702817 0.021393117 0.00010031654 3.357397e-05 0.107291184 0.00047420198 0.053455982
0.014772371 0.012478275 0.0027355272 0.0005596792 6.598018e-05 0.067817934 0.055728864 0.0026386692
0.028527426 0.0002605919 0.049834568 0.0056021917 0.0048355237 0.00018928788 0.00022712194 0.0384765
0.06639593 6.657998e-05 5.9038874e-16 0.014037229 0.083530016 0.00023147256 0.040145423 0.00039136756
00000000: baa1 0e3d 6a3c 2c3a 9e40 af3c 0861 d238
00000010: c7d1 0c38 7bbb db3d 509e f839 a9f4 5a3d
00000020: d107 723c ae71 4c3c 8846 333b 6fb7 123a
00000030: d75e 8a38 21e4 8a3d f343 643d 86ed 2c3b
00000040: 59b2 e93c 0ea0 8839 551f 4c3d 9792 b73b
00000050: 5073 9e3b 947b 4639 9527 6e39 8999 1d3d
00000060: 97fa 873d dba0 8b38 002b 2a26 68fc 653c
00000070: c911 ab3d 71b7 7239 876f 243d 7730 cd39

layers.4.weight f4 [64, 32, 2, 2]
0.08803767 0.038410176 0.08064469 0.03612069 0.059868425 0.017001055 0.01731567 0.0023553914
0.082911536 0.06380782 0.07106944 0.07301124 0.05832388 -0.053071808 -0.098851554 -0.007035488
0.048476543 0.023721505 -0.02666292 0.02589278 0.03938696 -0.05234969 0.037345666 0.019202039
-0.034146994 0.0400358 -0.03019745 -0.072819114 0.070757344 -0.055504315 0.039332796 -0.05654833
-0.05955083 0.03157426 0.0248817 0.05835313 0.052407093 -0.033350896 -0.04021635 0.036411148
-0.034434818 -0.02416853 -0.04906263 0.01811053 0.06566459 -0.070978045 0.031603154 -0.049238082
-0.07478998 -0.030094104 -0.06807046 -0.026118694 -0.031877514 -0.0074180625 0.0068424274 -0.032749023
-0.019998726 -0.07901788 0.08099827 0.05938534 -0.08067049 0.041177705 -0.04614868 -0.08328613
0.0008826134 -0.004217881 0.053307716 0.013646415 0.019886822 -0.064038105 -0.06357779 -0.021246225
-0.07273917 0.065063976 0.084667735 -0.051652886 -0.09013908 -0.034199733 0.004270879 0.041600566
-0.011616611 0.033086058 -0.06642192 0.07010743 0.028573953 -0.02512095 -0.073030934 -0.046655517
0.07074244 0.06938364 -0.05258309 -0.0066830483 0.023226589 0.056458805 -0.028796602 -0.03363432
0.07091678 0.039457254 0.02590188 0.05571738 -0.0070132655 0.019040072 0.052761454 0.07737231
-0.011183375 0.083203785 0.082195364 -0.013538993 -0.065336384 -0.019722827 0.04129372 0.03986404
-0.02123064 -0.00071659475 0.04479812 0.076186836 0.0034243972 -0.09010872 -0.06939545 0.025938932
-0.03546749 -0.09075152 0.076029666 -3.0955434e-05 -0.04583094 -0.024415184 0.014030011 0.051705237
0.024801185 0.072712965 -0.059358206 0.08517011 0.07285603 0.050196018 -0.033358272 0.036413148
-0.022289779 0.04770458 -0.0663433 -0.030880276 -0.07280217 0.00010786446 0.058808893 0.0368228
-0.049248032 0.042912245 -0.037095554 -0.044456065 0.02619996 0.08422655 -0.012775376 0.067194544
-0.05446676 0.041876897 0.035078906 0.0823895 -0.052372403 -0.055444974 -0.03907317 -0.029679669
0.048331067 -0.03097152 -0.025771026 0.08175664 -0.06040544 0.04838793 -0.0061761304 -0.08100737
0.041634765 0.073066145 -0.019807076 -0.032655995 -0.09151086 -0.0967679 0.057280343 -0.050035547
-0.042949308 0.016589113 0.08404461 0.041062284 0.07357118 0.015313916 -0.0039959475 0.030691456
-0.070664875 -0.076849915 0.050633464 0.05997741 0.07232132 -0.09241741 -0.039456792 -0.07262367
-0.031367045 -0.039606217 0.009568925 0.0849992 0.056484815 -0.04653371 0.016107198 -0.019095212
0.0032599536 0.03626329 0.07819751 -0.040951777 0.06820328 0.07103845 0.039989736 -0.0091099925
-0.033301007 0.02095941 0.038577195 0.044208437 -0.008577245 -0.037236087 -0.0005975372 -0.033422686
0.009800941 -0.05258951 -0.0077027553 0.022132969 -0.04246799 -0.024699885 -5.6615867e-05 0.05317776
-0.017237805 0.08130589 0.024953213 0.078770764 -0.08561402 -0.037373483 0.061368883 0.016435958
0.014596881 -0.022790676 -0.07122453 -0.016555026 0.006889399 -0.004551093 -0.056568578 0.024386784
0.05459404 0.021668183 0.08172717 -0.028727656 -0.07511754 -0.031476736 0.0894489 0.064670704
0.025799816 0.042285666 0.01674254 0.026319519 0.06923743 -0.003211907 0.05575941 -0.051933102
00000000: 184d b43d fd53 1d3d 0b29 a53d 4af3 133d
00000010: 9838 753d cc45 8b3c 98d9 8d3c e95c 1a3b
00000020: 86cd a93d adad 823d db8c 913d eb86 953d
00000030: 05e5 6e3d d361 59bd af72 cabd f389 e6bb
00000040: 578f 463d 9a53 c23c 326c dabc 181d d43c
00000050: 3954 213d a16c 56bd c5f7 183d 984d 9d3c
00000060: b8dd 0bbd 94fc 233d a560 f7bc 3022 95bd
00000070: 3ae9 903d 7e58 63bd 6d1b 213d 399f 67bd
00000080: 92eb 73bd 0354 013d b5d4 cb3c b103 6f3d
00000090: d2a8 563d f39a 08bd e6b9 24bd db23 153d
000000a0: 860b 0dbd 15fd c5bc e5f5 48bd 895c 943c
000000b0: 287b 863d f05c 91bd 4f72 013d dfad 49bd
000000c0: 7d2b 99bd e987 f6bc 8668 8bbd dff6 d5bc
000000d0: ff91 02bd 3813 f3bb 7136 e03b d723 06bd
000000e0: 5ed4 a3bc 20d4 a1bd 6ce2 a53d 0b3e 733d
000000f0: 9236 a5bd f4a9 283d 6606 3dbd eb91 aabd
00000100: 2f5f 673a 2636 8abb 3159 5a3d 3795 5f3c
00000110: b0e9 a23c 6926 83bd 1335 82bd 900c aebc
00000120: 46f8 94bd 4340 853d 4766 ad3d fa91 53bd
00000130: d79a b8bd 0515 0cbd bbf2 8b3b 5b65 2a3d
00000140: 9953 3ebc 3f85 073d 3708 88bd 7c94 8f3d
00000150: ec13 ea3c 73ca cdbc 3e91 95bd db19 3fbd
00000160: 6ae1 903d 0319 8e3d 5e61 57bd 79fd dabb
00000170: b045 be3c 5941 673d dae6 ebbc 24c4 09bd
00000180: d13c 913d ee9d 213d 2e30 d43c e837 643d
00000190: 89cf e5bb edf9 9b3c 651c 583d 6075 9e3d
000001a0: 793a 37bc bf66 aa3d 0b56 a83d a7d2 5dbc
000001b0: 15cf 85bd c491 a1bc 9b23 293d 7a48 233d
000001c0: e1eb adbc dcd9 3bba 3c7e 373d d807 9c3d
000001d0: da6b 603b ec8a b8bd 341f 8ebd e27d d43c
000001e0: 5c46 11bd efdb b9bd 71b5 9b3d 25d6 01b8
000001f0: 39b9 3bbd 5a02 c8bc 22de 653c dfc8 533d
00000200: db2b cb3c 89ea 943d 9721 73bd ab6d ae3d
00000210: 8b35 953d 579a 4d3d afa2 08bd f425 153d
00000220: 0e99 b6bc e165 433d ffde 87bd a2f8 fcbc
00000230: 4e19 95bd 4a35 e238 98e1 703d 81d3 163d
00000240: 4eb8 49bd c0c4 2f3d 82f1 17bd 9017 36bd
00000250: 4ca1 d63c f87e ac3d d04f 51bc 4b9d 893d
00000260: 8a18 5fbd 1c87 2b3d e6ae 0f3d d4bb a83d
00000270: 7284 56bd 451a 63bd 300b 20bd c722 f3bc
00000280: ccf6 453d fcb7 fdbc c21d d3bc 0670 a73d
00000290: b26b 77bd 6c32 463d 2361 cabb 31e7 a5bd
000002a0: 3789 2a3d b4a3 953d 7342 a2bc 4bc2 05bd
000002b0: 0c6a bbbd 402e c6bd cb9e 6a3d 13f2 4cbd
000002c0: 9deb 2fbd e4e5 873c 951f ac3d ed30 283d
000002d0: 7dac 963d 38e7 7a3c 70f0 82bb a66c fb3c
000002e0: bfb8 90bd 7d63 9dbd 0965 4f3d dfaa 753d
000002f0: 331d 943d 5745 bdbd 729d 21bd b8bb 94bd
00000300: bb7a 00bd 213a 22bd fbc6 1c3c 1014 ae3d
00000310: 9f5c 673d 229a 3ebd 3ef3 833c 906d 9cbc
00000320: f2a4 553b d188 143d 0426 a03d 0dbd 27bd
00000330: 29ae 8b3d 9b7c 913d 47cc 233d 1442 15bc
00000340: a366 08bd 12b3 ab3c 1f03 1e3d e813 353d
00000350: 9387 0cbc de84 18bd 0ba4 1cba 3ae6 08bd
00000360: 2094 203c 1968 57bd 6567 fcbb 3350 b53c
00000370: eaf2 2dbd 6a57 cabc d376 6db8 ecd0 593d
00000380: 4c36 8dbc b483 a63d ae6a cc3c 9152 a13d
00000390: 6756 afbd f014 19bd f05d 7b3d b4a4 863c
000003a0: c227 6f3c 83b3 babc 2bde 91bd 689e 87bc
000003b0: 78c0 e13b 5621 95bb 74b4 67bd cbc6 c73c
000003c0: 009e 5f3d 7981 b13c 9360 a73d 4356 ebbc
000003d0: 3ad7 99bd c0ed 00bd fc30 b73d 1372 843d
000003e0: 235a d33c bc33 2d3d a727 893c 089c d73c
000003f0: 5bcc 8d3d dc7e 52bb fb63 643d ceb7 54bd

layers.4.bias f4 [64]
-0.063440405 -0.024191706 0.0286916 -0.036188 -0.06269028 0.045063227 0.064662255 0.025506837
0.06525652 0.00023359136 -0.0624148 -0.041220173 -0.08281238 -0.056560975 0.07776136 0.016026203
-0.057529684 0.025736164 0.008194863 0.017777305 0.0048169503 0.024392242 -0.035501923 0.06528418
0.053085703 -0.03338145 0.0255811 -0.036630407 0.029458378 -0.022894891 -0.049805988 0.022037508
-0.056328103 0.02745544 -0.020761654 0.0080232 0.055594195 -0.053184442 0.065278746 -0.034930382
0.025501614 -0.054899763 0.01914306 -0.024504585 -0.009078326 -0.011543821 0.08107723 0.02452446
0.04297929 -0.0006448954 -0.009220729 0.08040436 -0.05371866 0.013998618 0.028172726 -0.06687652
-0.00035811635 -0.030394185 0.044452358 0.05914488 -0.062307525 -0.02020119 -0.021314334 -0.008279074
00000000: 0bed 81bd af2d c6bc a50a eb3c de39 14bd
00000010: c363 80bd 3894 383d a56d 843d b7f3 d03c
00000020: 36a5 853d 34f0 7439 a9a6 7fbd 7cd6 28bd
00000030: 8999 a9bd 7bac 67bd 5941 9f3d 6249 833c
00000040: 3fa4 6bbd a6d4 d23c bf43 063c b6a1 913c
00000050: 82d7 9d3b 3dd2 c73c 776a 11bd b6b3 853d
00000060: 6570 593d fdba 08bd 748f d13c c409 16bd
00000070: b252 f13c 118e bbbc 5d01 4cbd 0188 b43c
00000080: 4cb8 66bd 3bea e03c 5814 aabc bd73 033c
00000090: bdb6 633d eed7 59bd ddb0 853d 2913 0fbd
000000a0: c3e8 d03c 93de 60bd e8d1 9c3c d7bd c8bc
000000b0: 42bd 14bc 4b22 3dbc d20b a63d 85e7 c83c
000000c0: 0d0b 303d 330e 29ba 8a12 17bc 0bab a43d
000000d0: 1908 5cbd 765a 653c 7dca e63c 8ff6 88bd
000000e0: 90c1 bbb9 3afd f8bc ad13 363d e741 723d
000000f0: 2d36 7fbd f77c a5bc 669b aebc f4a4 07bc

layers.6.weight f4 [64]
0.98729736 0.989837 0.9892883 0.9860505 1.0068303 0.9918383 0.993904 1.0043312
1.0048491 1.0167629 0.999501 0.9831874 1.0027115 1.0059417 0.9980169 0.9962708
0.99976534 0.9997566 0.994183 1.0061733 0.9837295 0.99563116 1.0028739 0.9976738
0.9835529 0.9879553 0.99968535 1.015266 1.0043274 0.98285913 0.9916501 0.99761355
1.0104376 0.98569155 1.0066465 0.9975767 1.0135227 1.0077922 0.9880374 0.99216646
0.9889075 0.9889994 0.9885925 1.0144236 1.0101397 0.9848649 0.9878532 1.0020863
0.9921375 0.99498105 1.0076065 0.9971886 0.9944223 0.9937878 0.9967978 1.0173181
0.9899036 1.0131903 0.992408 1.0087309 1.0058391 1.0030221 1.0063641 0.98813075
00000000: 85bf 7c3f f565 7d3f ff41 7d3f ce6d 7c3f
00000010: d1df 803f 1de9 7d3f 7e70 7e3f ed8d 803f
00000020: e59e 803f 4925 823f 4cdf 7f3f 2bb2 7b3f
00000030: da58 803f b3c2 803f 097e 7f3f 9a0b 7f3f
00000040: 9ff0 7f3f 0cf0 7f3f c782 7e3f 49ca 803f
00000050: b2d5 7b3f afe1 7e3f 2c5e 803f 8d67 7f3f
00000060: 1fca 7b3f a3ea 7c3f 61eb 7f3f 3cf4 813f
00000070: cd8d 803f a89c 7b3f c8dc 7d3f 9a63 7f3f
00000080: 0556 813f 4856 7c3f cbd9 803f 3061 7f3f
00000090: 1dbb 813f 56ff 803f 05f0 7c3f 9ffe 7d3f
000000a0: 0b29 7d3f 112f 7d3f 6614 7d3f a2d8 813f
000000b0: 424c 813f 1b20 7c3f f3e3 7c3f 5d44 803f
000000c0: b9fc 7d3f 14b7 7e3f 40f9 803f c147 7f3f
000000d0: 7692 7e3f e168 7e3f 242e 7f3f 7b37 823f
000000e0: 536a 7d3f 38b0 813f 730e 7e3f 181e 813f
000000f0: 56bf 803f 0763 803f 8ad0 803f 23f6 7c3f

layers.6.bias f4 [64]
0.0009225799 0.009930093 -0.006582749 -0.0043680137 0.0066406997 0.0029478394 0.006896158 0.012687164
0.0009955342 0.0070480504 0.009579282 0.014920957 0.00831608 0.016413506 0.015609838 0.010067754
0.005662818 0.010952837 0.016762458 -0.005622412 0.013283536 -0.0036526208 0.008307402 -0.0039348803
-0.014445298 0.0064962017 -0.0052225315 0.003556663 0.02092077 0.0025704294 -0.0054512704 0.008017497
0.018468605 -0.009287129 0.012278994 0.010650706 0.010744273 0.01082922 0.008025264 0.0132710235
0.008713763 -0.008118598 0.017237598 0.011775718 -0.00052010664 -0.015192514 0.0021804634 0.008829344
-0.007659658 0.005920582 0.0048353737 -0.000655189 0.0058134333 0.017100234 -0.017509002 -0.017249126
0.018244702 -0.011622267 0.011648557 0.0069687027 0.016071742 0.0011958748 0.013981973 0.011539068
00000000: 4ad9 713a d4b1 223c 1ab4 d7bb 8e21 8fbb
00000010: 3a9a d93b 8a30 413b 2bf9 e13b d3dd 4f3c
00000020: 967c 823a 55f3 e63b 6cf2 1c3c 0877 743c
00000030: 2b40 083c 9e75 863c 68c0 7f3c 39f3 243c
00000040: 298f b93b 8773 333c 6c51 893c 363c b8bb
00000050: 30a3 593c cf60 6fbb c51b 083c 2bf0 80bb
00000060: f9ab 6cbc 17de d43b c521 abbb e716 693b
00000070: 0962 ab3c a674 283b 92a0 b2bb d25b 033c
00000080: 794b 973c 0b29 18bc d52d 493c 4c80 2e3c
00000090: bf08 303c 0a6d 313c 667c 033c b56e 593c
000000a0: 2cc4 0e3c de03 05bc dd35 8d3c f1ee 403c
000000b0: c457 08ba 06ea 78bc 1be6 0e3b f4a8 103c
000000c0: defd fabb 7101 c23b 0e72 9e3b fdc0 2bba
000000d0: 9d7e be3b ca15 8c3c 0a6f 8fbc 0a4e 8dbc
000000e0: ea75 953c 526b 3ebc 97d9 3e3c b759 e43b
000000f0: e3a8 833c e6be 9c3a a514 653c 5c0e 3d3c

layers.6.running_mean f4 [64]
0.30921128 0.34318238 0.64153546 0.29464018 0.2687672 0.18132031 0.18234478 0.32141942
0.23853698 0.20611018 0.1210125 0.31476167 0.3403428 0.37672675 0.21217413 0.37002373
0.38449404 0.44357166 0.25147358 0.19190931 0.26406547 0.21257721 0.22501504 0.41569376
0.33984032 0.28956884 0.3163858 0.1904615 0.20419651 0.13223045 0.34241334 0.19446066
0.35272726 0.41656107 0.14156878 0.19401929 0.21804626 0.052724667 0.2996951 0.15180576
0.23611778 0.42815867 0.14219594 0.17789057 0.12825826 0.17578724 0.38460818 0.2717167
0.18103972 0.21841462 0.1606011 0.31304312 0.3560793 0.47299317 0.36910966 0.14890118
0.3795641 0.18487719 0.18287767 0.2178344 0.10991155 0.14178279 0.075846136 0.31498954
00000000: f150 9e3e 9ab5 af3e ab3b 243f 14db 963e
00000010: db9b 893e 08ac 393e 97b8 3a3e 1691 a43e
00000020: 0a43 743e 8c0e 533e 67d5 f73d 7128 a13e
00000030: 6941 ae3e 54e2 c03e 2d44 593e c073 bd3e
00000040: 67dc c43e d31b e33e 25c1 803e e083 443e
00000050: 9733 873e d7ad 593e 586a 663e d0d5 d43e
00000060: 8dff ad3e 5e42 943e 52fd a13e 5708 433e
00000070: e418 513e 6b67 073e cd50 af3e b220 473e
00000080: ab98 b43e 7e47 d53e 68f7 103e feac 463e
00000090: 8547 5f3e d2f5 573d a371 993e f872 1b3e
000000a0: dcc8 713e 9d37 db3e d09b 113e f228 363e
000000b0: 2256 033e 9201 343e 5deb c43e 741e 8b3e
000000c0: 7a62 393e 15a8 5f3e 9d74 243e 3047 a03e
000000d0: 0750 b63e 292c f23e f1fb bc3e 8d79 183e
000000e0: 3a56 c23e 7250 3d3e 4944 3b3e fb0f 5f3e
000000f0: 4f19 e13d 822f 113e 3855 9b3d 4f46 a13e

layers.6.running_var f4 [64]
0.2419366 0.3085826 0.64795196 0.36525807 0.23360935 0.13058119 0.115535975 0.3198811
0.36245823 0.19286668 0.13468371 0.15145433 0.822823 0.1925168 0.17236158 0.48550144
0.32864302 0.29482776 0.1677468 0.24814996 0.23401569 0.22009887 0.3594076 0.4787791
0.26140684 0.42517367 0.262124 0.31253013 0.13242006 0.1362875 0.31972945 0.18783987
0.38168564 0.252092 0.27025184 0.2860045 0.22751433 0.04428152 0.23620963 0.15717512
0.17572166 0.4877755 0.13023953 0.22507374 0.11708729 0.12801896 0.42272305 0.3980241
0.054610062 0.17668065 0.17982422 0.3910413 0.314433 0.30214643 0.6805855 0.1690804
0.25754398 0.3790137 0.27397838 0.17370348 0.06639399 0.14545411 0.11987779 0.16863883
00000000: 3abe 773e 8afe 9d3e 2ee0 253f 1b03 bb3e
00000010: 4a37 6f3e 13b7 053e 209e ec3d 75c7 a33e
00000020: 2094 b93e d87e 453e 87ea 093e d816 1b3e
00000030: 87a4 523f 2023 453e 8e7f 303e a593 f83e
00000040: e643 a83e aaf3 963e d1c5 2b3e 061b 7e3e
00000050: cfa1 6f3e 9961 613e 4604 b83e 8922 f53e
00000060: 1ed7 853e 5db0 d93e 1e35 863e f303 a03e
00000070: 2099 073e f38e 0b3e 94b3 a33e 1859 403e
00000080: 4d6c c33e 3412 813e 735e 8a3e 2f6f 923e
00000090: 84f9 683e 8a60 353d f0e0 713e 84f2 203e
000000a0: 61f0 333e b6bd f93e 835d 053e bb79 663e
000000b0: 76cb ef3d 6717 033e 286f d83e d1c9 cb3e
000000c0: cdae 5f3d c6eb 343e d723 383e 9136 c83e
000000d0: 5dfd a03e f0b2 9a3e da3a 2e3f 6a23 2d3e
000000e0: cedc 833e 150e c23e e546 8c3e 53df 313e
000000f0: 92f9 873d ecf1 143e 7d82 f53d a8af 2c3e

layers.8.weight f4 [64, 64, 2, 2]
0.015290943 0.039346863 -0.0030388844 0.036838375 0.049055144 -0.027504709 0.016133621 0.037539005
-0.034012523 0.040986348 -0.0015651329 0.01349237 0.026730325 0.014206431 0.038745392 -0.001683652
-0.0100626955 -0.06585894 -0.030083153 0.062301703 -0.022068063 0.05280011 0.028402617 0.042386338
-0.019924426 -0.0037741745 -0.038630694 -0.050502922 0.0034606457 0.015627965 0.0116390865 0.04447738
0.042160112 0.013675577 0.002598434 -0.045602888 -0.041554485 -0.010039215 -0.011922455 0.07366743
-0.051396307 0.015355957 0.027091509 0.031126296 -0.051905837 0.008475979 -0.014283068 0.010620382
-0.04679295 -0.063878216 0.014405205 0.056178164 0.01587583 0.003670682 -0.03288368 0.032069627
-0.00503862 0.0039049522 0.038948674 0.00088499114 -0.013041923 -0.063952476 -0.048177026 -0.0043016793
0.01977827 0.014676286 -0.053260077 0.035535462 -0.03609907 -0.03521602 0.003991953 -0.025217574
0.018630764 0.0252127 -0.0019446393 -0.014201263 0.048730623 0.011274452 -0.0385504 0.03604479
-0.01439513 0.015318729 0.029028824 0.0012823706 1.596764e-05 0.044363316 -0.049948867 0.046404343
0.009249447 0.0588265 0.04777704 -0.047667574 0.0020487038 0.038634982 0.041436844 -0.006880332
0.029154 0.012859101 -0.06624237 -0.05129793 -0.03905915 -0.05515899 -0.03133106 0.045280676
-0.014518166 -0.036839318 0.04097283 0.027758092 0.027818808 -0.011577931 -0.04836022 0.0058922833
-0.0340058 -0.038011253 -0.028605603 -0.026685715 -0.0070027886 -0.031225942 -0.023805281 0.0212704
0.0071169767 0.0042187045 0.01353976 0.021515679 -0.026813477 0.041086446 -0.04851088 -0.049265552
0.028769683 0.0004884655 0.036421534 -0.046340454 -0.03156622 0.0401384 -0.022330398 -0.038235653
-0.060618874 -0.059676018 -0.04791635 0.030354751 0.05445685 0.053295262 -0.012350608 -0.033001907
0.043914374 -0.02673778 -0.04261133 -0.0058139837 -0.033675384 0.04847692 -0.024148326 -0.017692555
-0.038159795 -0.028358381 0.03899656 0.005684831 -0.044310853 0.0042907274 -0.04140722 -0.04011909
-0.021281987 0.006464064 0.03166498 -0.04654626 -0.061405014 0.0012346808 -0.022841463 0.027670657
-0.04954698 -0.01147778 0.040592305 0.007692919 0.0014880517 -0.033643838 0.03856663 0.015847888
-0.0034277446 -0.06761508 0.027225252 0.07026146 -0.0056416253 -0.037133697 -0.03684374 0.06269259
-0.066747256 -0.029480262 -0.032187343 -0.025137093 0.02676489 -0.019298645 0.02308412 0.00320296
0.026194522 0.043233827 0.036151662 0.036875635 0.019399725 0.04782458 -0.005086556 -0.052310735
-0.024205623 0.03605925 0.028187132 0.045074143 0.046374712 -0.022891698 0.033890445 -0.06444692
-0.03913568 0.0069109052 -0.026701892 -0.049797367 -0.008439604 0.03925782 0.046275515 -0.048967928
0.025789812 -0.04473249 0.015104673 -0.014646819 0.0034914615 -0.064948976 -0.017535124 -0.014741063
-0.05753081 -0.0040720636 -0.05588721 0.018979335 0.014174711 -0.0025495784 0.029706892 -0.047934387
-0.04606632 -0.045847382 -0.023591768 0.012033369 0.04931268 -0.053803552 -0.059018698 -0.03986349
-0.026300231 -0.047048084 -0.03571914 0.035318643 -0.0042324653 0.008506972 -0.030052716 -0.03811995
0.004921467 -0.04968271 0.046923537 -0.04461355 -0.0280847 -0.051723175 -0.00019925817 -0.023211135
00000000: dd86 7a3c 2d2a 213d 0528 47bb d6e3 163d
00000010: 0cee 483d 8e51 e1bc a82a 843c 80c2 193d
00000020: b750 0bbd 4de1 273d 2525 cdba 1a0f 5d3c
00000030: 8ef9 da3c 17c2 683c 7db3 1e3d fdad dcba
00000040: 01de 24bc 0de1 86bd f270 f6bc 1230 7f3d
00000050: 15c8 b4bc ee44 583d 9bac e83c 4c9d 2d3d
00000060: 8d38 a3bc 2458 77bb 383b 1ebd 27dc 4ebd
00000070: 00cc 623b 3806 803c deb1 3e3c ea2d 363d
00000080: 15b0 2c3d 870f 603c 7d4a 2a3b 18ca 3abd
00000090: 0935 2abd 857b 24bc 6756 43bc f3de 963d
000000a0: ef84 52bd 8d97 7b3c 03ef dd3c 93fc fe3c
000000b0: 379b 54bd d5de 0a3c 8703 6abc 1c01 2e3c
000000c0: f7a9 3fbd 95d2 82bd cf03 6c3c 131b 663d
000000d0: 070e 823c d38f 703b 0ab1 06bd 715b 033d
000000e0: 021b a5bb 3aea 7f3b a588 1f3d c0fe 673a
000000f0: caad 55bc 84f9 82bd 4655 45bd 1af5 8cbb
00000100: 0a06 a23c ce74 703c 3d27 5abd a28d 113d
00000110: 9edc 13bd ac3e 10bd eece 823b 1695 cebc
00000120: 8b9f 983c dd8a ce3c 44e3 feba 6aac 68bc
00000130: c399 473d 7bb8 383c 06e7 1dbd b4a3 133d
00000140: 8dd9 6bbc 68fb 7a3c dbcd ed3c 3815 a83a
00000150: 3ff2 8537 4fb6 353d 2f97 4cbd 7b12 3e3d
00000160: fe8a 173c 0ef4 703d dcb1 433d 133f 43bd
00000170: 8c43 063b b73f 1e3d aeb9 293d 6874 e1bb
00000180: 5fd4 ee3c fbae 523c 14aa 87bd c71d 52bd
00000190: 7dfc 1fbd 65ee 61bd ff54 00bd 3b78 393d
000001a0: 9add 6dbc d3e4 16bd 20d3 273d f064 e33c
000001b0: 45e4 e33c 5db1 3dbc 5e15 46bd 0e14 c13b
000001c0: aa49 0bbd b0b1 1bbd 4c56 eabc 009c dabc
000001d0: a677 e5bb 8ccd ffbc 4b03 c3bc 433f ae3c
000001e0: 8735 e93b 0f3d 8a3b dfd5 5d3c a641 b03c
000001f0: f0a7 dbbc 434a 283d 58b3 46bd adca 49bd
00000200: 66ae eb3c 5d0c 003a bf2e 153d 7dcf 3dbd
00000210: 954b 01bd 2a68 243d 3dee b6bc fd9c 1cbd
00000220: 7f4b 78bd d76e 74bd ef43 44bd 87aa f83c
00000230: 250e 5f3d 224c 5a3d 345a 4abc 022d 07bd
00000240: 8fdf 333d 3009 dbbc 3889 2ebd 3b83 bebb
00000250: 33ef 09bd bc8f 463d b6d2 c5bc faef 90bc
00000260: 724d 1cbd d64f e8bc dbba 1f3d d247 ba3b
00000270: 4c7f 35bd 3b99 8c3b 9e9a 29bd ea53 24bd
00000280: 9057 aebc 80d0 d33b 23b3 013d 4ba7 3ebd
00000290: d383 7bbd 03d5 a13a 051e bbbc 93ad e23c
000002a0: c6f1 4abd 4c0d 3cbc 1e44 263d e214 fc3b
000002b0: bb0a c33a 1fce 09bd 0bf8 1d3d 6ed3 813c
000002c0: 03a4 60bb c679 8abd 7e07 df3c 3ee5 8f3d
000002d0: 62dd b8bb 8119 18bd 76e9 16bd f964 803d
000002e0: c9b2 88bd 9780 f1bc e0d6 03bd 4eec cdbc
000002f0: 0b42 db3c 3118 9ebc e91a bd3c c0e8 513b
00000300: e595 d63c f415 313d c413 143d e80a 173d
00000310: 2cec 9e3c b5e3 433d 20ad a6bb c843 56bd
00000320: df4a c6bc ddb2 133d b3e8 e63c aa9f 383d
00000330: 69f3 3d3d 5f87 bbbc b5d0 0a3d bffc 83bd
00000340: bc4c 20bd e074 e23b edbd dabc 53f8 4bbd
00000350: 4446 0abc cfcc 203d 658b 3d3d 9892 48bd
00000360: 2845 d33c 6a39 37bd 9779 773c 36f9 6fbc
00000370: 01d1 643b f803 85bd d2a5 8fbc 8084 71bc
00000380: 6da5 6bbd f26e 85bb fde9 64bd 8d7a 9b3c
00000390: 0c3d 683c d416 27bb de5b f33c d956 44bd
000003a0: 0ab0 3cbd 77ca 3bbd 8643 c1bc 9c27 453c
000003b0: 18fc 493d 1d61 5cbd 97bd 71bd e647 23bd
000003c0: 9573 d7bc 7eb5 40bd 3c4e 12bd 48aa 103d
000003d0: 7eb0 8abb d460 0b3c 1d31 f6bc aa23 1cbd
000003e0: 4244 a13b 1980 4bbd e532 403d b3bc 36bd
000003f0: e311 e6bc aedb 53bd f5ef 50b9 4725 bebc

layers.8.bias f4 [64]
0.052952163 -0.0029695383 0.062496744 -0.0025320034 -0.035189852 -0.05276627 -0.0072529684 -0.039905667
0.03276269 -0.0055204406 0.0069161216 0.06453626 -0.036270924 -0.052136052 -0.010196759 -0.049425732
0.047491256 0.013191239 0.04090683 0.048141707 0.013765448 -0.0050806855 0.049133353 -0.04484843
-0.013758798 -0.052802797 0.033055924 0.04028361 0.034866534 0.035385247 0.020575536 0.02639397
0.027044715 -0.028116161 0.036993604 0.033861946 0.046746828 -0.04973977 -0.04049667 0.0042531327
-0.07841042 0.0074552866 0.030039273 0.03627241 -0.029762225 0.013122474 0.044029303 -0.06370895
-0.0051229307 -0.03130429 -0.063260145 0.006983913 -0.06461225 -0.027944718 0.028814703 -0.023074966
-0.068839565 0.001249244 0.005485549 0.011643211 -0.06650349 -0.058854874 -0.018180156 -0.027500324
00000000: 5ee4 583d 969c 42bb 96fc 7f3d f8ef 25bb
00000010: 3c23 10bd 7221 58bd 4faa edbb 2074 23bd
00000020: 2c32 063d d0e4 b4bb a2a0 e23b 962b 843d
00000030: d290 14bd 9d8c 55bd 4f10 27bc a372 4abd
00000040: 3186 423d 1120 583c ec8d 273d 3d30 453d
00000050: 7988 613c e17b a6bb 0e40 493d fdb2 37bd
00000060: 956c 61bc bf47 58bd a665 073d 6d00 253d
00000070: 36d0 0e3d 1ff0 103d 078e a83c 2b38 d83c
00000080: e18c dd3c dd53 e6bc 9b86 173d d3b2 0a3d
00000090: 9a79 3f3d eebb 4bbd d6df 25bd dd5d 8b3b
000000a0: a495 a0bd 7a4b f43b ec14 f63c 6192 143d
000000b0: e9cf f3bc a5ff 563c 1258 343d d779 82bd
000000c0: 42de a7bb ed38 00bd 898e 81bd 4fd9 e43b
000000d0: 6d53 84bd 52ec e4bc d00c ec3c b607 bdbc
000000e0: c2fb 8cbd acbd a33a 1fc0 b33b 2bc3 3e3c
000000f0: fb32 88bd cf11 71bd 8dee 94bc 5c48 e1bc

layers.10.weight f4 [64]
1.0205456 1.0221516 1.0177971 1.022826 1.0236443 1.0227597 1.0217991 1.0246934
1.0234944 1.0220169 1.0223265 1.0227115 1.0238048 1.0220647 1.0230274 1.020035
1.0233566 1.0137755 1.0214947 1.0229136 1.023403 1.0234333 1.0189611 1.0195304
1.0227523 1.0223371 1.0221349 1.0221788 1.0233499 1.0235894 1.0194751 1.0223913
1.0219734 1.0223227 1.0232389 1.0229485 1.0013032 1.0237598 1.023566 1.0245662
1.0154632 1.0207001 1.0243019 1.0230474 1.022551 1.0227056 1.0122949 1.0230293
1.0257338 1.0127203 1.0235981 1.0219349 1.0220602 1.0227853 1.0237516 1.0206153
1.0228815 1.0239896 1.0231683 1.0220848 1.0203933 1.0198361 1.0158571 1.0249971
00000000: 3da1 823f ddd5 823f 2d47 823f f6eb 823f
00000010: c706 833f cae9 823f 50ca 823f 2729 833f
00000020: dd01 833f 73d1 823f 98db 823f 36e8 823f
00000030: 090c 833f 04d3 823f 90f2 823f 8290 823f
00000040: 59fd 823f 65c3 813f 57c0 823f d5ee 823f
00000050: dffe 823f ddff 823f 516d 823f f97f 823f
00000060: 8ce9 823f f1db 823f 51d5 823f c1d6 823f
00000070: 21fd 823f fa04 833f 297e 823f b8dd 823f
00000080: 06d0 823f 78db 823f 7ef9 823f faef 823f
00000090: b42a 803f 900a 833f 3604 833f fc24 833f
000000a0: b3fa 813f 4da6 823f 531c 833f 38f3 823f
000000b0: f3e2 823f 04e8 823f e192 813f a0f2 823f
000000c0: 3f4b 833f d2a0 813f 4305 833f c3ce 823f
000000d0: ded2 823f a1ea 823f 4b0a 833f 86a3 823f
000000e0: c8ed 823f 1712 833f 2ef7 823f add3 823f
000000f0: 3f9c 823f fd89 823f 9b07 823f 1b33 833f

layers.10.bias f4 [64]
0.004146248 0.021771621 -0.017083358 0.021241317 0.01576365 0.021260979 -0.021227097 0.02098382
0.022940196 0.015593528 0.016607793 0.021238744 0.013318573 0.020916667 0.022785606 -0.021941742
0.021569708 0.022960193 0.021431897 0.021830555 0.019865034 0.021240326 0.022144677 0.0027253446
0.018465273 0.020626519 0.020659588 -0.02088252 0.021511514 0.02199312 0.021667084 0.021954732
-0.020780807 0.022584718 0.021475922 0.021900762 -0.02057099 0.021422058 0.021150403 -0.02168944
-0.020813536 0.022027854 -0.021381967 0.021265727 0.021681102 0.021469565 -0.021920227 0.02120974
-0.005129647 -0.020226348 -0.020090032 0.023806207 0.020485286 0.0215837 0.016502915 -0.010436194
-0.012732344 0.021771403 0.021734262 0.013116753 0.022243256 0.019563323 -0.019698827 0.021747978
00000000: 40dd 873b 665a b23c 66f2 8bbc 4502 ae3c
00000010: c522 813c 812b ae3c 73e4 adbc 43e6 ab3c
00000020: 14ed bb3c ff7b 7f3c 110d 883c e0fc ad3c
00000030: 2536 5a3c 6e59 ab3c e1a8 ba3c 2bbf b3bc
00000040: f5b2 b03c 0417 bc3c f291 af3c fed5 b23c
00000050: ffbb a23c 3100 ae3c c168 b53c b29b 323b
00000060: 7c44 973c f2f8 a83c 4c3e a93c d211 abbc
00000070: ea38 b03c ea2a b43c 2b7f b13c 69da b33c
00000080: 833c aabc 9603 b93c 46ee af3c 3a69 b33c
00000090: 7e84 a8bc 507d af3c 9c43 ad3c 0dae b1bc
000000a0: 2681 aabc c273 b43c 3c29 afbc 7635 ae3c
000000b0: 919c b13c f1e0 af3c 0c92 b3bc 0cc0 ad3c
000000c0: 9916 a8bb bab1 a5bc da93 a4bc 3c05 c33c
000000d0: c2d0 a73c 4dd0 b03c 1f31 873c 92fc 2abc
000000e0: 529b 50bc f159 b23c 0d0c b23c a6e7 563c
000000f0: 7d37 b63c 4343 a03c 6f5f a1bc d128 b23c

layers.10.running_mean f4 [64]
0.15125199 0.49101868 0.10719653 0.34935996 0.16090304 0.24775918 0.14621598 0.4490513
0.08179652 0.27781513 0.22290193 0.14627342 0.2737903 0.37851325 0.23586015 0.3244719
0.43437004 0.20512384 0.08796972 0.21641748 0.18433282 0.2949541 0.37594974 0.3418541
0.16170534 0.27640897 0.26515 0.14912067 0.30084407 0.14354673 0.20952453 0.12840953
0.17875127 0.44794908 0.2934933 0.43037552 0.1901405 0.26227066 0.13216192 0.41788986
0.11206229 0.28076893 0.20243342 0.2292862 0.3743093 0.2808374 0.6734641 0.3996047
0.50801694 0.15230684 0.9192673 0.40811515 0.27513048 0.26765934 0.50302017 0.16650027
0.3397656 0.28856575 0.15564571 0.45850512 0.14632992 0.14337572 0.031356648 0.07440604
00000000: cde1 1a3e cd66 fb3e db89 db3d 4fdf b23e
00000010: c4c3 243e 95b4 7d3e a4b9 153e 0dea e53e
00000020: ef84 a73d c93d 8e3e 6740 643e b3c8 153e
00000030: 3e2e 8c3e 7dcc c13e 5385 713e 2e21 a63e
00000040: c065 de3e fc0b 523e 7829 b43d 8b9c 5d3e
00000050: bec1 3c3e 3904 973e 7c7c c03e 8007 af3e
00000060: 1696 253e 7a85 8d3e bec1 873e 17b3 183e
00000070: 3c08 9a3e eafd 123e 998d 563e ca7d 033e
00000080: 930a 373e 9559 e53e c144 963e 2e5a dc3e
00000090: 31b4 423e 5748 863e 7455 073e a9f5 d53e
000000a0: ea80 e53d f2c0 8f3e b54a 4f3e 00ca 6a3e
000000b0: 78a5 bf3e ebc9 8f3e 2568 2c3f fd98 cc3e
000000c0: 660d 023f 53f6 1b3e 1a55 6b3f 78f4 d03e
000000d0: e7dd 8c3e a50a 893e eec5 003f 0c7f 2a3e
000000e0: c2f5 ad3e e4be 933e 9761 1f3e 2fc1 ea3e
000000f0: 83d7 153e 16d1 123e d46f 003d 3262 983d

layers.10.running_var f4 [64]
0.1471179 1.5117872 0.060330115 0.93621874 0.25958532 0.36032194 0.17875767 1.0415729
0.06383916 1.3077031 0.8426449 0.09266177 0.6347262 1.2764955 0.42574584 1.2748369
0.7789326 0.5835863 0.14576857 0.2845152 0.515307 0.6555391 0.70613873 0.79515076
0.44257465 0.6697965 0.8119536 0.42041054 0.7456296 0.12545744 0.2489275 0.1284048
0.35301453 1.4933264 0.35091537 0.96033293 0.28670603 0.53203475 0.19381799 1.1639507
0.21117955 0.34095624 0.37326172 0.27540067 0.6381847 0.5057867 0.9671015 1.1736381
0.7533964 0.3586 2.202118 0.89322007 0.59195006 0.4817204 1.0688052 0.3068958
0.90905607 0.58180916 0.112698056 1.5731318 0.20768581 0.32379118 0.009945175 0.024104899
00000000: 13a6 163e 3e82 c13f b61c 773d 08ac 6f3f
00000010: 5ee8 843e 1e7c b83e 400c 373e 4352 853f
00000020: 1bbe 823d d162 a73f 93b7 573f 74c5 bd3d
00000030: 6b7d 223f 3464 a33f 5cfb d93e db2d a33f
00000040: 2068 473f e965 153f 5b44 153e faab 913e
00000050: 29eb 033f 69d1 273f 82c5 343f 008f 4b3f
00000060: 2599 e23e c977 2b3f 31dc 4f3f 0d40 d73e
00000070: 95e1 3e3f ea77 003e dae6 7e3e 8c7c 033e
00000080: 52be b43e 5225 bf3f 2eab b33e 61d8 753f
00000090: 22cb 923e 6e33 083f 3978 463e 56fc 943f
000000a0: 743f 583e d191 ae3e 291c bf3e 5101 8d3e
000000b0: 1360 233f 3d7b 013f f793 773f c639 963f
000000c0: 96de 403f 6b9a b73e 80ef 0c40 12aa 643f
000000d0: 0a8a 173f 0ea4 f63e 9cce 883f 7221 9d3e
000000e0: e6b7 683f 72f1 143f 3dce e63d 625c c93f
000000f0: 97ab 543e f5c7 a53e 16f1 223c a377 c53c

actor_classifier.weight f4 [15, 256]
0.039261755 -0.017964067 0.021534117 -0.020247314 -0.019712357 -0.060968474 0.045995995 -0.044935312
0.031678848 -0.014917651 -0.0017068 -0.053129215 0.04936835 -0.018364588 0.06367204 -0.047763493
-0.034796186 -0.00922857 0.010001767 -0.04519421 -0.02970157 0.050126433 0.02251501 -0.06343949
0.029607795 0.021219227 0.0020333368 0.054736976 0.014280693 -0.05913091 -0.016235098 0.053874936
0.025725137 -0.022984397 -0.031143265 -0.04015127 0.030218283 0.00888546 -0.031011878 -0.05420703
-0.058465127 0.02920751 0.0028858585 0.027628744 0.03610431 0.033276465 -0.0013666585 0.033807855
0.058698386 -0.004303542 0.036011834 0.018495373 -0.028516492 0.043885056 0.0008258325 -0.019881811
-0.009440695 0.053460404 -0.0028187414 -0.00389523 0.031905472 -0.03336327 0.04010884 0.012570345
-0.020812133 -0.005266119 -0.02451148 -0.05518464 0.044195972 -0.05410642 -0.03637203 -0.021418162
0.055686124 0.01723882 -0.060769804 0.0020524682 0.012452246 -0.03114844 0.009895804 0.007185579
-5.768784e-05 0.0180161 -0.024136111 -0.014340529 -0.012845034 0.031160006 -0.05835884 -0.057901874
-0.027908102 -0.045630734 0.036654823 0.017580902 0.055291437 0.034527916 0.05508344 -0.019995287
0.060647674 0.031052856 -0.012914018 -0.03055902 -0.017947003 -0.014288414 0.020396873 0.04616998
0.025097875 -0.045851022 0.0008604252 0.00933177 -0.051209908 0.035329442 0.025279598 -0.056889445
0.031766094 0.056443285 -0.002455949 -0.028481247 -0.010502178 -0.0058028884 -0.017990204 -0.04845238
-0.02057955 -0.047712393 -0.011333634 -0.006686797 0.022663852 -0.04983165 -0.04013592 -0.049245715
-0.0043131188 -0.044136573 -0.02895815 0.05714442 0.03667751 0.006767009 0.02203861 0.027261602
-0.040425144 0.022059767 0.051971722 0.05867416 0.005195482 -0.04884356 -0.04121447 -0.00074505835
0.03636773 0.052446824 -0.055747062 -0.024798086 -0.010312032 0.0119246235 0.02686232 -0.039249018
-0.011327896 -0.05930429 -0.044205762 -0.04154096 0.044817045 -0.030410757 0.03670108 0.0075531965
-0.059479587 -0.019444296 0.049130574 0.00026220767 0.022517905 0.0056026215 0.05476414 0.02603948
-0.034449715 0.034921546 0.016322017 -0.05265541 0.015752621 -0.033121172 -0.051247146 -0.0033792346
-0.043661453 0.046873163 -0.0469089 -0.0531294 0.059267785 -0.021245489 -0.03790761 0.04509266
-0.020211004 0.044561986 0.044098582 -0.04954457 0.041714683 -0.0022059798 0.05170384 0.026465273
0.0032711579 -0.063756384 -0.048479512 -0.055793952 0.020139853 0.009373979 -0.021340877 -0.0595331
-0.0030970222 -0.041562676 -0.031840824 0.051755384 0.023521202 -0.052855678 0.023845041 0.033707675
-0.02743206 -0.008722199 0.0564119 0.060105857 -0.012765963 -0.014940402 -0.042406622 -0.014663113
0.017414166 0.024009481 -0.04598398 0.036601406 -0.058330495 -0.018739367 -0.044328097 -0.009789691
-0.048456877 -0.031221192 -0.01740853 -0.015997771 0.04280666 -0.052501593 0.042160966 -0.019704115
0.007516898 -0.020104615 0.015790977 -0.048135154 -0.038844995 -0.01408488 -0.016362427 -0.059211176
-0.023662645 -0.022728836 -0.004721449 0.055891123 0.005225016 0.040396005 0.056723736 -0.049001057
0.020883968 0.008128165 -0.0047096843 0.049111642 -0.035721906 -0.042282846 -0.055904955 -0.026575014
00000000: efd0 203d 6129 93bc 5168 b03c b2dd a5bc
00000010: cf7b a1bc 14ba 79bd 4c66 3c3d 170e 38bd
00000020: aec1 013d 2a69 74bc b4b6 dfba 059e 59bd
00000030: 7836 4a3d 5571 96bc 7d66 823d a7a3 43bd
00000040: 7286 0ebd 6e33 17bc 74de 233c 901d 39bd
00000050: b550 f3bc 6051 4d3d 6671 b83c 90ec 81bd
00000060: 0c8c f23c f2d3 ad3c bb41 053b e133 603d
00000070: 91f9 693c 4133 72bd 78ff 84bc f7ab 5c3d
00000080: 86bd d23c c649 bcbc 2920 ffbc a875 24bd
00000090: 558c f73c 5294 113c 9f0c febc 3108 5ebd
000000a0: 2179 6fbd 9744 ef3c ac20 3d3b ad55 e23c
000000b0: 1de2 133d e74c 083d 7321 b3ba 1b7a 0a3d
000000c0: b86d 703d ba04 8dbb 2581 133d 9c83 973c
000000d0: 6b9b e9bc d1c0 333d ae7c 583a 2edf a2bc
000000e0: 25ad 1abc 4cf9 5a3d a2ba 38bb 1d47 7fbb
000000f0: 50af 023d eda7 08bd 2b49 243d d9f3 4d3c
00000100: 357e aabc 688f acbb 4dcc c8bc 4a09 62bd
00000110: d606 353d b29e 5dbd d6fa 14bd 2475 afbc
00000120: 2217 643d 6d38 8d3c c2e9 78bd b482 063b
00000130: 8104 4c3c 032b ffbc 0322 223c 0175 eb3b
00000140: d9f5 71b8 8096 933c 18b9 c5bc 8af4 6abc
00000150: fa73 52bc 4543 ff3c ae09 6fbd 842a 6dbd
00000160: 889f e4bc 4be7 3abd 5e23 163d d305 903c
00000170: 4679 623d 256d 0d3d 2c9f 613d 28cd a3bc
00000180: b269 783d 8f62 fe3c 5195 53bc e956 fabc
00000190: 9805 93bc f419 6abc 5817 a73c bc1c 3d3d
000001a0: 0f9a cd3c 48ce 3bbd 288e 613a 48e4 183c
000001b0: 7bc1 51bd 9bb5 103d 2917 cf3c e804 69bd
000001c0: 2a1d 023d 1331 673d fdf3 20bb 8151 e9bc
000001d0: 5411 2cbc 2826 bebb 3160 93bc 0176 46bd
000001e0: 7296 a8bc 126e 43bd b5b0 39bc eb1c dbbb
000001f0: 8ba9 b93c 461c 4cbd 9065 24bd e0b5 49bd
00000200: 1055 8dbb 8dc8 34bd a439 edbc 4410 6a3d
00000210: 283b 163d c9bd dd3b 518a b43c b953 df3c
00000220: d694 25bd afb6 b43c 4de0 543d 5154 703d
00000230: dd3e aa3b 2f10 48bd 81d0 28bd 0550 43ba
00000240: 54f6 143d 7bd2 563d 0857 64bd 5b25 cbbc
00000250: ccf3 28bc 7f5f 433c 5e0e dc3c 94c3 20bd
00000260: a498 39bc 0ee9 72bd 1a11 35bd db26 2abd
00000270: 1492 373d fb1f f9bc df53 163d ce80 f73b
00000280: dea0 73bd a549 9fbc 243d 493d eb78 8939
00000290: 7877 b83c 3296 b73b 5d50 603d bf50 d53c
000002a0: 251b 0dbd e509 0f3d c0b5 853c 33ad 57bd
000002b0: a40b 813c 11aa 07bd 87e8 51bd 2676 5dbb
000002c0: 5ad6 32bd 13fe 3f3d 8c23 40bd 379e 59bd
000002d0: c7c2 723d 050b aebc 0345 1bbd 15b3 383d
000002e0: 8c91 a5bc a186 363d b7a0 343d 3fef 4abd
000002f0: 04dd 2a3d 3392 10bb 68c7 533d b3cd d83c
00000300: ec60 563b b592 82bd 7492 46bd 3388 64bd
00000310: 55fc a43c 5195 193c 10d3 aebc fbd8 73bd
00000320: 69f7 4abb a03d 2abd 866b 02bd 74fd 533d
00000330: 89af c03c 327f 58bd ad56 c33c 0f11 0a3d
00000340: 33b9 e0bc 8ee7 0ebc 2a10 673d 8f31 763d
00000350: 5428 51bc 96c8 74bc 91b2 2dbd 8e3d 70bc
00000360: 27a8 8e3c 88af c43c b359 3cbd 5beb 153d
00000370: f5eb 6ebd 4d83 99bc 6191 35bd f164 20bc
00000380: b87a 46bd 96c3 ffbc 559c 8ebc c20d 83bc
00000390: 0956 2f3d e90b 57bd fab0 2c3d 866a a1bc
000003a0: 5050 f63b 6fb2 a4bc 145c 813c 5e29 45bd
000003b0: ee1b 1fbd 45c4 66bc 7f0a 86bc 6b87 72bd
000003c0: 2ad8 c1bc d331 babc 63b6 9abb 17ee 643d
000003d0: 9c36 ab3b 4876 253d 2657 683d 55b5 48bd
000003e0: db14 ab3c ff2b 053c b253 9abb 4a29 493d
000003f0: 2251 12bd c730 2dbd 98fc 64bd d8b3 d9bc

actor_classifier.bias f4 [15]
-0.008953494 -0.027629856 0.028484771 0.04798522 -0.052168187 -0.058443163 -0.050243407 0.00010093964
0.05416288 0.027932573 0.0010938945 0.053458296 -0.03414765 -0.03884751 0.051045522
00000000: adb1 12bc 0258 e2bc e558 e93c 268c 443d
00000010: 4fae 55bd 1962 6fbd 08cc 4dbd 8eaf d338
00000020: e5d9 5d3d dad2 e43c 0261 8f3a 16f7 5a3d
00000030: 68de 0bbd 911e 1fbd 1c15 513d
