Saved Models/model_checkpoint_coinrun_42_5e-05_400_6_256_0.99_0.95_0.25_1024_0.5.pth (torch, 153047 bytes, 21 tensors)

layers.0.weight f4 [32, 3, 8, 8]
0	0x3d6adeb4	0.057341293
1	0x3d42050d	0.047368098
2	0x3ced6363	0.028978055
3	0xbcfc5760	-0.030803382
4	0x3d6f4370	0.058413923
5	0x3d351d61	0.04421747
6	0x3c5731dd	0.013134447
7	0xbd880bb3	-0.066428564
8	0x3c7a9f7b	0.015296812
9	0x3ca065c4	0.019579776
10	0xbc608a47	-0.013704843
11	0x3d41990e	0.047265105
12	0xbc779e21	-0.015113384
13	0xbd158b27	-0.03650966
14	0xbccf0386	-0.025270235
15	0x3d14d2c0	0.0363338
16	0x3d908e8b	0.07058438
17	0xbd818e57	-0.06325977
18	0x3d020345	0.0317414
19	0x3d1bc63f	0.03803086
20	0x3cc28142	0.023743276
21	0xbca60ec6	-0.020270716
22	0x3d3fb054	0.04679902
23	0x3d60a984	0.054849163
24	0xbd9b9ff8	-0.07598871
25	0x3bee087e	0.007264196
26	0xbd3b1003	-0.045669567
27	0x3b9ce162	0.00478761
28	0x3d4dc2ca	0.050234593
29	0x3d8ac18c	0.067751974
30	0x3d572d1d	0.052533258
31	0xbbf5a600	-0.0074965954
32	0xbd46b584	-0.04851295
33	0xbd6f168a	-0.058371104
34	0xbd36b2d3	-0.044604134
35	0x3d7a3e93	0.06109483
36	0x3d0e6919	0.034768198
37	0xbdc0b6c2	-0.09409858
38	0xbdbd4032	-0.0924076
39	0xbc24af77	-0.0100516
40	0xbc85b2d8	-0.01632063
41	0x3bc5083d	0.006012945
42	0x3d767085	0.0601659
43	0xbd86e211	-0.065860875
44	0xbc1ea06f	-0.009681805
45	0x3d27b072	0.040939756
46	0xbc87bda7	-0.016569925
47	0x3c9704a7	0.018434836
48	0xbce503a9	-0.027955847
49	0x3d252ffc	0.040328965
50	0x3d3e716c	0.046494886
51	0x3d301faf	0.042998966
52	0xbcb5f96b	-0.022213658
53	0x3c39d2c6	0.011341756
54	0x3cf135ec	0.029444657
55	0x3d069a3c	0.032861933
56	0x3cdef514	0.027216472
57	0xbd917eda	-0.07104273
58	0x3d181a76	0.03713461
59	0xbd1e2ca5	-0.038616795
60	0xbd6d8c36	-0.057995044
61	0xbc80e122	-0.015732352
62	0x3d092c37	0.033489432
63	0xbc8f5e10	-0.017500907
64	0x3bc7394b	0.006079828
65	0xbca33ca7	-0.019926382
66	0x3d469b0e	0.048487715
67	0x3c718ccf	0.014743044
68	0xbd159f4b	-0.036528867
69	0x3daafca4	0.083489686
70	0x3cf5c59a	0.03000145
71	0xbd6999de	-0.057031505
72	0xbd92bea9	-0.07165272
73	0xbd38144d	-0.044941235
74	0xbd83d6d2	-0.06437458
75	0x3beaa1f2	0.0071604187
76	0xbd3ffd34	-0.046872333
77	0xbd57673d	-0.05258869
78	0xbd20af65	-0.03922977
79	0x3b04c0cd	0.002025652
80	0xbd30708b	-0.04307608
81	0x3cef6af8	0.029225811
82	0xbd8205ae	-0.063487396
83	0xbd869725	-0.06571797
84	0xbd3f2647	-0.046667363
85	0x3d8b1326	0.06790762
86	0xb9eb6815	-0.0004490024
87	0x3da60bbe	0.081077084
88	0x3d86207c	0.06549165
89	0xbd94f5a4	-0.07273415
90	0x3d5a2405	0.053257007
91	0x3caa73f9	0.020807253
92	0x3d2e6d24	0.042584553
93	0x3d2a53fb	0.041583996
94	0x3c5ec970	0.013597831
95	0x3cd384f8	0.02582024
96	0x3d061105	0.032731075
97	0x3d1a6b82	0.037700184
98	0x3b928217	0.0044710743
99	0xbb295e61	-0.0025843608
100	0xbb08530c	-0.0020801453
101	0x3c61bb07	0.013777501
102	0x3cda8e23	0.026679104
103	0x3d01dad0	0.031702816
104	0xbbb0cb86	-0.0053953556
105	0x3ca0433a	0.019563306
106	0x3d2b3f56	0.04180845
107	0xbd3859a2	-0.045007356
108	0xbd8aac85	-0.06771187
109	0xbcd4509d	-0.025917346
110	0x3c1d526a	0.009602169
111	0xbd85d81b	-0.065353595
112	0xbd2b6db4	-0.041852668
113	0x3d446a98	0.04795322
114	0xbc40301c	-0.01173022
115	0x3a8b2cb6	0.0010618183
116	0xbd33509f	-0.04377806
117	0xbcc226b6	-0.0237001
118	0xbd9a9aef	-0.075490825
119	0xbd998a25	-0.07497052
120	0xbca44f5c	-0.020057373
121	0x3d84236a	0.06452067
122	0xbd273788	-0.040824443
123	0xbd5083a9	-0.05090681
124	0xbd7a5236	-0.06111356
125	0xbbb4eaed	-0.0055211694
126	0xbd338483	-0.043827545
127	0xbd63026b	-0.055422228
128	0xbd2f5750	-0.042807877
129	0x3b8b3644	0.0042484123
130	0x3cb7578a	0.022380609
131	0x3cdf4852	0.027256165
132	0x3bdd3a2f	0.006751321
133	0xbca05b8e	-0.019574907
134	0x3d9c1168	0.076205075
135	0x3d4c308e	0.049850993
136	0x3d3bed4e	0.04588061
137	0x3cec2646	0.028826844
138	0x3d70891b	0.058724504
139	0xb86f5abe	-5.706655e-05
140	0x3cf10156	0.029419582
141	0x3d99ead7	0.07515495
142	0x3d102670	0.035192907
143	0xbd548b94	-0.051890925
144	0x3d85d430	0.06534612
145	0xbb7a18c7	-0.003816174
146	0xbd5a2094	-0.053253725
147	0xbb1b4b4f	-0.002369601
148	0x3d3557c4	0.044273153
149	0x3c9a4c90	0.018835336
150	0x3d46b11f	0.04850876
151	0x3d66e66e	0.0563721
152	0xbd4885b4	-0.048955634
153	0x3ca96d00	0.020681858
154	0xbcb4e0ae	-0.022079792
155	0x3d396446	0.045261644
156	0xbd82c0ea	-0.06384452
157	0x3caa78af	0.0208095
158	0xbc4a9dec	-0.012366753
159	0x3c751745	0.014959161
160	0x3d4cde9e	0.05001699
161	0x3d23bc20	0.03997433
162	0xbd21bae6	-0.03948488
163	0xbd0ae814	-0.033912733
164	0xbc61f921	-0.013792307
165	0x3d0a8a87	0.033823516
166	0xbd916173	-0.07098665
167	0xbd2ce226	-0.04220786
168	0xbd822659	-0.063549705
169	0xbd50c83a	-0.0509722
170	0xbd452bbc	-0.04813741
171	0x3bf12fba	0.007360426
172	0x3cd22a9e	0.025655087
173	0xbd6a5ee9	-0.05721942
174	0xbd50a666	-0.05093994
175	0x3c22bf55	0.009933312
176	0xbce4be87	-0.027922882
177	0x3d266df6	0.04063221
178	0x3d80e737	0.06294101
179	0xbbfdea4d	-0.007748878
180	0x3b0262e6	0.0019895374
181	0xbd92e120	-0.071718454
182	0x3d5d419e	0.054017656
183	0x3d0907af	0.033454593
184	0x3d031227	0.031999733
185	0x3cff1051	0.03113571
186	0x3d69eba8	0.057109505
187	0x3d7d993b	0.06191371
188	0x3d837326	0.06418447
189	0xbc7426cf	-0.014901831
190	0x3c8dcb13	0.017308747
191	0xbd2c167a	-0.042013623
192	0xbd23af22	-0.03996194
193	0x3d9b262d	0.07575641
194	0x3d47edf1	0.048810903
195	0x3d86ec18	0.06588
196	0x3d7360d8	0.05941853
197	0xbd0d76ee	-0.03453725
198	0x3d815be9	0.063163586
199	0xbcfa9cfe	-0.030592438
200	0xbd1355e1	-0.035970572
201	0xbd83269b	-0.06403848
202	0xbd38fa73	-0.045160722
203	0x3d6a7058	0.057236046
204	0x3acc3899	0.0015580832
205	0xbd3822f3	-0.044955205
206	0xbd9e4af5	-0.07729141
207	0xbc8745a2	-0.016512696
208	0xbcaec7d4	-0.02133552
209	0xbb759aff	-0.0037476418
210	0x3c9459e3	0.018109268
211	0x3d0e2111	0.034699503
212	0xbcd5ca04	-0.026097305
213	0x3c8238ee	0.015896287
214	0x3d6634f4	0.056202844
215	0xbd22ccb7	-0.039746013
216	0x3b79107c	0.003800421
217	0xbd590be6	-0.052989863
218	0xbd418ed8	-0.047255367
219	0x3c33ca11	0.010973469
220	0xbc8bb1bd	-0.017052526
221	0x3d0dc6f7	0.034613576
222	0x3d5f7199	0.054551695
223	0x3cc73291	0.024316104
224	0x3d381065	0.04493751
225	0x3d74848c	0.05969672
226	0xbc5fd48f	-0.013661518
227	0xbd7971f3	-0.060899686
228	0xbd3c4765	-0.045966525
229	0xbd460651	-0.048345868
230	0xbd60b73c	-0.054862246
231	0xbd78efda	-0.060775615
232	0x3cfed312	0.031106506
233	0xbc879094	-0.016548432
234	0x3d231b5f	0.039821025
235	0xbc6dee2d	-0.014522118
236	0x3d5d4d82	0.054028995
237	0x3d1d27c0	0.038367987
238	0xbca101be	-0.019654151
239	0x3d47a7cd	0.04874401
240	0xbc42b3d3	-0.011883694
241	0xbb6519ac	-0.0034957929
242	0xbb1ac60e	-0.0023616585
243	0xbcf44463	-0.029817766
244	0x3d48f946	0.04906585
245	0x3d837b5b	0.064200126
246	0xb9320cac	-0.00016980123
247	0x3be1d89c	0.006892277
248	0x3d7e0461	0.062015895
249	0xbcf05506	-0.029337417
250	0x3bb80bd6	0.0056166453
251	0xbcd3bfed	-0.025848353
252	0xbda4465f	-0.08021235
253	0xbcc50cf2	-0.024054024
254	0x3d24bc09	0.040218387
255	0xbc795d49	-0.015219995

layers.0.bias f4 [32]
0	0xbdbc8877	-0.09205716
1	0xbd04af9f	-0.032394048
2	0xbcbcfa2f	-0.023068516
3	0x3b459d12	0.0030153436
4	0xbe0db3e8	-0.1383816
5	0xbb80596a	-0.003916909
6	0xbdcb7c5a	-0.099358276
7	0x3c8576fc	0.016292088
8	0xbc9fd79e	-0.019511994
9	0x3cc50cc4	0.024053939
10	0xbccf52c0	-0.025308013
11	0xbd048c80	-0.032360554
12	0xbda959c8	-0.082690775
13	0x3da09890	0.07841599
14	0x3af5a8f1	0.0018742365
15	0x3ca4d7ad	0.020122373
16	0xbd58ebaf	-0.05295914
17	0x3ad78734	0.0016443492
18	0xbd80cbda	-0.062888816
19	0x3a16e259	0.00057557743
20	0xbd832c3a	-0.0640492
21	0xbd9a31d5	-0.07529036
22	0x3d6bf288	0.057604343
23	0xbd86611d	-0.06561492
24	0xbcf2297f	-0.029560803
25	0x3d8a52e0	0.067540884
26	0xbdabc8f9	-0.08387942
27	0x3d5fab6e	0.054606847
28	0xbdb226aa	-0.08698781
29	0xbb86f3cf	-0.0041184197
30	0xbc5c0d91	-0.013430969
31	0xbd3f6174	-0.046723798

layers.2.weight f4 [32]
0	0x3f805510	1.0025959
1	0x3f7d39f7	0.9891657
2	0x3f7f25be	0.99666965
3	0x3f81f313	1.0152305
4	0x3f84c809	1.0373546
5	0x3f80a297	1.0049618
6	0x3f857ae3	1.0428127
7	0x3f798286	0.9746479
8	0x3f74e986	0.9566883
9	0x3f80eb49	1.0071803
10	0x3f82c0ea	1.0215123
11	0x3f73059a	0.9493042
12	0x3f7600e7	0.96095127
13	0x3f7c3b9c	0.98528457
14	0x3f7b019f	0.9804935
15	0x3f80b799	1.005603
16	0x3f81a3ba	1.012809
17	0x3f7e612d	0.9936703
18	0x3f7df6f6	0.9920496
19	0x3f8097b9	1.0046302
20	0x3f7f7c77	0.99799293
21	0x3f7be90a	0.98402464
22	0x3f8081d6	1.0039623
23	0x3f83db5c	1.0301318
24	0x3f801827	1.0007371
25	0x3f753452	0.9578296
26	0x3f7f0b62	0.99626744
27	0x3f80f7ba	1.00756
28	0x3f843060	1.0327263
29	0x3f7fe086	0.9995197
30	0x3f75fe49	0.96091133
31	0x3f82b311	1.0210897

layers.2.bias f4 [32]
0	0xbbf35616	-0.0074260337
1	0xbd3f77d8	-0.04674515
2	0xbc922b8d	-0.017843032
3	0xbcae81a0	-0.021302044
4	0xbd4461c5	-0.047944803
5	0xbd6dd3c1	-0.058063272
6	0x3d5e71ab	0.05430762
7	0x3d06d49f	0.032917615
8	0x3ca99aaf	0.020703642
9	0x3d08329e	0.033251397
10	0xbc898f66	-0.01679201
11	0xbd064ef9	-0.032790158
12	0xbc8300cd	-0.015991593
13	0x3d221c33	0.039577674
14	0x3d13691b	0.03598891
15	0xbd1404df	-0.036137458
16	0xbcd69a08	-0.026196495
17	0xbc9d1759	-0.019176172
18	0x3d16a093	0.03677423
19	0xbc170822	-0.009218248
20	0xbd1db74a	-0.038504876
21	0xbd394bf3	-0.045238446
22	0xbc5ca29b	-0.013466503
23	0xbd354bbd	-0.044261683
24	0xbc819673	-0.01581881
25	0xbc6509e6	-0.013979411
26	0x3c4c4146	0.012466734
27	0xbcca5933	-0.024700737
28	0x3d2e316c	0.0425276
29	0xbd6cda49	-0.05782536
30	0x3c310248	0.010803767
31	0x3d321ecb	0.043486398

layers.2.running_mean f4 [32]
0	0x41694cb5	14.581227
1	0x40f66d63	7.700853
2	0x42807d62	64.24489
3	0x41b3b221	22.461977
4	0x3e9c860d	0.30571023
5	0x426d1a67	59.275784
6	0x3ec521d9	0.38502386
7	0x40b13e8e	5.538886
8	0x413149a6	11.080481
9	0x3ed8802b	0.42285284
10	0x419ae113	19.3599
11	0x4089a03d	4.3008103
12	0x400d223a	2.205214
13	0x416978ca	14.5919895
14	0x40041559	2.063803
15	0x414d2016	12.8203335
16	0x408df19e	4.4357443
17	0x423a51cd	46.579884
18	0x4126d1a1	10.426179
19	0x426763cd	57.84746
20	0x418018a2	16.012028
21	0x3fd161a7	1.6357926
22	0x42463f15	49.561604
23	0x3f032445	0.5122722
24	0x41dc086e	27.504116
25	0x40a18aee	5.048209
26	0x4224a7d4	41.163895
27	0x42347843	45.117443
28	0x3f04975f	0.51793474
29	0x42696a67	58.35391
30	0x3fb74eb3	1.4320892
31	0x3e9e34ee	0.30899757

layers.2.running_var f4 [32]
0	0x437a8dfa	250.5546
1	0x432b13b2	171.07693
2	0x45686b84	3718.7197
3	0x43f74935	494.57193
4	0x4135c26e	11.359968
5	0x453d9e31	3033.887
6	0x419f50c3	19.914434
7	0x43882da3	272.35654
8	0x4402ba97	522.91547
9	0x41acba83	21.59107
10	0x43eb06f8	470.05444
11	0x4366bb50	230.73169
12	0x4267e697	57.975185
13	0x440f6b43	573.67596
14	0x426301f8	56.751923
15	0x43440753	196.02861
16	0x426a0263	58.50233
17	0x45010cb4	2064.794
18	0x434a173b	202.09074
19	0x4546e71b	3182.444
20	0x4383f0f8	263.88257
21	0x42300c7f	44.012203
22	0x44e9f5f6	1871.6863
23	0x41861627	16.760817
24	0x442f0883	700.133
25	0x438a80c2	277.00592
26	0x44a4ed17	1319.409
27	0x44e1be60	1805.9492
28	0x42330ea8	44.764313
29	0x45471c53	3185.7703
30	0x4222acdf	40.66882
31	0x412dd0aa	10.863443

layers.4.weight f4 [64, 32, 2, 2]
0	0x3c852181	0.016251327
1	0x3d97cd05	0.07412151
2	0x3c8f7eed	0.017516578
3	0x3d0b6b53	0.0340379
4	0xbe04e146	-0.1297656
5	0xbdaef848	-0.0854345
6	0xbd9b1a44	-0.07573369
7	0x3d658267	0.056032564
8	0x3cb872a1	0.022515597
9	0x3d479aa0	0.048731446
10	0xbd6852ad	-0.05671947
11	0xbbe695b3	-0.0070368885
12	0xbd8e6cea	-0.069543675
13	0x3d9d1890	0.076707006
14	0x3c59f462	0.013302894
15	0xbb173bee	-0.0023076492
16	0xbbd40e4e	-0.006471432
17	0xbca5b445	-0.02022756
18	0xbccc6cb1	-0.024954172
19	0xbccf105c	-0.025276355
20	0xbd016d99	-0.03159866
21	0x3d2ecb94	0.042674616
22	0x3d9f75fc	0.077861756
23	0x3d26993b	0.040673476
24	0x3c24f4db	0.010068144
25	0x3dacf495	0.08445088
26	0x3beb63ad	0.007183513
27	0x3cd51eeb	0.02601572
28	0xbd674f41	-0.056472067
29	0x3c9f3426	0.019434046
30	0x3d155763	0.03646029
31	0xbdbd9312	-0.09256567
32	0x3bf29399	0.007402849
33	0xba0b8feb	-0.00053238746
34	0x3be57afb	0.007003186
35	0x3cf52dc7	0.029929055
36	0x3d219cd1	0.039456192
37	0x3d298854	0.04138978
38	0xbdbc7fa5	-0.09204034
39	0x3d26fccc	0.04076843
40	0x3d03034f	0.031985577
41	0xbd922858	-0.07136601
42	0xbcbc120b	-0.022957822
43	0xbd98b1cd	-0.07455788
44	0xbce85ee1	-0.028365554
45	0x3d2c7c86	0.042110942
46	0xbd21130f	-0.039324816
47	0xbd979c9e	-0.07402919
48	0xbd432f56	-0.047652565
49	0xbd735c29	-0.059414063
50	0x3c8da47f	0.017290352
51	0x3cca735b	0.024713209
52	0xbd0e983f	-0.034813162
53	0xbdb05b9b	-0.08611222
54	0xbd38fef6	-0.045165025
55	0x3d1a13df	0.037616607
56	0x3d8a10d0	0.06741488
57	0xbd6ac0d6	-0.05731281
58	0x3da3aff1	0.079925425
59	0x3c986834	0.018604375
60	0x3be57faf	0.0070037465
61	0xbd429afe	-0.047511093
62	0x3cbaf5d1	0.022822293
63	0x3c18a49a	0.009316588
64	0x3cf37ced	0.029722655
65	0xbda9abf7	-0.08284753
66	0x3d23879b	0.039924245
67	0x3d3cb71c	0.046073064
68	0xbd2a9a90	-0.04165131
69	0xbcc498d5	-0.023998657
70	0x3d24cf48	0.04023674
71	0xbdb5ae1c	-0.08871099
72	0xbd38cf91	-0.045119826
73	0x3d13e4c2	0.036106832
74	0x3d2bfb69	0.04198781
75	0xbbe785f5	-0.0070655295
76	0xbb5af336	-0.0033409125
77	0xbd237fa7	-0.03991666
78	0x3da41d4c	0.080134004
79	0x3d7dae3e	0.06193375
80	0xbbf2a0bd	-0.0074044154
81	0x3d261322	0.04054559
82	0xbcb2c01f	-0.021820126
83	0xbd08c891	-0.0333944
84	0x3d9e2023	0.07720973
85	0x3c7f2ea7	0.015575088
86	0xbd4fe4be	-0.050755255
87	0x3c317175	0.010830273
88	0xbcf45a6d	-0.029828275
89	0x3d32b965	0.043633837
90	0xbd44ea5a	-0.048075058
91	0xbd9309bf	-0.07179593
92	0x3d16509d	0.036697973
93	0xbd51be36	-0.05120679
94	0xbc112125	-0.008858
95	0xbc9bba32	-0.019009683
96	0xbd8b2f6e	-0.06796156
97	0xbc393041	-0.0113030085
98	0x3daf4fc5	0.08560137
99	0x3d9ba008	0.07598883
100	0xbcc2b45a	-0.023767639
101	0xbd1986ef	-0.0374822
102	0xbd3ad494	-0.045612887
103	0xbd67f054	-0.05662568
104	0xbd7ece87	-0.06220868
105	0x3da4eb83	0.08052733
106	0xbcf79f72	-0.030227397
107	0x3cef31ce	0.029198553
108	0x3dc626c0	0.0967536
109	0xbcfb0514	-0.03064207
110	0x3cdbe6d5	0.026843468
111	0xbd1c6360	-0.03818071
112	0x3d3e4a1f	0.046457406
113	0xbbe3555f	-0.0069376673
114	0xbda99797	-0.082808666
115	0x3ccd7d8d	0.025084281
116	0x3d4505a5	0.048101086
117	0x3cf094bf	0.029367803
118	0x3d68664a	0.056738175
119	0x3cc57026	0.024101328
120	0xbd522504	-0.051304832
121	0x3cbca3a9	0.023027258
122	0x3baf55ae	0.00535079
123	0x3d8c3ffd	0.06848142
124	0xbd959003	-0.07302859
125	0x3dbdcd17	0.092676334
126	0xbc4c4e9a	-0.012469912
127	0x3d281334	0.04103394
128	0xbd244f99	-0.040114973
129	0xbd1556d2	-0.03645975
130	0xbd8c95b6	-0.068644926
131	0xbdac0ef0	-0.084012866
132	0xbdc09cf0	-0.094049335
133	0xbca2ea4e	-0.019887116
134	0x3c8a2598	0.01686363
135	0xbc9bac73	-0.019003129
136	0xbd3f88f4	-0.046761468
137	0xbd98d77b	-0.07462975
138	0x3b5e728d	0.003394279
139	0x3cbec828	0.023288801
140	0x3d106972	0.03525681
141	0x3c121645	0.008916442
142	0xbd6a6f61	-0.057235125
143	0xbbd07f4b	-0.0063628308
144	0xbd054d3a	-0.032544352
145	0x3ccb365d	0.024806196
146	0x3d0bd237	0.034136023
147	0xbd593ccb	-0.053036492
148	0x3d512927	0.051064637
149	0x3d168f6b	0.036757868
150	0x3ce09c5a	0.027418304
151	0xbdb3b1d0	-0.087741494
152	0x3d31f341	0.043444876
153	0x3d962ddb	0.07332965
154	0x3da32a04	0.07966998
155	0xbd058ab2	-0.032602973
156	0xbd1dab11	-0.03849322
157	0xbd45f5d8	-0.048330158
158	0xbd8d680e	-0.069046125
159	0xbcf2a04a	-0.029617447
160	0x3dbde2dc	0.092717856
161	0x3d682132	0.056672283
162	0xbd32098c	-0.043466136
163	0x3d68f726	0.056876324
164	0x3ce8fd95	0.02844123
165	0xbda02b8c	-0.07820806
166	0xbd375ffe	-0.04476928
167	0xbd8716f1	-0.065961726
168	0xbd95f4d5	-0.07322089
169	0xbd8cab6b	-0.06868633
170	0xbd7cbc46	-0.06170299
171	0xbd188a22	-0.03724111
172	0xbd87d5c5	-0.0663257
173	0x3c84ae1d	0.016196305
174	0x3caa5958	0.020794556
175	0x3d1483ed	0.036258627
176	0xbd8fc1d9	-0.070193954
177	0x3cfd7ab0	0.030942291
178	0x3db5194d	0.08842716
179	0xbd2de2d4	-0.04245265
180	0xbc57f37a	-0.013180608
181	0x3ce98bff	0.028509138
182	0x3db9a764	0.0906513
183	0xbda0ffca	-0.07861288
184	0xbd5fecec	-0.054669306
185	0xbd5148d8	-0.05109486
186	0xbd5e3877	-0.054253068
187	0xbd889459	-0.0666892
188	0x3da78fb8	0.08181709
189	0xbd8ff120	-0.07028413
190	0xbcf94df5	-0.03043268
191	0xbdb369b8	-0.087603986
192	0xbd0a5794	-0.033774927
193	0xbd5d5121	-0.05403245
194	0x3d46d36d	0.048541475
195	0x3d2ab559	0.041676853
196	0xbde81706	-0.11332516
197	0xbdc42467	-0.09577256
198	0x3cd85dc8	0.026411906
199	0xbca7a4d9	-0.020464348
200	0xbd6871af	-0.056749042
201	0xbd83a5e5	-0.06428126
202	0x3cbfbc34	0.023405172
203	0xbd71d540	-0.05904126
204	0xbd45f0c9	-0.048325334
205	0xb9b5f3b2	-0.00034704577
206	0xbcf362da	-0.029710222
207	0xbd624cf5	-0.055249173
208	0x3cc959e4	0.024578996
209	0x3c96bc24	0.01840026
210	0x3d06664c	0.0328124
211	0x3b88b8eb	0.0041724346
212	0xbd986736	-0.07441561
213	0xbca923b2	-0.020646904
214	0x3d85855f	0.06519579
215	0x3c47a692	0.01218571
216	0x3d60651d	0.05478393
217	0xbc200031	-0.009765671
218	0xbd046969	-0.03232709
219	0xbdcf9571	-0.101359256
220	0xbdbc6846	-0.09199576
221	0xbd61a85a	-0.055092193
222	0x3d8ebc3c	0.069694966
223	0x3d0df495	0.03465708
224	0xbbe9536b	-0.00712054
225	0xbd963a92	-0.0733539
226	0xbd3ebced	-0.046566892
227	0xbd827a65	-0.06371001
228	0xbd92b931	-0.07164229
229	0xbcccd383	-0.0250032
230	0xbc61b2c9	-0.013775536
231	0xbc9ed824	-0.019390173
232	0xbd0143bd	-0.03155874
233	0xbd929209	-0.0715676
234	0x3d7ad7b0	0.061240852
235	0xbca4a875	-0.020099858
236	0xbce8f3cf	-0.02843657
237	0xbda2879f	-0.07936024
238	0xbdcc41f5	-0.09973518
239	0xbbcab96d	-0.0061866553
240	0x3d73d688	0.059530765
241	0x3cb0e1fb	0.02159213
242	0xbd8502cf	-0.06494676
243	0xbcc50ef9	-0.024054991
244	0xbd3721bd	-0.04470991
245	0x3c1defd8	0.009639703
246	0x3daa2abf	0.083089344
247	0xbd8dbcf7	-0.06920808
248	0xbd5247f9	-0.05133817
249	0xbce40687	-0.027835144
250	0x3c4707f2	0.01214789
251	0x3d44edc1	0.048078302
252	0x3d8095ac	0.06278548
253	0x3d7281ba	0.05920575
254	0x3d7e1fee	0.06204217
255	0x3a60d043	0.0008575955

layers.4.bias f4 [64]
0	0xba8f8717	-0.0010950294
1	0xbbf3dff3	-0.0074424683
2	0x3c4edb27	0.012625492
3	0xbdf1f238	-0.11813778
4	0x3ca5f392	0.020257745
5	0x3c0cea57	0.008600793
6	0x3d23564c	0.03987722
7	0x3d4d1822	0.050071843
8	0xbdc1b1f0	-0.09457767
9	0x3d253729	0.040335808
10	0xbd29d49f	-0.041462537
11	0x3d76f423	0.06029142
12	0xbdc3f048	-0.095673144
13	0xbd69e293	-0.057100844
14	0x3dafbe57	0.08581226
15	0xbcde678b	-0.027148983
16	0x3ce5dbda	0.028058935
17	0x3d56cfb2	0.052444167
18	0xbdf7ff64	-0.12109259
19	0xbdaabf55	-0.08337275
20	0xbb24876d	-0.0025105134
21	0xbdc39e7a	-0.095517114
22	0xbd6a22a1	-0.05716193
23	0xbd9957ab	-0.074874245
24	0xbdb4a184	-0.08819869
25	0x3d1642d1	0.036684815
26	0xbc0bb3f8	-0.008526795
27	0x3bb1063d	0.005402355
28	0x3c6c6c1f	0.014430075
29	0x3c2f70a7	0.010708011
30	0xbd484761	-0.048896197
31	0x3ca60766	0.0202672
32	0x3de2e2e8	0.11078435
33	0x3dcff3da	0.10153933
34	0xbc18dbe7	-0.009329773
35	0x3db31a2f	0.087452285
36	0x3c203035	0.009777118
37	0x3d08d144	0.033402696
38	0xbd8a0c2c	-0.06740603
39	0xbbcbdea0	-0.0062216073
40	0xbd056a87	-0.032572296
41	0xbcc6a1d4	-0.024247088
42	0x3d46773a	0.048453547
43	0x3cc5d923	0.02415139
44	0xbb7b459e	-0.0038341056
45	0xbd3e5e4c	-0.046476647
46	0xbd9d0da3	-0.076686166
47	0xbdd15e12	-0.102230206
48	0xbc82707d	-0.01592278
49	0x3e09b599	0.1344818
50	0xbc2795b9	-0.010228568
51	0x3cc59f36	0.02412377
52	0x3dee72dc	0.116430014
53	0xbba825bb	-0.005131451
54	0x3cba1937	0.022717101
55	0xbdd4b914	-0.10386863
56	0x3a811d6e	0.000985069
57	0xbce1dcf6	-0.027571183
58	0xbda2b0de	-0.07943891
59	0xbda54f83	-0.08071806
60	0x3a58fb97	0.0008277236
61	0x3d70ab9b	0.058757406
62	0xbc4d2ddd	-0.012523142
63	0x3d2216e7	0.039572623

layers.6.weight f4 [64]
0	0x3f7b5066	0.98169553
1	0x3f7c88fd	0.9864653
2	0x3f80c4fb	1.0060114
3	0x3f840ac3	1.0315784
4	0x3f814f9c	1.010242
5	0x3f7bbf3d	0.9833868
6	0x3f8065af	1.0031031
7	0x3f75daa9	0.96036774
8	0x3f83a43c	1.0284495
9	0x3f8350b9	1.025901
10	0x3f7d0de7	0.9884934
11	0x3f7c7a78	0.9862437
12	0x3f856f2a	1.042455
13	0x3f8783d0	1.0587101
14	0x3f784f97	0.96996444
15	0x3f7ea25e	0.994665
16	0x3f7ba11e	0.9829272
17	0x3f7d1b32	0.9886962
18	0x3f82a532	1.0206664
19	0x3f79cd5f	0.97578996
20	0x3f7b9b32	0.98283684
21	0x3f81faad	1.0154625
22	0x3f7e7851	0.9940234
23	0x3f817f37	1.0116948
24	0x3f81693d	1.0110241
25	0x3f7c9eb3	0.98679656
26	0x3f81876b	1.0119451
27	0x3f7d995b	0.99062127
28	0x3f81e060	1.0146599
29	0x3f7915ba	0.9729878
30	0x3f811dac	1.008718
31	0x3f7ffff7	0.99999946
32	0x3f7b60fd	0.9819487
33	0x3f7acd22	0.9796926
34	0x3f7b9677	0.98276466
35	0x3f7a4a05	0.97769195
36	0x3f7b98df	0.9828014
37	0x3f80dae0	1.0066795
38	0x3f820ce0	1.0160179
39	0x3f837d89	1.0272685
40	0x3f830ba7	1.0237931
41	0x3f7c378d	0.98522264
42	0x3f7b8c4d	0.98260957
43	0x3f7f115c	0.99635863
44	0x3f82332d	1.0171868
45	0x3f7ce9a5	0.98794013
46	0x3f79252a	0.9732233
47	0x3f78da2a	0.9720789
48	0x3f86a651	1.0519506
49	0x3f783229	0.9695154
50	0x3f7b637b	0.9819867
51	0x3f7cf734	0.988147
52	0x3f753abe	0.9579276
53	0x3f80d6be	1.0065534
54	0x3f78d94e	0.9720658
55	0x3f82c4de	1.0216329
56	0x3f791292	0.9729396
57	0x3f7865c2	0.9703027
58	0x3f791a63	0.9730589
59	0x3f7b0123	0.9804861
60	0x3f7df124	0.99196076
61	0x3f80e89c	1.0070987
62	0x3f80a870	1.0051403
63	0x3f815896	1.0105159

layers.6.bias f4 [64]
0	0xbd2f0f25	-0.042739052
1	0x3cff0bba	0.031133521
2	0x3c1fcc73	0.009753334
3	0xbc660431	-0.014039085
4	0x3d372598	0.044713587
5	0x3d2a5039	0.041580413
6	0xbc895cc4	-0.016767867
7	0x3d634274	0.055483297
8	0xbb9786b6	-0.004624213
9	0xbd5032cf	-0.050829705
10	0x3c341517	0.010991356
11	0x3d3d273d	0.04618
12	0xba8786c2	-0.0010339844
13	0x3d73558e	0.059407763
14	0x3c0df113	0.008663434
15	0x3d165c78	0.03670928
16	0x3ce577fb	0.028011313
17	0xbca19f5e	-0.019729313
18	0xbc50670b	-0.01271988
19	0x3d0a692f	0.033791717
20	0x3bf5c91d	0.007500781
21	0x3d32656f	0.043553766
22	0x3d18b191	0.037278716
23	0xbcf4d6b2	-0.029887531
24	0x3ce47eb9	0.027892457
25	0xbc2c7f7c	-0.0105284415
26	0x3cd8877f	0.026431797
27	0x3caa1a2d	0.020764435
28	0x3c827fdc	0.015930109
29	0x3ca3769a	0.019954015
30	0x3cec55fc	0.028849594
31	0xbb70d26f	-0.0036746522
32	0x3d07f60d	0.033193637
33	0x3d23de37	0.040006842
34	0xbb340119	-0.0027466475
35	0x3cbb0041	0.02282727
36	0x3b85541a	0.0040688636
37	0x3c88afd2	0.0166854
38	0x3ca14ba3	0.019689387
39	0x3c8a67f4	0.016895272
40	0x3d516fb0	0.051131904
41	0x3ce03967	0.027371122
42	0x3c208c98	0.009799145
43	0x3b96b8f8	0.0045996867
44	0xbbd3161b	-0.006441844
45	0xbcf87037	-0.030326946
46	0x3c818428	0.015810087
47	0x3d39117d	0.045182694
48	0x3d662ef1	0.05619711
49	0x3bc9c4e8	0.0061575063
50	0x3d45d2c4	0.048296705
51	0x3bb2c3da	0.005455476
52	0x3d31b876	0.043388806
53	0xbbb803df	-0.005615696
54	0x3c9b3519	0.018946217
55	0x3c788e04	0.015170578
56	0x3ccb49ac	0.024815403
57	0x3d08d217	0.033403482
58	0x3d3e656e	0.04648345
59	0x3d18b277	0.037279572
60	0x3c55ba2f	0.013044878
61	0x3bea0c54	0.007142583
62	0x3c4de3ab	0.012566487
63	0x3c681fec	0.014167767

layers.6.running_mean f4 [64]
0	0x3e34cb71	0.17655732
1	0x3f1cb654	0.6121571
2	0x3efbdbf6	0.49191254
3	0x3dec57f5	0.11540214
4	0x3e6bc46a	0.23024145
5	0x3ee82864	0.45343316
6	0x3e2f31b3	0.17108802
7	0x3ed98288	0.424824
8	0x3dacda97	0.0844013
9	0x3e7154b4	0.23567468
10	0x3e1a5327	0.15070783
11	0x3e5342ae	0.20630905
12	0x3dc4df8a	0.09612949
13	0x3d9715ea	0.07377227
14	0x3ea4bf1b	0.32177052
15	0x3f216b8a	0.63054717
16	0x3f093b9a	0.5360657
17	0x3f200d61	0.62520415
18	0x3dc02f39	0.09384007
19	0x3e7f9cd2	0.24962166
20	0x3ec44c20	0.3833933
21	0x3dcfa54a	0.10138948
22	0x3ef5192b	0.47870764
23	0x3e52cdfd	0.20586391
24	0x3ea7e6d6	0.327933
25	0x3e5b4286	0.21412095
26	0x3e45a496	0.19301066
27	0x3ec4fc2a	0.38473636
28	0x3e1678d5	0.14694531
29	0x3e9d3543	0.30704698
30	0x3e05b762	0.13058236
31	0x3e357a4d	0.17722435
32	0x3f0ca076	0.54932344
33	0x3f49e213	0.78860587
34	0x3e358a0c	0.17728442
35	0x3ecd69c7	0.40119764
36	0x3ea50c82	0.32236105
37	0x3e0c7e76	0.13720116
38	0x3e5e382b	0.21701114
39	0x3de36e4e	0.11105023
40	0x3e12acfe	0.14323804
41	0x3eadf86d	0.33978596
42	0x3f1f07f1	0.6212149
43	0x3e4a2d7f	0.19743918
44	0x3eac7cb8	0.33688903
45	0x3ec71353	0.3888193
46	0x3e928ad2	0.28621536
47	0x3e4747c6	0.19460973
48	0x3db001b8	0.08594078
49	0x3f00b9a1	0.5028325
50	0x3efd03ef	0.49417064
51	0x3e372e84	0.17888838
52	0x3e923013	0.28552303
53	0x3e52a1fd	0.20569606
54	0x3e8f894f	0.28034446
55	0x3eb538ba	0.3539484
56	0x3ec23ecc	0.37938535
57	0x3f68786a	0.9080874
58	0x3ebab4c5	0.3646604
59	0x3e926ede	0.2860021
60	0x3e163caa	0.14671579
61	0x3f4eeda4	0.8083136
62	0x3edd97aa	0.43279773
63	0x3e39c89a	0.1814293

layers.6.running_var f4 [64]
0	0x3e31c96e	0.17361996
1	0x3f27ab99	0.6549621
2	0x3f5ea983	0.86977404
3	0x3e893699	0.26799467
4	0x3e5bebe8	0.2147671
5	0x3ebc7bb2	0.36813122
6	0x3e23a2e0	0.159801
7	0x3e915a8c	0.28389394
8	0x3e3c321f	0.18378495
9	0x3eeb5504	0.459633
10	0x3d97c522	0.07410647
11	0x3e60b9fc	0.21945947
12	0x3e86a50a	0.2629779
13	0x3d53b939	0.051690314
14	0x3e458878	0.1929034
15	0x3f58061d	0.8438433
16	0x3effef34	0.49987185
17	0x3f0e8963	0.55678385
18	0x3e530083	0.20605664
19	0x3f58e768	0.847281
20	0x3e7560e9	0.2396275
21	0x3e526a77	0.20548426
22	0x3f95a343	1.1690449
23	0x3e7360a4	0.23767334
24	0x3f7caa73	0.98697585
25	0x3dcdb9ea	0.10045226
26	0x3e09b0fa	0.13446417
27	0x3eff0a8f	0.49812743
28	0x3ea1be5a	0.3159054
29	0x3ef71ce9	0.48264244
30	0x3e2f4483	0.17115979
31	0x3e41d30a	0.18928161
32	0x3f00bb0f	0.5028543
33	0x3f7e8053	0.9941456
34	0x3e725cdc	0.23668236
35	0x3f53c0e8	0.82716227
36	0x3f2e5681	0.68100744
37	0x3dfb2ffe	0.12265013
38	0x3eda2be7	0.4261162
39	0x3d75dede	0.060026996
40	0x3e936853	0.2879053
41	0x3ebcda5d	0.36885348
42	0x3f14be98	0.58103323
43	0x3e625853	0.22104006
44	0x3f1fcd0f	0.6242227
45	0x3f520680	0.8204117
46	0x3e6fc5f6	0.2341536
47	0x3e187b73	0.14890842
48	0x3d858bd7	0.06520813
49	0x3edf5ee9	0.43627098
50	0x3ebc0ac8	0.36726975
51	0x3e3a5ef7	0.18200289
52	0x3ec68b65	0.38778225
53	0x3e5c3b8e	0.21507093
54	0x3f02464f	0.5088853
55	0x3eb9a4ee	0.36258644
56	0x3e8b405e	0.27197546
57	0x3f69f147	0.91383785
58	0x3edcd9e8	0.43135
59	0x3ee6473b	0.4497622
60	0x3e0aa1d8	0.13538301
61	0x3f9dd089	1.2329265
62	0x3f3750e1	0.71607786
63	0x3e9a8d13	0.30185756

layers.8.weight f4 [64, 64, 2, 2]
0	0xbd35c0a0	-0.044373155
1	0x3cee1a5a	0.0290653
2	0xbcffd489	-0.031229274
3	0xbd795c72	-0.06087918
4	0xbd010c99	-0.031506155
5	0x3d147861	0.036247615
6	0x3d250c4b	0.040294927
7	0xbd07a944	-0.03312041
8	0x3b8e4fca	0.0043430077
9	0x3d684189	0.056703124
10	0xbd1f2ea3	-0.038862836
11	0xbcdcca72	-0.026952002
12	0xbc18c3f4	-0.009324063
13	0x3d8fd0b2	0.07022227
14	0x3ce26682	0.02763677
15	0xbd15d133	-0.03657646
16	0xbcd321ba	-0.025772918
17	0x3bd12ad1	0.006383278
18	0x3d6b9e3f	0.057523962
19	0x3d12ddbb	0.03585599
20	0xbd0e57b8	-0.034751624
21	0x3da8c22b	0.082401596
22	0x3ce89e96	0.028395932
23	0x3c77f5fc	0.015134331
24	0xbd0469b9	-0.032327387
25	0x3c17f3be	0.009274421
26	0xbd053731	-0.032523338
27	0x3c8c7708	0.017146602
28	0x3c8deeda	0.017325807
29	0xbbc939a2	-0.0061409036
30	0x3d29eea5	0.041487355
31	0x3c719f9a	0.014747525
32	0xbbdc29a3	-0.0067188307
33	0xbcba3525	-0.02273042
34	0x3d8f761d	0.0700495
35	0x3cfdbd09	0.030973928
36	0xbd1081a6	-0.035279892
37	0xbd79b42a	-0.060962833
38	0x3cb69da7	0.022291971
39	0xbd220a49	-0.03956059
40	0x3d186e7e	0.03721475
41	0xbcc9ca95	-0.024632731
42	0x3bf6c2d2	0.0075305486
43	0x3cce1a8b	0.025159141
44	0xbb65e467	-0.0035078765
45	0xba942796	-0.0011303301
46	0xbca10b78	-0.019658789
47	0xbc1a3570	-0.009412155
48	0x3b92471c	0.0044640433
49	0x3d0ba44a	0.034092225
50	0xbc3e0ce4	-0.011599753
51	0x3bf09b85	0.007342758
52	0xbc9df7a5	-0.019283125
53	0x3d474cf9	0.04865739
54	0xbcc617c0	-0.024181247
55	0xbc71935b	-0.014744605
56	0x3ccaca50	0.024754673
57	0xbccc81c7	-0.024964226
58	0x3d2525f0	0.040319383
59	0x3c9071ea	0.017632443
60	0x3c51c771	0.012803898
61	0x3db33a98	0.0875141
62	0xbc12bfa9	-0.008956828
63	0xbc0ad859	-0.008474433
64	0xbda21845	-0.07914785
65	0xbcdb4573	-0.026766514
66	0xbd2ffe7a	-0.042967297
67	0x3d002408	0.031284362
68	0x3c9efdbd	0.019408101
69	0x3c9b25ef	0.018938987
70	0x3c65bf74	0.014022697
71	0xbd434216	-0.047670446
72	0xbd7d6c06	-0.061870597
73	0xbd16d711	-0.036826197
74	0x3cfca142	0.030838612
75	0xb9e7a48d	-0.00044182353
76	0x3ca54ee8	0.020179227
77	0x3caecc4e	0.021337654
78	0xbcd771b7	-0.02629934
79	0x3a63ffc4	0.0008697475
80	0xbd491650	-0.049093544
81	0x3c1b2f8d	0.009471786
82	0xbcc5edc1	-0.024161221
83	0xbcd5ef0d	-0.026114965
84	0x3d075eea	0.0330495
85	0xbc1f358f	-0.009717359
86	0xbcf9f716	-0.030513328
87	0xbb74ca71	-0.003735211
88	0xbc119541	-0.008885683
89	0xbd3edb0f	-0.04659563
90	0x3ce57439	0.02800952
91	0x3c38576a	0.01125131
92	0xbd8903a9	-0.06690151
93	0xbd2ced80	-0.042218685
94	0xbc987968	-0.018612579
95	0x3bc1f079	0.005918559
96	0xbcdfd092	-0.027321134
97	0xbd863559	-0.06553144
98	0x3cafcca7	0.02145989
99	0x3d18e31d	0.037325967
100	0x3d0316b4	0.032004073
101	0x3d8c0506	0.06836896
102	0xbccc0976	-0.024906855
103	0x3cf47fe2	0.029846136
104	0x3d7de3e0	0.061984897
105	0x3cba24a8	0.022722557
106	0x3d783dc6	0.060605787
107	0x3cb4383c	0.02199947
108	0x3d2ab005	0.04167177
109	0x3d679c09	0.05654529
110	0xbc828dc5	-0.015936742
111	0x3d7474a8	0.059681565
112	0xbd5a6a90	-0.053324282
113	0x3c9a234d	0.01881566
114	0x3cbbcd9f	0.022925196
115	0x3a94beb0	0.0011348333
116	0xbcd20db1	-0.025641294
117	0xbd518c4b	-0.051159184
118	0x3b98ecbe	0.0046668937
119	0xbd0e3c6e	-0.0347256
120	0xbc975f10	-0.018477947
121	0xbd1c5dab	-0.038175266
122	0x3d1517e7	0.03639975
123	0xbd15df51	-0.036589924
124	0x3d4cc464	0.04999198
125	0xbd0216c7	-0.031760003
126	0xbc7bedd8	-0.015376531
127	0x3ccdf588	0.025141492
128	0x3b2d5fba	0.0026454763
129	0xbce7573d	-0.02823984
130	0xbc07cc46	-0.008288449
131	0xbb061005	-0.0020456326
132	0xbcf9fe95	-0.030516902
133	0x3d9f2688	0.07771021
134	0xbd1be2fa	-0.03805826
135	0x3d10ee2c	0.03538339
136	0xbd0691ed	-0.03285401
137	0xbd3a3410	-0.045459807
138	0xbd2da5ff	-0.042394634
139	0xbd42ff69	-0.04760686
140	0x3ce2a5f4	0.027667023
141	0xbc1b2729	-0.009469786
142	0x3c382211	0.011238591
143	0x3caad33b	0.020852676
144	0x3cfbfbeb	0.030759772
145	0x3cad1130	0.02112636
146	0xbc2b165b	-0.010442342
147	0x3cdfd131	0.02732143
148	0xbd005cb1	-0.031338397
149	0x3daeccf3	0.08535185
150	0xbc767b6d	-0.015044075
151	0x3cad60f3	0.021164393
152	0xbd16c95d	-0.03681313
153	0x3c5f5779	0.013631695
154	0xbccf7706	-0.02532531
155	0x3c88f067	0.016716195
156	0xbbb7fb93	-0.005614707
157	0x3d940c06	0.07228856
158	0xbb87edf2	-0.0041482383
159	0xbd1265e5	-0.035741705
160	0xbcca61d7	-0.024704857
161	0xbbc9ac7d	-0.0061545954
162	0x3d5653e0	0.052326083
163	0x3d4ee970	0.050515592
164	0x3cbe91f3	0.023262953
165	0xbd2448f9	-0.040108655
166	0x3c7eb8c4	0.015546981
167	0xbbd3f2bb	-0.0064681447
168	0x3d56ed26	0.052472256
169	0x3d400d1e	0.04688751
170	0x3cc2219d	0.023697669
171	0x3d4d52ef	0.05012792
172	0x3bfc9e89	0.0077093286
173	0xbc6bca91	-0.014391557
174	0xb99e14f1	-0.0003015171
175	0xbcdc3f53	-0.026885664
176	0xbd533dde	-0.051572673
177	0x3d92f74c	0.071760744
178	0x3d33b3ea	0.04387275
179	0xbc9dee5b	-0.019278696
180	0xbd29e0d2	-0.04147417
181	0x3d0631db	0.03276239
182	0xbc0e8def	-0.008700832
183	0xbd3adc95	-0.04562052
184	0xbb874c49	-0.004128967
185	0x3d1e7a02	0.038690574
186	0xbbab0a1f	-0.0052197124
187	0x3cd68e56	0.026190918
188	0x3cf0ae40	0.029379964
189	0x3c9e5efb	0.0193324
190	0xbc9af074	-0.018913485
191	0x3cf67092	0.030082975
192	0x3bf5c12a	0.0074998336
193	0xbc538dad	-0.012912196
194	0xbd039a3a	-0.032129504
195	0x3d02b40a	0.03190998
196	0xbb4807a6	-0.0030522137
197	0x3b929a69	0.0044739735
198	0xbb6f7283	-0.003653676
199	0xbd0db02e	-0.034591846
200	0xbc9acdb5	-0.018896917
201	0x3b8677e9	0.00410365
202	0xbccca9e7	-0.02498336
203	0x3d3f1a33	0.046655845
204	0x3d4cb663	0.049978625
205	0xbc840f36	-0.016120534
206	0x3d01d439	0.031696532
207	0xbc0ffb33	-0.008787918
208	0xbcc33a56	-0.023831528
209	0x3c5333aa	0.012890736
210	0x3b8e5239	0.004343298
211	0x3d004d4a	0.03132371
212	0x3d14379f	0.036185857
213	0xbcb49ba2	-0.022046868
214	0x3d139f23	0.036040436
215	0xbb9ca1ae	-0.004780016
216	0xbd78244f	-0.0605815
217	0xbca32c50	-0.01991859
218	0xbc993d6e	-0.01870605
219	0x3c7b90a8	0.015354313
220	0xbd8bf451	-0.06833709
221	0xbced1c17	-0.028944058
222	0x3d0a861a	0.033819295
223	0x3c9c73ca	0.019098181
224	0x3d0388d3	0.032112908
225	0x3d86ed63	0.06588247
226	0x3d1bc0c6	0.03802564
227	0x3a32ee31	0.00068256544
228	0xbd18aa9d	-0.037272085
229	0xbd8ee23b	-0.06976744
230	0x3cc8d2ee	0.024514642
231	0xbc6f4f32	-0.014606284
232	0xbcc15ab4	-0.023602821
233	0xbcce3c09	-0.025175111
234	0x3d37dbce	0.044887356
235	0x3cb0c677	0.02157901
236	0xbd142bca	-0.036174573
237	0x3c910645	0.017703185
238	0xbce16508	-0.027513996
239	0xbc7f990c	-0.015600454
240	0xbd1153bf	-0.035480257
241	0x3bf8adc6	0.007589075
242	0x3d598ee6	0.053114794
243	0xbd1c2f26	-0.0381309
244	0x3cf2c2e9	0.029633956
245	0x3d951788	0.07279879
246	0x3d0003ed	0.031253744
247	0xbd62c9bc	-0.05536817
248	0x3c8cd414	0.01719097
249	0x3d50e74a	0.051001824
250	0xbb17f6cc	-0.0023187874
251	0xbcd423d9	-0.025896
252	0x3cff2455	0.031145254
253	0xbd18566e	-0.0371918
254	0x3a4237e1	0.00074088393
255	0x3d2b8b73	0.041881036

layers.8.bias f4 [64]
0	0xbacad304	-0.0015474265
1	0x3d0ed68a	0.03487257
2	0x3ca1ce22	0.019751612
3	0x3d35ce76	0.04438635
4	0xbd2d21f8	-0.042268723
5	0x3d7d10a7	0.06178346
6	0xbd7bba8f	-0.061457213
7	0x3cb73676	0.022364836
8	0x3d7a0e4e	0.0610488
9	0xbd12ca4f	-0.035837468
10	0xbd93a856	-0.07209842
11	0xbd9a3b5c	-0.07530853
12	0xbd01789c	-0.031609163
13	0x3dd581b7	0.10425132
14	0x3d9ff3ad	0.07810149
15	0xbcc3d11f	-0.023903428
16	0xbd7d0ffb	-0.06178282
17	0xbcf9c2ec	-0.030488454
18	0x3b6faef3	0.0036572784
19	0xbdbf8b63	-0.09352758
20	0x3b7b7aa6	0.0038372665
21	0x3c079b55	0.00827678
22	0xbd49c3c5	-0.049258966
23	0x3c293347	0.010327167
24	0x3cd9a376	0.026567202
25	0xbd8c5318	-0.068517864
26	0x3cdab7af	0.026698915
27	0x3ac665dc	0.0015136558
28	0xbda56724	-0.08076313
29	0xbdd5cd3a	-0.104395345
30	0xbd2e615f	-0.04257333
31	0x3d55431e	0.05206596
32	0xbd852401	-0.06501008
33	0x3cdb5726	0.026774954
34	0x3ac52175	0.0015039878
35	0xbd3453c7	-0.04402521
36	0xbcb44b2d	-0.022008503
37	0xbd55b730	-0.052176654
38	0xbcdf5476	-0.027261954
39	0x3ce87f99	0.028381156
40	0xbd3e84a5	-0.04651322
41	0xbd809064	-0.0627754
42	0xbd986a3b	-0.07442137
43	0xbce798fc	-0.02827119
44	0xbd1f47ff	-0.03888702
45	0xbd7cf24e	-0.061754517
46	0x3b3cf450	0.0028832145
47	0x3a75aedc	0.00093720644
48	0x3aeeb6e2	0.0018212462
49	0xbd0159cf	-0.03157979
50	0xbd2ae58b	-0.041722815
51	0xbd29b9fd	-0.041437138
52	0xbd10e845	-0.03537776
53	0xbcb07f05	-0.021544943
54	0xbc568573	-0.01309334
55	0xbd7795ef	-0.060445722
56	0x3cdca3ec	0.026933633
57	0x3d117f5c	0.03552185
58	0x3da53a88	0.080678046
59	0xbd4679c7	-0.04845598
60	0xbd5637c7	-0.052299287
61	0x3cf73a02	0.030179027
62	0xbd8b77ce	-0.0680996
63	0x3b45b10f	0.003016535

layers.10.weight f4 [64]
0	0x3f8fe594	1.1241937
1	0x3f8feed3	1.1244758
2	0x3f8dc8a8	1.107686
3	0x3f8fcbab	1.123403
4	0x3f8f7394	1.1207147
5	0x3f8fb93c	1.1228404
6	0x3f8f5cb3	1.1200165
7	0x3f8f8253	1.1211647
8	0x3f8fb84e	1.122812
9	0x3f8f6016	1.1201198
10	0x3f8f287c	1.118423
11	0x3f8f81e4	1.1211514
12	0x3f8f885d	1.121349
13	0x3f8ffd05	1.124909
14	0x3f900cad	1.1253868
15	0x3f903c12	1.1268332
16	0x3f90553d	1.1276013
17	0x3f906e97	1.1283749
18	0x3f8fa887	1.1223305
19	0x3f8f76a9	1.1208087
20	0x3f8fa342	1.1221697
21	0x3f8fcf9e	1.1235235
22	0x3f8fbdf9	1.122985
23	0x3f8eb470	1.1148815
24	0x3f9048b3	1.1272186
25	0x3f8f4cdc	1.1195331
26	0x3f8e3a8b	1.1111616
27	0x3f8fb9e4	1.1228604
28	0x3f8f3e30	1.1190853
29	0x3f8fd97c	1.1238246
30	0x3f8f7041	1.1206132
31	0x3f905450	1.127573
32	0x3f8f9e3f	1.1220168
33	0x3f906622	1.1281168
34	0x3f8f9f78	1.1220541
35	0x3f8fb003	1.122559
36	0x3f8d10df	1.1020774
37	0x3f8f69e1	1.1204187
38	0x3f8fbfb3	1.1230377
39	0x3f8fccc6	1.1234367
40	0x3f8fae42	1.1225054
41	0x3f8f7120	1.1206398
42	0x3f8f961b	1.1217684
43	0x3f8f635f	1.1202201
44	0x3f8f9d98	1.1219969
45	0x3f9037bc	1.1267009
46	0x3f8f21af	1.1182154
47	0x3f8fa1f9	1.1221305
48	0x3f9018b1	1.1257535
49	0x3f8f74ef	1.120756
50	0x3f8f3e53	1.1190895
51	0x3f8ff497	1.1246518
52	0x3f8f6e8f	1.1205615
53	0x3f8fcb69	1.1233951
54	0x3f8fee27	1.1244553
55	0x3f8fbf4e	1.1230257
56	0x3f8f3cda	1.1190445
57	0x3f8f3d5c	1.11906
58	0x3f8f627f	1.1201934
59	0x3f8e1aaf	1.1101893
60	0x3f900b88	1.1253519
61	0x3f90900a	1.1293957
62	0x3f8ead90	1.1146717
63	0x3f8fcf0b	1.123506

layers.10.bias f4 [64]
0	0x3ddf7440	0.10910845
1	0xbdf3bdf8	-0.11901468
2	0xbdcc8716	-0.09986703
3	0xbdee0212	-0.11621489
4	0x3ddbcd07	0.10732465
5	0x3df1f4a8	0.118142426
6	0x3dd936c7	0.10606151
7	0xbe0363ee	-0.12831089
8	0xbe00203f	-0.12512301
9	0x3dd20591	0.10254968
10	0xbd9e86f3	-0.07740583
11	0x3deff621	0.11716867
12	0x3e06442a	0.1311194
13	0x3dff3aa7	0.12462359
14	0xbdd83711	-0.10557378
15	0x3dc79584	0.09745315
16	0xbdc3c5b6	-0.09559195
17	0xbcdc49a0	-0.026890576
18	0x3df16f78	0.11788839
19	0x3dfab0ea	0.12240775
20	0x3df228f7	0.1182422
21	0xbdd1b6e9	-0.102399655
22	0xbdee3100	-0.1163044
23	0xbdf4b5dd	-0.1194875
24	0x3dea22e6	0.114324376
25	0x3ded72a2	0.1159413
26	0xbdfd854f	-0.12378942
27	0x3d1faea4	0.03898491
28	0x3ddd6b04	0.10811427
29	0x3df6a1af	0.120425574
30	0x3ddb8070	0.10717857
31	0xbdd89ee3	-0.1057718
32	0x3def4dd3	0.11684766
33	0xbdeaa68d	-0.11457548
34	0x3df1bffc	0.11804196
35	0x3df5c66b	0.12000736
36	0xbdf6a5e2	-0.120433584
37	0xbe005f81	-0.12536432
38	0x3ddf8cee	0.10915552
39	0x3da60bd3	0.08107724
40	0x3e043042	0.12909034
41	0x3df60e21	0.120144136
42	0x3dda7307	0.10666471
43	0xbdfb3eb3	-0.12267818
44	0x3dfc6526	0.1232398
45	0x3df603f0	0.1201247
46	0xbdf114f5	-0.11771575
47	0x3df82389	0.12116153
48	0xbdd5bf32	-0.10436858
49	0x3dd0b0ce	0.10189973
50	0xbde46037	-0.11151164
51	0xbe080076	-0.13281426
52	0x3e01531c	0.1262936
53	0x3df2fd9a	0.11864777
54	0x3de10ee6	0.1098917
55	0x3df91f11	0.121641286
56	0xbe02f5f1	-0.12789132
57	0xbe0a9ac6	-0.13535604
58	0xbdfdf680	-0.12400532
59	0xbdf9a2f0	-0.12189281
60	0x3d9ee499	0.07758445
61	0xbe058fef	-0.13043188
62	0xbe07edd5	-0.1327432
63	0x3df80052	0.12109436

layers.10.running_mean f4 [64]
0	0x3f2eab75	0.6823037
1	0x3f48a18f	0.7837152
2	0x3f6f0979	0.9337383
3	0x3f55cbd4	0.8351414
4	0x3f1358db	0.5755746
5	0x3dab86ad	0.08375297
6	0x3e8c53bf	0.27407643
7	0x3e8f8100	0.28028107
8	0x3f6e7016	0.9313978
9	0x3f2ef1ee	0.68337905
10	0x3f1ec8f2	0.6202537
11	0x3ee10a85	0.43953338
12	0x3df4e90a	0.11958511
13	0x3f37ec1d	0.71844655
14	0x3fa5dd5d	1.295818
15	0x3d14dab1	0.036341373
16	0x3f7bfb8a	0.98430693
17	0x3d068ee0	0.0328511
18	0x3de4a282	0.111638084
19	0x3ef3a29e	0.47585005
20	0x3dc3c122	0.095583215
21	0x3f1e1156	0.617452
22	0x3f449a86	0.76798284
23	0x3f3cdd71	0.7377539
24	0x3e3a1e5e	0.18175647
25	0x3ecb6232	0.39723355
26	0x3f11f98d	0.5702141
27	0x3f7fbc19	0.9989639
28	0x3e5d9c16	0.21641573
29	0x3f13449d	0.5752657
30	0x3e18dd63	0.14928202
31	0x3faeb3ad	1.3648583
32	0x3ef435ce	0.476973
33	0x3f727b81	0.947197
34	0x3dc39b79	0.095511384
35	0x3ec4fada	0.38472635
36	0x3ebc4630	0.367723
37	0x3f2cdf52	0.6752826
38	0x3ec18d6f	0.37803218
39	0x3fbeffeb	1.492185
40	0x3d6b77d8	0.05748734
41	0x3ecf0f8b	0.40441546
42	0x3f78d5c9	0.9720121
43	0x3f78300d	0.9694832
44	0x3e415dbe	0.18883416
45	0x3ebf6d40	0.3738804
46	0x3f183ed5	0.59470874
47	0x3dcfafbd	0.10140941
48	0x3f6cda16	0.9252027
49	0x3f35ea75	0.7106088
50	0x3f25782a	0.6463648
51	0x3f67c9fa	0.90542567
52	0x3d7f2a30	0.062296093
53	0x3dad5094	0.08462635
54	0x3e9fccce	0.3121094
55	0x3f09c45f	0.53815264
56	0x3ef11f36	0.47094125
57	0x3f107815	0.5643323
58	0x3f3ea907	0.74476665
59	0x3f355f2c	0.70848346
60	0x3d1a9481	0.03773928
61	0x3f7eee16	0.9958204
62	0x3edc4664	0.43022454
63	0x3f023ad6	0.50871027

layers.10.running_var f4 [64]
0	0x3fe0e4be	1.7569807
1	0x3ff79ed8	1.934535
2	0x403c001e	2.9375072
3	0x40331fb7	2.7988107
4	0x3fc5230f	1.5401324
5	0x3d1e88ba	0.03870461
6	0x3f51d99b	0.81972665
7	0x3f2c6cf6	0.6735376
8	0x4054604c	3.3183775
9	0x3fcd2035	1.6025454
10	0x40328e4e	2.7899356
11	0x3fb966fa	1.4484551
12	0x3d63504b	0.055496495
13	0x3fb86928	1.4407091
14	0x4085703a	4.1699495
15	0x3be03421	0.0068421517
16	0x407ea2d6	3.9786887
17	0x3c94c7da	0.018161703
18	0x3db71750	0.089399934
19	0x3fc43113	1.5327476
20	0x3d8c38bf	0.06846761
21	0x3fd51976	1.6648395
22	0x3f8b76e4	1.0895658
23	0x401940be	2.3945765
24	0x3ec13a4a	0.37739784
25	0x3f9585d6	1.1681468
26	0x3fc3a74d	1.5285431
27	0x40621ca7	3.5329988
28	0x3f076519	0.5288864
29	0x401dd7af	2.4662893
30	0x3e8887b1	0.26666024
31	0x4092ef72	4.591729
32	0x3fdce884	1.7258458
33	0x40468cab	3.1023357
34	0x3d1135db	0.03545175
35	0x3f839a71	1.0281507
36	0x3eaa8f01	0.33312228
37	0x4043f8ac	3.0620527
38	0x3f89bf28	1.0761461
39	0x40ca8113	6.328256
40	0x3d9cd8eb	0.07658561
41	0x3f9cc8a0	1.2248726
42	0x4083b053	4.115274
43	0x4059164a	3.3919854
44	0x3e3dfedb	0.18554251
45	0x3f82a2d4	1.0205941
46	0x3faa7597	1.3317136
47	0x3d819637	0.06327479
48	0x4009a1d8	2.1505032
49	0x402ecbb8	2.731184
50	0x401f4002	2.4882817
51	0x404dfcef	3.2185628
52	0x3d62e2e7	0.055392172
53	0x3d0849f4	0.033273652
54	0x3f7b99b3	0.982814
55	0x3fbb23fb	1.4620355
56	0x3f9e0412	1.2344992
57	0x3fe8d786	1.8190773
58	0x3fd71c9c	1.6805606
59	0x4024102f	2.5634878
60	0x3bb2cf81	0.0054568653
61	0x40626bab	3.5378215
62	0x3f9b1a79	1.2117454
63	0x3fb19bd6	1.3875682

actor_classifier.weight f4 [15, 256]
0	0xbd52cceb	-0.051464956
1	0x3d624173	0.0552382
2	0xbd62b0e2	-0.05534447
3	0x3d88560b	0.066570364
4	0x3d723857	0.05913576
5	0x3d530bb3	0.05152483
6	0xbd3addcc	-0.04562168
7	0xbb73b313	-0.0037185594
8	0xbd2b4d7c	-0.04182194
9	0xbc7a60cb	-0.015281866
10	0xbd6ac52e	-0.05731695
11	0xbcab502a	-0.020912249
12	0xbb4d28f5	-0.003130493
13	0x3cf95c81	0.030439617
14	0x3d522ff4	0.051315263
15	0xbd124510	-0.035710394
16	0xbc3a81cb	-0.011383484
17	0xbca18116	-0.019714873
18	0xbc94b1c1	-0.018151166
19	0x3d02bdd4	0.031919315
20	0xbcbfe15e	-0.023422893
21	0x3d1855c3	0.037191164
22	0xbd343682	-0.043997295
23	0x3d53c40a	0.05170063
24	0xbcea173d	-0.028575534
25	0x3c418455	0.011811336
26	0x3d795895	0.060875494
27	0xbd7ea639	-0.06217024
28	0x3c95ad90	0.018271238
29	0x3d27356b	0.040822428
30	0x3bdace76	0.006677444
31	0xbd0563a7	-0.03256574
32	0x3d2a6939	0.041604254
33	0x3c550db3	0.013003754
34	0xbc2a8a01	-0.010408879
35	0x3c340993	0.010988611
36	0x3d57d13b	0.052689772
37	0xbd0474f4	-0.032338098
38	0xbd3c03d6	-0.045902096
39	0x3d73a738	0.059485644
40	0xbcdbfec1	-0.026854875
41	0xbc8ff33c	-0.017572038
42	0x3d0295ee	0.031881265
43	0xbd472a6d	-0.048624445
44	0x3cd7fceb	0.026365718
45	0x3cfcc322	0.030854765
46	0xbd3202cf	-0.04345971
47	0xbd13218c	-0.035920665
48	0x3cd7cc78	0.026342615
49	0x3d3a7f7a	0.045531727
50	0xbd477a38	-0.04870054
51	0xbb2b3096	-0.0026121489
52	0x3c855540	0.016276002
53	0x3d2c09a8	0.042001396
54	0x3aa49b4c	0.0012558489
55	0xbd45e36f	-0.0483126
56	0x3d8dced0	0.06924212
57	0xbc248baf	-0.010043069
58	0xbd62f0d8	-0.055405468
59	0xbbac4a6b	-0.0052578948
60	0xbd28a3e0	-0.04117191
61	0x3d06499f	0.032785054
62	0x3c8a41ca	0.016877074
63	0xbbfa213c	-0.0076333564
64	0xbd42cf2d	-0.04756086
65	0xbd04eca6	-0.032452248
66	0x3c90fdbf	0.01769912
67	0xbc4178d3	-0.011808592
68	0x3d54ac8d	0.05192237
69	0x3d09f9a3	0.033685338
70	0xbd78f75d	-0.06078278
71	0x3b981380	0.0046409965
72	0x3bde3b44	0.0067819674
73	0x3d2e50ed	0.042557646
74	0xbcf5bb59	-0.02999656
75	0x3cc2f397	0.023797793
76	0x3d664148	0.0562146
77	0xbd46ddf7	-0.048551526
78	0x3d17e4e3	0.037083518
79	0xbccac21a	-0.024750758
80	0x3d4aa5f5	0.049474675
81	0xbb42e901	-0.0029740932
82	0x3d3790f4	0.044815972
83	0x3d444baf	0.04792374
84	0xbcf3b9e4	-0.029751725
85	0xbd137424	-0.035999432
86	0x3d349251	0.04408485
87	0xbd3b99de	-0.045801036
88	0x3d934aa5	0.07191972
89	0x3af44ee7	0.0018639237
90	0xba853577	-0.0010163028
91	0xbcd35cf4	-0.02580116
92	0xbcb06af2	-0.02153537
93	0x3d060aa3	0.032724988
94	0xbd02fdcf	-0.031980332
95	0x3c1874cd	0.009305191
96	0xbd45faee	-0.04833501
97	0x3c1ee53b	0.0096982075
98	0xbd36ca03	-0.044626247
99	0x3d16ae0f	0.03678709
100	0xbc246cce	-0.010035707
101	0x3ca144f1	0.019686194
102	0xbcdda945	-0.027058253
103	0x3d4a7af7	0.049433675
104	0xbd1c7ef5	-0.038207013
105	0xbbe7945e	-0.0070672473
106	0xbbc12d9b	-0.005895329
107	0xbd196f9d	-0.03745996
108	0x3d5fbf26	0.054625653
109	0xbd51f142	-0.051255472
110	0x3d8ae91d	0.06782744
111	0xbd34ce29	-0.044141922
112	0xbc0b5f5e	-0.008506624
113	0xbd451e9b	-0.04812489
114	0xbd458e11	-0.04823119
115	0xbd717161	-0.058946017
116	0x3d8f86b5	0.07008115
117	0x3c84a828	0.016193464
118	0xbce04557	-0.027376814
119	0xbd5e25a7	-0.054235127
120	0xbd14ed62	-0.0363592
121	0x3c5ee5dc	0.013604607
122	0xbd68368f	-0.056692656
123	0xbc11710f	-0.008877053
124	0xbac45662	-0.0014979357
125	0x3c705359	0.014668309
126	0x3d8112dc	0.06302425
127	0x3d4bfdeb	0.049802702
128	0x3c8de72f	0.017322151
129	0x3bdd6b29	0.0067571593
130	0x3d4dec89	0.050274406
131	0x3b4e4388	0.0031473357
132	0x3cb545c1	0.022127988
133	0xbb4a5c92	-0.003087793
134	0x3d196693	0.037451338
135	0xbd7394bd	-0.05946802
136	0xbd36f517	-0.04466733
137	0xbc1079ce	-0.008818103
138	0x3d2c7fb0	0.04211396
139	0xbcccfb6d	-0.025022233
140	0xbd30f0cc	-0.04319839
141	0xbca50aa8	-0.020146683
142	0xbccefc42	-0.02526677
143	0x3c593adc	0.013258662
144	0xbaf14732	-0.0018408059
145	0xbd12c224	-0.03582968
146	0xbcc56a2f	-0.024098484
147	0xbc8a953a	-0.01691686
148	0xbcdcadcc	-0.026938342
149	0x3c98f722	0.01867253
150	0x3ca9870d	0.02069428
151	0x3b1fa4bd	0.0024359666
152	0x3d3e57a3	0.046470296
153	0xbba5ae8e	-0.005056209
154	0xbc61d064	-0.013782594
155	0xbd165886	-0.036705516
156	0x3d7ed714	0.062216833
157	0x3bb47fa4	0.00550838
158	0xbd41530a	-0.047198333
159	0xbd32ec1b	-0.0436822
160	0x3d29cb42	0.041453607
161	0x3d0c5fac	0.034270927
162	0x3d2536f7	0.04033562
163	0x3d2ada21	0.04171193
164	0xbd6ac488	-0.057316333
165	0xbd7e2b40	-0.062052965
166	0x3d3ffd70	0.046872556
167	0xbd65ed41	-0.056134466
168	0x3d29126e	0.04127734
169	0xbcbd62dd	-0.02311843
170	0x3d86da01	0.0658455
171	0xbccf112e	-0.025276747
172	0x3d72733b	0.059191924
173	0x3d3719dc	0.044702396
174	0x3d59ef9f	0.053207036
175	0x3c5c184e	0.013433529
176	0x3c9939cf	0.018704323
177	0x3d4c3547	0.049855497
178	0xbd29e6ba	-0.041479804
179	0xbc5b92bd	-0.013401684
180	0x3d567693	0.052359175
181	0xbcfa2591	-0.030535491
182	0xbc825dba	-0.015913833
183	0x3d131128	0.035905033
184	0xbcb19970	-0.02167961
185	0xbca3861b	-0.019961407
186	0x3d0e08da	0.03467641
187	0x3d06aa76	0.032877408
188	0xbd223cd4	-0.03960879
189	0xbd53643e	-0.05160927
190	0x3d0d4e81	0.034498695
191	0xbcc7aadc	-0.024373464
192	0xbcdd80d4	-0.02703897
193	0x3d4812cd	0.048846055
194	0x3d53d94d	0.051720906
195	0x3d075588	0.033040553
196	0xbd0373ca	-0.032092847
197	0x3bcda41d	0.0062756673
198	0x3d232103	0.039826404
199	0x3d313e22	0.043272145
200	0x3ced6ca9	0.028982477
201	0xbd33396e	-0.04375594
202	0x3ceca067	0.02888508
203	0x3ab7d1eb	0.0014024352
204	0xbc317fbc	-0.010833677
205	0x3c7874bf	0.015164553
206	0x3c257dae	0.010100765
207	0xbd7a7fde	-0.0611571
208	0xbd5c317d	-0.053758133
209	0x3cbe20a7	0.02320893
210	0xbd33431e	-0.04376518
211	0xbd667a21	-0.056268815
212	0xbce791ff	-0.028267859
213	0xbd279261	-0.040911082
214	0x3d0693fc	0.032855973
215	0x3c579c77	0.013159863
216	0xbba11fdc	-0.004917128
217	0xbd8358f6	-0.06413452
218	0xbcb53510	-0.022120029
219	0x3d2b9b1d	0.041895974
220	0x3c9c0ea1	0.019049944
221	0x3d36a576	0.04459139
222	0x3bce039c	0.0062870514
223	0x3b9f633e	0.0048641255
224	0xbc72f032	-0.014827775
225	0x3bdbc9c8	0.006707404
226	0xbd5cca0c	-0.053903624
227	0x3ceae914	0.028675593
228	0x3c16669f	0.00917974
229	0x3d8630df	0.0655229
230	0x3ce14958	0.027500793
231	0xbd63e66e	-0.055639677
232	0x3d15fdb6	0.03661891
233	0xba89e14c	-0.0010519414
234	0xbc579877	-0.013158909
235	0x3c346d27	0.011012352
236	0x3d5800d0	0.05273515
237	0xbb0e6bcf	-0.002173174
238	0xbd278c20	-0.040905118
239	0x3cb67f30	0.022277445
240	0x3c31f51f	0.010861664
241	0xbd07ba91	-0.033136908
242	0xbcdf91d5	-0.027291218
243	0xbc2f3f28	-0.01069621
244	0xbd595ec7	-0.053068902
245	0xbc9c73d2	-0.019098196
246	0xbd53650a	-0.05161003
247	0x3d2a38a9	0.04155794
248	0xbd67e142	-0.056611307
249	0xbd689862	-0.05678595
250	0xbd42c0cf	-0.047547158
251	0xbd43fc0d	-0.047847796
252	0x3cb10f06	0.021613609
253	0xbd7ad894	-0.0612417
254	0x3cda8637	0.026675327
255	0x3d2874d8	0.041127056

actor_classifier.bias f4 [15]
0	0x3d590694	0.05298479
1	0x3c59609a	0.0132676605
2	0xbc15d00a	-0.009143839
3	0xbb20401c	-0.0024452275
4	0x3d1b61d3	0.03793509
5	0x3d02a516	0.03189572
6	0xbcd7d00e	-0.026344325
7	0xbd0e42cb	-0.034731667
8	0xbd298eed	-0.04139607
9	0x3d195b0e	0.037440352
10	0x3d624384	0.05524017
11	0xbcb1bb7c	-0.021695845
12	0x3d24f29d	0.040270437
13	0xbd0792c6	-0.03309896
14	0x3b2951bd	0.0025836073
