Saved Models/model_checkpoint_bigfish_42_0.0001_1600_6_256_0.99_0.95_0.2_1024_0.5_background.pth (torch, 153140 bytes, 21 tensors)

layers.0.weight f4 [32, 3, 8, 8]
00000000: bb26 edbc 874d a93c f83d a13d 737e 55bd
00000010: 5f38 4f3d d9a2 7b3d c57b c5bc 3473 623d
00000020: f7e3 4a3d 47c2 03bc 599d 94bd 703d babd
00000030: e1ff c4bc cba8 583c 50a6 1a3c 9a23 86bd
00000040: 5fa4 81bd 6ec8 fcbc 1533 f7bc dcf6 c83c
00000050: 55af 0b3d a907 883c 05d4 803d 7af1 203d
00000060: b4f7 a4ba 8b9f f13b 791d 9ebb 629e 3d3d
00000070: 3064 12bd 53f8 433c dd8d a8bc 60ca d6bc
00000080: cbd2 62bd b378 fbbc f623 6e3c bdf2 cfbd
00000090: d7e1 de3c adfd 0b3d 1274 563d 060f a4bc
000000a0: 6bfa 0dbc e8a6 47bd 333a abbd a07a bfbd
000000b0: 389c f3ba 809e 98bd a2d0 cf3a 8df7 3dbd
000000c0: 6d85 60bd 839a 7abd dffc fdbc c025 293d
000000d0: 00fa 213d c9bf 07bc aca7 893d 4b57 c5bc
000000e0: 7bfb 9a3c 25e5 44bd dec0 c3bd ff08 71bc
000000f0: bb1b 483d 97dc 84bd 83e1 543d e0c9 633d
00000100: 39cb 453d 6ad1 18bb dedc 843d a4b9 1f3d
00000110: 15bf 823d 2b02 c33b 0873 b43d fd96 8e3c
00000120: 7c0d 583c 2b16 813c e5f4 91bd b262 733c
00000130: fc05 82bd b4dc 5b3d e477 5d3d 30bd ddbc
00000140: 4790 543d e3dc 703d 4a26 ac3d 9d60 993a
00000150: bde7 dcbc e85e a23d 1a3b 913d 6e24 a53c
00000160: 00b7 8ebd 3913 87bd 89f6 ce3c 7411 a5bc
00000170: 19fe df3c 7fe3 083d 68ae 683d 0cf0 433c
00000180: 0df0 b53c 9ba4 573a 3d54 d13c ba24 a6bd
00000190: b58e 6f3c c86c 2a3c e47a 8b3b 2404 913d
000001a0: 2e2e 90b9 2b3c 5fbd 38f7 a9bd 6ede 36bd
000001b0: c3fa 6e3c 977a 753c 8cde c2bb a4e8 04bd
000001c0: 844b 37bb 6b18 8e3c fedd 3ebd b025 403d
000001d0: f3c4 843d 1dc8 74bd e974 00bc d229 cdbb
000001e0: 55db 5b3d 5942 91bb 5764 b8bd ce36 903d
000001f0: 010a 2d3b 5bd4 ebbc 8daf e63c 2426 b23c
00000200: 00d9 233d 4855 53bd 19bb 92bc 0022 ee3c
00000210: 0241 353d 94c9 4d3c eb1a e0bc 023d d8bc
00000220: a63c 45bb 0f3d 1a3d bc21 5abd 915e 043a
00000230: ad80 14bd cd7d 463d ea69 bcbb 1426 48bd
00000240: 96b2 03bd 6988 863d 144b e839 0e8a ffbc
00000250: 9218 943d c61e 973c 6a94 54bc 8453 0c3d
00000260: f85e 073d bb3b dabc ee7f ad3b 9e44 233d
00000270: 9889 47bd cbd3 babc 692c 043d 936a 5f3d
00000280: 593b 3d3d eb10 023d dee5 6d3d 58f0 b6bc
00000290: 5f36 05bc 25d4 15bd e9e2 fdbc 0417 2f3d
000002a0: adbe 63bd fa0c 63bd 5c56 6bbc 0268 ccbc
000002b0: acfd f4bc 8230 723d b6ce 4ebd 8d6d c3bc
000002c0: d669 8abd 1891 bdbc ff87 0abd 1b56 abbc
000002d0: e17f 41bd 03db c7bc 742c 633d d212 193d
000002e0: 86c5 88bd bc07 d5bc 36fa c638 e3b8 67bc
000002f0: e4ee 08bd d746 7abc 9768 7e3b 553a f33c
00000300: 7853 a7bd 168d 8dbd 39e8 283d 95dd 793d
00000310: 9057 b83c 109d f0bc 33f0 ed3c 3738 a03c
00000320: eb13 063d f453 513d 209b 0bbc dcf3 633c
00000330: 5c87 f03c 2a9a 0e3d 91cd a03c 6b10 483d
00000340: 48b0 60bd 34d5 5dbd b6fb 103d 9984 c4bc
00000350: ca16 383d 55a4 0d3d 58da 5fbd fc01 ba3c
00000360: c6d1 903d 53a9 4a3d 7f2b 133d 4810 3c3d
00000370: a6fa 75bd a657 0fbd d5cb 2abd cba9 0abc
00000380: 50c1 44bd 7180 693d 7af0 c8bb 7144 9dbc
00000390: aad9 f33c c960 483d b5e5 6b3d 4f60 653c
000003a0: 6cc4 01bd 3c4d 52bd fefa f6bc 0f87 75bc
000003b0: 71fd 433d 22c2 173c c8f5 59bd 255a 853d
000003c0: af1e b3bb 88a3 0cbd 9ba7 c4bc 6775 a7bb
000003d0: 468f 17bd 62cd 3d3c bc40 a43b 8f51 2c3d
000003e0: 60a6 453d 7e7b d4bc e08b 103d 4d86 9b3d
000003f0: 9dde 05bd 6a94 8c3d de78 3f3d a043 22bd
-0.028949132 0.02066685 0.07873148 -0.052122544 0.05059087 0.0614346 -0.02410687 0.055285648
0.04953381 -0.008041925 -0.07256574 -0.090937495 -0.024047794 0.013223837 0.009439066 -0.06549759
-0.063301794 -0.030857291 -0.030175725 0.024531774 0.034102757 0.016605215 0.062904395 0.03929279
-0.0012586028 0.0073737553 -0.0048252908 0.046293624 -0.035740077 0.011961061 -0.020575458 -0.026219547
-0.05537681 -0.030697202 0.014534941 -0.101537205 0.027207298 0.03417747 0.052356787 -0.020026695
-0.008665661 -0.04874316 -0.0836071 -0.09349561 -0.0018585986 -0.074521065 0.0015855024 -0.04637866
-0.054814745 -0.06118251 -0.031004367 0.041295767 0.03954506 -0.008285471 0.06721434 -0.024089476
0.018918743 -0.04807009 -0.09558271 -0.0147116175 0.04885457 -0.06487387 0.051972877 0.055612445
0.04828951 -0.002331818 0.064874396 0.0389954 0.06384102 0.005951186 0.08811003 0.017405981
0.013186809 0.01575764 -0.07126788 0.014855074 -0.06348798 0.053677276 0.054069415 -0.02706775
0.051895406 0.058804404 0.084057406 0.0011701767 -0.02696597 0.07928258 0.07091351 0.020158973
-0.06968498 -0.06595463 0.025264041 -0.020149924 0.027342843 0.033420082 0.05680695 0.011959087
0.022209192 0.0008226127 0.025552863 -0.08112474 0.014621426 0.010401912 0.004256593 0.07080868
-0.00027500227 -0.05450074 -0.08299106 -0.04464572 0.014586153 0.014982841 -0.00594694 -0.032448426
-0.0027968595 0.017345628 -0.046598427 0.04691094 0.064828776 -0.059761155 -0.007840374 -0.006261089
0.05367597 -0.004432958 -0.09003513 0.07041703 0.0026403668 -0.028787782 0.028159881 0.021746702
0.04000187 -0.051595002 -0.01791148 0.029068947 0.04425145 0.012560267 -0.027356585 -0.026396278
-0.0030095964 0.037655886 -0.053254828 0.0005049492 -0.036255527 0.048459817 -0.0057499306 -0.04886444
-0.032152735 0.06568987 0.00044306426 -0.03119376 0.07231249 0.018447291 -0.012974838 0.034259334
0.033049554 -0.02663981 0.0052947914 0.03986036 -0.048715204 -0.022806069 0.032268915 0.054544996
0.046199176 0.031754415 0.058080547 -0.022331402 -0.008130639 -0.03657927 -0.030991988 0.04274656
-0.055601764 -0.055432297 -0.014363851 -0.024951939 -0.029906116 0.059128292 -0.050490104 -0.023855949
-0.06758468 -0.023140475 -0.033821102 -0.020915082 -0.047241095 -0.024396425 0.055462316 0.037371464
-0.066782996 -0.026004665 9.487981e-05 -0.0141432015 -0.03343095 -0.015275679 0.0038819665 0.0296909
-0.08170217 -0.06911676 0.04123709 0.061002333 0.02250269 -0.029371768 0.0290452 0.019558055
0.03273384 0.051105455 -0.008520871 0.013913121 0.02936142 0.03481499 0.019629272 0.048843782
-0.054855615 -0.054158404 0.0353963 -0.023989009 0.04494361 0.034580547 -0.05465159 0.022706024
0.07071261 0.049477886 0.035930153 0.045913965 -0.06005349 -0.034995697 -0.041698296 -0.008463333
-0.04803592 0.057007257 -0.0061321827 -0.019197674 0.029766876 0.048920427 0.057592113 0.014000013
-0.031681463 -0.051343188 -0.03014898 -0.014985814 0.047849122 0.009262593 -0.05321291 0.06511334
-0.0054663043 -0.034335643 -0.024005702 -0.005110431 -0.03700187 0.011584612 0.0050125998 0.042069968
0.04825437 -0.025937792 0.035289645 0.07593975 -0.032683004 0.06864245 0.046746127 -0.039615273

layers.0.bias f4 [32]
00000000: 2b2d 413d 94f5 72bb ba17 94bc 0bb2 b43c
00000010: 132b a7bc 5e37 2bb9 09e0 3e3d 5a40 57bd
00000020: b135 4ebd 6d69 d7bb 5b5f 79bc 1743 8a3c
00000030: 94b1 943c 9b15 bebd 63fe 7e3d abff fbbc
00000040: 0ec2 7d3d 0dc0 8abd e213 49bd 9795 e33c
00000050: 5555 14bc b1d6 98bd ab51 4e3c c0b8 78bd
00000060: 7c11 e23d e66e bcbc ff7b 6fbd 7b98 743d
00000070: a592 733c 688c 86ba b26e 56bd 8b1e e1bb
0.047162216 -0.0037072646 -0.01807772 0.022057554 -0.020406282 -0.00016328457 0.046600375 -0.052551605
-0.050344173 -0.006573847 -0.015220488 0.016877694 0.018151082 -0.09281465 0.06225432 -0.03076156
0.061952643 -0.06774912 -0.049091227 0.027781291 -0.009053548 -0.07462824 0.012592713 -0.060723066
0.11038491 -0.0230021 -0.05846786 0.05971573 0.014866506 -0.0010265233 -0.05235166 -0.006870096

layers.2.weight f4 [32]
00000000: 587c 893f eccd 833f 151e 7e3f f5d7 6c3f
00000010: 6ddb 763f cd48 803f 7dc5 813f d339 7a3f
00000020: f25a 833f dce5 823f 29d1 7e3f 3f06 6b3f
00000030: a08b 833f f4c5 7d3f 7b5e 833f b9c7 783f
00000040: bbc9 7a3f 0576 7e3f eda1 7f3f 6458 863f
00000050: 6601 7b3f 5580 863f 86c1 813f 37f1 7d3f
00000060: f974 6e3f 95b3 7e3f eb01 793f 20d9 7b3f
00000070: 39c3 833f c5d2 783f 2007 833f 40da 753f
1.0741072 1.0297217 0.9926465 0.92517024 0.9642857 1.0022217 1.0138394 0.9774448
1.0262129 1.0226398 0.99537903 0.91806406 1.0276985 0.9913018 1.0263208 0.9717975
0.97964066 0.99398834 0.99856454 1.0495725 0.9804901 1.0507914 1.0137184 0.9919619
0.93147236 0.9949277 0.9726855 0.9837818 1.0293952 0.9719661 1.0236549 0.9603615

layers.2.bias f4 [32]
00000000: 4365 ea3d 0f70 99bd 4f9d 4e3c 839f 62bc
00000010: 0071 ac3c 7a7d 73bb 359d e8bc 66ca cfbd
00000020: 800d 45bc fabf db3c d64b d5bb 2f36 b73d
00000030: a8d2 983c c760 74bd 94aa 6bbd 8b51 44bc
00000040: 2df3 73bd b159 fcbd d71e 0a3d f5f6 673d
00000050: 5f44 d13d 178a a2bd c91e 6a3d 3957 f03d
00000060: 6420 953d ee12 d2bd 7b46 873d 826d 76bc
00000070: f910 9ebd 2819 a53b f401 9bbd 4d64 67bd
0.114450954 -0.074920766 0.0126107475 -0.013831976 0.021049976 -0.0037153647 -0.028395275 -0.10146026
-0.012027144 0.02682494 -0.0065092845 0.089458816 0.018655136 -0.059662607 -0.057535723 -0.011982332
-0.059558082 -0.12321795 0.033720817 0.056632 0.10218119 -0.07936495 0.057158265 0.117353864
0.07281569 -0.10257517 0.0660524 -0.015040757 -0.07718081 0.0050383992 -0.07568732 -0.05649214

layers.2.running_mean f4 [32]
00000000: 6ea2 ea3d be77 5a3f 5f74 db3d de52 8d3c
00000010: 1e70 c03d f80a 8e3d 89eb ab3e 0400 0000
00000020: 377e 8d3e c724 453d 15fc 2736 6c0e 943d
00000030: b363 ec3c af8f 5d3f d4fb 0c3d 268d f73b
00000040: 1669 803e 0400 0000 6f7f fa3c 06cd 4d3e
00000050: 0400 0000 97e0 763e ca0d 7a3e b345 311e
00000060: afca 163d 4a03 c23d 0400 0000 2e80 a93d
00000070: 4d67 d23f 316e a03e bc5f 123f 186e bf26
0.11456762 0.8533896 0.107155554 0.017251428 0.09396385 0.06935686 0.33578137 6e-45
0.27635357 0.048130777 2.503167e-06 0.07229313 0.028856134 0.8654737 0.03441985 0.007554668
0.25080174 6e-45 0.030578343 0.20097741 6e-45 0.24109112 0.24419323 9.3847154e-21
0.036814388 0.094732836 6e-45 0.082764015 1.6437775 0.3133407 0.5717733 1.3283128e-15

layers.2.running_var f4 [32]
00000000: 0897 7a3c 89dc 443e dfb3 bb3b b7dc a23b
00000010: 0258 a13b 2af7 5a3c d9cd cf3c 0400 0000
00000020: 5c54 c33c 7ed3 403b 1a97 cb33 e562 183c
00000030: 39f4 d03a 5f9b a33e 91f1 fa3a 6dd2 373b
00000040: 4e2f 483d 0400 0000 5cad ce3b f65d d43b
00000050: 0400 0000 bac9 693c 4387 e83b 1331 291b
00000060: 43e0 7e3b 3d5b b73c 0400 0000 c179 0e3c
00000070: 998b 4c3f e0cc d33c 1c64 2e3e 398b f322
0.015294798 0.19224752 0.0057282294 0.004970159 0.0049238214 0.013364593 0.02536671 6e-45
0.023843937 0.0029422934 9.480409e-08 0.009300922 0.0015941925 0.31954476 0.0019145479 0.0028049008
0.04887324 6e-45 0.006307287 0.0064809276 6e-45 0.014269287 0.0070962026 1.3995209e-22
0.0038890995 0.022382373 6e-45 0.008696021 0.7990051 0.025854528 0.17030376 6.601269e-18

layers.4.weight f4 [64, 32, 2, 2]
00000000: 8c75 283d ec36 81bd fdb8 c0bc e978 d5bc
00000010: 0c85 11bb 5675 c1bd 0233 2f3d 78a0 96bd
00000020: d573 f73c f333 43bd 3768 0e3c b5cc 5cbd
00000030: ef1a 69bd 3cb2 61bd c134 18bd 3bf8 5a3c
00000040: cbcf 09ba dfe4 8fbc 2690 30bd e5dd 3abd
00000050: 7ad8 3d3c 26fc 6cbd f325 913d 46c9 51bc
00000060: 28ef 83bc c734 83bc 25b6 c73d 31c1 39bd
00000070: 844f 37bd 9d36 d4bd c023 a5bd d794 ddbd
00000080: e88c 01bd 0cc7 8a3d 7983 f4bd c896 70bd
00000090: 1bf0 233c 606f a0bd c162 023d e569 973d
000000a0: 17c6 0e3c 5de1 cbbc 6024 8b3d 0106 83bd
000000b0: 82ef 8f3d c8b4 9abd 277f fa3c 5571 b0bb
000000c0: 4cb6 adbc 02cd 353c cbd3 dbbd 1ceb 92bd
000000d0: 7bda 313c d15c ec3c e33c 003c 28fb 9cbd
000000e0: cd5e c3bc 554f 81bd ec9c 17bd b458 8d3c
000000f0: 1aec 88bd 0a3c d7bd 12eb 92bd 3266 af3c
00000100: c53c 5a3b 6e51 903d ca47 f43b 435f 013d
00000110: 1817 3b3d 30ed 94bd 77a9 083d 723d 8fbd
00000120: 2335 0cbd 1db9 be3d 3bd8 de3c 269e afbc
00000130: defd db3b fb79 6d3d 6506 3d3c 2636 143d
00000140: 4d04 123d 2f7b d43d c9d2 11bd 9e68 63bc
00000150: 7215 0fbb 8999 ce3c 64c5 bdbd 75ed 963d
00000160: f60d 413d ae1f 86bc 66a9 e0bd 62ca eabc
00000170: d661 bc3d 992b 703d 8709 d73d 83b6 a93d
00000180: 599c f1bb e339 863c b262 d4bd 8b75 06bc
00000190: 6093 903b bcf4 c8bd b258 91bd 93be 073d
000001a0: 9aee 3bbd 0a98 313d 1a10 583c 1844 66bd
000001b0: 1e48 cabd e01c 03be a8e1 47bc 0361 003d
000001c0: 7759 11bd 538f 363d 06e7 4b3d 26d3 c7bd
000001d0: 85b8 cbbd b939 4c3c f374 b7bc 6926 463c
000001e0: edf1 3abc 4ab4 c5bd 064d 2ebd c7f5 723d
000001f0: 34aa 1cbd bc05 e83c 7c16 3d3d e922 bbbc
00000200: 0d3e 123d cdaa 9abd 7362 f0bd c59b a2bc
00000210: 84b9 a5bd 06d2 35bc d9ea 9bbc d992 423d
00000220: f2ca 483d 1864 29bd e2bf a5bd d7b0 b9bb
00000230: 3271 fd3b 0649 89ba 8cc0 e2bc 7d8d c13c
00000240: fa1c 84bd 910e ebbc d5bc a73d 263f 41bc
00000250: 17a9 0abe ac15 92bd d9ff 06bd 5868 cebc
00000260: f150 bc3d 5205 1fbd aa8f 24b9 4cad 8d3d
00000270: 1f35 063d cf97 26bd c2f9 1b3d 902b 14bd
00000280: 306e cd3a 5c55 f63c d4b1 f7bb 5737 81bd
00000290: 0955 17bd 32b2 9dbc 4eea 1cbd ec7b 833d
000002a0: da61 58bd 1c5f 9ebc ab06 83bd dd5f adbd
000002b0: 40c1 5eb8 0f22 06bd 2492 d1bc d7a6 1cbd
000002c0: 6f78 f9bc c5a0 ab3d 91e0 47bc 4233 5fbd
000002d0: ebde cc3c deee b4bd 69cb 333d 99ca 0dbd
000002e0: bec5 3bbd 4728 663d 0a2b 19bd 5193 b6bd
000002f0: 18fa 72bd 8b79 953c 235a 6bbd ecdb 363d
00000300: 228c 3bbd d6e0 60bc 1eb9 d3bd d483 a1bd
00000310: 8f7e fe3c c466 6b3d cbd1 1bbd d8e0 793d
00000320: 6e87 a63d 54e3 6c3c 0532 cbbd fc16 713b
00000330: e08c 113e 76a2 093e 4b8f e2bc f8f3 16bd
00000340: 3c25 a9bc 52fe a43d fe90 ce3c 4110 023d
00000350: f733 c13c f7b6 db3c a4b1 453c f806 cbbc
00000360: 5e7c dd3d 5f83 2a3c d325 4e3c 403e 143c
00000370: 31ab 44bd 32d2 513d 4586 febc cf44 79bd
00000380: e5ae 6ebd 88c3 393d 8173 f43b a1a1 1cbd
00000390: 7db9 6ebd d103 843c 51ee 2dbd 28a8 82bc
000003a0: 74b2 91bd df7f c53c 2f8a a3bc 0622 873d
000003b0: 79fd 52bc bead fdbc 6a1c af3d 808b d03d
000003c0: 8064 4dbc d19c 8abd a64f 43bd afa3 803a
000003d0: 2541 e03c 4aca 8ebd 945c cd3c 7005 92bd
000003e0: c05b 5e3d e622 43bd 7381 dabc 82a4 063d
000003f0: fabf 62bd 4a30 abba 3d7c efbc 9b7d 9f3d
0.041127726 -0.06309304 -0.02352571 -0.026058631 -0.0022204546 -0.09446208 0.042773254 -0.07354826
0.0302066 -0.047656965 0.008691839 -0.05390616 -0.05691045 -0.05510162 -0.037159685 0.013364847
-0.0005257099 -0.017565189 -0.04310622 -0.04562177 0.011587257 -0.057857655 0.07087316 -0.012804335
-0.01610525 -0.016016377 0.09751538 -0.045350257 -0.044753566 -0.10361979 -0.080634594 -0.108194046
-0.03162852 0.067762464 -0.11939139 -0.058737546 0.010005976 -0.07833743 0.03183246 0.07393245
0.0087142205 -0.024887735 0.06794047 -0.063976295 0.07028104 -0.075540125 0.03057821 -0.005384604
-0.02120509 0.011096241 -0.10733756 -0.0717375 0.010855312 0.028852852 0.0078270165 -0.07665092
-0.023848915 -0.063139595 -0.037014887 0.017254211 -0.06685658 -0.105094984 -0.07173742 0.021411035
0.0033300382 0.070467815 0.007454847 0.03158499 0.04567632 -0.072718024 0.03336474 -0.06994142
-0.034230363 0.09312651 0.027202716 -0.021437716 0.006713613 0.057977658 0.011537169 0.036184452
0.035648633 0.10375058 -0.03560141 -0.013879923 -0.002183285 0.025219696 -0.09266165 0.0736951
0.047132455 -0.016372528 -0.1096981 -0.028660957 0.09198348 0.058635328 0.10499864 0.082867645
-0.0073733744 0.016385024 -0.10370387 -0.008206735 0.0044120997 -0.098123044 -0.070969954 0.03314073
-0.045881845 0.043357886 0.013187433 -0.056217283 -0.098770365 -0.12803984 -0.012199797 0.031342518
-0.03548571 0.04457028 0.049780868 -0.0975707 -0.09947304 0.012464934 -0.022394633 0.012094119
-0.011410219 -0.09653528 -0.042553924 0.059316423 -0.038248256 0.028323047 0.04616402 -0.022843795
0.035703707 -0.07552109 -0.11737528 -0.019849667 -0.08092025 -0.011097437 -0.019032883 0.047503326
0.04902167 -0.041355222 -0.08093239 -0.005666833 0.007734441 -0.0010474033 -0.027679704 0.023627037
-0.06450839 -0.02869347 0.08190314 -0.011794841 -0.13541065 -0.0713304 -0.03295884 -0.02519624
0.09195126 -0.038823433 -0.00015693778 0.069178194 0.032765504 -0.04067212 0.038079984 -0.036174357
0.0015673097 0.03007 -0.0075590406 -0.06309383 -0.03694633 -0.01925001 -0.038309388 0.064201206
-0.052827694 -0.019332461 -0.06397756 -0.0846555 -5.3108903e-05 -0.032747325 -0.02558238 -0.03824505
-0.030452935 0.08380274 -0.012199537 -0.054492243 0.02500864 -0.08834623 0.04389516 -0.03461704
-0.04584288 0.056190755 -0.03739456 -0.08914817 -0.05932054 0.018246433 -0.057459008 0.044643328
-0.045787938 -0.01372548 -0.10338043 -0.07886472 0.031066207 0.05747105 -0.03804187 0.061005443
0.081313 0.014458496 -0.0992165 0.0036787381 0.14213896 0.1344088 -0.027656218 -0.03685376
-0.020647638 0.0805632 0.025215622 0.031753782 0.02358435 0.026820643 0.012066279 -0.024783596
0.10814737 0.010407298 0.01258226 0.009048045 -0.048014823 0.05122585 -0.031069884 -0.060856637
-0.05827226 0.04535249 0.007460058 -0.03824008 -0.058282364 0.016115101 -0.042463604 -0.015949324
-0.07114115 0.024108825 -0.019963352 0.06598286 -0.012877815 -0.030966636 0.085503414 0.101828575
-0.012536168 -0.067681916 -0.04768338 0.0009814407 0.027374813 -0.06972177 0.025068559 -0.07129943
0.05428672 -0.047640704 -0.026673054 0.03287173 -0.055358864 -0.0013060656 -0.029234046 0.07787629

layers.4.bias f4 [64]
00000000: d6ca ab3d 68f5 a63b 6e68 463d 3683 023e
00000010: b4a2 59bd fdd6 af3d d653 b53c d440 ac3d
00000020: 361d ba3d a0d6 8fbd 30d1 503d 7e36 a5bd
00000030: dcfc c0bc dcbe 75bd bc61 533c da37 cd3d
00000040: b647 b83d ab22 67bd 92a0 57bc 1a1d ab3d
00000050: 4bbd 533d 2dc2 8b3d 6d18 a33d 7068 e7bd
00000060: 0504 6a3d bce8 0bbd 84f9 7abc c8fd 483c
00000070: cb96 a43d c98b 7b3d e77a d73d f0df a3bd
00000080: c3c8 e8bc 0230 95bd 43de 07bd e3af 9e3d
00000090: 5d98 373c c85e 553d 4592 85bd 98d6 7d3d
000000a0: 9fcb 3abd 9d50 b83c b895 fbbc 8a89 893d
000000b0: 19a7 d1bd 1b9c c7bd 9bc9 4abd 3bdb 0ebe
000000c0: 2c44 073e 0fe8 b6bc d923 7abc 349d 933c
000000d0: 40d1 a43d 8cc2 7dbc 1523 16bc cf40 51bd
000000e0: 443c 30bd eb65 e5ba a380 d23c ae61 d5bc
000000f0: 9bc5 cdbd e432 98bc 7333 e4bd d8a0 c6bd
0.08388297 0.0050951727 0.048439436 0.12745366 -0.05313368 0.08585928 0.022134703 0.084108025
0.09087603 -0.07023358 0.050980747 -0.08067034 -0.023558073 -0.05999647 0.01290172 0.100204185
0.08998053 -0.056429546 -0.013160842 0.0835516 0.051694196 0.068241455 0.07963643 -0.11299217
0.05713274 -0.0341575 -0.015318278 0.012267537 0.08036574 0.061412606 0.10521489 -0.08001697
-0.028416043 -0.072845474 -0.03317095 0.077483915 0.01120576 0.052092344 -0.06522039 0.06197223
-0.045604344 0.022499377 -0.03071104 0.067156866 -0.102369495 -0.09746572 -0.049508672 -0.13950817
0.132096 -0.022327451 -0.015267336 0.018019296 0.08047724 -0.015488278 -0.009163638 -0.051087197
-0.043026224 -0.0017501687 0.025696104 -0.026047554 -0.10047456 -0.018578954 -0.11142626 -0.09698647

layers.6.weight f4 [64]
00000000: f287 803f e251 783f 1b56 6d3f e1bc 763f
00000010: 207c 813f a0f4 7a3f d8db 6b3f 1850 7a3f
00000020: 1228 713f 5375 823f 7bfc 743f b757 743f
00000030: e38d 873f 7013 843f 9f9c 7b3f a97d 713f
00000040: a149 753f 64cb 833f 0e77 7d3f 3f4c 7b3f
00000050: fa5e 793f bf4f 6c3f 5698 7f3f bf4e 853f
00000060: 4a8f 723f ee7c 733f 8ba4 7a3f 3f1b 843f
00000070: 2310 873f 1e9e 733f ecdb 7e3f 0e1a 733f
00000080: df18 8d3f 6bea 853f e982 703f 2087 713f
00000090: d0a7 843f 728e 743f 64d3 883f e9b1 883f
000000a0: a15c 7f3f 0653 893f bf0d 883f 0038 6f3f
000000b0: bfad 923f 89fa 7b3f 7322 7d3f aa9e 7d3f
000000c0: f050 6f3f bc65 853f 38aa 7d3f fef6 7f3f
000000d0: dc77 823f 725d 7a3f 20c7 843f 6d46 713f
000000e0: b85d 833f 989a 783f a953 8c3f 5359 7e3f
000000f0: ac9f 7e3f f219 843f 34ed 7e3f c565 783f
1.0041487 0.96999943 0.9270951 0.96381956 1.0116005 0.9802952 0.9213233 0.97778463
0.9420177 1.0192055 0.95697755 0.9544634 1.0590175 1.0318432 0.9828586 0.9433237
0.95815474 1.0296445 0.9900979 0.9816322 0.9741055 0.9230918 0.9984182 1.0414656
0.9474989 0.951125 0.9790732 1.0320815 1.05518 0.9516314 0.99554324 0.9496163
1.1023215 1.0462164 0.93949753 0.9434681 1.0363712 0.95529854 1.0689511 1.0679294
0.99750715 1.0728462 1.0629195 0.93444824 1.1459273 0.9842916 0.9888069 0.9907023
0.93482876 1.0421672 0.9908786 0.99986255 1.0192828 0.97798836 1.0373268 0.94248086
1.0262976 0.9711089 1.0963031 0.9935505 0.9946239 1.0320418 0.99580693 0.9703029

layers.6.bias f4 [64]
00000000: c8c6 843d e826 6a3c a396 3a3d d966 8e3d
00000010: ec74 213b 04f9 6cbc 1fa5 573c 5494 93bb
00000020: 0919 d03d 4a82 d13d dddc fb3c 82b7 db3c
00000030: e49c eb3b 39e6 2ebc c2aa b73d 272b 693d
00000040: 3332 2f3c f89c eb3c 7a18 a93c 1fd3 b93d
00000050: 7f96 903d b735 7b3d fe51 c4bc 60d2 fbbb
00000060: 901e 3d3d c54c cf3d d4d5 91bb 90c5 a83c
00000070: 26ea 8c3d 6ab5 163d 4f08 493d 3558 d0bb
00000080: 2dc1 83bc fe81 94bc 263b 633d 935d 9bbc
00000090: 2840 7b3d bea1 1b3d 434b a63d 0eb6 c2b9
000000a0: 981d c13c 49aa debc 2d30 d93d 8801 9dbc
000000b0: a000 eb3c bc98 663d a803 013e ec1a bf3c
000000c0: c311 763d 3338 f2bc feb4 3e3d 1747 b13d
000000d0: 9750 c9bc 82b3 e13d 1530 c83d 9b95 bd3d
000000e0: c5ed 4b3d 8047 913d 176e 913d 52d0 3f3d
000000f0: 7dfa 313c 6ccd 6d3d d1ab 653d 967c a8bd
0.06483227 0.014291503 0.045553815 0.069532104 0.0024636341 -0.014463667 0.0131619265 -0.004503766
0.10161025 0.10229929 0.030744964 0.026820902 0.0071903337 -0.010675007 0.08968116 0.05692592
0.010693121 0.028761372 0.020641554 0.09073471 0.07059955 0.061330523 -0.023964878 -0.0076849908
0.046171725 0.101220645 -0.004450539 0.020602018 0.06880598 0.036794104 0.04908019 -0.0063581713
-0.016083324 -0.018128391 0.05547633 -0.018965518 0.06134048 0.037996046 0.08119824 -0.00037138205
0.023573682 -0.027180808 0.10604892 -0.01916577 0.028686821 0.056298003 0.12599051 0.023328267
0.060075533 -0.029567814 0.046559326 0.086561374 -0.024574561 0.110205665 0.09774796 0.092570506
0.0497873 0.07093716 0.07101076 0.04682953 0.010862944 0.058057234 0.05607206 -0.08226888

layers.6.running_mean f4 [64]
00000000: 35f4 263e 3d5d ae3e ae6a 543e 69b0 c53e
00000010: 27f9 c43e a600 fc3d 0d10 c63e 5319 313e
00000020: 4ef4 bd3e 83e4 df3d 4ecf 843e f97c 1d3d
00000030: bd5d c83e 9958 f23d a308 253e cf6b c53e
00000040: 2132 823e 94bc 1b3e cb92 ec3d ff45 9d3e
00000050: 2d8f ad3e 09ef 9f3e b019 8e3e 9f66 8f3e
00000060: 69eb d93e 75c2 d03e 64e4 7c3e 432d 4b3e
00000070: 8bf1 fc3d 2fa6 a03e 5925 c43e 78b9 b73e
00000080: f4ef f13c 70bf 603e 6092 a13e cefd b23e
00000090: 15d5 523d f1c1 bd3e 1df5 763c 7728 863e
000000a0: a33f d63d 0f01 c03d 262e 803e d428 173f
000000b0: 69d6 5b3e 64b3 8e3e 25fe ff3d e747 5d3b
000000c0: 2c13 8d3e a38f 3b3d 8ca5 a63e 9505 a73d
000000d0: f683 dd3e c09f 633e 9611 ec3d eb4f 153f
000000e0: 839b a43d 3cb8 7b3e da4a 2a3d 9bd2 d13e
000000f0: 07ea 133f 9c07 f63d 0fe2 183e 432a 2b3f
0.16304095 0.3405551 0.2074382 0.38611153 0.38471338 0.12304811 0.3868412 0.17294817
0.37100452 0.10932257 0.2593941 0.03844926 0.39134017 0.11833305 0.16116576 0.38558814
0.2542887 0.15208656 0.11551436 0.30717465 0.33898297 0.31237057 0.27753973 0.2800798
0.42562416 0.4077336 0.24696499 0.19841485 0.12350758 0.31376788 0.38309744 0.3588369
0.029533364 0.21948028 0.31556988 0.34959263 0.051472742 0.37062028 0.015073088 0.26202747
0.104613565 0.09375202 0.25035208 0.59046674 0.2146851 0.2787124 0.12499646 0.003376478
0.2755369 0.04579128 0.32548177 0.081553616 0.4326474 0.22228909 0.11526792 0.5832507
0.08037474 0.24581999 0.04157529 0.40980992 0.5777897 0.1201317 0.14929985 0.6686136

layers.6.running_var f4 [64]
00000000: be41 2f3d 7c33 d43d 87d2 b13d a7c5 263e
00000010: 8925 293e 03c1 e53c 0cbe 653e f930 863d
00000020: b9e9 193e ee54 213d 7904 b63d 0b43 2a3d
00000030: ab9a ac3e 3951 503d fc69 153d f9dd 303e
00000040: f3ff 183e d560 0a3d 68ea 113d c773 a13d
00000050: fe49 d73d 2bb6 ce3d 6d64 c33d 4a62 c23e
00000060: 4fb6 b33d aad5 e83d 76d0 9a3d 35c3 353d
00000070: 2213 a53d 7fe0 2d3e 313c d83d 0492 483e
00000080: 0ae8 023c 30af 1a3e 4463 573e 344d 113e
00000090: a231 3c3c bf28 913e a3a7 7e3b 018a 0a3e
000000a0: 958d 993d 490b 203d 7140 aa3d b89c 0c3f
000000b0: e985 e83d 68d9 2e3e cd22 a63d 8257 ce39
000000c0: 61c4 e03d 024d 243c 3cc9 6b3e 1cbf b13c
000000d0: 8525 833e 82fb 833d 4f5a 803d 1155 a83e
000000e0: 011e 573d c989 1b3e cbda 4e3c c2f8 583e
000000f0: 48c1 1d3f 7f42 1e3d 211d c83d 0721 433f
0.042787306 0.10361382 0.08682733 0.16286336 0.16518225 0.028046137 0.22435778 0.065523095
0.15030564 0.039387636 0.08887572 0.041567843 0.33711752 0.05085871 0.036478028 0.17272176
0.14941387 0.033783752 0.035623938 0.07883411 0.1051216 0.100933395 0.09540639 0.37965614
0.08775007 0.11368878 0.07559292 0.044375617 0.0806029 0.1698017 0.105583556 0.1958695
0.007989893 0.15105891 0.2103396 0.14189607 0.011486443 0.283514 0.0038857243 0.13529207
0.07497708 0.039073262 0.083130725 0.54926634 0.11353666 0.17075121 0.081121065 0.0003935658
0.10974956 0.010028126 0.23025984 0.021697573 0.25614563 0.06444456 0.06267225 0.328774
0.05251885 0.1518928 0.0126254065 0.21188644 0.6162305 0.038637634 0.09771181 0.7622227

layers.8.weight f4 [64, 64, 2, 2]
00000000: 7153 5e3d 6aa5 5fbd c40c b33c c7b9 5c3c
00000010: 2a45 9cbb 1a46 d23c 925c 35bd 600e 173d
00000020: 0c91 febc d197 2e3c 2869 c43c 86c0 753a
00000030: 844f f73b 7d1b 283c 32c0 4e3d c13a 503d
00000040: 73b3 77ba 5da0 18bd 304d 10ba 3168 6bbd
00000050: e492 1f3d cc4d 89bc a1a7 da3c d798 ab3c
00000060: 0147 b2bc 962e f3bc 53e0 c0bc d918 a23c
00000070: fda8 653b b29f 50bd 4e79 293c 0499 c93b
00000080: 667a 9bbc 4a1b 05bd 8434 2dbd 0a50 0a3b
00000090: edc1 1d3d 9ced 2abd 944a 4e3d f9fa 013d
000000a0: 98f8 253c 41bc b73c f37a 1c3d 26b3 eabd
000000b0: 9e48 e0bb c6d0 2fbc 212b 383d 1a10 c1bb
000000c0: bbaf 2e3d 978c 163d c374 7abd e1cc d2bd
000000d0: 7f5f 873d 287c eabd 6f05 14bc e07e 143a
000000e0: c067 45bd 4cbf 3c3d 54e4 973c 78f4 7fbd
000000f0: 54de 66bd 4ef1 3dbd 5643 c7bb 0f0c 19bd
00000100: d513 27bd ecd6 383d f82c 21bb 0334 193c
00000110: 45b1 62bd 643f c73c a43c 853c a46b b6bd
00000120: f5e0 ab39 c8e4 33bc 2ab2 85bc 2553 16bc
00000130: 5ef9 c43c 418a 8cbb 3ecc 56bd 6e6f f23c
00000140: 138b b8bc 3761 343d 4f7c 603c a2b5 bfbc
00000150: 663c 3dbd 7689 6f3c e373 41bd 0c2d bd3c
00000160: a888 843d 02f8 64bd 5621 16ba 3c2e ebbb
00000170: f071 02be 1ebe 32bd 6cf1 513d a68b 12bc
00000180: c839 913c d4a0 08bd c2a8 7dbd fed3 8c3c
00000190: 3ced 123d 6323 3d3d 6dd1 103d 8426 6ebd
000001a0: 78bc 5f3d 6c79 873d 1551 21bd 2824 0f3b
000001b0: 9007 52bd 94b0 273b f808 05bd 2337 a2bb
000001c0: d33a 89bd 9613 3dbd b36b 12be 965f 093d
000001d0: da89 cabc 285c a8bd a28c 7bbc 4ce0 64bc
000001e0: c517 683d a1ee b8bb bc0e 9fbc d7cd 7bbd
000001f0: 2f33 bd3c 516d 0f3d e3c6 c7bd 366b 64bd
00000200: ccf5 4ebd 18ac aebd d3eb d43c 6f39 3cbd
00000210: d4db 2b3d 954b 59bd cc8f 42bd eed1 cdbc
00000220: 20c9 d9bd e4ed 3a3d a55d 6d3d ee99 1dbb
00000230: f1f8 e6bc e2e7 203a 5b98 d43c b7e0 dc3c
00000240: 169c bdbd e021 173d a11b fd3c f800 17bd
00000250: e97d 82bd 7913 d9bc cf03 1b3d 94ec 27bd
00000260: 8469 7fbd 0429 3ebc 35f2 a13b 8de9 f5bc
00000270: c1ac c2bc e954 b7bc 3b7b 2f3d 0002 fbbd
00000280: a258 6a3c cf2e c5bc b1fe 0bbc 570f 133d
00000290: b20e d2bd 364b b5bc e55c 3d3d 3f98 dbbb
000002a0: 03ea 20bd 8357 913d cb63 9ebd ca3f 9b3d
000002b0: de9e 883b c27a 8cbd 9760 423d 21a3 70bd
000002c0: 5232 783b d640 0abd 1bec 0cbe e5f5 7bbd
000002d0: de93 c8bd ab65 f53c 9c99 183b 1d53 cbbc
000002e0: 36b6 503c 945b fabc c9ed ffbc 673c ebbb
000002f0: 23fb 31bd 166b 0ebc 30f3 3b3d e543 6bbc
00000300: 5398 1b3c 7f4a b0bc 5643 033c 05a5 08bd
00000310: c732 38bd c255 3dbc 0f3e 1cbc 9fe6 b43d
00000320: fd62 09bd c1d6 aabc f47d 02bd 5928 3abc
00000330: 188f c3bd 9821 b63b b700 63bc 3eb5 183d
00000340: 3dd1 8bbd 32d1 9c3c d4bf 9dbb c2f3 ca3c
00000350: f939 9abc eda9 383c 5c84 21bd 9b9a 86bb
00000360: 3449 643d 4d73 033d 8d2c 76bb b124 c4bc
00000370: 0ac7 45bc 68ae 48bd bf33 4d3c ba2d 473b
00000380: 48d0 2abd 6f5e 6cbc 6430 d4bc 76ab 44bc
00000390: 1f7a 12bd 56f4 29bd 880b 47bb da36 94bc
000003a0: dd67 a7bc f7f3 56bd ae54 2fbb 8b46 89bb
000003b0: 0472 6dbb 9810 b6bc 1220 4bbc c095 db3c
000003c0: 8be8 2ebb e8a5 553b 8a48 debd 4439 b7bd
000003d0: 473e ffbb 564e e0bd fa98 50bb c4c3 babd
000003e0: 9cb9 96bc 2e8c f0bd a97d d1bd 2f38 263d
000003f0: b303 c4bc a22c 083d 212c 643c a408 58bd
0.054278795 -0.05460111 0.021856673 0.013472027 -0.004768987 0.025668193 -0.044277735 0.036878943
-0.031075023 0.010656313 0.023975924 0.00093746965 0.007547321 0.01026046 0.05047626 0.050837282
-0.0009449042 -0.03726231 -0.0005504666 -0.05747241 0.038958445 -0.01676073 0.02669126 0.020946903
-0.021762373 -0.0296853 -0.023544466 0.019787239 0.0035043352 -0.050933547 0.010343863 0.006152274
-0.018979263 -0.032496728 -0.04228641 0.0021104836 0.03851502 -0.04173051 0.050364092 0.031733487
0.01013007 0.022428634 0.03820319 -0.11459951 -0.006844594 -0.010730928 0.044963006 -0.005891812
0.04264806 0.03675517 -0.06114651 -0.10292984 0.06610011 -0.11449462 -0.009034499 0.0005664658
-0.048194647 0.046080872 0.018541493 -0.062489003 -0.056364372 -0.046372704 -0.006081025 -0.037365016
-0.040790398 0.04512684 -0.0024593454 0.0093507795 -0.05534484 0.02432222 0.016264267 -0.089072496
0.00032783268 -0.010979839 -0.016320307 -0.009175097 0.024044689 -0.004288942 -0.052440874 0.02959415
-0.022527253 0.044038024 0.0137015125 -0.023402039 -0.04620018 0.014620176 -0.04722966 0.02309277
0.064713776 -0.05590058 -0.00057270133 -0.0071771424 -0.12738776 -0.04363834 0.05125563 -0.008944428
0.017727748 -0.033356503 -0.061928518 0.01719093 0.035870776 0.046176326 0.035355974 -0.0581422
0.054623097 0.06614956 -0.039383966 0.002184162 -0.051276743 0.0025587426 -0.032479256 -0.0049504205
-0.06700673 -0.046161257 -0.14298896 0.033538423 -0.024723936 -0.082207024 -0.015353354 -0.013969492
0.056663293 -0.005643681 -0.019416206 -0.0614756 0.023095695 0.03501636 -0.097547315 -0.055766307
-0.05052738 -0.08528918 0.025991356 -0.04595321 0.04195769 -0.053050596 -0.047500417 -0.025124516
-0.10634065 0.045637026 0.057950635 -0.0024048048 -0.028194876 0.0006138069 0.025951555 0.026962621
-0.09258287 0.03689754 0.030896964 -0.03686616 -0.06371672 -0.026498543 0.03784543 -0.040997103
-0.062356487 -0.011606459 0.0049422034 -0.030018592 -0.023764016 -0.022379356 0.04284213 -0.12256241
0.014303358 -0.024070172 -0.00854461 0.0359033 -0.10256709 -0.02213059 0.04623117 -0.0067014988
-0.03928567 0.0709677 -0.07733878 0.07580526 0.004169329 -0.06859352 0.047455397 -0.05874932
0.003787179 -0.03375324 -0.13761942 -0.0615138 -0.097938284 0.029955706 0.0023284918 -0.024819905
0.012738755 -0.030561246 -0.031241314 -0.0071788314 -0.043452393 -0.008692523 0.04588622 -0.014359449
0.009496766 -0.021519898 0.00801166 -0.0333605 -0.0449703 -0.011556091 -0.00953628 0.0883305
-0.03354167 -0.020854356 -0.0318584 -0.011362159 -0.09548777 0.005558204 -0.013855151 0.03728222
-0.068270184 0.01914272 -0.0048141275 0.024774436 -0.018826472 0.011270982 -0.03943287 -0.004107786
0.055733874 0.03209238 -0.0037563175 -0.023943277 -0.01207138 -0.04899445 0.012524544 0.0030392245
-0.04170254 -0.014426812 -0.02590198 -0.01200377 -0.035760995 -0.041492783 -0.0030371863 -0.018092562
-0.020435268 -0.052478757 -0.0026753354 -0.0041893176 -0.0036231289 -0.02222471 -0.012397783 0.026804805
-0.00266889 0.0032600109 -0.108536795 -0.089464694 -0.0077894065 -0.109524414 -0.0031829462 -0.091193706
-0.018399052 -0.11745487 -0.10229046 0.040580925 -0.023927545 0.03324569 0.013926537 -0.052742615

layers.8.bias f4 [64]
00000000: 0a38 8dbc a14e cebd 7409 cabd c6f3 d1bd
00000010: 47cd abbd 1cf0 98bd 2c66 3c3d 16a4 00be
00000020: 4e41 10be 6249 6cbc 98bf 1e3d f80e 493d
00000030: 5c70 7e3c 55a8 65bd aca4 473d 4b93 c7bd
00000040: 4964 16be 61dd a5bd 4c08 dabd 7a8a 0c3d
00000050: 20c9 7abc 4c07 c4bd 4a62 153d 3a20 25bd
00000060: 22cd 29bc 8139 6dba e2f9 b13c 2d79 8f3c
00000070: 37ed 81bd 66e3 823c 2124 10bd e1e1 243c
00000080: d999 09be 65f1 89bb fa9a 713c 2114 1d3d
00000090: 71ea 2dbc 2095 ffbd 96d6 c7bd f4cd babd
000000a0: 4d8d 73bd eaf5 163c 7882 c8bd f38c 34bd
000000b0: 2181 3fbd cd1f 373c 766b 71bd fcba 93bd
000000c0: 7afd 2abc 9aab c9bc b050 6ebd dfcf 43bd
000000d0: 10f1 0cbd 6b68 4f3c 6237 e9bd 9632 ac3d
000000e0: 54d2 27be 34e5 11bd 559e 8cbc e2c9 cbbc
000000f0: 2f56 a6bd 968e 2ebd 1317 51bd f4ac b33c
-0.017238636 -0.10073591 -0.09865084 -0.10251574 -0.08388763 -0.07467672 0.045995876 -0.12562594
-0.14087412 -0.014421793 0.038756937 0.04908654 0.015529718 -0.056068737 0.048741028 -0.09744891
-0.14686693 -0.08098865 -0.10646114 0.03431175 -0.015306741 -0.09571704 0.03647069 -0.040313937
-0.010363849 -0.0009049401 0.021725599 0.017513836 -0.06344073 0.015977573 -0.035190705 0.010063619
-0.13437594 -0.0042096847 0.014746422 0.038349275 -0.010614977 -0.12479615 -0.09757726 -0.09121314
-0.059460927 0.009213904 -0.0979051 -0.044079732 -0.046754006 0.0111770155 -0.058940373 -0.07213399
-0.01043641 -0.024617959 -0.05818242 -0.047805663 -0.034409583 0.0126591725 -0.113875166 0.08408086
-0.16388828 -0.035618976 -0.017165342 -0.024876539 -0.08121907 -0.04261645 -0.051047396 0.021933056

layers.10.weight f4 [64]
00000000: 678b c43f e0d5 c43f db2f c33f 4a19 c63f
00000010: 7fb8 c43f c103 c33f 43a2 c43f fdd7 c23f
00000020: 7ff8 c43f b47f c43f df75 c53f 40fb c43f
00000030: 2e57 c63f f928 c43f b7bb c53f 2a1b c53f
00000040: 093f c43f 7516 c13f 17ac c43f 92e5 c43f
00000050: 49df c53f eb5d c43f 1491 c53f 0d63 c43f
00000060: 74da c43f 298c c53f 4330 c53f 030a c63f
00000070: f0fb c33f 23ba c53f 7bb4 c53f ac7a c53f
00000080: 8348 c43f abba c43f 3ba7 c53f e4b4 c53f
00000090: 4663 c43f ec64 c53f 99b5 c53f b87c c43f
000000a0: df8b c53f 87f1 c53f ce65 c63f abbd c53f
000000b0: 069f c53f d3ff c53f c690 c53f 810b c63f
000000c0: 9103 c63f 0e9d c53f 0e4e c43f 932e c43f
000000d0: 10a2 c53f 370b c53f 98f6 c33f cdd8 c43f
000000e0: b390 c43f 707a c53f af58 c53f 0e03 c53f
000000f0: 2ebf c43f 79b1 c43f 7314 c53f 8499 c63f
1.5355042 1.537777 1.5248979 1.5476468 1.5368804 1.5235521 1.5362018 1.5222164
1.5388335 1.5351472 1.5426596 1.5389175 1.5495355 1.5325004 1.5447911 1.5398915
1.5331737 1.5084978 1.5365018 1.5382559 1.5458766 1.5341161 1.5434899 1.5342728
1.5379167 1.5433398 1.5405353 1.5471805 1.531126 1.544743 1.5445703 1.5428061
1.5334629 1.5369467 1.544166 1.5445828 1.5342796 1.5421424 1.5446044 1.5350561
1.543331 1.5464333 1.5499818 1.5448507 1.5439155 1.5468696 1.5434806 1.5472261
1.5469838 1.5438554 1.533632 1.5326713 1.5440083 1.5394047 1.530963 1.5378662
1.5356659 1.542799 1.5417689 1.5391557 1.5370843 1.536666 1.5396866 1.5515599

layers.10.bias f4 [64]
00000000: 297c 023f 41ee ea3e 10da da3e c13d 093f
00000010: 0f47 023f 8ea5 ecbe 3ef5 073f 9ca1 f7be
00000020: 9aaa 083f 156f 093f 3aa8 0a3f 6f1e 093f
00000030: ed06 0c3f 07d4 063f d50c 0d3f e5cf fe3e
00000040: 057f 003f cff5 0cbf e7cf 003f fa57 083f
00000050: 4776 0c3f 0708 e9be dbb1 0b3f ebd2 f8be
00000060: 031e 093f 7731 0b3f a182 093f 7e38 0c3f
00000070: cca0 023f d8a7 0a3f bf9e 0b3f 054c 0a3f
00000080: afb8 013f 41df 083f cc17 0b3f fee9 0b3f
00000090: 8525 093f d83f 033f 5c2a fdbe a482 083f
000000a0: 4a64 0b3f 6d72 0b3f 1d59 e5be 548c 0c3f
000000b0: 37ce eabe dd29 0b3f df6a ecbe a088 f3be
000000c0: 9a59 0b3f b982 e3be 1ec7 093f 3809 053f
000000d0: 4c1b 0b3f 9297 093f c572 043f 2272 093f
000000e0: fe57 0a3f 5cdc 083f 5bd8 013f e571 e1be
000000f0: 298a 0c3f 1d8a 0a3f e93d b23e af73 083f
0.50970703 0.45884898 0.42744493 0.53609854 0.50889677 -0.46220058 0.53108585 -0.48365486
0.5338532 0.5368512 0.54162943 0.5356206 0.5469807 0.5266728 0.55097705 0.49767986
0.50193816 -0.55062574 0.50317234 0.5325924 0.54867977 -0.45513937 0.5456826 -0.48598418
0.5356142 0.5437235 0.5371495 0.547737 0.51026607 0.5416236 0.545391 0.54022247
0.5067243 0.5346566 0.54333186 0.5465392 0.53572875 0.5126929 -0.4944638 0.5332434
0.54449904 0.54471475 -0.4479455 0.54901624 -0.45860454 0.54360753 -0.46175286 -0.47565174
0.54433596 -0.4443567 0.53819454 0.5196719 0.54338527 0.537469 0.51737624 0.5368978
0.54040515 0.5346124 0.5072076 -0.44032207 0.54898316 0.54116994 0.3481286 0.5330152

layers.10.running_mean f4 [64]
00000000: 8078 fc3d 2c7b c03d cc71 f23d f8bf 443e
00000010: 8b13 2d3e 443a 9b3e 30e7 ae3e dd29 5e3e
00000020: 42ba 303e ccba c53e ccdb 973e 7d98 b63e
00000030: cd27 993e 85fb 4d3e 9155 b83e c082 273e
00000040: 6cbd 5e3e 7ce6 0a3f e271 643e e61e a43e
00000050: ff11 af3e bdcb e73d 734e a83e 91bb 103e
00000060: 49b1 8b3e 7bc3 bc3e 3a4f ab3e 9539 953e
00000070: 13dd 293e 8764 bf3e 3afc a43e 030e b63e
00000080: 86e4 363e 10f5 b83e 918c b33e c31f b83e
00000090: 5589 8a3e 908a 3e3e f0aa 113e a384 1c3e
000000a0: 7826 ba3e 98d5 ab3e a444 123e 4c79 b93e
000000b0: 38d2 243e b319 923e a32d 123e e47c e63d
000000c0: 9092 b93e 820b ee3d 47c1 803e 37d0 533e
000000d0: a3ec aa3e c1df a13e 5170 453e 91b9 b53e
000000e0: 37fa 3c3e 771d d73d 1521 013e 195f 123e
000000f0: c0ca 183e 86ef 0a3e ba61 053e 4d48 d33e
0.12327671 0.09398493 0.11838111 0.19213855 0.16901986 0.3031789 0.34160757 0.21695657
0.17258552 0.38619077 0.2965988 0.35663214 0.29913178 0.20115478 0.36002782 0.16358471
0.21751946 0.5425794 0.22309068 0.32054824 0.34193417 0.11318157 0.32872352 0.14134051
0.27283695 0.3686789 0.33458883 0.29145494 0.1658824 0.37381384 0.32223684 0.35557565
0.17860612 0.36124468 0.3506818 0.35961732 0.270579 0.18607545 0.14225364 0.15284972
0.36357474 0.33561397 0.14283997 0.36225355 0.16095817 0.28535232 0.14275222 0.1125429
0.3624463 0.11623289 0.2514746 0.20684896 0.33383664 0.31616023 0.19281127 0.35493138
0.18454824 0.10503667 0.12610276 0.1429409 0.14921093 0.13567933 0.13025561 0.412661

layers.10.running_var f4 [64]
00000000: f355 0d3e 22d7 a33d 1c03 ec3d 0eea c53e
00000010: 1699 a73e 631b 253f 9a88 133f 74e2 ee3e
00000020: 3b3d ae3e 2eeb 413f 28b8 f23e 3317 243f
00000030: 7a1d e73e eb25 f13e 4c93 283f 56cc 923e
00000040: 718a de3e 2469 813f 9778 d83e da17 053f
00000050: 16b6 143f efc0 e63d 2feb 0b3f 25fc 253e
00000060: a61b c03e 00c1 2c3f 2fe8 113f 6723 d03e
00000070: ccb2 963e 305e 393f 8d9a 093f 823d 233f
00000080: 38e1 ac3e 4cf6 253f 723d 223f ef84 2c3f
00000090: 7621 b13e 1269 ca3e ad65 213e 8d23 883e
000000a0: 1491 283f e0d4 0e3f c071 193e 79fe 313f
000000b0: 163e 853e 0543 c53e 34d8 313e aa86 d73d
000000c0: c3bc 2d3f 1958 013e b890 9e3e 217a e63e
000000d0: 27c4 0e3f aac7 fc3e 6292 c43e ed55 283f
000000e0: 2b26 c33e 83a9 c83d ac92 173e 6be2 0b3e
000000f0: 125e 793e 1810 103e 02e0 1d3e 7395 653f
0.13802318 0.08000018 0.115240306 0.38655132 0.32733983 0.64494914 0.5763031 0.46657145
0.3403109 0.7574948 0.47406125 0.640979 0.45139676 0.47099242 0.6584976 0.2867152
0.43464997 1.0110211 0.42279503 0.5198952 0.5809034 0.11267268 0.54655737 0.16209467
0.37521094 0.67481995 0.5699491 0.4065201 0.29433286 0.72409344 0.5375145 0.6376573
0.33765578 0.64828944 0.6337501 0.6739034 0.3459584 0.39533287 0.15761442 0.26589623
0.6584637 0.5579357 0.14984798 0.6952892 0.2602393 0.38527694 0.17367631 0.10523732
0.6786615 0.12631263 0.30969787 0.45015052 0.55768055 0.49371082 0.3839293 0.6575611
0.38115057 0.09797957 0.14802045 0.1366059 0.24352291 0.1406864 0.15417483 0.89681166

actor_classifier.weight f4 [15, 256]
00000000: 367c 3cbd 0432 a23c ab74 003d b6ec 6f3c
00000010: 1e25 39bb 69ab 6f3d 37e1 24bd 24dc f5bc
00000020: 83ec 48bd a783 3e3b 4169 36bc 47a5 803c
00000030: 7ae7 893b 2ffa ad3c 27c6 f03c ab05 5bbc
00000040: 3a95 7abc fa3f c33c fa0c 893d cdbb 013d
00000050: ae11 33bc c39c bd3c b8f7 773d e41a 0bbd
00000060: 9750 a53c 70d8 e4bc 338e 943d 9308 fdbc
00000070: 3565 6cbd 8037 3e3c 7884 1dbc d8d5 10bd
00000080: 8255 eebc e959 1f3d dacb cabb e1ff 2f3c
00000090: 9349 32bc bb1c 383d 1f2f 01bd 10a9 81bc
000000a0: 3e01 c7bc 9a2f d33c a5eb ea3c aee0 553c
000000b0: 159a 163d a584 143b df90 ff3c e790 373d
000000c0: ffed 22bc 9cb7 42bd a6de 803d d855 343d
000000d0: c64c bfbc a5cc 893c b0d9 83ba ebc1 9e39
000000e0: 8506 35bb fdd1 1ebd 0b8a 273d 4cd1 863c
000000f0: 4f82 b73c cdfe 80bd b142 27bd db2f 933c
00000100: cb3d 703d e05f debc af0e 973c d240 9abc
00000110: d482 2ebd f094 bfbc 22d5 123d f07e 923d
00000120: 0ed9 9e3c 3cde 24bc d9f0 5c3c 597a e63c
00000130: 8c7d 503d a909 233c 785f ab3c 8287 a83c
00000140: 097b 17bd 117b 063d 5128 2dbd 5285 6a3d
00000150: 69f3 68bc 9275 213c 29f5 c13c 4a9d 3c3d
00000160: f4a6 873c 5639 12bb f6a2 7e3d 10a7 0e3c
00000170: 9007 a5bc 650a e33c 55d2 193d 64bf 983c
00000180: 81eb ae3c 82a6 de3b dc64 62bc 4e6f b83c
00000190: e4cf f33c b69c 313d 16bf 553b 1ab8 293d
000001a0: d934 4c3d 6264 263d 55d8 17bd 0292 2bbd
000001b0: 372a 283d 7f65 343d c6b6 f8bc f79e 133d
000001c0: cc50 9a3c e604 2bbb fcc8 fe3c 9b68 693d
000001d0: 4ecd 953c 5850 c93b cd1c 01bd b302 6f3d
000001e0: d654 073d 2f89 5c3d 4c0a 7b3c 44db cc3b
000001f0: 6220 e0bc a1d4 1e3d 0e8d 563d a71b 8e3c
00000200: d95c 64bb 6def 95bc 3ae1 493d 47c0 f93c
00000210: e0b0 d0bc 525f 0dbb 9e75 723d 8ba6 aa3c
00000220: 51e7 e0bc d458 2fbc 886b 37bc 8879 0dbc
00000230: 3b84 c5bb f350 2b3c 7c3a 173d cc2c 22bd
00000240: 4476 b73c 5068 223d 11c2 d83c c53c 6ebc
00000250: 34e8 04ba f4ad 963b dac9 3a3d fd22 26bd
00000260: 2af6 01bd ab02 a0bc 5091 c63c 9a0a 3abc
00000270: 7193 24bc 13c6 223d da34 99bc 04a7 103c
00000280: e151 26bc 31f4 413c 0fee 1fbc 65df 053d
00000290: 4914 56bd 88db 803b 421e 3a3d 8e55 37bd
000002a0: cbed 653d 1076 1a3d 9969 743c debe cf3c
000002b0: e083 0fbd 8c71 543d 1d3b 0ebc 85e6 813c
000002c0: 149c 2cbd c76c bebc ea08 393d c554 023d
000002d0: 5f3d 1c3c 9042 49bd 867c f03c 8755 01bd
000002e0: a072 f93b f359 5e3d f755 3ebd f622 f43c
000002f0: 93b7 ebbc bf13 4bbc 653d 0c3d b2ac b83b
00000300: c153 cbbb 770e 693d c9e5 983d 10d1 81bd
00000310: ee3d 2f3c 9bf4 aa3d 1955 583d c2de 4bbd
00000320: 354b c9bc 5e19 c63c ba1e afba bab8 133d
00000330: 898e 7b3b 30bd 4a3d ff30 813d a95b 253d
00000340: d9c1 623b fcb1 2f3d b7cd 633b 5f8d f93c
00000350: 7b30 95bc c786 673d 7712 d6bb 85eb 6f3c
00000360: 1134 dcbc 9b3e b2bc c6a8 703d 8688 0cbd
00000370: 77a9 e93c a900 c3bb 889b cb3c 2a06 103d
00000380: e6ee 96bc e0f0 4a3c bba6 7d3d 2599 f23c
00000390: 2ac2 773c 3ccc e9bc 05da 34bd 64f1 0fbd
000003a0: 86c9 923c 1fb7 723c 2d5b 523d d48e 3ebd
000003b0: 21fa 0abd f2d9 d53c 6ccf 47bd 9e6c de3c
000003c0: 2f4c 4f3d a147 59bc c22b b63d 72b6 17bd
000003d0: 1013 acbb 27c5 f5bc a8f1 d2bc ab57 5a3d
000003e0: 97c9 bebc ece0 023d c819 16bb 022c c8bc
000003f0: 7012 c33c 0795 33bc 8d2a 563d b57c 28bd
-0.046016894 0.01979924 0.031361263 0.014643839 -0.0028250883 0.05851308 -0.040253844 -0.030012198
-0.04905368 0.002907017 -0.011133493 0.01570381 0.0042085024 0.02123746 0.029391361 -0.013368051
-0.015294367 0.023834217 0.06691928 0.03167324 -0.010929508 0.023146039 0.060538977 -0.03396119
0.02018003 -0.027935237 0.07253685 -0.030887878 -0.057713706 0.011609912 -0.009614103 -0.035360187
-0.029093508 0.038904104 -0.006188852 0.010742159 -0.010881799 0.044949275 -0.03153908 -0.015827686
-0.024292585 0.025779534 0.028676817 0.013054056 0.036768038 0.002266207 0.03119701 0.044815924
-0.009944438 -0.047538385 0.06292467 0.04402718 -0.023352038 0.016821215 -0.0010059383 0.00030280589
-0.0027622294 -0.03877448 0.040903132 0.016457222 0.022401003 -0.062985994 -0.040835086 0.017967155
0.05865268 -0.027145326 0.018439619 -0.018829737 -0.042605236 -0.023386449 0.03584779 0.07153118
0.01939061 -0.01006275 0.013485157 0.028134512 0.05090098 0.009951034 0.020919546 0.020572428
-0.03698257 0.03283221 -0.042274777 0.05725605 -0.01421819 0.009854691 0.023676472 0.04604844
0.016559102 -0.0022312007 0.06216713 0.008706823 -0.020145208 0.027714917 0.037554104 0.01864595
0.021352531 0.0067947516 -0.013817992 0.022514012 0.029762216 0.04336234 0.0032615117 0.04143534
0.049855087 0.040623076 -0.037071545 -0.04188729 0.041055884 0.044042107 -0.03036059 0.036040273
0.018837355 -0.002609545 0.031101696 0.056984525 0.018286373 0.006143611 -0.031521607 0.058352184
0.03303989 0.053841766 0.015322279 0.0062517244 -0.027359191 0.038776997 0.052380614 0.01734717
-0.003484538 -0.018302644 0.04928706 0.030487193 -0.025474966 -0.0021571708 0.0591942 0.020831367
-0.02745405 -0.010702331 -0.011195071 -0.008634932 -0.006027726 0.0104563115 0.03692101 -0.039593503
0.02239526 0.03965026 0.026459726 -0.014540856 -0.00050700014 0.0045983735 0.045602657 -0.04056071
-0.0317289 -0.019532522 0.024239212 -0.011355067 -0.010044918 0.03973968 -0.01870196 0.008828882
-0.010151357 0.011838005 -0.009761347 0.03268375 -0.05226544 0.00393242 0.045439012 -0.044759326
0.05613498 0.03771025 0.014917755 0.025359567 -0.035037875 0.0518661 -0.008681086 0.01585699
-0.042141035 -0.023245228 0.045174517 0.031819124 0.009536116 -0.049135745 0.029356252 -0.031575706
0.0076125413 0.054285 -0.0464687 0.029801827 -0.028774058 -0.012394845 0.034238238 0.0056358213
-0.0062050526 0.05689856 0.07465703 -0.06338704 0.0106959175 0.08347436 0.05281553 -0.049772985
-0.024571994 0.024182018 -0.0013360598 0.03606484 0.0038384518 0.04949683 0.063081734 0.040370617
0.0034600405 0.04289435 0.0034760067 0.030462919 -0.018211594 0.056525018 -0.006532963 0.014643555
-0.026880296 -0.021758368 0.058754705 -0.034309886 0.02852319 -0.0059510064 0.024854437 0.03516213
-0.018424463 0.012386531 0.061926585 0.02961404 0.015121976 -0.02853977 -0.044153232 -0.035142317
0.01791836 0.014814167 0.051356483 -0.04652293 -0.033929948 0.026104901 -0.048781797 0.027151402
0.050609764 -0.013261707 0.08895065 -0.037039228 -0.005251296 -0.030001236 -0.025749996 0.053306263
-0.023289485 0.031952783 -0.002290355 -0.024435047 0.023812503 -0.010960824 0.052286673 -0.041134555

actor_classifier.bias f4 [15]
00000000: 74d3 3b3d 46b7 e63b def0 533d a8eb 26bc
00000010: e582 5bbd 050b 783d 9c98 923c b067 8bbd
00000020: a156 57bd 3834 25bd 4a74 ba3c 873c 2bbd
00000030: 5158 423d b92f 273c 0068 f23c
0.045855954 0.007040891 0.05174338 -0.010188021 -0.053591628 0.060557384 0.017895035 -0.06806886
-0.05257285 -0.040333003 0.02276053 -0.04180577 0.047447506 0.010204249 0.029590607
