Saved Models/model_checkpoint_coinrun_42_5e-05_400_6_256_0.99_0.95_0.25_1024_0.5_end_262_background.pth (torch, 154751 bytes, 21 tensors)

layers.0.weight f4 [32, 3, 8, 8]
000000 99 27 52 3d b7 3d d9 3b 41 f5 55 bd 77 64 5d 3d
       0.051307295 0.0066296714 -0.052235845 0.05405089
000010 70 27 2f 3d 06 82 4a 3d 5f 21 73 bd 0b 77 5d 3d
       0.04276222 0.049440406 -0.059357997 0.054068606
000020 4c 49 20 3d fe 90 78 3d da b1 90 3c 4d 63 06 bd
       0.0391324 0.06068515 0.017662931 -0.032809544
000030 0e fc 33 bd fd b9 17 ba 05 d8 55 bc d9 07 34 bc
       -0.04394155 -0.0005787907 -0.013051991 -0.010988199
000040 34 38 86 3c e3 99 75 3c 7d d6 ad 3b 4d 0d 05 3c
       0.016384222 0.014990303 0.00530511 0.008120847
000050 64 fc 38 bd 19 e5 8e 3d 37 e7 7e bc 88 36 65 bd
       -0.045162573 0.06977291 -0.015558056 -0.05596021
000060 98 56 98 3d 2c 56 14 3d ad 42 26 bd 1f ff a3 bb
       0.074383914 0.036214992 -0.04059093 -0.005004778
000070 f9 85 89 bc fa 15 c7 bb 15 e3 32 bc 6e 9b e1 bb
       -0.016787516 -0.006075618 -0.010918398 -0.0068849837
000080 f4 f3 77 bd bb 01 32 3c 43 ba 41 3c 26 34 05 3d
       -0.060535386 0.01086467 0.011824193 0.032520436
000090 8b 00 48 bb fc 49 5a 3d b8 a3 da 3c b6 36 89 3c
       -0.0030517902 0.053293213 0.026689395 0.016749721
0000a0 1c 9a af 3d 80 8b 13 bd 22 69 1a 3d d9 cd fa 3b
       0.08574316 -0.03602171 0.03769792 0.0076539335
0000b0 76 35 32 bd 9c cc 25 3d 6d 74 01 3d 70 cc 9e bd
       -0.043508016 0.040478334 0.031605173 -0.07753837
0000c0 56 32 1e 3d 7d 0a 5d 3d 7f 5e 1a bc 62 93 e9 bc
       0.038622223 0.05396508 -0.009421944 -0.02851266
0000d0 bc 96 b9 bc 5b 2e a6 bc b4 00 5b bd c1 66 36 bd
       -0.022654884 -0.020285776 -0.053467467 -0.044531588
0000e0 ad 47 21 bd 09 b9 b2 3d d6 cb 37 3d 8b 44 f9 3c
       -0.039374996 0.08726699 0.044872127 0.030428192
0000f0 8a 4d 89 3d f3 e7 36 3d ad 0f b8 3c 28 b7 35 3c
       0.067042425 0.044654798 0.022468412 0.011091031
000100 ad c7 4c 3d 5a 94 78 3d 54 13 0c bd 04 67 03 bd
       0.049995113 0.060688354 -0.03419812 -0.032080665
000110 19 fd ae 3a a2 01 6e 3d 31 33 8f bc 96 19 b0 bc
       0.0013350575 0.058107026 -0.017480465 -0.021496575
000120 51 6e e3 bc 6b c7 a1 bc 17 bf f7 3c 02 b0 92 3b
       -0.027762564 -0.01974841 0.030242486 0.004476548
000130 7b da 5f 3d b2 a2 40 bd 78 90 30 3d fc 3a 15 3d
       0.05465172 -0.04703016 0.043106526 0.036433205
000140 e9 0c 10 3d c1 07 46 bd 9e 26 58 3d 57 fa 5a 3d
       0.035168562 -0.04834724 0.052771203 0.0534614
000150 13 ac 99 bd 18 74 b8 3c 91 a5 3b 3d e3 05 0a 3d
       -0.07503524 0.022516295 0.045812193 0.03369702
000160 11 cf 25 bd 62 42 8d 3c 44 29 33 3c 7f 3f e9 bc
       -0.040480677 0.017243568 0.010935131 -0.02847266
000170 78 4f 05 3d a0 f4 96 bc 86 03 8b 3d 70 55 d5 bc
       0.03254649 -0.018427193 0.067877814 -0.026041716
000180 87 63 5d bd 11 d5 08 3d 7e f4 fc 3c ea 0f cb 3c
       -0.054049995 0.03340632 0.030878302 0.024787862
000190 4c 8f e9 3c 09 f6 f1 3b f0 eb e7 bc 7e 49 27 bd
       0.028510712 0.007384066 -0.028310746 -0.040841572
0001a0 52 68 60 bd 16 46 56 3d bc 03 b4 bd 4d 20 28 3d
       -0.054786988 0.052312933 -0.08789775 0.04104643
0001b0 f8 61 7f 3d d2 4c 36 bd 27 72 41 3d 32 29 da 3b
       0.06234929 -0.044506855 0.047228005 0.006657743
0001c0 0b 64 39 bd ea 63 f3 bc d6 ae 71 3b b6 75 e1 bc
       -0.045261424 -0.029710729 0.0036877892 -0.02752195
0001d0 5c 27 70 3c 3f db 8a 3c 3f 52 35 3c 57 33 24 bd
       0.0146578215 0.016950248 0.011066972 -0.040088024
0001e0 14 a5 88 bc 1d 80 e9 bc 9b e2 94 3d 5f f6 20 3d
       -0.016680278 -0.028503472 0.07269784 0.039297458
0001f0 5b d9 17 3d c7 c5 9d bc 75 cc 6c bd 43 be 2d bd
       0.03707252 -0.019259347 -0.057812173 -0.042417776
000200 c8 01 c1 3d f0 96 45 bc 79 ce 18 3b 91 4e f5 3c
       0.09424168 -0.012059912 0.0023316427 0.02994469
000210 1e e6 0f 3d 88 4f 5d bd 41 4e e6 3c 4f 7c 13 3c
       0.035131566 -0.054030925 0.028113486 0.009001805
000220 aa 9a 36 bd a0 6a 94 ba 91 c2 3e bd 2e 85 f4 bb
       -0.044581093 -0.0011323281 -0.04657227 -0.0074621653
000230 c9 27 f3 3c c9 2d 38 3d 55 ac 5b 3d f9 42 ed 3c
       0.029682057 0.04496554 0.053631146 0.0289626
000240 27 f1 3d bc 73 3b a9 bc e9 18 53 3d 13 ae 38 bd
       -0.01159314 -0.02065823 0.051537428 -0.045087885
000250 8c 1c 47 3c 13 53 ac 3c 28 21 ee bc cc 97 56 3c
       0.012152802 0.021035707 -0.029068545 0.013097715
000260 1c 9d ca 3c 4c 9f 28 bd b6 76 b8 bd 69 f2 50 3d
       0.024733119 -0.041167542 -0.09007017 0.05101243
000270 33 8e 35 bd 0d 79 ad 3c c6 92 7f 3d 04 08 5d bd
       -0.044325065 0.021175886 0.062395833 -0.053962722
000280 5a 6d bd bc 3c 8f 82 3c 2b 9b 54 3d 0d 45 58 bd
       -0.023123432 0.01593744 0.051905792 -0.052800227
000290 b8 07 8c bd 98 4e 77 3d 24 68 1c 3d 3f c2 92 3c
       -0.0683741 0.060377687 0.038185254 0.01791489
0002a0 f4 ea 31 3d ed bd 4a 3d a7 dc f8 bc 2c cd 59 3d
       0.04343696 0.049497534 -0.030378653 0.053174183
0002b0 2f 50 b2 bc 58 5b fb ba 92 bd c6 bc 42 66 13 3c
       -0.02176675 -0.0019177003 -0.024260316 0.008996548
0002c0 9d 6c 64 3d ff ac 00 3d 39 be c0 bc 07 d0 17 bd
       0.055767644 0.031414982 -0.023528205 -0.037063625
0002d0 2c d1 1d bd 56 00 7d bd db d9 76 3d 97 0b 5b 3d
       -0.03852956 -0.0617679 0.060266357 0.05347785
0002e0 68 43 70 3c da 6e 66 3d d8 59 55 bd 76 6f 24 bb
       0.014664508 0.05625806 -0.052087635 -0.002509085
0002f0 f6 26 ae 3c 89 d6 4d bd 54 7e 4a 3b e1 39 7d bc
       0.021258812 -0.050253425 0.0030898051 -0.015455694
000300 3e ec a5 bc 19 1f bf bd 01 4d ad ba ba 6f 62 3d
       -0.02025425 -0.09332103 -0.0013221801 0.055282332
000310 dd 0e 43 bd ec 9e 8b 3d 92 cc 6f 3d e0 50 c7 3b
       -0.047621597 0.06817421 0.058544703 0.006082639
000320 37 49 07 bc fd 2d 19 3d 82 ec 98 bc 36 09 4b 3c
       -0.008257202 0.037397373 -0.018667463 0.012392333
000330 fa 30 b1 bd a7 da 46 3d f5 b2 7c 3d 80 69 83 3d
       -0.0865192 0.048548367 0.061694104 0.06416607
000340 5e 67 2c bd e7 a9 90 bd 4d f2 20 bd d7 e6 d4 bb
       -0.042090766 -0.07063656 -0.039293576 -0.006497245
000350 b9 a4 78 3d 51 bb af 3c fa c0 f6 3c f1 70 7d bd
       0.060703967 0.021451624 0.030121315 -0.061875287
000360 30 48 11 3d fc 87 d6 3b 0c 16 72 bd 73 ab 96 3c
       0.035469234 0.0065469723 -0.059103057 0.0183923
000370 98 f9 96 bc 8b 89 4d bd 40 68 72 bd 59 be d0 bc
       -0.018429562 -0.05018 -0.05918145 -0.02548139
000380 02 81 70 3d 0e 52 7a 3c f8 9b 89 bd 7a f3 54 3c
       0.05871678 0.015278352 -0.06719202 0.012997502
000390 f2 7d 2b bd 37 10 af 3c c1 b1 65 bd aa 65 0f bd
       -0.041868158 0.021370037 -0.056077722 -0.035009064
0003a0 06 8d 43 3d 52 51 3a 3d 54 72 8d 3d 5c 53 18 3d
       0.047741912 0.04548771 0.06906572 0.037188873
0003b0 c1 67 50 3c 84 7d be 3c 5e b6 28 3d 47 dc 25 3d
       0.012720049 0.02325321 0.041189544 0.040493276
0003c0 b8 15 9f bd 7d 8f 61 3d 02 f7 40 bd 5d 20 81 bd
       -0.077678144 0.05506848 -0.047110565 -0.06305001
0003d0 1a c5 23 bd fd c2 8e bd 61 9b 60 3d 6d 6a 91 bd
       -0.039982893 -0.06970785 0.05483568 -0.07100377
0003e0 70 f4 71 3d c2 72 02 3c b7 3f c4 3c 38 ad 5e bd
       0.059071004 0.007961931 0.023956163 -0.054364413
0003f0 5d 18 c7 3c 17 3d 59 bc 0d 2d 54 3d c9 03 7e 3d
       0.02430361 -0.013259194 0.051800776 0.06201533

layers.0.bias f4 [32]
000000 62 6a 8f 3d f7 84 e9 bc c8 24 80 bd b0 7d bf bc
       0.07002713 -0.028505785 -0.062570155 -0.023375362
000010 11 62 b8 bd c6 b3 39 3d 46 e2 bf bc 63 c1 74 3d
       -0.0900308 0.04533746 -0.023423325 0.05975474
000020 14 d2 c7 3b 5d db ec bc d7 64 d1 bc cb 9a 72 3d
       0.0060980413 -0.028913194 -0.02556078 0.059229653
000030 57 06 4d 3b 65 72 1b bd a8 e6 9a bc 0d 1d 94 3d
       0.0031284296 -0.037950892 -0.018908814 0.072321035
000040 d3 64 8a bc c5 67 93 bd 94 c4 e9 bb ad 7f 47 3d
       -0.01689378 -0.07197527 -0.0071340296 0.048705745
000050 95 d6 09 bc 6d c2 73 3d 7e 76 26 bd a6 40 d8 bc
       -0.008412977 0.05951159 -0.040640347 -0.026398014
000060 f3 af 60 3d 8e 98 81 bd 00 e2 6b bd ec 90 31 bc
       0.0548553 -0.063279256 -0.057588577 -0.010837775
000070 72 c0 e6 bc b1 84 29 bd bc 1f a6 3d 66 91 df bc
       -0.028167937 -0.04138631 0.081115216 -0.027291011

layers.2.weight f4 [32]
000000 c7 d3 80 3f 2f d0 7e 3f b9 8e 7b 3f 50 8d 74 3f
       1.0064629 0.9953641 0.9826465 0.95528126
000010 fa 50 84 3f 4c 17 7e 3f cc 13 89 3f 11 06 7e 3f
       1.0337212 0.992543 1.0709167 0.99228007
000020 8b 38 7a 3f 56 67 7e 3f b0 f8 80 3f c4 8d 79 3f
       0.9774253 0.9937643 1.0075893 0.9748194
000030 92 1c 79 3f ef 45 80 3f 3e 66 82 3f 84 7d 7e 3f
       0.9730922 1.0021342 1.0187452 0.9941027
000040 d4 80 80 3f 10 23 80 3f d9 03 7f 3f 5c 52 79 3f
       1.0039315 1.00107 0.99615246 0.97391295
000050 b9 13 7d 3f ba 55 79 3f 40 99 72 3f 50 67 81 3f
       0.9885822 0.97396433 0.9476509 1.0109653
000060 d5 c6 82 3f b2 65 86 3f c3 38 7f 3f 42 7d 80 3f
       1.0216929 1.0499785 0.99695987 1.0038226
000070 1c d4 80 3f a2 2c 80 3f d5 3b 7f 3f f5 c4 79 3f
       1.0064731 1.0013621 0.9970067 0.9756616

layers.2.bias f4 [32]
000000 19 3d 5f bc 74 c0 9d bc 8a f7 82 3d 47 92 59 3d
       -0.013625407 -0.019256808 0.063948706 0.053118017
000010 0e 0d 1d 3c 42 6a e5 ba bf 4d 54 bd 56 e1 31 bd
       0.009585632 -0.0017502981 -0.051831957 -0.043427788
000020 4d fc 17 3c 47 67 5e bd 7b c8 99 3d aa af 0c 3d
       0.009276462 -0.05429771 0.07508942 0.034347214
000030 26 b6 11 3d 66 2f 8d 3a 72 72 0c bd a0 6f c7 3d
       0.0355741 0.0010771572 -0.03428883 0.09738088
000040 56 8f d5 bb 90 e0 46 bc 20 fb fd 3a c0 d8 c9 3c
       -0.006517331 -0.012138501 0.0019377209 0.024639487
000050 91 cc 48 bd 15 1d 82 3d f3 6b fb bc a6 4e 80 3c
       -0.049023215 0.06353203 -0.030691123 0.015662502
000060 60 fd 98 bc 28 12 fe 3c 33 7c 50 3d f6 f9 39 3d
       -0.018675506 0.031014517 0.050899696 0.045404397
000070 97 0f 46 bb 2d 71 0a 3c 8e 80 77 3d b9 b3 93 3d
       -0.0030221695 0.008449835 0.060425334 0.07212014

layers.2.running_mean f4 [32]
000000 78 32 1e 3f 76 58 c4 39 64 33 e0 3e b7 16 cd 36
       0.6179576 0.00037449942 0.43789208 6.1121204e-06
000010 c3 2c 1a 39 60 49 7b 3e d4 66 9b 39 83 c5 eb 3e
       0.0001470326 0.24539709 0.00029640517 0.46049127
000020 98 d1 ea 3d fa 0e 7e 3d ca 7a 1e 3d 68 d3 ad 3c
       0.11465758 0.062026 0.03869132 0.02121897
000030 bc ef b5 1f d0 b8 5b 3e 7b e3 8f 3e 6e 12 96 3d
       7.705309e-20 0.21457219 0.2810324 0.07327734
000040 6d 21 f5 3e b1 26 8d 3c e2 a3 72 3f e8 83 94 3d
       0.47877064 0.017230364 0.94781315 0.072517216
000050 01 44 e2 3c 1d 63 4f 3b d2 02 f4 3a a4 ba ac 3e
       0.027620317 0.003164477 0.0018616563 0.33736145
000060 c3 cd 8d 3e 4d 98 12 3a 04 00 00 00 f0 f0 8c 3e
       0.27696046 0.00055921526 6e-45 0.2752757
000070 36 b2 74 3e 8a f0 0e 3a 49 96 3e 3e 57 b7 00 3d
       0.23896107 0.0005452713 0.18612017 0.031424847

layers.2.running_var f4 [32]
000000 25 5c 7e 3d d0 97 4b 38 89 6c 2f 3d ab 33 93 33
       0.062099595 4.8540358e-05 0.042828117 6.854619e-08
000010 ca 95 98 37 ed 0d 4d 3c c7 f4 9a 38 6b e8 02 3d
       1.8189563e-05 0.012515527 7.3888856e-05 0.031959932
000020 af ab b0 3b cd 02 c5 3a 26 42 a1 3a 73 f5 37 3b
       0.00539156 0.0015030742 0.0012303039 0.0028069883
000030 79 bd b3 1d 89 8e 66 3c 21 68 3e 3c b6 f4 3c 3b
       4.7576816e-21 0.014072069 0.011621506 0.0028832383
000040 75 83 36 3d f4 b9 11 3a 38 6d 1b 3e ae 58 98 3b
       0.04455896 0.000555902 0.15178382 0.0046492433
000050 12 86 ae 3b ea 75 04 39 d0 f8 8b 39 a9 6c ad 3c
       0.005326041 0.00012632427 0.00026697526 0.021169977
000060 df a5 50 3c 6e ec ce 38 04 00 00 00 e5 c9 5e 3c
       0.012734859 9.866884e-05 6e-45 0.01359794
000070 be 9e 64 3c ef 95 46 39 3a 3c ba 3b a2 89 0a 3b
       0.013953863 0.00018938606 0.005683449 0.0021139164

layers.4.weight f4 [64, 32, 2, 2]
000000 d2 4a a6 3d 8f d1 2d 3d c6 92 b2 3d bc bc 1e 3d
       0.081197396 0.04243618 0.08719401 0.03875421
000010 4b 20 7d 3d 54 6e 4c 3c 32 c7 32 3b 58 42 43 bc
       0.061798375 0.012477476 0.0027279374 -0.011917673
000020 83 26 9b 3d 49 9a 68 3d fd b4 70 3d 11 58 79 3d
       0.07575705 0.056787763 0.058766354 0.060875002
000030 a0 c1 4a 3d cd 29 82 bd 07 b1 c4 bd 10 f1 fe bb
       0.04950106 -0.06355629 -0.09604078 -0.0077802017
000040 fd 1e 0f 3d 48 2b 19 3b 0d ad b5 bc 74 78 8a 3c
       0.034941662 0.0023371745 -0.022177244 0.01690314
000050 a8 d4 e2 3c 25 83 41 bd b0 29 04 3d 25 37 0c 3d
       0.027689293 -0.04724421 0.03226632 0.034232277
000060 1d 6b 23 bd 4e 18 b0 3c 1d 60 04 bd 91 d5 94 bd
       -0.039897073 0.021495964 -0.032318223 -0.07267297
000070 b2 0a 4e 3d fa af 4d bd 60 fb 8a 3c 90 8b 87 bd
       0.05030317 -0.050216652 0.016965568 -0.06618416
000080 db d5 78 bd bf 78 39 3d 0a 21 e9 3c 7d 28 dd 3d
       -0.060750823 0.045281168 0.028458137 0.10798738
000090 24 d6 13 3d 21 44 d8 bc 43 4c 38 bd 9c 23 e3 3c
       0.036092892 -0.026399674 -0.044994604 0.02772694
0000a0 cc 52 3a bd f3 49 22 bd db 9f 64 bd 42 d1 fe 3b
       -0.045489118 -0.039621305 -0.055816513 0.0077764103
0000b0 c2 b3 63 3d 97 fa 6b bd 05 34 6f ba 31 db 73 bd
       0.055591352 -0.057612028 -0.0009124878 -0.05953521
0000c0 c8 fe a8 bd da c2 18 bd 18 77 92 bd ca cd 47 bd
       -0.08251721 -0.0372952 -0.071516216 -0.04878024
0000d0 c4 0c ec bc 95 57 44 bb 09 c2 6b 3c 4d 65 42 bc
       -0.02881468 -0.002995943 0.014389523 -0.011864972
0000e0 99 59 a5 bc 04 6b 90 bd 29 b0 a5 3d 85 4a 50 3d
       -0.020184325 -0.070516616 0.080902405 0.050852317
0000f0 ef b1 ac bd 2b 88 03 3d 0c e8 93 bd c8 ac c4 bd
       -0.08432376 0.03211228 -0.07221994 -0.09603268
000100 64 74 84 bc 53 31 15 3c ae e6 67 3d ef 5f 73 3d
       -0.01616878 0.009105998 0.056616478 0.05941766
000110 20 d1 ee 3c 10 22 73 bd 73 9c a2 bd 28 77 71 bd
       0.029152453 -0.059358656 -0.079399966 -0.058951527
000120 96 3d 89 bd c0 cf 54 3d 17 41 bd 3d 8a f0 72 bd
       -0.067012 0.05195594 0.092409305 -0.059311427
000130 6c ca bf bd bd 13 05 bd 4f 87 0d bd ce 47 2a 3d
       -0.09364781 -0.032489527 -0.03455287 0.041572385
000140 84 85 f7 bb 23 d8 81 3d 5d 85 68 bd a7 b3 c7 3d
       -0.007553758 0.06340053 -0.05676781 0.09751063
000150 af fe be ba 82 34 a1 bc ca 93 9b bd 64 9a 5f bd
       -0.0014571751 -0.019678358 -0.07596548 -0.054590598
000160 d9 58 2e 3d f5 e2 70 3d 3b 1c 97 bd 6a 1f bb bb
       0.0425652 0.058810193 -0.073784314 -0.005710532
000170 f3 2c 5c 3c 8a 35 5c 3d d9 fd c9 bc 35 99 02 bd
       0.013438451 0.053761996 -0.024657177 -0.03188439
000180 69 87 aa 3d 5e e5 50 3d da 44 2d 3d d8 14 88 3d
       0.08326609 0.05099999 0.04230199 0.06644601
000190 fe 57 e5 bc 97 10 91 3c d0 30 2e 3d c0 68 69 3d
       -0.02799606 0.017708106 0.04252702 0.056984663
0001a0 b7 0f 00 bc 98 ef ad 3d 16 86 a8 3d 6b 9f 27 bc
       -0.007816247 0.084929645 0.082287 -0.010230879
0001b0 1d 33 85 bd e6 17 d1 bc 16 00 94 3c 84 2c 86 3c
       -0.0650389 -0.025524091 0.018066447 0.016378649
0001c0 de a2 22 bd 95 86 12 bb 99 1a 38 3d 00 5e a0 3d
       -0.039706104 -0.002235805 0.04494724 0.07830429
0001d0 4c 02 65 bc 03 b4 87 bd 9f f0 9b bd 7b fc c6 3c
       -0.013977598 -0.066261314 -0.07614254 0.024290314
0001e0 10 40 36 bd 20 16 c5 bd ba 2d a3 3d 77 f4 f1 bb
       -0.04449469 -0.09623361 0.07967706 -0.007383879
0001f0 69 0e f6 bc d4 85 0e bc d9 a6 07 bb 34 e8 ab 3c
       -0.030036168 -0.008698899 -0.0020698814 0.020984747
000200 6d 01 2a 3d 58 96 a2 3d 44 f3 6c bd a3 aa a9 3d
       0.041505266 0.07938832 -0.057849184 0.082844995
000210 1c 48 98 3d 2b 68 5e 3d 74 90 79 bd 76 e2 5e 3c
       0.07435629 0.05429856 -0.060928777 0.013603797
000220 71 4d cc bc 79 c3 4c 3d a7 1e 93 bd 4a 6c b2 bc
       -0.02493927 0.049991105 -0.07183581 -0.021780152
000230 7a 82 66 bd 6d 4d 68 3c 4d 62 67 3d 5b cc 38 3d
       -0.056276776 0.014178616 0.05649023 0.045116764
000240 94 ee 27 bd 19 59 b3 3c 91 19 91 bb 6e 58 4d bd
       -0.04099901 0.021893071 -0.0044280966 -0.05013316
000250 14 8d 98 3c f0 32 95 3d cd 9c 64 bc 82 63 ad 3d
       0.018621959 0.07285106 -0.0139534 0.08466245
000260 2d 3f 49 bd 67 81 30 3a 2a b0 90 3d 43 77 87 3d
       -0.049132515 0.00067331496 0.07064851 0.06614544
000270 42 84 38 bd f1 58 50 bd a8 d4 41 bd b7 5a fc bc
       -0.045048006 -0.05086607 -0.047321945 -0.030804975
000280 5b f5 4f 3d 1c ac ca bc 6f 5e 11 bc 7b ce c4 3d
       0.0507711 -0.024740271 -0.008872612 0.096096955
000290 f6 ab 62 bd 9d 4d 92 3d 94 ff a2 bc ab 4c 98 bd
       -0.055339776 0.0714371 -0.01989726 -0.07436498
0002a0 93 86 d1 3c e7 31 76 3d cb 07 40 3b 32 4b 13 bd
       0.025576865 0.060106184 0.002930152 -0.035960384
0002b0 f7 09 c8 bd cf 06 c2 bd c5 c4 27 3d 39 50 7b bd
       -0.09767526 -0.09473955 0.04095914 -0.061355803
0002c0 72 a5 2f bd cd 64 de 3b c9 02 85 3d 6e e8 36 3d
       -0.04288239 0.0067869187 0.06494672 0.044655256
0002d0 f3 11 ac 3d 29 0b b7 3c b9 d5 45 3c 8a 68 18 3d
       0.08401861 0.022344189 0.012074881 0.03720907
0002e0 21 79 97 bd 03 e0 ba bd 76 ba 39 3d e5 39 60 3d
       -0.073961504 -0.09124758 0.04534384 0.054742713
0002f0 f0 ea 01 3d 5f d9 ba bd 31 18 1d bd 56 66 8a bd
       0.031718194 -0.091234915 -0.03835315 -0.067578
000300 eb 90 82 bc c4 9b 1c bd da 4d 8b 3c 47 0f c2 3d
       -0.015938243 -0.038234487 0.017004896 0.0947557
000310 d3 af c4 3b 7a 07 46 bd d3 72 81 3c 6b e6 1d bd
       0.006002405 -0.048346974 0.015801823 -0.03854982
000320 06 88 b7 3b ee 54 ed 3c f0 cb ca 3d 01 b5 35 bd
       0.005600932 0.028971162 0.09902179 -0.044362072
000330 d4 25 b9 3c c7 a2 92 3d 67 cd 0e 3d 82 8d 60 3c
       0.022601046 0.071599536 0.034863856 0.013705613
000340 d9 b7 c5 bc d8 4b bb 3c 33 f8 2f 3d a4 74 5c 3d
       -0.024135517 0.022863314 0.04296131 0.053822175
000350 98 38 b8 bb 63 35 9f bc 25 f6 21 3c d7 e1 1e bd
       -0.005621981 -0.019434636 0.009885346 -0.038789596
000360 7c 0f 60 bc aa fe 82 bd 72 77 1d 3c a5 17 1f 3d
       -0.013675567 -0.063962296 0.0096109975 0.03884091
000370 d2 87 2b bd 2a fb e3 bc 10 65 0a 3c d4 6e 46 3d
       -0.041877575 -0.027829725 0.008446947 0.048445538
000380 5b bc 5b bc f0 80 aa 3d 4c eb 35 3d 5d f6 b5 3d
       -0.013411607 0.08325374 0.04441385 0.08884881
000390 2c 34 c0 bd e9 ab 0c bd 59 2e 7d 3d 77 48 36 3d
       -0.09384951 -0.034343634 0.06181178 0.0445027
0003a0 45 39 91 3c c3 17 7a bc 78 99 87 bd 74 e3 74 bc
       0.017727504 -0.015264454 -0.06621069 -0.014946807
0003b0 6d 79 24 3c 30 af 54 bc 25 63 7c bd e6 28 40 3c
       0.010038716 -0.012981221 -0.06161799 0.011728501
0003c0 e4 2e 4e 3d 03 cd a8 3c 95 0f 9f 3d a1 39 01 bd
       0.050337687 0.02060557 0.07766644 -0.0315491
0003d0 33 15 b4 bd 47 90 b9 bc ab bb a3 3d 9c 83 bd 3d
       -0.08793106 -0.022651805 0.07994779 0.09253618
0003e0 99 2e fe bb dc 44 d7 3c 98 eb 9a bb a9 71 b4 3c
       -0.0077570197 0.026277952 -0.004727792 0.022026854
0003f0 bd cb 1f 3d 0a 65 6f bc 8e 53 0c 3d ee 3c 56 bd
       0.03901266 -0.014611492 0.03425937 -0.0523042

layers.4.bias f4 [64]
000000 69 6f 75 bd 34 a7 94 ba f6 6e 15 3d 6b 73 e5 bc
       -0.059920702 -0.0011341334 0.036482774 -0.028009137
000010 51 30 e5 bd d4 cf 9a 3d 2e 56 ab 3d 34 83 5e 3d
       -0.11190856 0.07559171 0.08366047 0.054324344
000020 ae 0b e5 3c b1 a6 9b 3b a9 6c 89 bd d7 37 8d bd
       0.02795967 0.004750096 -0.067101784 -0.06895416
000030 cb 90 d8 bd 50 d1 5c bd 95 f4 1e 3d 93 41 b6 3c
       -0.10574492 -0.053910553 0.03880747 0.022248065
000040 c5 3a 55 3c 0c 4c bf 3c fc 88 f5 bc a1 38 d7 3d
       0.0130145 0.023351692 -0.029972546 0.10508848
000050 6c a8 be bc cd 52 92 3d a4 0c 85 bd 08 63 7e 3d
       -0.02327367 0.07144699 -0.06496552 0.062106162
000060 a8 98 28 3d 54 20 d6 bc 21 66 74 3d 5b 18 68 bd
       0.04116121 -0.026138462 0.05966771 -0.056663852
000070 12 ba 81 3c 15 5f c1 3c d5 32 2a bd 78 0f e0 3c
       0.015835796 0.023604909 -0.041552383 0.027351126
000080 5d 0f 3a bd 4d 1c ef 3c 08 8e 81 bd 79 b9 29 3d
       -0.045424808 0.0291883 -0.063259184 0.041436646
000090 6a 14 a0 3d 5b 4a 98 bd 79 bf a6 3d 8c f2 62 bd
       0.07816394 -0.07436057 0.08141989 -0.055407092
0000a0 45 92 05 3d 99 60 05 bd 8c a0 c9 3c be 12 41 bd
       0.032610197 -0.032562826 0.024612688 -0.047137015
0000b0 76 40 ae bc f3 dd c5 3a 51 45 ab 3d 99 8c 98 bc
       -0.021270972 0.0015096053 0.083628304 -0.01862173
0000c0 8c 06 c9 3b 4e b1 7a bc 5c 37 f8 3b 8e e6 13 3e
       0.0061348137 -0.015301062 0.0075749587 0.14443418
0000d0 2b 27 c1 bc 31 8d 91 bc 87 6f 4a 3d 04 3a a7 bd
       -0.023578247 -0.01776752 0.049422767 -0.081653625
0000e0 6e e8 b4 3c 22 fc ec bc 68 04 86 3c 9d 9f 52 3c
       0.022083487 -0.02892882 0.016359523 0.012855438
0000f0 bf 77 74 bd 85 9c 17 bd e0 b4 7d bd a9 9e 5e 3c
       -0.05968451 -0.037014503 -0.061940074 0.013587632

layers.6.weight f4 [64]
000000 7d 65 7a 3f f9 88 78 3f dc eb 7b 3f 24 47 7a 3f
       0.9781111 0.97084004 0.9840677 0.977648
000010 db 30 83 3f 64 29 7d 3f cc c5 7e 3f 53 2c 78 3f
       1.0249285 0.9889128 0.99520564 0.96942633
000020 1f 59 80 3f f4 be 80 3f 75 29 83 3f 89 00 76 3f
       1.0027198 1.0058274 1.0247027 0.96094567
000030 6a 10 80 3f 02 e9 80 3f 54 d7 80 3f 26 60 79 3f
       1.0005009 1.0071108 1.0065713 0.97412336
000040 94 7f 7a 3f ae 74 7c 3f e8 87 82 3f 2b a8 81 3f
       0.9785092 0.9861554 1.0197725 1.0129446
000050 72 07 7c 3f 08 6c 7d 3f 70 75 81 3f e8 c1 7f 3f
       0.9844886 0.9899297 1.0113964 0.9990525
000060 2c a3 83 3f 49 40 78 3f 8a 4c 79 3f 9b 57 83 3f
       1.0284171 0.9697309 0.97382414 1.026111
000070 5b fb 80 3f 4b 6d 76 3f 59 04 7b 3f f4 2d 78 3f
       1.0076708 0.9626052 0.9805351 0.9694512
000080 1d 26 7b 3f a9 b5 79 3f 3e 87 84 3f 02 5a 76 3f
       0.9810503 0.97542816 1.0353773 0.9623109
000090 98 97 82 3f ef b6 85 3f 44 cd 70 3f fe 7f 7c 3f
       1.0202513 1.0446452 0.9406321 0.986328
0000a0 00 74 7a 3f a6 31 76 3f ce f3 7a 3f 6d c7 7e 3f
       0.9783325 0.9616951 0.98028266 0.9952305
0000b0 69 a3 82 3f f1 be 76 3f 54 97 7b 3f 34 2f 81 3f
       1.0206119 0.96385103 0.98277783 1.009253
0000c0 a5 de 86 3f cb c8 79 3f 62 e4 7d 3f 74 d1 7c 3f
       1.0536696 0.9757201 0.9917661 0.987571
0000d0 f1 29 7c 3f 64 31 79 3f 1c 6c 79 3f bc ca 84 3f
       0.985015 0.9734099 0.97430587 1.037437
0000e0 49 f3 76 3f 43 24 82 3f c3 84 81 3f c3 1a 80 3f
       0.96464974 1.0167316 1.0118641 1.0008167
0000f0 74 ca 7d 3f 8a 0a 80 3f d4 9b 81 3f e2 73 7a 3f
       0.99137044 1.0003216 1.012568 0.97833073

layers.6.bias f4 [64]
000000 1c 31 5e 3d 53 f9 2b bd 34 1e a4 3d 05 b0 5f 3d
       0.054246053 -0.04198582 0.08013573 0.054611225
000010 17 06 a6 bd f1 c9 c7 3d f8 c1 bb 3c 88 27 81 3d
       -0.0810663 0.09755314 0.02291964 0.06306368
000020 33 29 80 bd 71 f6 ce 3d b0 0d cd 3c bd 7f 9d bd
       -0.06257858 0.10105599 0.02503094 -0.0769038
000030 16 6c 96 3d e3 ed a3 3b a7 27 32 3d 7d e9 11 bd
       0.073448345 0.0050027235 0.043494847 -0.035623062
000040 e5 c1 c2 3d 75 87 d9 3c e2 d2 13 3e bc a0 ef 3d
       0.09509639 0.026553849 0.14435914 0.117005795
000050 16 7b 1c 3c 4a 0f b5 3d d8 45 b7 bb 94 8a b9 3d
       0.00955083 0.08840807 -0.005593043 0.09059635
000060 71 f3 dc 3d 7b 7e 89 bc 7a eb c8 3c b6 f1 43 3d
       0.1078862 -0.016783943 0.024526346 0.047837935
000070 e4 d0 0f 3d 52 4f e7 3c e7 f8 68 3a 5d de 80 3c
       0.035111323 0.028236065 0.0008887187 0.015731031
000080 4c d1 06 3d 12 af 4a 3d 92 91 58 bd 52 aa ae 3d
       0.032914445 0.049483366 -0.0528732 0.0852858
000090 32 f1 a6 3c 80 f5 a3 ba 71 5d a2 3b 97 5d d7 bc
       0.020378683 -0.0012509078 0.0049549867 -0.026289744
0000a0 da 53 6e 3d 1f 66 a4 3d ea 93 ea bc 6c ad 8d bd
       0.058185436 0.080272906 -0.028634984 -0.06917843
0000b0 f5 6c a2 3d a4 1f c7 3b 5b 68 19 bd a7 a9 40 bd
       0.07930938 0.00607677 -0.037453037 -0.047036793
0000c0 6b 70 50 bd ba 2b 64 b6 ec fc 8b 3d d8 c9 a6 3d
       -0.05088846 -3.40001e-06 0.068353504 0.081439674
0000d0 78 8a 57 3d 66 cb 80 bb be ae 9e 3c 10 c1 b0 3d
       0.05262229 -0.003930497 0.019370433 0.08630574
0000e0 4d 16 cd 3d fb 2e 90 3c c0 20 f7 3c b5 23 21 bd
       0.10014019 0.017600527 0.030166984 -0.039340694
0000f0 c4 b4 83 3d de e3 2f 3c 8b 52 2e bc 43 bf 58 3d
       0.06430963 0.01073548 -0.010639797 0.052916776

layers.6.running_mean f4 [64]
000000 6b 7b 85 3e f2 73 d1 3e 90 90 40 3f 73 fe b6 3e
       0.26070723 0.40908772 0.75220585 0.35741004
000010 70 bf 32 3e 3c bb 0f 3e c7 93 7c 3e 18 37 12 3f
       0.1745584 0.14036268 0.24665748 0.57115316
000020 94 3d 35 3e 18 03 74 3e 1c 4f 92 3d 9e bf 15 3e
       0.17699271 0.23829305 0.07143995 0.14623877
000030 c7 08 a5 3e b0 c0 86 3e 87 a9 36 3e bb f1 23 3f
       0.3223326 0.26318884 0.17838107 0.64040726
000040 c5 ae ac 3e b8 bf 62 3e e3 ad 9f 3d 91 15 a4 3e
       0.3372709 0.22143447 0.07796838 0.32047704
000050 ad af df 3d 5d ce a3 3e 1e 82 4f 3e 94 8d c8 3e
       0.10922179 0.3199338 0.2026448 0.39170516
000060 58 26 ae 3d 54 86 ef 3e 56 89 e3 3e e1 00 e9 3d
       0.08503407 0.46782172 0.44440717 0.11377121
000070 ab b1 5a 3e dd a6 7a 3e 6e 73 cf 3e fe 0b 8b 3e
       0.21356837 0.24477716 0.40517753 0.27157587
000080 43 88 ef 3e 8e a1 70 3e 7b e2 cf 3d b9 90 a0 3e
       0.46783647 0.23499128 0.101506196 0.31360415
000090 7e 56 d6 3e aa 34 85 3d 6d b8 a2 3e 7c e0 b3 3d
       0.41862863 0.065041855 0.3178133 0.08783051
0000a0 0c 88 6d 3e f2 3d 1f 3f 1c 60 1e 3e 68 36 27 3e
       0.23196429 0.62203896 0.1546635 0.16329348
0000b0 ab 6a 3b 3e f0 ce 99 3e c8 4a 02 3f 5c dd 5e 3e
       0.1830241 0.30040693 0.5089536 0.2176413
0000c0 40 28 da 3c 26 2e 7f 3e 26 de 9f 3d 73 20 d3 3e
       0.02663052 0.24919948 0.07806043 0.41235694
0000d0 08 4a e6 3e 60 fd bd 3d 9e 75 00 3f 2a 74 ec 3d
       0.44978356 0.09276843 0.5017947 0.11545594
0000e0 34 fa 4f 3f 62 ce f0 3d fb 75 cc 3d 19 38 06 3e
       0.81241155 0.117581144 0.099834405 0.13107337
0000f0 a9 2b 8e 3e 52 de a1 3d 63 d3 14 3d 06 a5 ca 3e
       0.27767685 0.07903732 0.036334407 0.39579028

layers.6.running_var f4 [64]
000000 80 c5 87 3e b3 43 e7 3e b3 21 99 3e 7f a2 fc 3e
       0.26517868 0.45168838 0.29908523 0.49342725
000010 95 97 35 3f 2d b0 8e 3e ef 98 81 3e 1e ca af 3e
       0.7093442 0.27868786 0.25311992 0.3433389
000020 dd 22 0a 3f b3 4e 85 3e 54 be 46 3e 67 e3 6a 3e
       0.5395945 0.26036605 0.19408542 0.2293831
000030 39 ab 00 3f a9 63 11 3f f0 ef a7 3e bf 8e 86 3f
       0.50261265 0.56792694 0.32800245 1.0512313
000040 40 25 98 3e ab 45 d7 3e ec ba bb 3c 07 05 e4 3e
       0.2971592 0.4204534 0.02291628 0.44535086
000050 43 86 65 3e 27 91 7b 3e 33 16 09 3f 6b 49 11 3e
       0.22414498 0.2456709 0.535495 0.14188163
000060 4a 6c 97 3c 02 b0 37 3f c4 16 6c 3f 6e 97 73 3e
       0.018484253 0.7175294 0.9222224 0.23788235
000070 62 a8 b9 3e 6f f6 bc 3e 6b b8 f2 3e 3b e6 d0 3e
       0.36261278 0.36906764 0.47406325 0.40800652
000080 4e d9 92 3f e6 ba de 3e f8 0a e8 3e b4 66 f0 3e
       1.1472566 0.43501967 0.45320868 0.46953356
000090 dd e1 be 3e 9c 07 24 3e 62 3f be 3e 75 30 1b 3e
       0.37281695 0.16018528 0.37157732 0.15155204
0000a0 7d 57 e6 3e d5 1d 99 3e 3c c2 bd 3e 6e 03 a3 3e
       0.44988623 0.29905573 0.37062252 0.31838554
0000b0 9b 76 2c 3e ce 6a f4 3e 6c 3e 2f 3f 7d 9a 2e 3f
       0.1684212 0.47737736 0.68454623 0.6820448
0000c0 60 e2 47 3c 49 d9 cc 3e c4 48 07 3e bf 93 71 3f
       0.012199968 0.40009525 0.13211352 0.9436607
0000d0 97 3c 5f 3f fa 75 9c 3d f0 e8 b6 3f 70 98 c8 3d
       0.8720183 0.0763969 1.4289837 0.097947
0000e0 9a 32 c8 3e 05 86 1b 3f 71 20 a8 3e f7 44 6f 3e
       0.39101106 0.6075137 0.3283725 0.23366152
0000f0 69 80 f3 3d 8c 31 d0 3e aa f0 2c 3e d1 3f 41 3f
       0.11889727 0.406628 0.16888681 0.75488

layers.8.weight f4 [64, 64, 2, 2]
000000 44 53 d7 3c 0f e9 ce 3c 31 c1 a3 3b a5 5b 2f 3d
       0.026284821 0.025257615 0.0049973954 0.04281201
000010 bf 9d 53 3d ab 26 32 bd fc e9 7e 3c 65 66 df 3c
       0.05166411 -0.043493908 0.015558716 0.027270505
000020 82 87 50 39 7e f3 3b 3d b1 06 1f 3d ba e9 92 3c
       0.00019886906 0.04588651 0.03882474 0.017933715
000030 4d 55 9c 3c 64 0f 36 3c c2 12 14 3d 21 57 69 bc
       0.019083643 0.011112068 0.0361507 -0.014241965
000040 f1 fa 72 bc 7b 4b a3 bd 27 36 2f bd b7 f6 46 3d
       -0.014830337 -0.07973381 -0.042776253 0.04857513
000050 ca 5d c5 bc e6 35 0d 3c 6b 03 25 3d 5d 83 84 3d
       -0.024092574 0.008618807 0.040286463 0.06470368
000060 4c 6e 72 3c 97 86 d6 ba 96 9d c0 bc cf 4a d0 bc
       0.014796805 -0.0016367015 -0.023512643 -0.025426297
000070 6d 85 41 3c ba e9 eb 3b b9 6d 7d 3c 86 75 09 3d
       0.011811596 0.0071994932 0.015468054 0.033559345
000080 e0 d3 2a 3c c2 fc cd ba db 66 82 bc 30 e3 81 bd
       0.0104264915 -0.0015715586 -0.015918186 -0.06342161
000090 69 ce 7e bc 34 4b 98 ba 4d cd 18 3c 88 e7 ae 3d
       -0.015552142 -0.0011619092 0.009326291 0.08540255
0000a0 8b 9c 73 bd 55 8f 26 3c 19 2c 27 3d 5f 3c 2c 3d
       -0.059475463 0.010166009 0.04081354 0.04204976
0000b0 15 27 79 bd 4f c8 88 3b 55 af ea bc e5 fb cb bb
       -0.060828287 0.0041742693 -0.028648058 -0.0062250965
0000c0 4c a1 f4 bc 32 76 6d bd 96 30 df 3c 71 e7 3b 3d
       -0.029862069 -0.057974048 0.027244847 0.045875017
0000d0 54 87 42 3d 5e 4d d0 3c 1a 71 67 bc 38 03 71 3d
       0.04749234 0.025427517 -0.014126087 0.05884096
0000e0 68 9e bc 3c 53 0f 51 3c aa 4f 2f 3d d9 57 1f 3d
       0.023024753 0.012760001 0.042800583 0.038902137
0000f0 b5 4f e4 bc dc 47 3d bd 06 49 53 bd 3d 00 79 bb
       -0.027870039 -0.04621111 -0.051583312 -0.0037994527
000100 f4 8a 2d 3d 9b fe ad 3c 0c f0 3a bc 0c d2 70 3d
       0.042368844 0.02123957 -0.011409771 0.058794066
000110 b9 66 2e bb 6d 1b 42 bc 11 20 62 3c 02 ba 2d 3c
       -0.002661152 -0.011847359 0.013801591 0.01060343
000120 32 ea 0f 3d d7 ba 4c 3d f1 e4 21 3d dd c1 61 3c
       0.035135455 0.04998287 0.039524976 0.013779131
000130 b0 67 49 3d d7 b9 97 3c b6 17 15 bc 12 63 b5 3d
       0.04917115 0.018521233 -0.009099891 0.08856787
000140 d0 ce 94 bc 29 5a 23 3c 96 cb f3 3c c8 85 ed bb
       -0.018165022 0.009970226 0.029760163 -0.007248614
000150 ed e1 ba 3c 85 f3 24 3d 45 d4 9c bc 40 2f 29 3d
       0.022812808 0.0402713 -0.019144187 0.041304827
000160 69 14 e2 3b 0d 43 49 3d 6b 09 d1 3c 8e 99 40 bd
       0.0068994057 0.04913621 0.025517186 -0.04702144
000170 e1 ce cb 3c 8f 26 2a 3d 8a 5d 8c 3d 93 e4 ce 3c
       0.024878921 0.04154068 0.06853779 0.025255477
000180 da 6b 58 3d 72 be c2 3c fc 30 70 bb 25 c9 46 3c
       0.05283723 0.023772452 -0.003665029 0.0121329175
000190 fd c7 85 bd f2 ae 45 bd c8 54 35 bd 4d c9 f1 3c
       -0.06532285 -0.048262544 -0.044270307 0.029514933
0001a0 36 9a b7 3b a0 7e 33 bc 59 2a 3a 3d 04 58 d7 3c
       0.0056031 -0.010955483 0.045450542 0.026287086
0001b0 87 ac 19 bb 67 8e 80 3b d0 4c 2b bd bb f8 0d 3b
       -0.0023448782 0.0039232257 -0.0418213 0.0021663147
0001c0 31 8c 4d 3b 11 81 2d bc 13 5d b2 bc b2 fd b6 bb
       0.0031364078 -0.010589854 -0.021772897 -0.005584442
0001d0 36 07 9c 3c 38 7b 01 bd 3f cf bc bb 2a d9 ad 3c
       0.019046407 -0.03161165 -0.0057620103 0.021221716
0001e0 1e ac 87 3c b6 09 65 bb 03 de e6 3b be ea a4 3a
       0.016561564 -0.0034948415 0.007045509 0.0012582166
0001f0 2d 6e ae ba b5 38 40 3d 08 e4 3f bd a1 6c 18 bd
       -0.0013307981 0.04692908 -0.046848327 -0.03721297
000200 b2 f1 2e 3d d0 3c 32 3c 46 0e fb 3c f0 8c c5 bc
       0.042710967 0.010878757 0.030646455 -0.024115056
000210 b9 28 b0 3b 27 27 22 3d 90 69 16 bc 9d ab e3 bb
       0.0053759483 0.03958812 -0.0091804415 -0.006947948
000220 95 4c 84 bd 28 8e 81 bd e7 58 26 bd 76 20 e1 3c
       -0.06459919 -0.06325942 -0.040612128 0.027481299
000230 a3 6f dd 3c 19 2c 3f 3d 8b 7f 2e 3b 6f 20 10 bc
       0.027030772 0.046672914 0.0026626315 -0.008796795
000240 ef c8 30 3d 1e b0 07 bd 3c 05 ee bc 88 fb 1e bb
       0.043160375 -0.033126943 -0.02905523 -0.002425881
000250 43 c4 07 bd 1e 27 2e 3d 55 97 2b bc be aa 76 3c
       -0.033146154 0.042517774 -0.010473092 0.015055357
000260 b3 51 ea bc 81 42 66 bb ba 9a 0e 3d 09 1c a3 bb
       -0.02860341 -0.0035134854 0.034815527 -0.0049777073
000270 fc 8e 2c bd 9d 2d 0d bc b7 96 08 bd 41 17 2a bd
       -0.042128548 -0.008616832 -0.033346858 -0.041526083
000280 45 d9 13 bc db 59 bc 3b 18 c1 21 3d ed 58 58 bc
       -0.009023969 0.0057480163 0.03949079 -0.013204795
000290 d5 7d e5 bc ef bd b1 3c 5b 79 84 bc d0 a6 04 3d
       -0.028014103 0.021697013 -0.016171148 0.032385647
0002a0 d0 bb 70 bd 82 a9 dc bb e8 81 1d 3d ef 88 6a bb
       -0.058772862 -0.006734074 0.038453966 -0.0035787185
0002b0 88 ca 12 bc d2 71 37 bd 75 49 1f 3d 70 aa 55 3c
       -0.00895942 -0.044786282 0.038888413 0.013041124
0002c0 db 9e e8 3c 2e 35 22 bd a9 40 72 3d c3 ce cc 3d
       0.02839606 -0.039601497 0.059143696 0.10000374
0002d0 d1 6f 88 3b c7 6c c9 bc 15 40 cb bc b7 53 86 3d
       0.00416372 -0.024588002 -0.02481083 0.06558936
0002e0 02 a0 8e bd a4 7a 32 bd 94 58 2c bd 93 58 00 bd
       -0.06964113 -0.04357399 -0.042076662 -0.03133447
0002f0 db c6 22 3c a9 78 0d bd 59 22 8d 3c 21 25 38 3c
       0.009935106 -0.0345389 0.017228292 0.011239321
000300 53 15 23 3c 61 ae e4 3c ea ff 69 3d 04 32 01 3d
       0.009953815 0.027915182 0.057128824 0.03154184
000310 cd da 07 3d 17 9c 92 3d 61 94 93 3b 74 01 ef bc
       0.03316765 0.07158678 0.004503772 -0.029175498
000320 bf 97 7b bb 1e 1a 2d 3d de 2a 20 3d 0a 27 8c 3d
       -0.0038390008 0.042261235 0.03910338 0.068433836
000330 58 77 60 3d 58 db 8d 3c 0b 29 33 3d 97 c1 69 bd
       0.054801315 0.017316505 0.043740314 -0.057069387
000340 d3 1b b4 bc eb 58 a4 3c cb e4 8d 3b 6a e4 49 bd
       -0.021985924 0.02006193 0.0043302528 -0.0492901
000350 94 2c 03 3d dc dd 22 3d 34 d8 6e 3d ba 80 95 bc
       0.032024935 0.039762363 0.058311656 -0.018249858
000360 0d fd e4 3a e5 c3 47 bd 14 18 7e 3c 56 3e aa bc
       0.0017470435 -0.048770804 0.01550867 -0.020781677
000370 d6 90 1f 3c 1c a0 49 bd c2 ee a8 3b ec 91 00 3c
       0.009739121 -0.049224958 0.0051554153 0.0078472905
000380 cc b3 0e bd 06 a7 04 3b 95 9e f7 bc b3 63 69 3c
       -0.034839436 0.0020241155 -0.030226985 0.014244962
000390 60 13 56 bc 61 57 93 bc 67 de ab 3c 24 34 43 bd
       -0.013066143 -0.017986001 0.020980073 -0.047657147
0003a0 b3 8a 6b bc 98 aa bb bc 55 43 30 bc 7f 5a 31 3c
       -0.01437633 -0.022908494 -0.010758241 0.010824799
0003b0 7e b0 ef 3c 48 41 21 bd 3d 92 81 bd ef 6c ba bc
       0.029258963 -0.039368898 -0.06326721 -0.022757022
0003c0 59 a8 48 3c fd a4 3a bd 99 3c ee 3a de 87 36 3d
       0.012247168 -0.0455675 0.0018176018 0.044563167
0003d0 86 f5 b4 bb 6b 89 8a 3b c3 ab d1 bc 24 cc b9 bc
       -0.0055224327 0.0042278073 -0.025594598 -0.02268035
0003e0 ab 45 47 bc 17 73 81 bb dc 7d 0a 3d 39 ae 16 bd
       -0.012162606 -0.0039504874 0.033811435 -0.036787245
0003f0 c7 15 2d 3b e5 8a 56 bc 66 31 cf 3c 38 0b 9a ba
       0.0026410685 -0.0130946385 0.02529211 -0.0011752611

layers.8.bias f4 [64]
000000 6c 78 0f 3e 01 df bd 3d d1 52 db 3d 2b 3f 03 3d
       0.14010781 0.0927105 0.10709155 0.032042664
000010 3c fd 8f 3c 75 70 9a 3c 55 03 c8 3c 42 5c 84 3d
       0.017576806 0.018852452 0.024415651 0.06462909
000020 b4 23 7c 3d 52 db e2 3c b1 b3 1e 3d 16 e0 ab 3d
       0.061557487 0.02769247 0.038745586 0.083923504
000030 bb 23 2d 3d 75 e6 93 3c ae f4 81 3d 2e 09 b2 bc
       0.042270403 0.018054226 0.06345497 -0.021732893
000040 72 bf 3f 3d 21 55 c4 3d 63 ae 9d 3d a4 9a e3 3d
       0.046813436 0.095865496 0.07699277 0.1111348
000050 7b 95 1a 3d 1c 3e 15 3d 97 4e 1d 3e 84 03 cb 3c
       0.037740212 0.036436185 0.15362011 0.02478195
000060 08 b1 51 3c 57 bb ae bc 40 3f 90 3d 7f 5a b7 3d
       0.012798555 -0.021329565 0.07043314 0.08952808
000070 f6 19 93 3d 72 2e 99 3d 6c 38 61 3d 16 a9 e1 3a
       0.07182686 0.07479562 0.05498545 0.0017216529
000080 d1 e3 95 3d cf 1a 95 3d 72 e2 55 bb af 25 0a 3e
       0.07318843 0.07280504 -0.0032636193 0.13490938
000090 6f 4f b0 3d f8 e5 0b 3d 5a a3 9c 3c d5 21 03 3d
       0.08608901 0.034154862 0.01912086 0.032014687
0000a0 37 f1 01 bd 3a 3e 15 3e 15 b2 96 3d 45 55 2a 3c
       -0.03172418 0.14574519 0.07358185 0.010396306
0000b0 3d fd 9e bd 4c 84 7c 3d 68 0f a2 3d 09 86 8b ba
       -0.07763145 0.061649606 0.07913095 -0.0010644804
0000c0 aa 75 bc 3d bb ef d5 bb 38 8c 87 3c 32 f6 62 3d
       0.0920213 -0.0065288222 0.016546354 0.05541057
0000d0 a3 2a 1d bd 03 ab 18 3d 6a 0b fc 3d 7c 8c 27 3d
       -0.03837074 0.037272464 0.123068646 0.04090546
0000e0 e8 99 5d bb 62 cd 25 3d 60 a4 f3 3d 21 97 69 3d
       -0.003381366 0.04047907 0.118965864 0.057028893
0000f0 7b 6d 2b bc 91 3d 19 bd 0b 8a 81 bc 17 23 dd bc
       -0.010463114 -0.03741223 -0.015812894 -0.026994271

layers.10.weight f4 [64]
000000 aa d0 a3 3f 56 07 a4 3f 9c a9 a4 3f 82 aa a4 3f
       1.2798054 1.2814739 1.2864261 1.2864535
000010 4e 08 a4 3f c4 4d a4 3f ee 5d a4 3f ad 23 a6 3f
       1.2815034 1.2836232 1.2841165 1.2979637
000020 7d 9b a4 3f b7 be a3 3f e9 31 a4 3f e4 6c a4 3f
       1.2859951 1.2792577 1.2827731 1.2845731
000030 61 4e a5 3f 32 82 a4 3f 2e d6 a4 3f bd 6d a4 3f
       1.2914544 1.2852232 1.2877862 1.284599
000040 e2 b0 a4 3f 8b 82 a3 3f a7 42 a4 3f 74 50 a4 3f
       1.286648 1.2774214 1.2832841 1.2837052
000050 c2 68 a5 3f a6 87 a4 3f 57 af a3 3f 75 db a4 3f
       1.2922595 1.2853897 1.2787884 1.2879473
000060 8a 0b a4 3f 9a fd a3 3f cb ce a3 3f cf b9 a3 3f
       1.2816021 1.2811768 1.2797483 1.2791079
000070 97 a4 a4 3f 83 c7 a4 3f f3 92 a3 3f c8 36 a4 3f
       1.2862729 1.2873386 1.277922 1.2829218
000080 11 aa a5 3f 7b 7d a4 3f 98 2e a4 3f 0d 9b a4 3f
       1.2942525 1.2850794 1.2826719 1.2859818
000090 f2 d8 a3 3f f2 4f a4 3f bb 53 a4 3f c3 a4 a5 3f
       1.2800581 1.2836897 1.2838053 1.2940906
0000a0 af 6c a3 3f 26 90 a4 3f e5 39 a5 3f 8f 72 a4 3f
       1.2767543 1.2856491 1.2908293 1.284746
0000b0 02 79 a4 3f 62 3a a4 3f 4d 3e a5 3f 49 38 a4 3f
       1.2849429 1.2830317 1.2909638 1.2829677
0000c0 9e d1 a5 3f b1 63 a3 3f 0a 8d a5 3f 48 55 a5 3f
       1.2954595 1.2764798 1.2933667 1.2916651
0000d0 71 b7 a3 3f 8d 10 a4 3f ac 40 a5 3f 23 9e a4 3f
       1.2790357 1.2817551 1.2910361 1.286076
0000e0 7d 21 a4 3f 55 78 a4 3f 00 28 a4 3f 4e 0d a4 3f
       1.282272 1.2849222 1.2824707 1.281656
0000f0 53 a9 a3 3f fd 08 a4 3f 47 0d a5 3f e3 2f a5 3f
       1.2786049 1.2815243 1.2894677 1.2905239

layers.10.bias f4 [64]
000000 e0 f9 f0 bd e9 ed 8f 3e 57 75 3f be 24 30 91 3e
       -0.1176641 0.281112 -0.18697105 0.2835704
000010 fb 7e 18 be 01 4f 8c 3e 70 63 96 be 4a a1 96 3e
       -0.14892189 0.27404025 -0.2937274 0.2941993
000020 88 71 69 3e 58 ca 89 be 2c 28 88 be 24 66 8f 3e
       0.22797215 -0.2691219 -0.2659315 0.28007615
000030 1f cb 57 be 4f 28 6a 3e 58 76 66 3e 49 aa 82 be
       -0.21073578 0.22866939 0.22506082 -0.25520542
000040 6f 8b 90 3e 71 e5 7a 3e 65 17 6d 3e 40 cc 90 3e
       0.2823138 0.24501587 0.23153456 0.2828083
000050 b9 2b 7b bd e5 20 7e 3e c6 b8 91 3e 7c 3f 66 be
       -0.061320994 0.24817236 0.28461283 -0.22485155
000060 33 fe 80 be a4 71 74 3e bb d4 6f 3e 6f 58 96 be
       -0.2519394 0.23871475 0.23420994 -0.29364344
000070 54 e2 dc bd f1 99 90 3e c7 3b 75 3e 31 a3 7e 3e
       -0.10785356 0.28242448 0.23948584 0.2486694
000080 55 0f 91 be 22 83 93 3e 55 36 8f 3e bb cb 91 3e
       -0.2833201 0.28810984 0.2797114 0.28475747
000090 6a 8b 8f be f4 58 90 3e 15 16 5b 3e b7 d7 94 be
       -0.28036052 0.28192866 0.21395142 -0.29070827
0000a0 0b f1 93 be 30 a7 92 3e 9d 2f 84 be 12 bc 8e 3e
       -0.2889484 0.2864318 -0.25817576 0.2787786
0000b0 1f 5f 91 3e 1d 32 8d 3e ce 27 91 be 13 82 95 bc
       0.28392884 0.27577296 -0.2835068 -0.0182505
0000c0 a3 e8 8e 3e aa 27 92 be ca 0c 82 be 59 1d 65 3e
       0.27911863 -0.28545886 -0.25400382 0.22374476
0000d0 b8 7f 74 3e d7 b5 8b 3e 16 84 95 3e b5 39 8a be
       0.23876846 0.2728717 0.29202336 -0.26997152
0000e0 34 0b 8b be 4b d8 8c 3e 29 9c 90 3e c3 fa 1d be
       -0.27156985 0.27508768 0.2824414 -0.15427689
0000f0 4e e3 73 3e 63 4c 7f be 30 f9 80 be bc ab 85 3e
       0.23817179 -0.24931483 -0.25190115 0.26107585

layers.10.running_mean f4 [64]
000000 f7 3a a1 3f de dd 0d 40 c6 83 83 3f 02 d8 cb 3e
       1.259612 2.2166667 1.0274589 0.39813238
000010 e1 1d 96 3f b5 0a d5 3f 38 85 6d 3f 75 07 06 40
       1.1727868 1.6643893 0.927814 2.0942051
000020 6b 24 81 3f 27 c4 8d 3f 38 1e 84 3f 49 e3 fd 3d
       1.0089239 1.1075486 1.0321722 0.12396867
000030 9e cf bc 3f c8 72 d2 3f d5 f5 d9 3f ac c1 eb 3e
       1.475086 1.6441278 1.7028147 0.46046197
000040 ac 00 ee 3e f6 17 92 3f 82 fb 3b 3f 75 0c c9 3f
       0.46484888 1.1413562 0.73430645 1.5706927
000050 29 60 b1 3f 57 bf 96 3f 84 12 d5 3f 1a ec bc 3f
       1.3857471 1.1777142 1.6646276 1.4759552
000060 b6 6d 83 3f 0e 9f b0 3f f8 c8 ce 3f e3 6c 6f 3f
       1.0267856 1.379854 1.6155081 0.9352552
000070 7a 4a bd 3f 15 bf c2 3f 04 ae 2a 3f 47 ac 6e 3e
       1.4788353 1.5214564 0.66671777 0.23307906
000080 59 8d 68 3f 61 44 0d 40 f2 3d 18 3f ce a2 ee 3f
       0.9084068 2.2072985 0.5946952 1.8643434
000090 c6 90 5e 3f cb 46 db 3f 34 f6 90 3f 1f 09 79 3f
       0.86939657 1.7130979 1.1325135 0.9727954
0000a0 08 ed 6d 3f 9f 47 e6 3f cc 35 94 3f 64 1b 01 3e
       0.92939806 1.7990607 1.1578918 0.12608105
0000b0 84 9f 08 3f e5 05 a5 3f 6a f8 87 3f c1 ec c5 3f
       0.533684 1.2892424 1.0622685 1.5462877
0000c0 6e cc 06 40 a5 b6 5b 3f 61 a4 e1 3f 46 de ba 3f
       2.1062274 0.8582557 1.762829 1.4599082
0000d0 e1 94 a0 3f 65 e2 c2 3f 6d dd 09 40 2f 0a 91 3f
       1.2545434 1.522534 2.1541398 1.1331233
0000e0 b7 af e2 3f 9b b4 c6 3f a3 bd c5 3f e8 40 bd 3f
       1.7709874 1.5523866 1.5448498 1.4785433
0000f0 98 2a 8b 3f ec cd 50 3f 3b 1d 5a 3e 36 c4 53 3d
       1.0872374 0.8156421 0.21300213 0.051700793

layers.10.running_var f4 [64]
000000 c1 1b 1e 40 6b 32 af 40 ff 28 e0 3f 82 db 84 3f
       2.470444 5.4749045 1.7512511 1.0379488
000010 0c cc 14 40 79 dc 62 40 f0 53 02 40 36 b7 98 40
       2.324954 3.5447066 2.0363731 4.7723646
000020 51 46 ee 3f 79 ea 47 40 9d fa 29 40 5c 8a cd 3d
       1.8615209 3.123686 2.6559212 0.100361556
000030 27 6c 52 40 c0 6c 9b 40 a7 1c a4 40 76 04 c0 3e
       3.287851 4.857025 5.1284976 0.37503403
000040 c4 af 97 3f e1 8d 19 40 ae 71 9f 3f bc 8f 2d 40
       1.1850514 2.3992846 1.2456567 2.7118979
000050 df fb 4f 40 fb aa 64 40 ce 45 86 40 cf ae 55 40
       3.249748 3.5729358 4.196021 3.3387945
000060 b5 d2 2e 40 63 45 a9 40 f9 61 a0 40 e5 e6 09 40
       2.7316105 5.28972 5.0119596 2.1547177
000070 90 2e 6c 40 f9 03 30 40 aa 78 71 3f 72 09 76 3e
       3.690342 2.7502425 0.94324744 0.2402704
000080 08 17 10 40 31 74 aa 40 d4 e1 f7 3f c2 fc 62 40
       2.2514057 5.3266835 1.9365792 3.546677
000090 ad f6 ca 3f b6 82 4a 40 2c 94 11 40 24 ae 03 40
       1.585653 3.164228 2.2746687 2.0575037
0000a0 54 5f 04 40 e4 32 60 40 f2 11 fe 3f 70 88 f9 3d
       2.0683184 3.503106 1.9849226 0.121842265
0000b0 dc d0 c7 3f b3 d7 94 40 68 9d 16 40 9e 02 8f 40
       1.5610614 4.6513305 2.3533573 4.4690695
0000c0 7c 74 8e 40 77 1e e4 3f 8c 57 8c 40 dc a7 92 40
       4.4517193 1.7821797 4.385687 4.5829906
0000d0 e6 5c 71 40 9e 85 85 40 40 53 99 40 a1 83 21 40
       3.771295 4.1725607 4.7914124 2.523659
0000e0 ea 76 99 40 ac 99 96 40 ae 58 23 40 d5 80 67 40
       4.795766 4.706259 2.5522876 3.6172383
0000f0 3c a7 35 40 d7 e4 01 40 4b c3 41 3e 07 71 0a 3d
       2.8383322 2.0295923 0.18922155 0.033799198

actor_classifier.weight f4 [15, 256]
000000 83 b1 17 3d e7 d4 af bc 0a 9f bb 3c b5 f2 91 bc
       0.037034523 -0.021463824 0.022902984 -0.017815927
000010 69 54 85 bc db 54 82 bd 9c 17 28 3d 35 31 40 bd
       -0.016275601 -0.06363841 0.04103814 -0.046921927
000020 f9 69 e9 3c ae 99 6c bc 3b 05 4a bb 5f 08 52 bd
       0.028492915 -0.014440937 -0.0030825872 -0.051277515
000030 e8 0d 39 3d d5 8f aa bc f3 82 84 3d 58 8a 4c bd
       0.045179278 -0.020820538 0.06470289 -0.049936622
000040 a5 56 22 bd 2b f6 df bb 86 13 53 3c 91 ae 3f bd
       -0.039633412 -0.0068347654 0.012883073 -0.04679734
000050 60 77 0b bd 57 6d 44 3d 8f c6 c9 3c cc 08 86 bd
       -0.03404939 0.047955837 0.024630813 -0.065446466
000060 31 e2 02 3d 90 2a cb 3c 5c f8 19 b9 e2 28 6b 3d
       0.031953994 0.024800569 -0.00014683738 0.057412036
000070 03 55 89 3c 8f 8a 7b bd c7 6f a5 bc 29 01 53 3d
       0.01676417 -0.061411437 -0.020194901 0.05151478
000080 13 d4 a9 3c 45 a6 b2 bc 40 90 f6 bc e3 ea 29 bd
       0.020731008 -0.0218078 -0.03009808 -0.04148377
000090 bb ca 0b 3d a9 53 3d 3c 99 fb ea bc 10 4b 67 bd
       0.034128886 0.011555591 -0.028684424 -0.05646807
0000a0 f8 9a 61 bd 59 fc 03 3d 7f 40 c2 3b 83 ba ce 3c
       -0.05507943 0.03222308 0.0059280987 0.02523542
0000b0 4c d0 03 3d 5c 8b 03 3d 32 2c 80 bb 74 8f 10 3d
       0.03218107 0.032115325 -0.0039115185 0.035293058
0000c0 d3 35 7e 3d 77 63 05 bc 78 a5 1e 3d 9e da 83 3c
       0.06206305 -0.00814139 0.038732022 0.016095456
0000d0 a0 ff cc bc b4 d1 2b 3d 58 f8 28 3b fa 63 bb bc
       -0.025024235 0.041948035 0.002578279 -0.022874821
0000e0 e1 27 f9 bb 73 3d 4c 3d fa e5 fb ba ed 4f bd bb
       -0.007603631 0.04986329 -0.0019218319 -0.00577735
0000f0 b3 1a 03 3d 12 28 ef bc e0 a8 31 3d 38 f9 26 3c
       0.032007884 -0.029193912 0.043373942 0.010191254
000100 eb 1f c8 bc 3f d9 e8 bb 7f 6a ec bc fb ae 6c bd
       -0.024429282 -0.007105976 -0.028859375 -0.057784062
000110 69 3b 3c 3d 05 b6 69 bd e1 06 26 bd c8 60 ad bc
       0.045955095 -0.057058353 -0.040533904 -0.021164313
000120 1f 17 59 3d 4c ac 9d 3c 0d 12 7f bd 5a 05 7a 3b
       0.053000566 0.019247197 -0.062273074 0.0038150162
000130 e7 d3 1c 3c 99 f9 e5 bc d9 cd 04 3c 8f 16 9f 3b
       0.009572006 -0.028073119 0.0081057185 0.004854984
000140 c2 a1 54 3b 3e 96 a6 3c e7 a9 d7 bc ea 97 8a bc
       0.0032445048 0.020335313 -0.026326133 -0.016918141
000150 34 5a 27 bc d7 a5 e9 3c 15 8f 7b bd 73 b4 6b bd
       -0.010214377 0.028521461 -0.06141575 -0.057545137
000160 d8 ca 07 bd e4 3d 43 bd 61 e7 07 3d c9 1e a1 3c
       -0.03315243 -0.047666445 0.033179644 0.019668
000170 36 65 6d 3d e7 cc f0 3c f9 3f 6a 3d 3d f5 b1 bc
       0.05795785 0.02939458 0.057189915 -0.021723384
000180 4a 67 81 3d 6e 69 0c 3d 87 ee 3a bc dc 22 08 bd
       0.06318529 0.034280233 -0.011409408 -0.03323637
000190 24 e5 78 bc 48 75 35 bc 93 04 91 3c 04 e2 34 3d
       -0.01519135 -0.011075325 0.017702376 0.044160858
0001a0 00 e4 e4 3c 0e a0 2f bd 38 16 0b bb c6 21 f1 3b
       0.02794075 -0.04287725 -0.002122296 0.0073587624
0001b0 73 4c 4a bd 0d ef 19 3d 51 50 bc 3c 87 2e 5c bd
       -0.049389314 0.037581492 0.022987517 -0.05375531
0001c0 6b 90 0e 3d 76 00 72 3d 7d a2 9a bb 31 e2 fb bc
       0.034805696 0.05908247 -0.004719077 -0.030747505
0001d0 ae e3 6b bc ff 25 6d bb 83 e2 a0 bc 84 e0 4d bd
       -0.014397545 -0.0036185978 -0.01963926 -0.050262943
0001e0 35 8e c2 bc 3b 3c 3f bd fa c5 5f bc 87 8c b1 bb
       -0.02374945 -0.0466883 -0.013658041 -0.0054183635
0001f0 be 95 75 3c 7e d3 4e bd f1 49 21 bd ed ae 50 bd
       0.014989315 -0.050494663 -0.039377157 -0.050948072
000200 82 01 08 bb 01 2c 23 bd f2 67 fe bc 4a 0e 70 3d
       -0.0020752852 -0.039836887 -0.031055424 0.058607377
000210 bd aa 23 3d be 9b 50 3b 8a bd 8b 3c 4d 4a d0 3c
       0.03995775 0.003183111 0.017058153 0.025426054
000220 dd 69 38 bd bb d3 a2 3c 7f 09 4c 3d 7d f6 69 3d
       -0.045022834 0.019876352 0.049813744 0.057119835
000230 8f b1 06 3c 58 2f 60 bd ab 18 36 bd 1f 80 34 bb
       0.008221044 -0.05473265 -0.04445712 -0.0027542186
000240 e3 08 23 3d 24 80 68 3d ce 39 6f bd a7 d8 c4 bc
       0.039803397 0.05676283 -0.058404736 -0.02402909
000250 21 65 8b bc 41 d3 0b 3c fc e3 ec 3c b4 85 27 bd
       -0.017015995 0.008534254 0.028917305 -0.040898994
000260 3a fd 5d bc b1 b5 6a bd 88 c0 40 bd 93 83 21 bd
       -0.013549143 -0.05730218 -0.047058612 -0.03943212
000270 e3 d0 40 3d 3f f1 d9 bc a6 d1 21 3d 08 16 90 3b
       0.04707421 -0.026604293 0.039506577 0.0043971576
000280 26 1b 68 bd 46 47 81 bc b6 a4 3e 3d 06 09 87 3a
       -0.056666516 -0.015781056 0.0465438 0.0010302372
000290 78 94 a5 3c b9 6d 69 3b 0d 9f 4e 3d 81 32 e8 3c
       0.020212397 0.0035618378 0.05044465 0.028344395
0002a0 bd 84 25 bd 98 51 1e 3d 04 80 a7 3c d6 f9 5e bd
       -0.040409792 0.038652033 0.020446785 -0.05443748
0002b0 51 f0 51 3c 92 d0 0f bd 0a a7 5d bd 68 0b ef ba
       0.012813644 -0.035111018 -0.05411438 -0.0018237652
0002c0 de cb 4a bd e3 a8 38 3d 39 31 4b bd 5d e9 60 bd
       -0.04951083 0.045082938 -0.04960749 -0.054910053
0002d0 ea 27 7d 3d eb 17 c9 bc e3 b1 23 bd 44 17 2f 3d
       0.061805643 -0.024547538 -0.039964568 0.042746797
0002e0 62 79 8b bc 13 7f 44 3d b5 93 43 3d f9 f0 57 bd
       -0.017025653 0.04797275 0.047748286 -0.052720044
0002f0 a6 5d 32 3d 24 af be bb 4a ca 5b 3d b7 d4 c7 3c
       0.04354634 -0.0058192182 0.053659715 0.024393423
000300 d7 8d c3 3b 6a 00 88 bd 12 64 5b bd b7 62 6a bd
       0.0059678364 -0.06640704 -0.05356223 -0.057223048
000310 c5 8a b8 3c 10 86 48 3c 92 7c cd bc bc 42 72 bd
       0.022527108 0.012238994 -0.025083814 -0.059145674
000320 0c b9 6e ba 2d 8e 37 bd d1 93 f4 bc 76 2d 4a 3d
       -0.00091065536 -0.044813324 -0.02985564 0.04935976
000330 49 48 d1 3c d3 4e 6c bd 91 20 cb 3c ef df 01 3d
       0.025547164 -0.05769236 0.024795802 0.0317077
000340 57 bf c7 bc 18 3f b4 bb 67 98 5a 3d f8 a0 6d 3d
       -0.02438323 -0.0055006854 0.053368 0.05801484
000350 88 3c 89 bc 16 7d 8d bc b1 8f 28 bd 2f 47 87 bc
       -0.016752496 -0.01727156 -0.04115266 -0.016513435
000360 3f 61 a7 3c 0a 60 af 3c 99 af 47 bd d4 bd 0d 3d
       0.020432113 0.0214081 -0.048751447 0.034604862
000370 5d 0d 7c bd 2d f4 72 bc 4a 78 3d bd 36 b2 eb bb
       -0.06153618 -0.014828724 -0.046257295 -0.0071928753
000380 23 7c 3a bd 4a 82 11 bd 59 ee 77 bc 45 b8 91 bc
       -0.045528542 -0.035524644 -0.01513251 -0.017788062
000390 6f d8 26 3d f3 76 61 bd 2a 38 31 3d 5a d3 b1 bc
       0.04073375 -0.05504508 0.043266453 -0.021707226
0003a0 3c 34 9b 3b f2 b4 b5 bc 1b 27 64 3c c9 25 3c bd
       0.0047364514 -0.022181008 0.013925339 -0.045934472
0003b0 98 24 10 bd c2 d8 31 bc 15 89 a3 bc dd 53 7c bd
       -0.03519115 -0.010854902 -0.019962827 -0.061603416
0003c0 df 67 df bc f0 5f b1 bc 03 dc dd bb b8 35 69 3d
       -0.02727121 -0.021652192 -0.006770612 0.056935996
0003d0 04 e3 ea 3b 2e 37 30 3d 8b e6 6f 3d b0 57 54 bd
       0.0071681757 0.043021373 0.058569472 -0.051841438
0003e0 eb 41 8c 3c 59 ab 18 3c 51 9a d3 bb c7 94 50 3d
       0.017121276 0.009318196 -0.006457605 0.050923135
0003f0 de 36 2b bd cc 57 36 bd 17 cb 67 bd 5f 53 cd bc
       -0.041800372 -0.044517323 -0.056590166 -0.025064168
