Saved Models/model_checkpoint_coinrun_42_5e-05_400_3_256_0.99_0.95_0.25_1024_0.5.pth (torch, 153047 bytes, 21 tensors)

layers.0.weight f4 [32, 3, 8, 8]
0.0848727 0.035826407 0.027381813 0.05730496 -0.005473106 0.018461619 -0.017622577 -0.05149895
0.04620804 0.043320466 -0.0075675217 0.06693485 -0.0020734146 0.009029845 0.050741434 0.051195927
0.00209135 0.04891748 0.05363623 -0.029450005 -0.063622475 0.050463285 -0.04574892 0.0099096205
0.030834824 -0.016950408 0.06552784 0.029599441 0.057645842 -0.042695325 -0.042608995 0.054815833
0.004080508 -0.06093079 -0.07161797 -0.07884447 0.035774488 0.032937348 -0.058256317 -0.059090313
0.03912091 0.035972074 0.035573844 0.068936616 0.05866702 0.0035055908 0.012427859 0.03787557
-0.07494349 0.023397392 -0.0003357322 -0.044858597 0.06052505 0.039464626 0.003147937 0.021262435
0.042946897 0.07178681 -0.04757192 -0.05587526 -0.045996234 -0.05214666 -0.052307297 0.058040265
0.013925257 0.013740168 0.0283418 -0.005590461 -0.034746103 -0.041576393 -0.028439742 -0.018552402
0.010874121 -0.02136155 -0.015395715 0.04608133 -0.012071253 -0.04399044 -0.031095708 -0.016719498
0.075442955 -0.030043174 0.07320678 -0.041177116 0.012878784 0.04020523 0.024291707 0.013559079
0.03694406 -0.027161002 0.017672144 0.0171474 0.06282748 0.026630657 0.05496716 -0.054809015
-0.032859206 0.045723476 0.03520068 -0.004792577 -0.03530565 0.06588175 0.0028349361 -0.045030005
-0.006884803 -0.033482753 0.027220502 -0.053462062 -0.054452617 -0.04569877 -0.0009775579 0.0101493355
0.03733028 -0.03642724 0.04148234 0.065853074 -0.03769597 0.05379211 0.016941551 0.016677355
-0.052193318 -0.019885678 0.07387704 0.032161016 -0.034429207 -0.05687602 0.0039768023 -0.0383795
-0.020522168 0.031360593 -0.038079422 0.08230661 0.04325455 -0.04951055 0.011325219 0.058224477
-0.023917302 -0.017104408 0.019866215 -0.012182836 -0.021739773 -0.06973141 -0.06777215 -0.04876814
0.042888653 -0.00852871 -0.03815245 0.067573026 0.037965894 0.062420517 -0.027920283 -0.036877137
0.020486057 -0.009734875 0.037938558 -0.034399454 0.024831548 -0.016326666 0.0366459 -0.052631192
-0.053226523 -0.0499299 0.05942397 -0.04697167 0.06484078 0.06224807 0.05424163 0.007937596
0.061413176 0.047194827 0.032126278 0.030479355 -0.026966615 0.05983499 -0.030148925 0.034581292
0.010916394 -0.028151622 -0.018173154 -0.04138389 0.07426589 -0.049198207 -0.00640835 -0.055204656
-0.023255318 0.045478065 -0.018172558 -0.049929965 -0.016444739 0.07415525 -0.012837758 -0.03388738
-0.053390592 -0.06411918 -0.024794541 -0.056390826 -0.02994593 0.029836953 -0.010121423 0.025756977
-0.04764926 0.0021331236 -0.024180196 -0.04883857 -0.02789539 0.05523282 0.030529583 -0.045543913
-0.06414934 -0.0032167924 -0.041178092 -0.050455008 0.03093841 -0.015071394 -0.07112768 -0.011337394
-0.016271785 0.039470594 -0.0043397313 0.048895292 0.053884003 0.064049736 -0.025502222 0.026327476
0.060141597 -0.028526202 0.03249753 -0.019282924 -0.052361745 -0.016769206 0.029383391 0.022051027
0.05472718 0.053512707 0.07448374 -0.05896714 -0.037064865 -0.07036809 -0.065485835 -0.03692008
-0.020290116 0.010273922 -0.04194595 0.005308156 0.0070603634 0.010682029 0.062062573 -0.042852163
0.011082511 -0.058390196 -0.014660877 -0.028980333 -0.02007462 -0.014515485 0.05081883 0.03160355
00000000: bdd1 ad3d b6be 123d d34f e03c 9bb8 6a3d
00000010: be57 b3bb d23c 973c 395d 90bc 90f0 52bd
00000020: a444 3d3d cd70 313d f9f8 f7bb 2315 893d
00000030: 20e2 07bb eaf1 133c 40d6 4f3d d2b2 513d
00000040: 080f 093b b25d 483d aab1 5b3d 2341 f1bc
00000050: 804c 82bd 97b2 4e3d 3863 3bbd f65b 223c
00000060: 5099 fc3c 95db 8abc 7633 863d 877a f23c
00000070: 0c1e 6c3d 4be1 2ebd c586 2ebd 9186 603d
00000080: c8b5 853b 9092 79bd 71ac 92bd 3679 a1bd
00000090: 4588 123d 50e9 063d 2d9e 6ebd af08 72bd
000000a0: 3f3d 203d 7457 133d e1b5 113d a42e 8d3d
000000b0: d44c 703d 0ebe 653b 389e 4b3c 6a23 1b3d
000000c0: f97b 99bd e3ab bf3c 3705 b0b9 a6bd 37bd
000000d0: 1de9 773d a9a5 213d 9e4d 4e3b 8f2e ae3c
000000e0: 16e9 2f3d f704 933d c6da 42bd 75dd 64bd
000000f0: 8c66 3cbd bc97 55bd 2d40 56bd a1bb 6d3d
00000100: c326 643c 711e 613c 102d e83c 3030 b7bb
00000110: ee51 0ebd 024c 2abd 76fa e8bc 35fb 97bc
00000120: 5f29 323c 6bfe aebc 4f3e 7cbc c7bf 3c3d
00000130: 81c6 45bc 522f 34bd 6dbc febc 54f7 88bc
00000140: d681 9a3d 1a1d f6bc 70ed 953d 56a9 28bd
00000150: 8901 533c 3dae 243d 67ff c63c e626 5e3c
00000160: a852 173d c080 debc 2cc5 903c b478 8c3c
00000170: b2ab 803d 8928 da3c 3f25 613d 6b7f 60bd
00000180: 6097 06bd 8a48 3b3d 972e 103d 0d0b 9dbb
00000190: a89c 10bd 03ed 863d 56ca 393b 6271 38bd
000001a0: ea99 e1bb 3625 09bd 88fd de3c 09fb 5abd
000001b0: b509 5fbd a22e 3bbd 6621 80ba 6649 263c
000001c0: a3e7 183d bb34 15bd 63e9 293d fadd 863d
000001d0: 1767 1abd 1e55 5c3d 02c9 8a3c f39e 883c
000001e0: a9c8 55bd 4ae7 a2bc d84c 973d 45bb 033d
000001f0: a405 0dbd d4f6 68bd d64f 823b d333 1dbd
00000200: 1b1e a8bc f773 003d 2bf9 1bbd 5e90 a83d
00000210: af2b 313d 93cb 4abd 698d 393c ca7c 6e3d
00000220: 38ee c3bc 8b1e 8cbc 79be a23c 859a 47bc
00000230: 9c17 b2bc 57cf 8ebd 20cc 8abd 1ac1 47bd
00000240: 03ac 2f3d 01bc 0bbc be45 1cbd ba63 8a3d
00000250: 2082 1b3d a8ac 7f3d 14b9 e4bc 7b0c 17bd
00000260: 60d2 a73c 067f 1fbc 7665 1b3d 71e6 0cbd
00000270: 886b cb3c 80bf 85bc 031a 163d ce93 57bd
00000280: 0e04 5abd 4b83 4cbd 8c66 733d 5e65 40bd
00000290: 3ecb 843d d5f7 7e3d 792c 5e3d b10c 023c
000002a0: 628c 7b3d 5d4f 413d d896 033d d7af f93c
000002b0: 17e9 dcbc 8915 753d e1fa f6bc 1da5 0d3d
000002c0: adda 323c 3b9e e6bc dedf 94bc 2782 29bd
000002d0: b718 983d 0f84 49bd 23fd d1bb 471e 62bd
000002e0: f081 bebc 3547 3a3d 9ede 94bc 5d83 4cbd
000002f0: 1eb7 86bc b5de 973d 7655 52bc 7ecd 0abd
00000300: 18b0 5abd eb50 83bd ec1d cbbc 11fa 66bd
00000310: 2b51 f5bc a06c f43c 53d4 25bc 4c00 d33c
00000320: df2b 43bd e0cb 0b3b 8c15 c6bc f40a 48bd
00000330: df84 e4bc cf3b 623d 2d19 fa3c 418c 3abd
00000340: bb60 83bd d2d0 52bb 5caa 28bd e9a9 4ebd
00000350: 8c72 fd3c 02ee 76bc 64ab 91bd 7ac0 39bc
00000360: 684c 85bc ebab 213d 4e34 8ebb 6e46 483d
00000370: 79b5 5c3d 822c 833d 09ea d0bc b8ac d73c
00000380: 0957 763d c8af e9bc 211c 053d 39f7 9dbc
00000390: 4579 56bd 935f 89bc 70b5 f03c 5ba4 b43c
000003a0: 9c29 603d 2430 5b3d ee8a 983d 8787 71bd
000003b0: 54d1 17bd 251d 90bd 701d 86bd 8339 17bd
000003c0: 7537 a6bc f453 283c 84cf 2bbd 0af0 ad3b
000003d0: 9f5a e73b ad03 2f3c 5335 7e3d c085 2fbd
000003e0: 6c93 353c 8f2a 6fbd 2d34 70bc 2a68 edbc
000003f0: 8873 a4bc 5bd2 6dbc 6827 503d b972 013d

layers.0.bias f4 [32]
-0.06471918 0.078610785 0.068151124 -0.029756602 0.052541878 -0.075188436 -0.037966467 0.08359654
-0.050482064 -0.049714953 -0.11904529 -0.038024012 0.04712223 -0.024607116 -0.0014194206 -0.051978186
0.0236775 -0.0031076893 0.04752523 0.023159815 0.036388274 -0.054708946 -0.037324052 -0.08108306
-0.06455804 -0.032581072 0.037080567 -0.043050483 -0.08988856 0.00059900916 -0.014005764 -0.03106505
00000000: 7d8b 84bd b1fe a03d d192 8b3d 1ec4 f3bc
00000010: 2736 573d 65fc 99bd ba82 1bbd aa34 ab3d
00000020: 48c6 4ebd e8a1 4bbd 04ce f3bd 11bf 1bbd
00000030: 3d03 413d dd94 c9bc da0b baba 14e7 54bd
00000040: 51f7 c13c 60aa 4bbb d1a9 423d a7b9 bd3c
00000050: df0b 153d 7d16 60bd 1be1 18bd e00e a6bd
00000060: 0137 84bd bb73 05bd cbe1 173d b455 30bd
00000070: 7e17 b8bd d306 1d3a 6f78 65bc 227c febc

layers.2.weight f4 [32]
0.9854261 1.013546 0.976483 0.9998493 0.97166574 0.9829698 0.9944602 0.9970159
0.9926501 1.0020168 1.0192555 1.0110253 1.0005836 1.0059099 0.99495053 0.9898885
1.0159184 0.98678356 0.9873712 1.0429015 1.0374509 1.0294545 1.0427792 0.9976231
0.94444096 1.007765 1.0167859 0.965942 0.94739956 0.997068 0.9980531 0.9904163
00000000: e344 7c3f e0bb 813f cafa 793f 20f6 7f3f
00000010: 16bf 783f e9a3 7b3f f294 7e3f 6f3c 7f3f
00000020: 511e 7e3f 1642 803f f776 823f 4769 813f
00000030: 2013 803f a8c1 803f 14b5 7e3f 5569 7d3f
00000040: 9d09 823f d99d 7c3f 5cc4 7c3f cc7d 853f
00000050: 31cb 843f 2ac5 833f ca79 853f 3a64 7f3f
00000060: e2c6 713f 72fe 803f 0a26 823f fa47 773f
00000070: c788 723f d93f 7f3f 6880 7f3f ec8b 7d3f

layers.2.bias f4 [32]
-0.017297339 -0.012861956 -0.012356031 -0.02704519 -0.031047635 0.030919652 -0.01946232 0.024862789
-0.025235571 0.014932572 0.0016475515 -0.02628997 0.00015894746 -0.009458545 0.028907947 0.012697871
0.028125282 0.019311596 -0.021019505 -0.012412667 -0.017031496 -0.018571574 -0.0094411485 0.009998293
0.010341138 0.005167127 -0.002037982 0.0008525291 -0.007882162 0.0072799185 -0.03672003 -0.04950404
00000000: 26b3 8dbc f4ba 52bc f370 4abc e08d ddbc
00000010: 9c57 febc 364b fd3c 716f 9fbc 0cad cb3c
00000020: d4ba cebc bfa7 743c a8f2 d73a 105e d7bc
00000030: 22ab 2639 03f8 1abc 5cd0 ec3c bb0a 503c
00000040: fe66 e63c 5a33 9e3c 1931 acbc 805e 4bbc
00000050: a385 8bbc 6a23 98bc 0caf 1abc e1cf 233c
00000060: e06d 293c 0151 a93b aa8f 05bb 427c 5f3a
00000070: 2f24 01bc 628c ee3b be67 16bd c0c4 4abd

layers.2.running_mean f4 [32]
58.43604 11.784052 0.6817694 20.680468 1.1634235 0.9277265 57.869534 17.08046
19.944355 3.1676052 0.2069585 32.90903 57.02041 70.3297 0.11316452 37.264194
0.8321587 0.8707796 110.4856 0.47694635 0.22413887 7.2985997 0.65648717 0.35195717
0.7022878 49.44493 3.3880079 1.755442 2.728145 23.013622 49.60145 104.93245
00000000: 81be 6942 7a8b 3c41 7088 2e3f 9971 a541
00000010: 10eb 943f 7c7f 6d3f 677a 6742 c8a4 8841
00000020: 0a8e 9f41 0bba 4a40 eeec 533e d9a2 0342
00000030: e614 6442 cea8 8c42 cdc2 e73d 890e 1542
00000040: 5a08 553f 69eb 5e3f a1f8 dc42 5032 f43e
00000050: a984 653e 218e e940 8b0f 283f bb33 b43e
00000060: 22c9 333f 9cc7 4542 1fd5 5840 53b2 e03f
00000070: ed99 2e40 e61b b841 e367 4642 6add d142

layers.2.running_var f4 [32]
4814.9116 317.29068 34.161003 575.05615 49.76652 28.640747 4122.7427 383.98233
497.1448 35.931732 8.607981 1679.7627 3584.4065 6174.8047 2.9012864 2263.874
35.0817 26.701595 13806.595 21.660751 8.151309 141.39838 33.128372 13.600209
27.268198 3537.4092 47.974754 93.421646 83.829384 725.0419 3634.5906 15175.52
00000000: 4b77 9645 35a5 9e43 dea4 0842 98c3 0f44
00000010: eb10 4742 4020 e541 f1d5 8045 bdfd bf43
00000020: 8992 f843 18ba 0f42 4aba 0941 68f8 d144
00000030: 8106 6045 70f6 c045 adae 3940 fc7d 0d45
00000040: a953 0c42 de9c d541 61ba 5746 3849 ad41
00000050: c36b 0241 fc65 0d43 7483 0442 759a 5941
00000060: 4525 da41 8c16 5d45 26e6 3f42 e2d7 ba42
00000070: a5a8 a742 ae42 3544 7329 6345 141e 6d46

layers.4.weight f4 [64, 32, 2, 2]
0.045433816 -0.05550965 0.06655195 -0.05917266 0.044805985 0.083391465 0.04938036 -0.040489037
0.013220605 0.011078476 -0.06303373 0.084545195 0.06166968 0.089240134 0.048534866 -0.063817024
-0.07763709 0.039978277 0.021276517 -0.030059878 0.0127442265 0.08858499 -0.035304446 -0.061453428
-0.0236532 -0.007710377 0.046447374 0.012546975 0.023286745 -0.018908452 0.04421241 0.010052993
-0.06509817 0.05359359 0.08293527 0.022902235 -0.060577597 0.07536324 0.05550858 0.06780176
0.022146448 0.009078454 0.010407974 -0.03655328 -0.08098693 -0.060675472 -0.013839197 -0.07533164
0.047274634 -0.084450625 0.08422389 0.06622577 -0.043080714 -0.06009947 -0.00021366889 -0.026036473
-0.03653401 0.06937207 -0.043145455 0.009003529 0.01406238 0.08885082 -0.021964168 -0.027696365
-0.011743762 0.07881792 0.032254282 -0.065128975 0.014428111 0.04123689 -0.017640686 0.030572195
0.027660912 -0.05777334 -0.024474017 0.03332587 0.036460433 0.023120094 0.035624623 0.034671098
0.06644591 0.02695589 0.037508104 0.056886595 0.030751908 0.051017404 -0.042460065 0.025797734
-0.067366496 -0.0012439517 0.07365737 -0.03238828 -0.06821031 0.021427589 0.008404474 -0.028080517
-0.004091286 0.025827592 0.0786035 -0.0011661767 0.06455782 0.07496593 -0.039811887 -0.07979083
0.067179374 0.052038185 0.042475913 0.03778661 0.044421613 0.09378363 -0.0044932207 0.074645706
0.024924634 0.062313925 0.03492508 0.041833054 -0.055133086 0.076618895 0.053197008 -0.051032264
0.06535024 -0.015357106 0.0013550743 0.091867976 0.07687724 -0.004151829 0.04430628 0.01212519
-0.01182694 -0.062150095 0.078815915 0.07250516 0.009871673 -0.032397293 -0.079945005 -0.00659806
0.06409129 0.076146975 -0.05621879 0.053380486 0.08099706 0.047195997 -0.0034751687 -0.017009297
0.021826543 0.04963596 -0.047156967 -0.077879146 0.040359177 -0.07086729 -0.00059924606 0.086496435
-0.067731775 0.077973895 -0.083583295 0.054813 0.0051825806 -0.0006793509 -0.033330183 0.035886068
0.008598438 0.025299978 0.058015104 0.0138158435 -0.02019323 -0.074070625 0.028120117 0.0909961
-0.01686305 -0.05009906 0.07619521 -0.018686019 0.014245786 0.07520128 0.026705269 0.048228897
-0.002832767 -0.02243614 0.051287834 0.005189873 -0.055596065 -0.027629474 0.03343415 -0.06488031
0.066397235 0.059412632 -0.053304985 0.031739738 -0.07917197 -0.063428566 0.009184641 0.05973036
-0.06841652 0.040213563 0.029134689 0.07964149 0.048269518 -0.030328872 -0.0062152776 0.02320743
0.0731149 0.043454602 0.070829846 -0.010098544 -0.04796578 -0.029488252 -0.026172733 -0.052553177
-0.03365292 -0.04282465 0.10809 0.01395641 0.09548826 -0.0543526 0.04012723 -0.010452656
0.03290751 0.10504771 0.0067586526 0.027333576 -0.076808855 0.014927102 -0.030902082 -0.033958904
0.033655427 -0.024065645 0.0149783315 -0.006815046 0.028605571 0.031862456 0.027595406 0.03386295
0.028626679 -0.058156148 -0.021671854 -0.08429488 -0.06861546 -0.013665311 -0.05354323 -0.061319247
0.03335929 -0.026102247 -0.013855407 0.05840062 0.052698635 0.07508031 -0.056081194 0.024683693
0.070052244 -0.062457122 -0.09186436 -0.075508505 0.036950625 -0.0676371 0.0030431317 0.001442752
00000000: cf18 3a3d 165e 63bd 644c 883d 085f 72bd
00000010: 7b86 373d 25c9 aa3d 0f43 4a3d d5d7 25bd
00000020: 3d9b 583c 7f82 353c d417 81bd 0826 ad3d
00000030: 5999 7c3d 88c3 b63d 7fcc 463d 80b2 82bd
00000040: 3200 9fbd 43c0 233d 174c ae3c 2240 f6bc
00000050: 29cd 503c 0c6c b53d 659b 10bd 97b6 7bbd
00000060: 5bc4 c1bc 55a7 fcbb 9a3f 3e3d d491 4d3c
00000070: d8c3 be3c e6e5 9abc 1218 353d 4fb5 243c
00000080: 3052 85bd f484 5b3d f8d9 a93d 789d bb3c
00000090: 3720 78bd 0b58 9a3d f75c 633d a6db 8a3d
000000a0: 786c b53c ccbd 143c 3586 2a3c e4b8 15bd
000000b0: 7adc a5bd d886 78bd cdbd 62bc 7a47 9abd
000000c0: 0ca3 413d 73f4 acbd 937d ac3d 60a1 873d
000000d0: 6775 30bd dd2a 76bd 4e0c 60b9 714a d5bc
000000e0: b0a4 15bd f212 8e3d 4ab9 30bd 8a83 133c
000000f0: e665 663c 6bf7 b53d 33ee b3bc 7de3 e2bc
00000100: e868 40bc 4a6b a13d 111d 043d 5762 85bd
00000110: e263 6c3c 03e8 283d 3383 90bc 8a72 fa3c
00000120: 2399 e23c bda3 6cbd bc7d c8bc b580 083d
00000130: 8957 153d 5a66 bd3c 20eb 113d 4803 0e3d
00000140: cb14 883d 99d2 dc3c 19a2 193d eb01 693d
00000150: 6deb fb3c a0f7 503d 9bea 2dbd c555 d33c
00000160: 72f7 89bd 180c a3ba add9 963d 93a9 04bd
00000170: d9b1 8bbd e988 af3c ebb2 093c 1d09 e6bc
00000180: 3210 86bb 6394 d33c dffa a03d 66da 98ba
00000190: e436 843d bd87 993d ca11 23bd 6069 a3bd
000001a0: 5795 893d fe25 553d 39fb 2d3d 22c6 1a3d
000001b0: 70f3 353d a211 c03d de3b 93bb d9df 983d
000001c0: bf2e cc3c e33c 7f3d 9a0d 0f3d 2359 2b3d
000001d0: 3bd3 61bd 5eea 9c3d 1be5 593d 3507 51bd
000001e0: 59d6 853d 5f9c 7bbc c09c b13a 4725 bc3d
000001f0: d071 9d3d 110c 88bb 807a 353d bca8 463c
00000200: c8c5 41bc 1991 7ebd 3d6a a13d 967d 943d
00000210: ccbc 213c 06b3 04bd 35ba a3bd 8a34 d8bb
00000220: 4b42 833d f2f2 9b3d ad45 66bd 7fa5 5a3d
00000230: c9e1 a53d 9750 413d a8bf 63bb 1557 8bbc
00000240: 94cd b23c 144f 4b3d aa27 41bd 1a7f 9fbd
00000250: aa4f 253d df22 91bd b916 1dba 0b25 b13d
00000260: f5b6 8abd c7b0 9f3d b82d abbd 9983 603d
00000270: a3d2 a93b 7816 32ba 3b85 08bd 45fd 123d
00000280: 77e0 0c3c e641 cf3c 3fa1 6d3d d95b 623c
00000290: 466c a5bc 57b2 97bd 295c e63c 2a5c ba3d
000002a0: 6124 8abc ac34 4dbd 3c0c 9c3d 6c13 99bc
000002b0: 2867 693c 2103 9a3d 02c5 da3c aa8b 453d
000002c0: f2a5 39bb ffcb b7bc 3113 523d cf0f aa3b
000002d0: b3b8 63bd 3557 e2bc 3ff2 083d f8df 84bd
000002e0: 46fb 873d a95a 733d 5456 5abd 8701 023d
000002f0: ea24 a2bd d6e6 81bd 2d7b 163c d2a7 743d
00000300: f61d 8cbd fab6 243d dfab ee3c 141b a33d
00000310: 42b6 453d 4174 f8bc 87a9 cbbb 821d be3c
00000320: 44bd 953d 74fd 313d 3d0f 913d 5d74 25bc
00000330: c477 44bd 5991 f1bc 3368 d6bc 0042 57bd
00000340: a5d7 09bd e668 2fbd 4a5e dd3d 6da9 643c
00000350: 598f c33d d5a0 5ebd 735c 243d 9e41 2bbc
00000360: 06ca 063d 4123 d73d b077 dd3b aaea df3c
00000370: f64d 9dbd ce90 743c 5d26 fdbc 7e18 0bbd
00000380: 46da 093d 5125 c5bc ad67 753c c050 dfbb
00000390: 3b56 ea3c 3582 023d c30f e23c e0b3 0a3d
000003a0: 7f82 ea3c 2435 6ebd 2c89 b1bc cba2 acbd
000003b0: 4386 8cbd 78e4 5fbc 2550 5bbd e429 7bbd
000003c0: c0a3 083d 61d4 d5bc ca01 63bc 7d35 6f3d
000003d0: 86da 573d b5c3 993d 65b5 65bd 7535 ca3c
000003e0: 8d77 8f3d 0ad3 7fbd 6223 bcbd 34a4 9abd
000003f0: 8a59 173d 5285 8abd 476f 473b b91a bd3a

layers.4.bias f4 [64]
0.046572823 -0.07336988 -0.058565587 -0.044821825 -0.05591661 0.003799411 -0.028170649 -0.12402631
0.055500653 -0.038244765 -0.06923814 0.08378853 -0.047769114 0.1054509 -0.08934074 -0.03434745
-0.08551497 -0.07335701 -0.08946006 0.08252915 0.026492663 -0.05454282 0.1058471 -0.006477892
0.04242534 -0.005391136 -0.06374403 -0.026188789 -0.0015920849 -0.07008367 0.017375765 0.021248534
0.03816135 0.11350568 -0.029432237 -0.04821495 -0.030724876 0.063423604 -0.057486042 0.0046409336
-0.016939739 -0.05777367 0.031194218 -0.059955757 -0.05320856 -0.016467305 -0.03116403 0.046684243
0.016864916 0.04544771 0.030636104 -0.06520654 -0.029467335 -0.083300725 0.025447216 -0.024166076
-0.05260683 -0.0003937386 0.039132718 0.0399971 0.073249675 -0.065940216 -0.082448214 -0.05346473
00000000: 25c3 3e3d f342 96bd 78e2 6fbd 1797 37bd
00000010: d108 65bd 8aff 783b 22c6 e6bc 8201 febd
00000020: a754 633d 8ba6 1cbd bacc 8dbd 5299 ab3d
00000030: 8ca9 43bd a4f6 d73d 47f8 b6bd e9af 0cbd
00000040: 7922 afbd 333c 96bd d636 b7bd 0b05 a93d
00000050: 2407 d93c 4b68 5fbd 5dc6 d83d 7f44 d4bb
00000060: 31c6 2d3d 20a8 b0bb 3b8c 82bd df89 d6bc
00000070: 81ad d0ba 0788 8fbd 9f57 8e3c 6811 ae3c
00000080: 134f 1c3d aa75 e83d e01b f1bc 0a7d 45bd
00000090: bcb2 fbbc 3ce4 813d 7c76 6bbd f912 983b
000000a0: 35c5 8abc 15a4 6cbd 048b ff3c 2b94 75bd
000000b0: 38f1 59bd 71e6 86bc b54b ffbc fa37 3f3d
000000c0: 4b28 8a3c 6127 3a3d 91f8 fa3c 028b 85bd
000000d0: 7b65 f1bc 9299 aabd ae76 d03c eff7 c5bc
000000e0: 427a 57bd b36e ceb9 a149 203d 00d4 233d
000000f0: ed03 963d aa0b 87bd 9cda a8bd d5fd 5abd

layers.6.weight f4 [64]
0.9952167 0.98215747 1.0429648 1.0103245 0.9973491 1.0313921 0.99862635 1.0087302
0.99970907 0.9885792 0.9750348 0.9880921 0.99452025 0.990034 1.0097035 1.0029027
0.9906965 0.97638947 1.0076196 0.9791621 1.015341 0.99978644 0.96792203 0.9929389
0.98574185 0.98161626 0.96880823 0.97647655 1.0279443 1.0063988 1.0043525 0.9983364
0.99513346 1.0095048 1.0055295 1.0141109 0.9918042 0.9910991 1.0142878 1.0310425
1.0070643 0.9966935 0.99479145 0.9885514 1.0120293 0.9742111 0.9962086 1.0135969
0.99891335 0.9882972 0.98226386 0.9930534 0.9945738 1.0071672 1.0240296 0.9965637
0.9798881 0.96775186 0.98028666 0.9998474 0.97924227 0.9886424 0.9988235 0.99931437
00000000: 86c6 7e3f ac6e 7b3f df7f 853f 5052 813f
00000010: 4552 7f3f a804 843f faa5 7f3f 121e 813f
00000020: efec 7f3f 8713 7d3f e19b 793f 9bf3 7c3f
00000030: e198 7e3f de72 7d3f f73d 813f 1e5f 803f
00000040: 499e 7d3f a9f4 793f aef9 803f 5eaa 7a3f
00000050: b2f6 813f 01f2 7f3f bdc9 773f 3e31 7e3f
00000060: 9459 7c3f 344b 7b3f d103 783f 5efa 793f
00000070: ae93 833f add1 803f 9f8e 803f f992 7f3f
00000080: 11c1 7e3f 7437 813f 31b5 803f 63ce 813f
00000090: e1e6 7d3f acb8 7d3f 2fd4 813f 33f9 833f
000000a0: 7ce7 803f 4e27 7f3f a7aa 7e3f b411 7d3f
000000b0: 2d8a 813f e665 793f 8707 7f3f 8bbd 813f
000000c0: c9b8 7f3f 0c01 7d3f a575 7b3f bf38 7e3f
000000d0: 639c 7e3f dbea 803f 6713 833f cc1e 7f3f
000000e0: f2d9 7a3f 96be 773f 11f4 7a3f 00f6 7f3f
000000f0: 9faf 7a3f ab17 7d3f e6b2 7f3f 11d3 7f3f

layers.6.bias f4 [64]
-0.034838133 0.004889228 0.031323176 0.0021826264 0.011706478 0.01403154 0.022723926 -0.0008078466
0.03756606 -0.009804623 -0.004891869 0.05302148 -0.043637216 0.018999554 -0.007431025 0.041562255
0.03866876 -0.013820569 0.06102003 0.042493053 0.0570452 -0.05364183 0.05293191 -0.038453877
-0.0025129623 0.030152611 0.043149155 -0.05648998 0.042490408 0.00015250132 0.024686264 0.047817856
0.02868016 0.057108156 -0.018807936 -0.050867245 0.03732931 -0.0371782 -0.019240651 0.006772698
0.03515075 -0.04010189 0.030444643 0.028693762 -0.010588227 0.08064987 0.041885328 0.008042651
0.030998964 0.04308812 0.04886889 0.009956081 0.06497186 0.008609636 -0.05633253 0.03173518
0.060975302 0.042254936 -0.04033948 0.059901327 0.030809447 0.004794733 0.043356724 0.05020918
00000000: 6eb2 0ebd d135 a03b bb4c 003d 650a 0f3b
00000010: 87cc 3f3c 8be4 653c 8727 ba3c abc5 53ba
00000020: dede 193d 92a3 20bc f94b a0bb 0d2d 593d
00000030: f0bc 32bd f4a4 9b3c f57f f3bb 2f3d 2a3d
00000040: 2263 1e3d ab6f 62bc 24f0 793d 320d 2e3d
00000050: 3aa8 693d 89b7 5bbd 21cf 583d d081 1dbd
00000060: 83b0 24bb 9c02 f73c 2bbd 303d 0a62 67bd
00000070: 6c0a 2e3d c3e8 1f39 d93a ca3c a8dc 433d
00000080: a8f2 ea3c 3eea 693d 1a13 9abc 2c5a 50bd
00000090: 9ee6 183d 2b48 18bd 929e 9dbc 82ed dd3b
000000a0: 3cfa 0f3d e141 24bd 0b67 f93c 2e0f eb3c
000000b0: 3e7a 2dbc c22b a53d f38f 2b3d 53c5 033c
000000c0: 8af1 fd3c 2b7d 303d bf2a 483d d51e 233c
000000d0: f70f 853d 6e0f 0d3c f0bc 66bd c0fc 013d
000000e0: 3dc1 793d 8313 2d3d 033b 25bd 185b 753d
000000f0: 1864 fc3c 231d 9d3b d296 313d 24a8 4d3d

layers.6.running_mean f4 [64]
0.75140333 0.26295206 0.06721096 0.38248953 0.10159353 0.15518847 0.24243689 0.25364962
0.27280855 0.37662917 0.4914294 0.28218335 0.19377533 0.34878933 0.23660992 0.11952888
0.12184956 0.346602 0.24563175 0.37057853 0.21828423 0.30752078 0.30588937 0.33965096
0.1874979 0.20055702 0.46997035 0.5235086 0.1364153 0.17057894 0.39941445 0.38664743
0.24337113 0.31196874 0.20807041 0.2646038 0.31407216 0.42680013 0.19804592 0.14835057
0.22626033 0.5987174 0.3800585 0.29557115 0.12863013 0.40414688 0.22215082 0.1875685
0.33472398 0.58871275 0.39844707 0.21853161 0.21195129 0.2694629 0.16198593 0.42364833
0.37039688 0.21896885 0.34061974 0.8866452 0.27855092 0.20809226 0.108843476 0.28335154
00000000: f85b 403f a7a1 863e e6a5 893d abd5 c33e
00000010: 4510 d03d bae9 1e3e 6041 783e 5dde 813e
00000020: 90ad 8b3e 8ad5 c03e a29c fb3e 567a 903e
00000030: 0a6d 463e 8494 b23e df49 723e 8fcb f43d
00000040: 438c f93d d175 b13e e486 7b3e 78bc bd3e
00000050: e785 5f3e 5d73 9d3e 889d 9c3e bbe6 ad3e
00000060: 73ff 3f3e d25e 4d3e f49f f03e a904 063f
00000070: 74b0 0b3e 3fac 2e3e 0d80 cc3e a7f6 c53e
00000080: 4836 793e 5eba 9f3e 6910 553e 267a 873e
00000090: 11ce a03e 8c85 da3e 8dcc 4a3e 36e9 173e
000000a0: cab0 673e 8b45 193f 0797 c23e 1a55 973e
000000b0: 9eb7 033e 57ec ce3e 817b 633e f511 403e
000000c0: f160 ab3e e1b5 163f 4101 cc3e c0c6 5f3e
000000d0: c209 593e 0bf7 893e a4df 253e 6fe8 d83e
000000e0: a9a4 bd3e 5f39 603e b665 ae3e 2efb 623f
000000f0: 3a9e 8e3e 2316 553e 54e9 de3d 7413 913e

layers.6.running_var f4 [64]
2.0474122 0.4566411 0.16176476 0.5866293 0.23616819 0.1757888 0.9281067 1.1626314
0.6003886 0.57325596 0.8620034 0.33989206 0.8841842 0.9401996 0.40359685 0.06755222
0.33865428 1.2099038 0.42294285 0.54796267 0.43547592 1.0150732 0.29563358 0.6548571
0.2744899 0.26612967 0.53634286 0.9898867 0.14008853 0.38114354 0.82255286 0.4029352
0.3044493 0.21642481 0.6432787 0.9177499 0.27635333 1.098627 0.7122775 0.13929632
0.8084068 0.73081696 0.5500265 0.5676909 0.49197206 0.43691838 0.57951856 0.3557992
0.123838246 0.8843829 0.5006202 0.17165151 0.39849046 1.2720599 0.6454182 1.4411309
0.5755414 0.31324455 0.56174284 1.3751204 0.5572052 0.38327968 0.22513433 0.2769092
00000000: cd08 0340 ddcc e93e a9a5 253e 562d 163f
00000010: 13d6 713e fb01 343e 6798 6d3f 1bd1 943f
00000020: 11b3 193f e7c0 123f 41ac 5c3f 5506 ae3e
00000030: e559 623f ecb0 703f 3fa4 ce3e d158 8a3d
00000040: 1864 ad3e 21de 9a3f f78b d83e 4847 0c3f
00000050: b3f6 de3e ebed 813f 495d 973e b7a4 273f
00000060: f189 8c3e 2642 883e c44d 093f 3769 7d3f
00000070: 5e73 0f3e 3f25 c33e d392 523f 864d ce3e
00000080: c7e0 9b3e 779e 5d3e eaad 243f a8f1 6a3f
00000090: 2f7e 8d3e cf9f 8c3f d157 363f b2a3 0e3e
000000a0: bff3 4e3f d216 3b3f 89ce 0c3f 3154 113f
000000b0: c3e3 fb3e c4b3 df3e 545b 143f 502b b63e
000000c0: e89e fd3d eb66 623f a528 003f 6ac5 2f3e
000000d0: f106 cc3e dcd2 a23f 213a 253f fa76 b83f
000000e0: ae56 133f 9761 a03e 61ce 0f3f f203 b03f
000000f0: 00a5 0e3f 3c3d c43e 9d89 663e 0bc7 8d3e

layers.8.weight f4 [64, 64, 2, 2]
-0.059116475 0.03382311 0.00608079 0.030507626 0.0073245177 -0.007136576 -0.036657717 -0.057502408
-0.042994052 -0.047344532 -0.0069749006 -0.05913741 -0.022915889 -0.018228963 -0.046502702 0.0034513187
0.026618391 -0.009273807 -0.02820224 -0.05391312 -0.017284257 0.033564918 -0.02263525 -0.0014959793
-0.022161085 0.027117943 -0.042968918 -0.038600087 -0.022146188 0.029610196 -0.061597742 0.05279329
-0.037355904 0.01784795 0.06548386 -0.030623235 0.008738891 0.028461142 0.0036116317 0.0058144056
0.05821712 -0.059540574 -0.033491284 -0.035959713 -0.02475256 0.078130715 -0.024556113 0.002176109
-0.015954059 0.01000828 0.032419253 -0.03492839 0.012548117 -0.04497964 0.019900164 0.060484152
-0.009654277 0.044418067 -0.03318516 0.017318958 -0.0018422251 0.004172542 0.0097788805 0.041239467
-0.011038235 0.038930837 0.063825205 0.05384436 0.004642143 -0.049141616 0.06766091 0.029071342
0.029946717 -0.043617908 0.038582504 0.01598012 -0.04987944 0.04513604 -0.033151988 -0.03988589
-0.015306481 0.042920724 0.013424882 -0.03369972 -0.0023056376 0.05042331 -0.03417152 -0.021939782
0.005686144 0.030249054 -0.002642062 -0.021194043 0.007316062 0.047928777 -0.002780672 -0.054305952
0.013773908 -0.06376645 -0.016687542 0.00744175 0.013445828 -0.038859926 -0.061571598 0.008870839
-0.036286827 0.018455045 0.044283364 -0.04112814 -0.025680551 0.027301906 -0.0465354 0.014792768
-0.07728709 0.027385892 -0.019709907 0.012100749 0.016078787 -0.043089226 -0.00878887 0.029740756
-0.009847508 -0.013552371 -0.04495303 0.033205234 0.02248347 -0.003504443 -0.07915345 -0.024828564
-0.012041437 -0.014037347 0.0028985352 -0.028314162 0.008973465 -0.045773618 0.02425831 -0.025843948
-0.008435442 -0.03677852 0.0045855325 0.03535379 -0.009310458 0.066533335 0.061162625 -0.015527104
0.024743969 -0.046289936 0.009152678 -0.0074516926 -0.05188507 -0.021201385 -0.010517234 -0.04031113
-0.017920272 -0.07459415 0.027626429 -0.067215264 -0.08777842 0.00067196897 0.008225786 -0.013077319
-0.011706993 -0.012087958 -0.017215366 0.038958218 -0.019671088 0.03406452 0.03178935 0.014572538
0.034686606 -0.04739467 0.044005677 -0.021675626 0.008512408 -0.05287024 0.04078448 -0.05738129
-0.031132346 -0.051049344 0.047929127 -0.024425002 0.0073478064 -0.041198663 -0.031727068 -0.036095817
0.05604746 0.009112507 -0.018750282 -0.018161591 -0.029148096 -0.014502582 -0.069851026 -0.008846789
-0.018159118 -0.031309746 0.033584632 -0.051667664 -0.014976453 -0.016184635 0.046513595 -0.025453072
0.009298368 0.020385528 -0.02088997 0.017173786 -0.04180705 -0.015864313 0.043713506 0.044723947
0.06683081 0.04486289 -0.014868374 -0.045872457 0.061037388 0.044822637 0.027725022 0.022648375
-0.046209734 0.027447 -0.052954644 -0.028739957 0.0200102 -0.06820381 -0.0475092 0.015502293
-0.066680156 0.020058384 0.012060366 -0.03146405 -0.018609729 -0.040257122 0.013380461 0.04135489
0.056696326 -0.035934273 0.020586852 -0.0016891217 -0.00040763646 0.036400933 0.033887718 -0.013533001
-0.02870135 0.05915155 -0.066914745 0.013291565 0.005648164 -0.024748117 0.04257677 -0.017231958
-0.075915225 -0.04427182 0.022108257 -0.061514586 -0.016591802 0.00063109206 -0.04324056 -0.011283925
00000000: 1e24 72bd 1a8a 0a3d 5d41 c73b 21eb f93c
00000010: 8202 f03b f0d9 e9bb 6726 16bd a587 6bbd
00000020: 881a 30bd 57ec 41bd b58d e4bb 123a 72bd
00000030: 1aba bbbc e854 95bc 9e79 3ebd 852f 623b
00000040: d00e da3c 2af1 17bc 6208 e7bc 01d4 5cbd
00000050: b797 8dbc 5e7b 093d 8f6d b9bc bc14 c4ba
00000060: 2a8b b5bc 7326 de3c 2d00 30bd 201b 1ebd
00000070: ec6b b5bc 1591 f23c ea4d 7cbd c73d 583d
00000080: 8102 19bd dd35 923c 671c 863d 94dd fabc
00000090: 912d 0f3c 5727 e93c 20b1 6c3b c586 be3b
000000a0: 1375 6e3d d1e0 73bd 282e 09bd 7e4a 13bd
000000b0: e1c5 cabc ff02 a03d e729 c9bc 0d9d 0e3b
000000c0: 16b2 82bc c5f9 233c 0dca 043d 1211 0fbd
000000d0: 9e96 4d3c 923c 38bd ab05 a33c 3bbe 773d
000000e0: f92c 1ebc b8ef 353d 2aed 07bd 7de0 8d3c
000000f0: d176 f1ba d2b9 883b 9937 203c b7ea 283d
00000100: b7d9 34bc f175 1f3d cab6 823d e78b 5c3d
00000110: 1e1d 983b b848 49bd ce91 8a3d 0627 ee3c
00000120: d152 f53c b1a8 32bd b008 1e3d bee8 823c
00000130: 624e 4cbd 91e0 383d 61ca 07bd 635f 23bd
00000140: 09c8 7abc a4cd 2f3d 09f4 5b3c b808 0abd
00000150: 2e1a 17bb ac88 4e3d 70f7 0bbd 0fbb b3bc
00000160: d552 ba3b ddcc f73c 7226 2dbb 219f adbc
00000170: 94bb ef3b f750 443d ef3b 36bb eb6f 5ebd
00000180: f5ab 613c fc97 82bd 50b4 88bc ecd9 f33b
00000190: e44b 5c3c 962b 1fbd 8032 7cbd ff56 113c
000001a0: 7fa1 14bd 092f 973c 7962 353d fb75 28bd
000001b0: 0560 d2bc 3fa8 df3c e79b 3ebd 5e5d 723c
000001c0: b248 9ebd 6158 e03c ac76 a1bc 3842 463c
000001d0: a9b7 833c 547e 30bd 31ff 0fbc e3a2 f33c
000001e0: 7157 21bc c40a 5ebc ab20 38bd 3602 083d
000001f0: 412f b83c ccaa 65bb 341b a2bd 4665 cbbc
00000200: 7349 45bc e7fc 65bc 5af5 3d3b 1af3 e7bc
00000210: 7105 133c 1e7d 3bbd 5db9 c63c b0b6 d3bc
00000220: cf34 0abc 13a5 16bd 3c42 963b 23cf 103d
00000230: e48a 18bc a142 883d a985 7a3d 6565 7ebc
00000240: ddb3 ca3c 849a 3dbd 1df5 153c 542d f4bb
00000250: 7085 54bd 87ae adbc 7a50 2cbc 491d 25bd
00000260: 89cd 92bc d1c4 98bd d250 e23c 28a8 89bd
00000270: 2cc5 b3bd 1327 303a 72c5 063c 4042 56bc
00000280: b0ce 3fbc 920c 46bc 3d07 8dbc a792 1f3d
00000290: 4325 a1bc 3d87 0b3d 8d35 023d a8c1 6e3c
000002a0: 8b13 0e3d ea20 42bd 4c3f 343d 1591 b1bc
000002b0: a077 0b3c 778e 58bd a00d 273d a508 6bbd
000002c0: 4309 ffbc 1e19 51bd 5551 443d f116 c8bc
000002d0: dec5 f03b eebf 28bd 3ef4 01bd 35d9 13bd
000002e0: 0592 653d a04c 153c 319a 99bc 9ec7 94bc
000002f0: fdc7 eebc 3d9c 6dbc 0e0e 8fbd 1ff2 10bc
00000300: 6ec2 94bc a63e 00bd 0a90 093d 79a1 53bd
00000310: cc5f 75bc a495 84bc 0a85 3e3d f682 d0bc
00000320: 2f58 183c 8dff a63c 7121 abbc 0ab0 8c3c
00000330: df3d 2bbd e0f5 81bc ef0c 333d 7530 373d
00000340: 97de 883d 26c2 373d 7b9a 73bc c2e4 3bbd
00000350: 5702 7a3d f197 373d 961f e33c 1689 b93c
00000360: 6b46 3dbd 88d8 e03c f8e6 58bd 0f70 ebbc
00000370: 6eec a33c 70ae 8bbd 0299 42bd 54fd 7d3c
00000380: 9b8f 88bd 7b51 a43c d798 453c 73e0 00bd
00000390: 6e73 98bc a7e4 24bd b939 5b3c bf63 293d
000003a0: 683a 683d d12f 13bd c2a5 a83c 8565 ddba
000003b0: 0ab8 d5b9 2519 153d d9cd 0a3d 85b9 5dbc
000003c0: 181f ebbc e548 723d 990a 89bd ddc4 593c
000003d0: 3c14 b93b 90bc cabc fb64 2e3d 092a 8dbc
000003e0: 7179 9bbd 5e56 35bd 601c b53c b8f6 7bbd
000003f0: 88eb 87bc df6f 253a 031d 31bd 36e0 38bc

layers.8.bias f4 [64]
-0.059339955 -0.011146434 -0.006179071 -0.0028305033 0.0009585237 -0.014276747 -0.09819692 0.009144749
-0.038370647 -0.051010605 0.013885042 -0.031835664 -0.038163014 0.0037889427 -0.02002884 0.14824888
-0.017251551 -0.029015101 0.047196575 -0.019424906 0.027332215 -0.0404231 -0.028304147 0.006107569
-0.07571797 -0.070652716 0.017317811 -0.0008378791 -0.014094795 -0.016507737 -0.071645804 0.00017505231
-0.00992745 -0.017483803 0.017463787 0.027693663 0.04180745 0.00026334633 -0.065727785 -0.008915791
-0.03596451 -0.024468174 0.029965987 -0.051793296 0.01410707 0.1390988 0.014610372 0.04556313
-0.010130296 0.06637498 0.013290514 -0.019172166 0.11779518 -0.09888418 0.014008902 0.019086326
-0.005517785 0.03379913 0.011339333 -0.06573709 0.028969422 0.033191357 -0.026277792 -0.022033464
00000000: 740e 73bd 889f 36bc ce79 cabb f77f 39bb
00000010: 7045 7b3a 04e9 69bc 771b c9bd dbd3 153c
00000020: 8a2a 1dbd 7ff0 50bd 167e 633c 1d66 02bd
00000030: d250 1cbd e94f 783b 8613 a4bc 8ece 173e
00000040: 2053 8dbc 14b1 edbc 3251 413d fb20 9fbc
00000050: cfe7 df3c b192 25bd 19de e7bc 0122 c83b
00000060: 0612 9bbd 5fb2 90bd 15de 8d3c 1da5 5bba
00000070: dbed 66bc 3c3b 87bc 09bb 92bd 3f8e 3739
00000080: bea6 22bc 313a 8fbc 3710 8f3c d2dd e23c
00000090: 4a3e 2b3d bf11 8a39 4a9c 86bd 8a13 12bc
000000a0: 864f 13bd 7b71 c8bc 3b7b f53c 3525 54bd
000000b0: 5721 673c ea6f 0e3e 5760 6f3c 68a0 3a3d
000000c0: 8bf9 25bc 9bef 873d 75c0 593c f20e 9dbc
000000d0: 993e f13d ca83 cabd 9885 653c ed5a 9c3c
000000e0: 89ce b4bb f570 0a3d 9cc8 393c 2ba1 86bd
000000f0: 4851 ed3c a9f3 073d 8644 d7bc 867f b4bc

layers.10.weight f4 [64]
1.1112915 1.1127658 1.1120394 1.1193042 1.111688 1.1152104 1.1151733 1.1146828
1.1120063 1.1010811 1.1124048 1.1186016 1.1157709 1.1194508 1.1116688 1.1203959
1.1124283 1.1138636 1.1148216 1.1156006 1.1125891 1.1104347 1.1147833 1.1148798
1.1126789 1.117717 1.118198 1.1091554 1.1150998 1.1129763 1.1138936 1.1126539
1.1208212 1.1129547 1.1126786 1.105761 1.115802 1.1136029 1.1124305 1.1150762
1.1104409 1.115327 1.1119597 1.1169312 1.1109266 1.1209552 1.1091994 1.1100246
1.1197536 1.1123219 1.0997484 1.1077406 1.1137824 1.1149639 1.1151066 1.1129264
1.1206832 1.1159068 1.10437 1.1167313 1.1135422 1.1179487 1.1099986 1.1132256
00000000: cd3e 8e3f 1c6f 8e3f 4f57 8e3f 5c45 8f3f
00000010: cb4b 8e3f 37bf 8e3f 00be 8e3f edad 8e3f
00000020: 3956 8e3f 3af0 8c3f 4863 8e3f 562e 8f3f
00000030: 95d1 8e3f 2a4a 8f3f 2a4b 8e3f 2269 8f3f
00000040: 0d64 8e3f 1593 8e3f 79b2 8e3f 00cc 8e3f
00000050: 5269 8e3f b922 8e3f 38b1 8e3f 62b4 8e3f
00000060: 436c 8e3f 5a11 8f3f 1d21 8f3f cef8 8d3f
00000070: 97bb 8e3f 0276 8e3f 1194 8e3f 716b 8e3f
00000080: 1277 8f3f 4d75 8e3f 416c 8e3f 9489 8d3f
00000090: 9ad2 8e3f 8a8a 8e3f 1f64 8e3f d1ba 8e3f
000000a0: ed22 8e3f 09c3 8e3f b254 8e3f 9af7 8e3f
000000b0: d832 8e3f 767b 8f3f 3ffa 8d3f 4915 8e3f
000000c0: 1654 8f3f 9060 8e3f 8ec4 8c3f 72ca 8d3f
000000d0: 6c90 8e3f 23b7 8e3f d0bb 8e3f 5f74 8e3f
000000e0: 8c72 8f3f 09d6 8e3f ff5b 8d3f 0df1 8e3f
000000f0: 8d88 8e3f f118 8f3f 6f14 8e3f 2d7e 8e3f

layers.10.bias f4 [64]
0.110283874 0.111106575 -0.08357046 0.11835251 -0.123390004 0.11269594 0.10330939 0.11232001
0.084697984 -0.11272933 -0.10288276 0.11334671 0.11767406 0.12125243 0.09917939 -0.09543257
0.11067011 0.09819525 0.112835295 0.10990989 0.099975094 -0.114356816 0.11687056 -0.11256389
0.10956854 0.10597392 0.113874175 -0.11656571 0.115924194 -0.07859847 0.10889772 0.10948879
-0.09845218 -0.10156247 0.098164186 -0.109267235 -0.09935625 0.10046589 -0.11295001 -0.1202293
-0.08409869 0.10206114 0.09381323 -0.098210625 -0.12096968 -0.09280274 -0.034219205 -0.12120443
-0.11307889 -0.10320668 -0.07303219 -0.08869184 0.11455829 0.112192355 -0.10126051 0.10199854
0.101334035 -0.11194389 -0.108564146 -0.11423432 -0.11796719 0.11681809 0.10968484 0.09907343
00000000: 83dc e13d d88b e33d fd26 abbd cd62 f23d
00000010: e6b3 fcbd 21cd e63d e093 d33d 0908 e63d
00000020: 2376 ad3d a3de e6bd 32b4 d2bd 5222 e83d
00000030: 19ff f03d 3253 f83d 901e cb3d 2772 c3bd
00000040: 03a7 e23d 971a c93d 3116 e73d 7018 e13d
00000050: bebf cc3d e833 eabd d559 ef3d e687 e6bd
00000060: 7865 e03d db08 d93d dd36 e93d 01ba eebd
00000070: aa69 ed3d 3cf8 a0bd c505 df3d a93b e03d
00000080: 4ca1 c9bd fcff cfbd 4e0a c93d 80c7 dfbd
00000090: 4a7b cbbd 0fc1 cd3d 5652 e7bd c73a f6bd
000000a0: ef3b acbd 6e05 d13d 2721 c03d a722 c9bd
000000b0: f4be f7bd 5d0f bebd 7029 0cbd 073a f8bd
000000c0: e895 e7bd 065e d3bd e791 95bd 11a4 b5bd
000000d0: 899d ea3d 1bc5 e53d ac61 cfbd 9ce4 d03d
000000e0: 3888 cf3d d742 e5bd e156 debd aff3 e9bd
000000f0: c898 f1bd 533e ef3d 72a2 e03d 03e7 ca3d

layers.10.running_mean f4 [64]
0.05672404 0.4513722 0.5962089 0.44389683 0.869383 0.5987075 0.23793477 0.6359653
0.37048796 0.49888402 0.8571605 0.39349875 0.3926378 0.6870545 0.45798838 0.8205465
0.5596191 0.84428656 0.74398977 0.43524602 0.66778547 1.0137295 0.28320912 1.1408479
0.43800429 0.25899166 0.045692876 0.4888536 0.11372601 0.002462781 0.41834247 0.12792027
1.1208605 0.69427085 0.82780445 0.9992011 1.1089743 0.724637 0.67265195 0.61197263
0.035503425 0.3109784 0.5781275 1.1436033 0.98734814 0.9050094 0.013292495 0.6118071
1.0327597 0.82301 0.15743929 0.009918317 0.8024969 0.09453626 1.2722154 0.53613603
0.08511357 1.0846477 0.84306943 0.9585912 0.88319767 0.18354811 0.087043196 0.22154881
00000000: 7857 683d 421a e73e 25a1 183f 7246 e33e
00000010: e28f 5e3f e544 193f 2ca5 733e 9fce 223f
00000020: 99b0 bd3e ba6d ff3e df6e 5b3f ab78 c93e
00000030: d207 c93e cee2 2f3f 747d ea3e 560f 523f
00000040: 3343 0f3f 2a23 583f 1d76 3e3f 91d8 de3e
00000050: fdf3 2a3f e3c1 813f c900 913e 4e07 923f
00000060: 1942 e03e 8e9a 843e 7428 3b3d 054b fa3e
00000070: 2fe9 e83d 9c66 213b fc30 d63e 88fd 023e
00000080: 5b78 8f3f bcbb 313f feea 533f a5cb 7f3f
00000090: dff2 8d3f cf81 393f eb32 2c3f 3daa 1c3f
000000a0: 0a6c 113d 9038 9f3e 2a00 143f 9861 923f
000000b0: d9c2 7c3f b2ae 673f c4c8 593c 649f 1c3f
000000c0: 7831 843f c9b0 523f c437 213e 7080 223c
000000d0: 7070 4d3f 3a9c c13d f4d7 a23f 3640 093f
000000e0: 0650 ae3d bcd5 8a3f 66d3 573f 3c66 753f
000000f0: 3e19 623f 09f4 3b3e b443 b23d b1dd 623e

layers.10.running_var f4 [64]
0.03438923 1.4311641 2.2618847 1.3823224 3.386283 2.599981 0.66690224 3.0688517
1.2884284 1.5014069 2.8866909 1.1671264 1.1662753 2.9977381 2.3646336 0.677472
2.335421 3.106109 2.115792 1.4389596 2.7845747 3.2774286 0.5247386 4.6649785
1.368179 0.7936741 0.008817201 1.9914273 0.06003665 0.00039680902 1.3499418 0.10189232
3.3461602 2.1780279 3.9393318 2.0671883 3.8743196 2.4388013 2.4992216 2.3327544
0.021299204 0.96090555 1.2343259 4.1025634 4.1986923 0.9324918 0.0013307494 2.176086
3.2696478 3.0629904 0.5812039 0.0034126951 1.2743336 0.10108746 5.176738 2.4425042
0.022934647 3.1258051 3.0388613 3.011085 3.0028548 0.10393884 0.16929889 0.54124695
00000000: b9db 0c3d 6330 b73f b8c2 1040 f1ef b03f
00000010: dcb8 5840 1766 2640 1bba 2a3f 1168 4440
00000020: 39eb a43f 1a2e c03f 8bbf 3840 6664 953f
00000030: 8248 953f f1da 3f40 2856 1740 ce6e 2d3f
00000040: 8a77 1540 7dca 4640 2369 0740 d42f b83f
00000050: 7936 3240 64c1 5140 4555 063f 8147 9540
00000060: 7d20 af3f 3a2e 4b3f 0576 103c 17e7 fe3f
00000070: fee8 753d ce0a d039 e5ca ac3f ecac d03d
00000080: 7d27 5640 cf64 0b40 031e 7c40 d04c 0440
00000090: daf4 7740 5215 1c40 3ff3 1f40 d94b 1540
000000a0: ab7b ae3c e8fd 753f 64fe 9d3f 3348 8340
000000b0: b05b 8640 c8b7 6e3f 8a6c ae3a fe44 0b40
000000c0: e941 5140 0908 4440 c7c9 143f 86a7 5f3b
000000d0: 5d1d a33f f106 cf3d d6a7 a540 fd51 1c40
000000e0: 71e1 bb3c 310d 4840 b47c 4240 9eb5 4040
000000f0: c62e 4040 e3dd d43d b05c 2d3e 298f 0a3f

actor_classifier.weight f4 [15, 256]
0.011841908 -0.042428486 0.053922754 0.008471787 0.049681623 0.05606887 0.048804987 -0.05517177
0.0019468662 -0.032754082 0.024420697 0.028632864 -0.043882087 0.021091565 2.927607e-06 -0.056016907
-0.027169386 0.05438218 -0.036261655 0.05637257 0.029392218 -0.01645107 -0.0511866 -0.0055696247
0.060678218 0.020133471 -0.029689988 -0.061607465 -0.010952045 -0.026796842 0.038147785 0.048100926
0.013132913 -0.058883727 0.050265975 0.046309415 0.035521455 0.0054322015 0.03216978 0.0032612619
0.0034409729 0.039970744 0.06712995 -0.039787922 0.019195093 -0.03953561 0.032753676 0.03205935
0.042267874 0.0005476143 0.05453855 0.0578139 -0.042721637 -0.05176778 0.05179538 0.029235594
0.012353087 0.05334445 -0.04861004 -0.026711857 0.03693965 0.028264081 0.009150824 -0.010432105
-0.062546164 0.022719754 0.013217267 0.05048847 -0.007949113 0.030102652 -0.021904664 0.015374304
-0.021337638 -0.025717849 -0.0007589197 0.054949395 -0.033550166 -0.03824244 -0.012075824 0.04490991
0.059669737 -0.032038473 0.02003099 0.023166014 0.021734934 0.05638456 -0.0540852 -0.049170777
-0.0422167 0.03758344 0.030065352 0.049214587 0.01626839 -0.042366855 -0.038180944 -0.04783597
-0.041335505 -0.018095447 -0.004176393 -0.05593648 -0.03437184 0.048113395 0.0034140663 0.0038810773
0.017139236 0.020766025 0.01639777 0.053567436 0.019789478 -0.0065928404 -0.02056869 0.015934808
0.03534022 0.021303432 -0.011466827 0.055927332 -0.015978452 0.028712174 0.0412795 -0.053277627
0.0048593804 -0.0009828601 -0.06512953 0.01576364 -0.015167452 -0.022584155 -0.05083934 0.0480277
-0.056906573 0.036128905 0.042360824 -0.02038494 0.049389314 -0.025778448 -0.035114516 0.05359508
0.012674351 -0.03680481 -0.055860966 0.04612382 -0.019272443 0.0047334963 0.016940417 0.05162863
0.01763005 0.05658505 0.05908709 0.028598743 0.038757 0.033432655 0.049588624 -0.0033338235
-0.019692607 0.058176056 -0.019806072 0.058193322 0.0036184262 0.022544201 -0.058972158 -0.034384705
0.02943581 0.0019435212 0.024888854 0.038581036 0.03116367 -0.012182002 0.037243508 -0.008972067
-0.025099324 -0.010877647 -0.027746687 -0.013308024 -0.034410153 0.016410226 -0.022166522 0.0063624545
0.0016073561 0.024488324 0.005003218 0.03886882 0.025994772 -0.0247141 0.043707877 -0.014913996
-0.0041099726 0.049062274 -0.023768304 -0.024529487 -0.024143148 0.04918132 0.024453852 -0.04589565
-0.055056743 -0.048388675 0.025932878 0.0015531563 -0.00070954586 0.04218066 -0.0103454795 -0.04642593
0.0434235 -0.0056695417 0.061055295 0.036185395 -0.07156206 0.055881616 0.011032494 -0.0029446953
-0.0011585886 0.01068119 -0.057783842 -0.028985318 -0.0015626508 0.034912173 0.03492192 0.010951335
0.0235664 0.05741625 0.017525129 0.040183835 0.03285165 -0.028401626 -0.049683522 0.050303508
0.026556151 -0.039796527 -0.021151107 0.02965667 0.020371402 0.048514903 -0.033501666 -0.0452002
0.010482861 -0.00260983 0.010732874 -0.045892816 -0.0036063134 -0.04628072 -0.009139067 -0.051591072
0.00877953 0.03828433 -0.003380847 -0.036238402 0.048295513 -0.044784326 0.061436675 0.0022189552
-0.045199323 0.0072342185 0.055978842 -0.012423415 -0.05650565 -0.0005427331 0.048543613 -0.049991842
00000000: 9004 423c 7ec9 2dbd 1bde 5c3d 40cd 0a3c
00000010: f57e 4b3d 79a8 653d bde7 473d cbfb 61bd
00000020: fd2d ff3a 2529 06bd ea0d c83c 788f ea3c
00000030: b4bd 33bd 38c8 ac3c e877 4436 fc71 65bd
00000040: 5592 debc d9bf 5e3d 1a87 14bd ede6 663d
00000050: f3c7 f03c 65c4 86bc 0aa9 51bd 6681 b6bb
00000060: b989 783d f3ee a43c 6b38 f3bc 1c58 7cbd
00000070: 3570 33bc 0d85 dbbc da40 1c3d 7a05 453d
00000080: 6e2b 573c 1030 71bd b2e3 4d3d f1ae 3d3d
00000090: f27e 113d 9c00 b23b 76c4 033d e5ba 553b
000000a0: f281 613b 5db8 233d 6d7b 893d a9f8 22bd
000000b0: 073f 9d3c 17f0 21bd b828 063d aa50 033d
000000c0: 1421 2d3d c68d 0f3a d163 5f3d 45ce 6c3d
000000d0: e2fc 2ebd 740a 54bd 6427 543d 7c7f ef3c
000000e0: 9a64 4a3c b67f 5a3d 521b 47bd d3d2 dabc
000000f0: 084e 173d 138a e73c 56ed 153c 6beb 2abc
00000100: 3418 80bd c71e ba3c 3c8d 583c ffcc 4e3d
00000110: ff3c 02bc d699 f63c 6971 b3bc 81e4 7b3c
00000120: 45cc aebc 3dae d2bc 3df2 46ba 9e12 613d
00000130: e66b 09bd 1ba4 1cbd add9 45bc 74f3 373d
00000140: 4168 743d c63a 03bd 0818 a43c a7c6 bd3c
00000150: 760d b23c 7ff3 663d 7188 5dbd 4c67 49bd
00000160: 6beb 2cbd 18f1 193d 9d4b f63c 3c95 493d
00000170: 4945 853c de88 2dbd 9f63 1cbd a6ef 43bd
00000180: 6b4f 29bd e73c 94bc 20da 88bb a71d 65bd
00000190: 7dc9 0cbd 8d12 453d 87be 5f3b ac59 7e3b
000001a0: 9567 8c3c 831d aa3c 9e54 863c 8769 5b3d
000001b0: 8b1d a23c c108 d8bb ab7f a8bc b789 823c
000001c0: e8c0 103d 8984 ae3c 5cdf 3bbc 0f14 653d
000001d0: 3ee5 82bc cb35 eb3c b114 293d a439 5abd
000001e0: 703b 9f3b 50d3 80ba a262 85bd c022 813c
000001f0: e880 78bc 6802 b9bc e93c 50bd b2b8 443d
00000200: de16 69bd e7fb 133d 8b82 2d3d 51fe a6bc
00000210: 734c 4a3d 532d d3bc 3dd4 0fbd 8486 5b3d
00000220: 15a8 4f3c a4c0 16bd 78ce 64bd 55ec 3c3d
00000230: 3ee1 9dbc 721b 9b3b a1c6 8a3c 8b78 533d
00000240: e56c 903c bac5 673d 4e05 723d e947 ea3c
00000250: a9bf 1e3d aef0 083d 711d 4b3d 477c 5abb
00000260: 6452 a1bc 044a 6e3d 5840 a2bc 1f5c 6e3d
00000270: 1e23 6d3b 9eae b83c ca8c 71bd fad6 0cbd
00000280: 5e23 f13c c0bd fe3a b6e3 cb3c 2607 1e3d
00000290: f44a ff3c 0597 47bc a68c 183d 94ff 12bc
000002a0: 199d cdbc 2938 32bc 054d e3bc e609 5abc
000002b0: a9f1 0cbd bd6e 863c 9196 b5bc 237c d03b
000002c0: ecad d23a bd9b c83c 09f2 a33b e934 1f3d
000002d0: fdf2 d43c 3975 cabc 0807 333d d559 74bc
000002e0: f3ac 86bb 86f5 483d bfb5 c2bc 10f2 c8bc
000002f0: dac7 c5bc 5a72 493d 7253 c83c 14fd 3bbd
00000300: 2e83 61bd 3433 46bd 3071 d43c 4793 cb3a
00000310: d100 3aba a1c5 2c3d 1680 29bc 1e29 3ebd
00000320: d7dc 313d 90c7 b9bb 1e15 7a3d 2337 143d
00000330: 218f 92bd 1fe4 643d a2c1 343c cafb 40bb
00000340: c8db 97ba 2800 2f3c c0ae 6cbd 9e72 edbc
00000350: dcd1 ccba 1100 0f3d 4a0a 0f3d 3a6d 333c
00000360: 530e c13c 4d2d 6b3d dc90 8f3c ce97 243d
00000370: 748f 063d 87aa e8bc f380 4bbd 0d0b 4e3d
00000380: 498c d93c af01 23bd 1645 adbc 8bf2 f23c
00000390: ede1 a63c 90b7 463d 0b39 09bd d823 39bd
000003a0: 4ec0 2b3c ae09 2bbb f0d8 2f3c 1bfa 3bbd
000003b0: e657 6cbb da90 3dbd 06bc 15bc 2951 53bd
000003c0: 05d8 0f3c 08d0 1c3d 3391 5dbb b86e 14bd
000003d0: 84d1 453d c56f 37bd 06a5 7b3d e46b 113b
000003e0: ed22 39bd 060d ed3b 124a 653d 948b 4bbc
000003f0: 7872 67bd 3446 0eba abd5 463d 3fc4 4cbd

actor_classifier.bias f4 [15]
0.013287741 -0.0066269175 0.055391155 -0.030320033 -0.053290088 -0.02104909 -0.03480631 -0.04530826
-0.01813021 -0.045185063 -0.037128393 -0.021112949 0.033137023 -0.034408227 0.053640857
00000000: d3b4 593c 9d26 d9bb d6e1 623d b861 f8bc
00000010: b546 5abd 246f acbc 1091 0ebd 2795 39bd
00000020: ce85 94bc f913 39bd f113 18bd 10f5 acbc
00000030: b0ba 073d a4ef 0cbd 84b6 5b3d
