Saved Models/model_checkpoint_coinrun_42_5e-05_400_6_256_0.6_0.6_0.25_1024_0.5.pth (torch, 152925 bytes, 21 tensors)

layers.0.weight f4 [32, 3, 8, 8]
00000000: f988 45bd de81 fd3c 95b7 073d e078 883d
00000010: 76bf 883b 49f8 acbc e872 48bd 4c14 483d
00000020: 114b 71bd 6e7b 79bc b97b bc3b 36d5 88bd
00000030: 7feb 91bd 8da6 c43c e6e3 693d 4d7b 1ebd
00000040: a523 763d dc03 1d3c 047f 0e3d 1b2d fabc
00000050: 93a9 e2bc 0b6a bf3c f9d4 5a3d 9a46 893d
00000060: 2c73 6d3d de27 4f3d ec35 a6bc 3e39 5abd
00000070: b932 323d fcb5 55bd 6721 a23b ffdd 86bd
00000080: 8250 0c3d e830 f9bc 155e 083d 2c2e 0d3d
00000090: 5246 02bc 394f e5bc 610c 063d 4ce6 fd3c
000000a0: d493 4b3d 8d8a 033d 77bf 863d ae31 953d
000000b0: 8f5b 89bc 3641 3f3d c98d abbb c40a 34bd
000000c0: 3b4a 92bd 937c 91bd 7912 46bc b604 ea3c
000000d0: 45d9 edbc 7c5c bf3c efa9 133d c401 1a3d
000000e0: 45f4 4bbd a356 06bd dfed b73c feb5 b03b
000000f0: 30ba 58bc 2644 a2bd 22d9 a4bc 3c82 5ebd
00000100: e4af b63d c54b 52bd 7f3b 55bd 62f0 0e3d
00000110: 4cfb 483d cf00 4a3d 1905 333d fcb7 a2bc
00000120: 7519 c7bc bad4 b83c 7ced 14bd 4beb e7bc
00000130: 4ca3 4a3d 7682 3a3d f0ee 0a3d 1b55 063d
00000140: 1bce bc3c f115 923d 4305 78bc ff21 c6bc
00000150: c0c0 2ebb 0774 b43d d5a7 a6bc 3d6a 9f3b
00000160: f5eb 473d 67ab 93bd 7146 613d 9c57 c83c
00000170: 45dd 983c 6093 abbc 6027 05bd f4a5 30bd
00000180: 2364 84bd 1ea6 853b 43ec 8dbd 735d 9ebd
00000190: 0d5b 693d 8034 84bd 3322 ce3b 546a c63a
000001a0: a6f8 b4bc df9c 383d e2a5 383d 3ad2 5b3d
000001b0: 9c66 85bd 8653 47bd 1fad 123d 1ef3 643c
000001c0: 640b 8fbc d87d fdbc 17c1 9abc 30c5 13bd
000001d0: 6587 de3b 2233 0d3d 8e5e 96bd 38f1 ad3c
000001e0: ee6a 303c c095 4f3c cf2e 80bd b5a8 6abd
000001f0: 2472 9d3c 1b6b fdbc 48bb f53c ccbc e9bc
00000200: 577b debc afaf 043d b722 043c d42d 173d
00000210: ffea 783c d414 f73c b7a6 5cbd 4da6 f1bb
00000220: 0df0 a3bc 466c 923b 54a0 86bd bc5a 2b3d
00000230: 0b2e 9fbd ec7c 89bd 0cf0 903c aa30 043d
00000240: 1d2b 643c eb9c 32bd 714b 44bb 39c5 8e3d
00000250: 03e9 5e3d f024 49bc ddc1 20bd bda2 213d
00000260: ac67 863d 7d24 5b3d 9221 9e3c 12e2 ba3c
00000270: 22b4 20bd b1d6 b13d 67b1 6b3d 0b70 073d
00000280: c7b0 e4ba a660 f9bc 6614 81bd 540d e73b
00000290: 8fc6 633d f93f b73c 3088 81bd ceff 18bd
000002a0: f748 13bc 2cfd 55bc 9cfa a43d c822 0fbd
000002b0: 604b 003b 5b44 f43a 4890 923d 05a5 a13c
000002c0: fb00 30bd 8525 cf3c e9dd b1bc 9eaa 43bd
000002d0: 3c25 8abd 0bea 7abd 5f23 b0bd fd29 8abd
000002e0: 9653 5d3c e3cb ce3b ddca dc3c be18 fdbc
000002f0: a003 583d 1a0b ba3c cf23 1b3d d079 ec3c
00000300: 5707 a3bc 4101 33bd 8404 553d fcfa 873c
00000310: b99d e1bc bfae 98b9 05d4 aebd 7074 403d
00000320: 10ee 073c 8619 21bd ced4 d73c b008 ee3c
00000330: ba4b 7e3c 9791 873c 1c63 893d b85c f7bc
00000340: aee4 31bd bdfd bebc 20e1 75ba 61d2 0d3c
00000350: b16f 303d 0ad2 e2bc 4c15 543d 168d 4c3c
00000360: 29bb b93c ec3e dc3c 3c28 5a3d dd65 cdbc
00000370: 9592 8a3d fb73 fcbc 7228 12bd 4f9e 5fbd
00000380: d63c 54ba ff39 813d 608a 92bb d5e0 aebc
00000390: a448 78bd 6835 87bd fe8e c83b fc40 a23c
000003a0: 955a 9abc 2980 fd3c dc14 70bd bcae 5cbd
000003b0: c30f 233d c366 343d 27be 583d dd4a 27bd
000003c0: 94d1 80bd 4140 9bbd c0ff 1c3d 49fe d03c
000003d0: c559 a2bd 59a8 e43b 1762 473d 72b6 0c3d
000003e0: 3155 7d3d 9a98 75bd 770c 853c 8a6e c0bc
000003f0: fa33 b5bc 47d7 08bd f674 8cbd 249f 37bd
-0.04822633 0.030945715 0.03313406 0.0666368 0.0041732145 -0.021114485 -0.04893771 0.04884748
-0.05890948 -0.015227182 0.0057520536 -0.06681292 -0.071249954 0.024005199 0.057102107 -0.038691808
0.060092587 0.00958344 0.0347891 -0.030539086 -0.02766875 0.023365995 0.053425763 0.06702919
0.057971165 0.05057513 -0.020289384 -0.053277247 0.043505404 -0.052175507 0.0049478295 -0.06585311
0.034256466 -0.030418828 0.03329285 0.03446786 -0.007951336 -0.027991878 0.03272665 0.030993603
0.049701527 0.032114554 0.06579488 0.07284866 -0.016767291 0.04669305 -0.005235408 -0.04395558
-0.071430646 -0.07103839 -0.012089365 0.0285667 -0.029034266 0.02335953 0.036050733 0.03759934
-0.0497935 -0.032797467 0.022452293 0.005392789 -0.013227984 -0.079231545 -0.020123068 -0.05432342
0.08920267 -0.05134179 -0.052058693 0.034897216 0.04906778 0.049317177 0.043706033 -0.019863121
-0.024304131 0.022562373 -0.036359295 -0.028310439 0.04947214 0.045534573 0.033919275 0.032796007
0.023047497 0.07133091 -0.015137973 -0.024186132 -0.002666518 0.08811193 -0.0203437 0.0048649595
0.04880901 -0.07210427 0.05499882 0.024455838 0.018660197 -0.020944297 -0.032508254 -0.043127015
-0.06464412 0.0040786406 -0.06929829 -0.07732668 0.0569716 -0.06455326 0.006290698 0.001513789
-0.022091221 0.04507148 0.045080073 0.053667285 -0.06513712 -0.04866364 0.035809632 0.013973979
-0.017461486 -0.030943796 -0.0188909 -0.036076725 0.0067910426 0.034472592 -0.073422536 0.021233186
0.0107676815 0.0126699805 -0.06258928 -0.057289798 0.019219466 -0.03093486 0.02999653 -0.028532408
-0.027158422 0.032394107 0.008064917 0.03690894 0.015192746 0.030161299 -0.05386993 -0.007374561
-0.020011926 0.0044684736 -0.06573549 0.041834578 -0.07772454 -0.0671328 0.017692588 0.032272972
0.013926295 -0.04360668 -0.0029952193 0.06971211 0.054421436 -0.012276873 -0.039247382 0.03946184
0.065627426 0.053501595 0.019303117 0.022812877 -0.039234288 0.08683527 0.05754223 0.033065837
-0.0017447703 -0.030441593 -0.06302719 0.0070511494 0.055609282 0.022369372 -0.06324804 -0.03735333
-0.008989564 -0.013060849 0.080556124 -0.03494528 0.0019576177 0.0018636094 0.07156426 0.019732008
-0.042969685 0.025286445 -0.02171226 -0.047770135 -0.06745383 -0.061258357 -0.086004965 -0.0674629
0.013508698 0.0063109263 0.026952202 -0.030895587 0.052737832 0.022710372 0.037875947 0.028866678
-0.01990096 -0.043702368 0.05200626 0.01659917 -0.027541028 -0.00029121895 -0.08536533 0.046986043
0.008296505 -0.03933098 0.02634659 0.029056877 0.015520984 0.016548915 0.06708357 -0.030195579
-0.043430977 -0.023314351 -0.00093795545 0.008656115 0.043075267 -0.027688045 0.051778123 0.012484809
0.022672253 0.026885472 0.053261027 -0.025072986 0.067662396 -0.030817023 -0.035683103 -0.054594334
-0.00080962235 0.0630989 -0.004472062 -0.021347443 -0.06061615 -0.06601983 0.0061205616 0.019806378
-0.018842021 0.0309449 -0.058613643 -0.053877577 0.039809953 0.044043314 0.05291572 -0.04084288
-0.06289974 -0.07580615 0.03832984 0.025511878 -0.079272784 0.0069780764 0.04867753 0.03435368
0.061848823 -0.059959985 0.016241295 -0.02349021 -0.02211951 -0.03340843 -0.06858246 -0.044829503

layers.0.bias f4 [32]
00000000: 729d 7dbd f5f1 d1b9 7258 8b3c 88c2 df3d
00000010: 475f 8d3b cb6f 1bb9 5723 0ebd a99c 7a3d
00000020: af2c a1bd 1a54 19be b77a 8dbd c818 3dbc
00000030: 7d13 64bd 4ac7 4bbd 894f a9b9 0eb5 c13c
00000040: 6c71 53bd fa69 3cbb 0711 d83c d47f 8e3c
00000050: a7c6 f03c f956 0bbc 65c0 11bb 824b b03c
00000060: ce75 25bd e7a5 8bbc 6148 b0bd dfce 6a3d
00000070: ba52 d8bd 84bd 083d 7d26 d43c f9e8 37ba
-0.06191773 -0.00040043858 0.017009947 0.10925776 0.0043143365 -0.00014823598 -0.03470167 0.06118456
-0.07869851 -0.14973488 -0.069081716 -0.011541553 -0.055682648 -0.049750604 -0.0003229345 0.023645904
-0.05162184 -0.002874969 0.026375307 0.017394938 0.0293916 -0.008504623 -0.002223992 0.02152038
-0.04039555 -0.017046882 -0.08607555 0.057326194 -0.10562654 0.03338386 0.025897259 -0.00070156116

layers.2.weight f4 [32]
00000000: 543c 833f 3456 803f 4517 803f 826f 743f
00000010: 1b3d 7e3f cca4 7b3f 6dea 803f 1bd6 783f
00000020: c29f 7e3f 646d 8c3f 6bb8 803f 8ba5 7e3f
00000030: 9eb0 803f eb68 813f a968 753f ce1c 7a3f
00000040: ec77 713f 50ec 803f b839 703f 42b7 7f3f
00000050: 7dfd 7e3f 0516 823f d10e 7d3f c5a9 7a3f
00000060: 9133 813f 2008 803f a4cb 813f 8558 723f
00000070: cc4a 7f3f b790 823f d6f4 803f 44ca 7a3f
1.0252786 1.0026307 1.0007101 0.9548265 0.9931199 0.98298335 1.0071541 0.972017
0.9946252 1.0970883 1.005628 0.9947135 1.0053899 1.0110143 0.95862824 0.977002
0.9432361 1.0072117 0.9383807 0.99889004 0.9960554 1.016297 0.98850733 0.979153
1.0093862 1.000248 1.0140271 0.9466632 0.99723506 1.0200413 1.0074718 0.9796488

layers.2.bias f4 [32]
00000000: 6e95 163d 1967 a13b c7c0 443d 23c3 f43c
00000010: 8c95 163b 3a0c ba3d 322c 233c 3acb 91bd
00000020: 0eb8 1e3d 1dc6 7dbd 7ce1 01bd e336 a6bc
00000030: c526 c6bc 599a abbd ac48 093d f44f d83a
00000040: f975 78bc 2f40 62bb 6656 b6bd fbda e83b
00000050: 4c4f 5d38 778b a7bd e626 42bd adac 393d
00000060: db8b a5bc f06f 83bd 5da9 493d db5a 263d
00000070: 5d58 83bd cb31 16bc 1c5a 4f3d 0121 f83b
0.0367636 0.0049256203 0.04803541 0.029878205 0.002297732 0.09084363 0.009959267 -0.071188405
0.038749747 -0.061956514 -0.03170918 -0.020289844 -0.024188409 -0.08379049 0.03351657 0.001650332
-0.015164846 -0.003452312 -0.08903198 0.0071061826 5.2764357e-05 -0.08180898 -0.047400378 0.045330692
-0.02020829 -0.06417835 0.049233783 0.04061399 -0.06413338 -0.009167145 0.050623044 0.0075722937

layers.2.running_mean f4 [32]
00000000: c9de 913c 2a56 4c3d 7e0d 223c 561d a33d
00000010: 5661 4b3b b0bc d23b 1cf0 dd3d ba41 ff3c
00000020: 5600 113d bac1 263a 1b16 163e 7434 1a3f
00000030: 8358 863e beb6 053e 1b5c 903c 1dde 3b3c
00000040: 5fac 273b 2c21 373d ee68 743c a46b 143c
00000050: 1726 683c 7b27 963d d027 253e 831c ad3d
00000060: a415 c23a 63f5 473e 23e9 793d 3fec 6c3d
00000070: f9e8 c639 233e 1c3e 9fe3 383c 5227 693a
0.017806428 0.04988686 0.009890912 0.0796458 0.0031033359 0.0064311847 0.10836813 0.03115927
0.03540071 0.0006361265 0.1465687 0.6023629 0.26239404 0.13057992 0.017622044 0.01146653
0.002558492 0.04470937 0.014917595 0.009058867 0.014169238 0.07331749 0.16128469 0.08452704
0.0014807475 0.19527201 0.061013352 0.05784249 0.0003793908 0.15258078 0.011284738 0.0008894104

layers.2.running_var f4 [32]
00000000: 76fe 673a 6868 773c bed1 013a 6e0e f13b
00000010: 32d4 a839 4395 893a 9551 223c cee7 163b
00000020: c7a7 0d3c b744 1939 943b a33c 6395 933e
00000030: 1669 723d 3863 903c b485 913a 320e 643a
00000040: b946 ae39 362a 223b fed0 313a 3c29 eb39
00000050: 60e6 493a 6b3c d33b 8251 af3c a1d4 b43b
00000060: e3ea 6b39 93b0 0a3d f5d0 913b affb a63b
00000070: eb14 0f38 2d0a 463c 211b 2e3a dd45 7939
0.00088498683 0.015100576 0.00049522135 0.0073564565 0.00032201555 0.0010496754 0.009907146 0.002302635
0.008645958 0.00014616815 0.01992587 0.2882491 0.05918225 0.017625436 0.0011102469 0.0008699625
0.0003324056 0.0024744398 0.00067831564 0.00044853415 0.000770187 0.0064464114 0.02140117 0.0055185114
0.00022498849 0.0338598 0.0044499584 0.005095921 3.411334e-05 0.012087387 0.0006641616 0.00023772517

layers.4.weight f4 [64, 32, 2, 2]
00000000: 977d 053d 5d8f af3c e4aa 5cbd 2d0c f33b
00000010: 5ee8 5cbd f023 81bc 8133 a13d 504e 54bd
00000020: 8b75 0f3d 575c 36bd c094 123d 7e5f c0bd
00000030: 9c69 2d3d f7d8 abbc f9ea 4d3d 9774 3ebd
00000040: 926e 10bd 2c24 d2bc 8c53 593d 4cb1 9bbd
00000050: a268 153c c8cd 00bd 0017 81bc 98c8 833d
00000060: b058 d6bc 3beb edbc 4321 af3d eb6a dc3d
00000070: 41d8 7e3d e9de 70bd 7a95 afbd a8e2 99bd
00000080: d0f7 4bbc d099 473b b1b3 233b 3457 13bd
00000090: ae4b 6bbd 2dae 08bd 8ae4 993d 4803 083d
000000a0: bb7b 97bd 7f95 c1bc 1073 e3bb 7cce 84bd
000000b0: 11ad a3bd a0e7 70bc d535 0abd 0e1b f5bc
000000c0: 1470 77bd 429f 543c 7922 ac3d b102 533d
000000d0: d692 943d 9291 ca3c 0884 133c 4797 59bd
000000e0: b08d babc 78ce 12bd f9e7 f13c c1fa 26bd
000000f0: 6310 41bb 2b83 c53c 68ef 71bd 6a81 f9bc
00000100: f2b2 213d d750 6f3d 60cc 2e3d 1715 9b3c
00000110: 2716 ac3c 70a2 97bd cd50 88bd 8ee4 6f3d
00000120: 4ba1 a13c 8418 33bc 7055 8d3d e036 4cbd
00000130: 9ca8 093d 098a dc3b 661b 83bc 8e53 50bd
00000140: caa3 20bc 5ccc b8bb a567 883d 5270 ea3c
00000150: 7a03 75bd 707c 8ebc 0000 64bc 62b4 83bd
00000160: 67bf 93bd 4ec9 0fbd e8fb 013c 15b0 8e3c
00000170: 563b 83bd 85ec 983c 8fb5 c63d 395a 4abd
00000180: 5921 893d 88fa dcbc a17b 0f3e c4c4 90bd
00000190: 5cb2 5a3d 9de2 84bc 9110 e43b fc36 12bd
000001a0: 941d cebc 74ff bc3d 8924 e23d 55c9 593d
000001b0: 0623 913d 4daa 873d 3a72 413d bc3e 7bbd
000001c0: 4801 9c3d a3bf 973c 711d 443c 3f5a 94bb
000001d0: 45a5 2fbd 6d6f 14bd 096f b4bd 1d9f 913d
000001e0: ba46 b63d 4d7c 2d3d ef64 b1bc 17d3 123c
000001f0: 6107 273d 3cbb 463d b254 a7bd 40b7 483d
00000200: 2e9c 61bd d79c f63a 1d85 493c 5c9d 603d
00000210: 98ff 0cbd eeba 81bd a8e6 ca3c e5f6 0d3d
00000220: 35f4 d9bc fca7 c33b 17b3 673d aca1 5dbc
00000230: 380c 96bd 3e9c 46bd 3ba4 4a3d 74bb 34bd
00000240: f111 0ebd 904f 3abd ef75 bd3d a8e9 763c
00000250: 37af 7e3d e652 84bd 5447 d63c d662 6b3d
00000260: bed5 733d 95d8 2cbd f1db e0bc 7212 20bd
00000270: 60e0 9cbd d12c 8ebb bfe9 c6bc 0e0b 1a3b
00000280: b99e 85bd 1b28 81bc f02d adbd e056 35bd
00000290: 072d cdbd a19f 66bd 5ed7 8fbd 18d8 85bc
000002a0: a112 8a3d 2e76 8ebd 6ec3 b23d cccc feba
000002b0: 1a98 583d 67cc 293a f0ec 353d a6ec 493d
000002c0: 6e3d cd3c 1092 7f3d 91ad a3bc 8ad1 113d
000002d0: 881b b53d b483 083c ffbc 5a3c 54ce 1a3b
000002e0: ec08 ffbc 821b 9d3c c804 d4bd 6178 f7bb
000002f0: 3675 903d 0fc7 2dbc 441c 4cbd 6c85 a2bd
00000300: d4aa ab3b f641 4f3c 1b92 6e3a 917d d0bc
00000310: 9ce0 18bd 9afb 093d 1dae 2d3d de6d c8bb
00000320: 6cb4 13bc 5e0f b7ba 0862 063d b71c aa3c
00000330: 85a3 f8bc 24da ef3b 0c5d ad3b 0728 acbd
00000340: 2692 8fbd e656 4bbd af23 b5bd 88c7 3dbd
00000350: 8a4a 8a3d f0e7 863c 567d a6bd 8b4f 1dbd
00000360: 740b 56bd 9b20 233d 893a 5e3d 6326 10bd
00000370: c0e0 453d c6a5 673d fab5 c6bc a235 a6bb
00000380: 801f 87bb 2258 a3bd 0daf aabd 9760 a6bd
00000390: ccca 923d 8eac ad3c bb91 693d 3282 d9bc
000003a0: 0cd0 e4bc 614b 77bd 94e6 69bd 6df4 df3c
000003b0: 6937 cdbc 2a1a 0bbd 05ba d3bd 9e51 313d
000003c0: 9a6f 53bc 947d 5ebd 444d a33d 3109 863d
000003d0: b5d6 973d fb05 373c dbc2 a2bd ad5f b0bd
000003e0: f1f0 f1bc 0e21 ecbc 77e2 8b3d 0867 9e3d
000003f0: d4d0 b1bb 9766 3ebb ba78 153d fb51 30bd
0.032590475 0.021430666 -0.05387391 0.007417223 -0.05393254 -0.015764207 0.07871152 -0.051832497
0.035024207 -0.044521656 0.03578639 -0.09393214 0.042337045 -0.02097748 0.050272916 -0.046497907
-0.035261698 -0.025652014 0.053058192 -0.07602176 0.009119185 -0.03144625 -0.015758038 0.064347446
-0.026165336 -0.02904283 0.08551266 0.107625805 0.062217955 -0.058806334 -0.08573432 -0.075139344
-0.01244922 0.003045667 0.002497893 -0.035971835 -0.05744522 -0.033369232 0.075142935 0.033206254
-0.073966466 -0.023630856 -0.0069412068 -0.06484696 -0.07991994 -0.014703661 -0.033742744 -0.029920127
-0.06040962 0.012977423 0.08405013 0.05151624 0.07254569 0.024727616 0.009003647 -0.053122785
-0.02277264 -0.035841435 0.029529558 -0.04076648 -0.002945923 0.024110397 -0.059066206 -0.030457217
0.039477296 0.058426704 0.042675376 0.018930955 0.021006657 -0.07404029 -0.066560365 0.058567576
0.01973023 -0.010931138 0.069010615 -0.04985702 0.033608064 0.0067303223 -0.016004276 -0.050860934
-0.009804675 -0.005639596 0.066603936 0.028618012 -0.05981777 -0.01739332 -0.013916016 -0.0643089
-0.072142415 -0.03510409 0.007933594 0.017417947 -0.06407802 0.018667469 0.09702598 -0.04940245
0.06695814 -0.026974931 0.14012004 -0.0706878 0.053392753 -0.016221339 0.0069599827 -0.03569697
-0.025160588 0.09228411 0.11042125 0.05317052 0.07086758 0.06624279 0.047228076 -0.061339125
0.07617432 0.018523997 0.01196991 -0.0045273597 -0.042882223 -0.036239076 -0.08810241 0.071104266
0.08900209 0.04235487 -0.021654574 0.008961461 0.04077852 0.048518404 -0.08170451 0.049002886
-0.055080585 0.0018815052 0.012299803 0.05483757 -0.03442344 -0.06334482 0.024768189 0.034659285
-0.026605705 0.005970953 0.056567278 -0.013527315 -0.07326549 -0.048488848 0.04947303 -0.04412408
-0.03468508 -0.045486033 0.0925101 0.015070356 0.062178817 -0.06461124 0.026157059 0.057467304
0.059530012 -0.042198736 -0.027448626 -0.03908009 -0.07659984 -0.0043388386 -0.02428138 0.0023505124
-0.065244146 -0.015766194 -0.084560275 -0.044272304 -0.10018354 -0.056304578 -0.070235 -0.016338393
0.067418344 -0.06956135 0.087286815 -0.0019439696 0.05287943 0.00064772967 0.044415414 0.04929795
0.025053706 0.062395155 -0.019980224 0.035600223 0.08843142 0.008332182 0.013350724 0.0023621516
-0.031132184 0.019178156 -0.103524745 -0.007552192 0.07053606 -0.010606541 -0.049831644 -0.079356045
0.00523887 0.012650004 0.0009100751 -0.0254505 -0.03732358 0.03368721 0.042402375 -0.006116613
-0.009015184 -0.0013966372 0.032808334 0.020765645 -0.03035141 0.0073197056 0.005290633 -0.08406072
-0.070102975 -0.04964342 -0.08844697 -0.046332866 0.067524984 0.016468018 -0.08129375 -0.038405936
-0.052257016 0.039826017 0.054255042 -0.03519286 0.04831004 0.05655458 -0.024256695 -0.0050723115
-0.004123628 -0.079757944 -0.083341695 -0.08123892 0.07167587 0.021200445 0.057023745 -0.02655134
-0.027931236 -0.06037462 -0.057104662 0.027338231 -0.025050836 -0.0339605 -0.10338215 0.043290727
-0.012905026 -0.05431898 0.079737216 0.06544722 0.07413999 0.011170859 -0.07947322 -0.08611999
-0.029533835 -0.028824355 0.06830304 0.077344954 -0.0054265056 -0.0029052848 0.036492087 -0.043046933

layers.4.bias f4 [64]
00000000: fb6a 13bd 2c00 ed3d 679f acbd 6a72 bebc
00000010: e3c0 babd 8100 9e3d 2ed6 eabd 3b7c 043d
00000020: 1f5a 73bc ac55 40bd 8dc6 80bc 08c9 a1bc
00000030: fec6 d0bd f3cc bd3c 946e 10be c662 10be
00000040: f559 113d 0d42 9bbc 1635 863d 6d7a 3f3c
00000050: eeda 3d3c 51bb d83d ec87 b53d d5bd d4bc
00000060: f978 b1bd acd2 9f3d 3b37 a5bd e269 443d
00000070: 2e8c 83bc bd07 603d 85a7 96bd 653c d93d
00000080: b1c8 ffbd 0d2c d3bc d33c 89bc 9239 b73b
00000090: 76fd 25bd cde1 9bbc 4ca7 40bd 84a9 85bc
000000a0: a096 29bd c40e 9f3d adf6 053d 67f1 103d
000000b0: 4850 943d 79fd 19be 642e cc3c af3c 6e3d
000000c0: c309 033e 2412 9cbd 03be a7bd 58ad 083d
000000d0: 546a 7fbd 1c7b aa3d 36a3 b0bd 26d0 41bd
000000e0: af0b 613d cc29 a13d 7152 14bd 8704 a23d
000000f0: f48c 56bd d6ce 7cbd cf86 debc 2761 d03c
-0.035990696 0.115722984 -0.08428841 -0.023247916 -0.091188215 0.0771494 -0.11466633 0.032345038
-0.0148530295 -0.046956703 -0.015719676 -0.01974918 -0.10194205 0.023169016 -0.14104682 -0.14100179
0.03548618 -0.018952394 0.06553094 0.011686903 0.011587841 0.10582603 0.08863816 -0.025969425
-0.08665652 0.07803854 -0.08067175 0.04795254 -0.016058054 0.05469488 -0.073561706 0.106072225
-0.12489451 -0.025777841 -0.016752636 0.0055915797 -0.040524922 -0.019028569 -0.047034547 -0.016316183
-0.041403413 0.07766488 0.03270595 0.03538647 0.07241875 -0.15038098 0.024924465 0.05816334
0.12796693 -0.076206475 -0.08190539 0.03336844 -0.06235726 0.083242625 -0.0862488 -0.047317646
0.054942783 0.078693 -0.036211435 0.0791102 -0.052380517 -0.06172069 -0.027163891 0.02543695

layers.6.weight f4 [64]
00000000: f6ab 7c3f c2cd 773f 444b 7e3f b64b 7b3f
00000010: d580 7c3f 1332 7b3f 58c2 843f 0cab 7b3f
00000020: bf4f 743f b4c0 843f 107c 753f 8060 783f
00000030: 2f2c 853f 52d6 7d3f 0c0d 853f 180a 853f
00000040: 58d1 7a3f e3b0 873f 5d7a 783f 006d 823f
00000050: e761 7a3f b8fd 753f 0a12 7b3f 1b17 843f
00000060: a2f8 7d3f acf1 793f aa60 783f a91d 743f
00000070: c639 773f 6d16 773f 46ea 823f 77e7 743f
00000080: 54d9 813f a7ae 863f 38ff 773f f793 833f
00000090: 3d0c 803f d823 723f 101d 793f 32b4 7b3f
000000a0: 0522 783f 99ec 7b3f 00e7 813f 8e3b 823f
000000b0: c8ab 843f c7a9 863f c282 843f 9ef5 783f
000000c0: 2e62 793f 7f2f 7f3f 5354 7e3f 4b1b 7c3f
000000d0: 7a10 743f 8f64 763f 6b4d 883f 8f07 713f
000000e0: 6caa 793f 32b2 813f a5bd 763f 5d7a 7e3f
000000f0: 6c6b 843f 5be3 763f 8f24 833f 3894 763f
0.9869989 0.96798337 0.99333596 0.981624 0.9863408 0.9812328 1.0371809 0.9830787
0.9543418 1.0371308 0.9589243 0.9702225 1.0404109 0.9915515 1.0394607 1.0393705
0.97975683 1.0600857 0.9706171 1.0189514 0.9780564 0.9609027 0.980744 1.0319551
0.9920751 0.97634387 0.970225 0.9535776 0.9657253 0.96518594 1.0227745 0.9566569
1.0144448 1.052205 0.9687381 1.027953 1.0003735 0.94585943 0.9730997 0.9832183
0.9692691 0.98407894 1.0148621 1.0174425 1.0364923 1.0520562 1.0352404 0.9724978
0.97415435 0.9968185 0.9934742 0.98479146 0.9533764 0.9624719 1.0648626 0.9415216
0.9752567 1.0132506 0.96383125 0.9940546 1.0345283 0.96440667 1.0245532 0.96319914

layers.6.bias f4 [64]
00000000: 465a 2cbc 6560 423d 52c1 493d 3824 e13d
00000010: 125f ebbc 672e b93d 2c4f b3bc e026 9fbd
00000020: 26df 1b3d d467 a33d 7d0d b53d 3f83 6a3d
00000030: 8c1b 403c f16e 9c3c cc4c 823d f651 2bbd
00000040: 56bd 403c 2894 25bd 1ed1 eb3d 86ca fd3c
00000050: 2731 253c f711 b43d 1c86 e53d fcb3 74bd
00000060: 9084 cfbd b399 a6bc 8b0e 613d e0f4 043d
00000070: 8130 443d 2939 433c 8118 1a3d d6c9 413b
00000080: cc99 92bd 5bc9 a43a 7dc0 03bd 9325 a63d
00000090: f46d d53d 47ee 1fbd 2364 7a3b d5c2 91bd
000000a0: 6edc 883d 5ee9 533d 4b72 e83d fd3d 99bc
000000b0: 69cb 9e3c d416 8ebd 7595 91bd c85f abbd
000000c0: 1d0b dd3d d4b3 583d 2483 c6bc 9726 e53c
000000d0: ae50 fc3b b88c 4b3d 1f19 ba3c 4d11 ec3a
000000e0: 6084 1f3d ab2f 593c f0e2 03bc c7b4 2bbc
000000f0: ed4b 05bd 811f e33d 5835 7e3c 2437 04bd
-0.01051957 0.04745521 0.04925663 0.10993236 -0.028731856 0.09042054 -0.021888338 -0.07771087
0.038054608 0.07978788 0.08840463 0.057254072 0.011725318 0.01909587 0.06362304 -0.04182621
0.011763891 -0.040424496 0.11514495 0.03098036 0.01008252 0.08792489 0.1120722 -0.05974196
-0.10132706 -0.020336961 0.05494551 0.032460093 0.04789782 0.0119154835 0.037621025 0.0029569766
-0.07158241 0.0012572216 -0.032165993 0.081126355 0.104213625 -0.0390456 0.0038206659 -0.071172394
0.066826686 0.05173623 0.11349925 -0.018706316 0.019384103 -0.06937948 -0.07108585 -0.08367878
0.10793135 0.052905872 -0.024232455 0.027972503 0.0077000475 0.049694747 0.022717057 0.0018010527
0.038944602 0.013255994 -0.008049712 -0.010480112 -0.03254311 0.11089993 0.015515648 -0.03227915

layers.6.running_mean f4 [64]
00000000: d1d0 943e 1666 923e 1056 b93e 6c7c a83e
00000010: 14c5 0e3e 86c6 033f f613 153e 62dd ea3e
00000020: d854 8b3e 3e3a 823d da51 0a3f df66 0a3f
00000030: f517 cb3c fdac f03d 52c5 0e3e 68e7 8b3d
00000040: b2db 913e 7e15 043e 7979 a33e 44ad 403e
00000050: 497d 263e d411 bc3e fabf d83e 2bd0 293e
00000060: e079 433e c5e2 163f eb8f 5d3e 3153 4a3f
00000070: f4f3 a73e b286 eb3e 141d a53d ccab da3e
00000080: 4087 833e c750 4e3e d4f0 223f 0c64 983e
00000090: 9d9d 3d3e ce7a ac3e e2c3 c73e 0b10 ab3e
000000a0: d041 843e 27a9 cb3e b816 f83d 045d 8e3e
000000b0: e522 4d3e 71d7 8a3d 7ba7 3a3e 459b c53e
000000c0: 05ed 453f 163a c23d 0a8b 313e 6f90 f53e
000000d0: 2f0c bd3e 5da0 a93e 6a4f 353d d3d3 973e
000000e0: 3615 fd3e c854 b13e 1bf4 1d3f ea72 d93e
000000f0: 6cc5 193e 235d 813e 8ebe a43d 3091 5e3f
0.29065564 0.2859351 0.36198473 0.32907426 0.13942367 0.514748 0.14558396 0.45872027
0.27213168 0.06358765 0.54031146 0.5406322 0.024791697 0.11751745 0.13942459 0.068312466
0.28487927 0.12898824 0.31928614 0.18816096 0.1625873 0.36732352 0.42333966 0.16583316
0.1908946 0.5893977 0.21636932 0.7903319 0.3280331 0.46001202 0.08062187 0.42709196
0.25689125 0.20148002 0.63648725 0.2976383 0.18517156 0.33687443 0.39016634 0.33410677
0.2583146 0.3977749 0.12113708 0.2780534 0.20032842 0.067793734 0.18227951 0.38595024
0.7731479 0.09483735 0.17338195 0.47961757 0.36923358 0.3313016 0.04426519 0.29653797
0.49430245 0.34634995 0.617006 0.42470485 0.15016717 0.2526637 0.08044158 0.8694029

layers.6.running_var f4 [64]
00000000: 96eb b63e 60b5 323e 0336 9d3e 8e55 773e
00000010: 1301 3b3e b333 f73e a209 0f3e 90ef f23f
00000020: ed81 433f e291 6f3d 3ccf 133f d136 ed3e
00000030: 5cf7 c03c 81f0 1d3e cbc1 f83d e46e 2b3e
00000040: 588b 133f a404 a53e b75a 863e dc88 7b3e
00000050: 8270 f93e be80 223f 5f20 9f3e 5c79 a13e
00000060: c1ab 083f 1396 3c3f 0fd3 c23e 4563 833f
00000070: 53fc 483e 077a a03e d02b c93d 9da2 2c3f
00000080: df38 053f 1cfe a73e 8930 243f 84c1 d33e
00000090: ea39 303e 3df0 be3e 3570 cb3e 9502 183f
000000a0: dbe5 383e 88b5 053f 5459 843d bb73 fb3e
000000b0: 10f3 e73e aa54 603e 6208 de3e 9d4d 943f
000000c0: 1804 563f 9e76 ac3d c7c8 223f 2c3b e03e
000000d0: bd6d 123f 89bf 8e3e 508e ae3d af33 ad3e
000000e0: b77b c43e 8a76 c63e 3004 5e3f 51a3 6b3f
000000f0: 6a19 fa3e d25f 1a3e 7fdf ce3d 328f c23f
0.35726613 0.17452002 0.3070527 0.2415373 0.18262129 0.4828163 0.13968518 1.8979359
0.76370126 0.058488734 0.5773809 0.46330884 0.02355545 0.15423776 0.12146338 0.1674152
0.57634497 0.32230103 0.26241085 0.24563926 0.4871865 0.63477695 0.31079385 0.31537902
0.53387076 0.73666495 0.3805165 1.026467 0.19627504 0.313431 0.0982281 0.6743563
0.52039903 0.32811058 0.6413656 0.41358578 0.17209592 0.37292662 0.39734045 0.5937894
0.18056433 0.5223012 0.064623505 0.49111733 0.4530263 0.21907297 0.4336577 1.1586186
0.83599997 0.08421062 0.6358761 0.43795145 0.571987 0.27880505 0.08523238 0.33828494
0.38375637 0.38762313 0.8672514 0.92046076 0.48847514 0.15075615 0.10101222 1.519995

layers.8.weight f4 [64, 64, 2, 2]
00000000: b2a4 5dbd 0b1b 413c 5286 c23b 0af7 b4bd
00000010: d29e 9a3c b5a1 88bd 0a8e aa3c eac0 62bd
00000020: 0891 10bd 5e20 c6bc 8539 5bbc 7ed6 003c
00000030: 2873 21bd 477a 713d 8aa5 8cbd 22cc 943c
00000040: 07cf ed3b 8be2 b93b 01f5 123c 063a f43c
00000050: 82c6 89bc dec0 7fbd 10a0 bebc 9f72 cbbb
00000060: cbd6 d23c 2fc4 e7bc 2f27 51bd 6c34 0dbb
00000070: 4b3f 1dbd 1823 5c3d a885 963c 35f4 92bc
00000080: abde 813c 5216 12bd f362 59bd 8605 6abb
00000090: ed18 083d 3dad 2d3c 76c8 54bd 04ca 8fbd
000000a0: 7466 77bb 14ce 3abd 36c0 d2bb 1869 f13a
000000b0: ecec 20bd 9fb5 513d 1430 cbbc 626b 7a3d
000000c0: 4e99 27bd e8ba 09bd c65b 3abc 2bad 58bd
000000d0: 5b53 9b3c 0b02 073d d294 633d 0069 5d3c
000000e0: e673 d6ba ed82 453d b37a 7f3d 25ab 44bc
000000f0: a4b9 8e3c 21bc c6bc 4fed 013d 3991 51bd
00000100: 54e1 45bd 8883 ae3c 264f 8abd 267c 443d
00000110: c489 19bd 7f64 8cbd d454 083a 3ca4 41bb
00000120: d21c 173d ca1c 12bd 47df 4bbc 422a a23c
00000130: 3ee2 49bb a241 8abc bb57 5bbd af08 8b3c
00000140: 9d09 23bc 9738 dcbc c426 213d 66e1 613d
00000150: 1b0b 25bd 4bd1 0f3c 6681 46bb 04bf 24bc
00000160: 3e5b 6bbd f323 843c 6b41 11bd 49c7 6a3d
00000170: 38cb 923d 4eed 283d 044c 0fbd 5037 97bd
00000180: b10e e23c 65bb 05bd e0b0 55bd de02 f5bc
00000190: e0b9 8dbc 3273 09bd a4eb 333d f92a 32bd
000001a0: 675e 2abd f5bf 0e3b 7625 5b3b d7a7 363d
000001b0: 2eee 1cbd cc7a 95bd e042 b3bc ed21 d03b
000001c0: aff2 ab3c 076d 013d 4327 3dbc 368a 1d3d
000001d0: 9e1a 073b 7158 8e3c 140a 2f3d 38f8 5b3d
000001e0: 79f9 8dbd b709 7e3d 79e7 29bd f867 443d
000001f0: c15f dabc 414e f63a 2775 9abd 4d61 45bd
00000200: 6630 60bd b892 893d 43b4 3abd 46ce e2bc
00000210: 8f36 96bc cd4e 81bd 53ec f0bc ee62 3ebd
00000220: 9c1a 31bc 413c 403d e5f5 52bd 6bda 033d
00000230: 1c60 113d 2097 1cbd 6e62 593d 5ac0 f23b
00000240: e0a1 6a3a c9d8 0bbd 010e d23b d32e e43b
00000250: 0b5a 1c3d 77c9 e63c 261b 1e3c 0401 febc
00000260: 3bc9 05bd d3e6 c73c e93b c3bc 0067 6fbc
00000270: 57dd e93c e4ca 38bd a504 cc3c bbf2 5e3d
00000280: 5820 50bd 61f9 223c 11c7 48bd 9b46 14bc
00000290: ed6a f13c 05cb efbb dd8d 86bc c182 10bd
000002a0: 812e 78bd 5c88 12bc d1e4 20ba 4769 243d
000002b0: c3b8 c63c ba21 a5bd a86f 1b3c 9213 a7bc
000002c0: 0b7c 63bd 2798 323d e552 fdb9 eddc 26bd
000002d0: d737 0dbc c4f0 6bbd f86e 9abd 4cd9 de36
000002e0: 3714 d9bb 5e3c 06bd 70cd 903c 953f b2ba
000002f0: d083 78bd 3ec5 1a3d 2847 0b3d f922 54bd
00000300: 608a 02bc 369c c13c ad57 bd3c f253 833c
00000310: f7ed 163d df75 99bc 6871 0ebd 9cf1 713b
00000320: 7d03 2c3d c37c e9bc 6a6a cabc 839d 883c
00000330: ccd5 143d b049 7d3d b5f0 8bbb e496 493d
00000340: 8b6c acbb df9a 6abc cc26 843c 015b 3dbb
00000350: 470c 7bbc 98c1 3bbd 58d7 0abd 3d5a 3e3d
00000360: 1454 25bd 2fc5 9bbc c7d3 a8bd f3a7 95bc
00000370: d307 e9bc 34f3 403d 46bf 103d 9360 e93c
00000380: 4377 1ebd aa2b 1dbd 1273 553d 1a62 53bc
00000390: abc2 43bd ff9e 043d fa3b 98bc 76ab b5bc
000003a0: f719 073d e71b 4d3b 8e99 81bd b6c7 6fbb
000003b0: 05e9 20bc 597f d2bc e2ec 553d e3e5 943d
000003c0: 21bf 523c ce69 ba3c 1e2c 06bc e1a5 2bbc
000003d0: bd60 03bc f82e a33c 5f6a efbc 99c6 073d
000003e0: 6767 4bbd df89 063c 413e 013d fbea 803d
000003f0: 6ccc 703d 3f91 4dbd 8e3d b33a 28d7 98bc
-0.054112144 0.011786233 0.0059364224 -0.088361815 0.01887456 -0.06671468 0.020819683 -0.05535976
-0.035294563 -0.024185356 -0.013380413 0.007863639 -0.039416462 0.058954503 -0.068675116 0.018163744
0.0072573456 0.005672758 0.008969546 0.029812824 -0.016818289 -0.06243979 -0.023269683 -0.0062087323
0.025737187 -0.02829179 -0.05106276 -0.0021546138 -0.03839044 0.053744406 0.01837428 -0.017938713
0.015853247 -0.035665818 -0.05307288 -0.0035708859 0.033226896 0.010600385 -0.051948987 -0.07020953
-0.0037750276 -0.045606688 -0.0064316047 0.0018418161 -0.039288446 0.051198598 -0.024803199 0.061137564
-0.040917687 -0.033625513 -0.01137442 -0.05289952 0.018960645 0.032960933 0.055561848 0.0135138035
-0.0016361445 0.048220564 0.062372874 -0.012003695 0.017422505 -0.024259629 0.031720456 -0.051163886
-0.048310593 0.021302953 -0.067533776 0.04796996 -0.0374849 -0.068551056 0.00052006287 -0.0029547354
0.03689272 -0.035671987 -0.01244337 0.01979554 -0.0030805017 -0.016877 -0.053550463 0.016971914
-0.009951022 -0.026882453 0.03934361 0.055146597 -0.040293794 0.008777927 -0.003028953 -0.010055307
-0.057460062 0.016130423 -0.035462778 0.05731896 0.07167667 0.041241936 -0.034984604 -0.07383597
0.027594896 -0.032649416 -0.052170634 -0.029908594 -0.017300546 -0.033557124 0.043925896 -0.043498013
-0.041593935 0.0021781896 0.0033439077 0.04459366 -0.038313083 -0.07298812 -0.021882474 0.0063517005
0.020989744 0.031598117 -0.011545005 0.038461886 0.002061523 0.017376157 0.04273422 0.053703517
-0.06932349 0.062020984 -0.041480515 0.047950715 -0.026656987 0.0018791632 -0.07541876 -0.048188496
-0.054733656 0.067174375 -0.045582067 -0.02768625 -0.018336562 -0.06313858 -0.029409563 -0.046481065
-0.010809567 0.046932463 -0.051504035 0.03219072 0.035492048 -0.03823006 0.053072385 0.007408184
0.0008950513 -0.03414229 0.006410361 0.0069635897 0.03817181 0.028172238 0.009650027 -0.031006344
-0.03266261 0.024402058 -0.023832278 -0.014611959 0.028547926 -0.045115367 0.024904558 0.054430705
-0.050812095 0.009947152 -0.04901797 -0.009050037 0.029469931 -0.007317903 -0.016425068 -0.035280947
-0.060591225 -0.008943643 -0.0006137612 0.040139463 0.024258023 -0.080630735 0.00948707 -0.020395074
-0.05553822 0.043602135 -0.00048317682 -0.040738035 -0.00861927 -0.05760266 -0.07540697 6.6414123e-06
-0.0066247243 -0.032772414 0.017676085 -0.0013599271 -0.06067258 0.03778576 0.034003407 -0.051791165
-0.0079675615 0.023634057 0.023113096 0.01603124 0.036848035 -0.018732963 -0.03477612 0.0036917692
0.041995514 -0.028501874 -0.024708945 0.01667667 0.036336705 0.061837852 -0.004270638 0.049216166
-0.005261963 -0.014319151 0.016131781 -0.0028893354 -0.015322751 -0.045838922 -0.033896774 0.046472777
-0.040363386 -0.019014923 -0.08243518 -0.018268561 -0.028446114 0.047106937 0.035338663 0.028488433
-0.038687956 -0.03837172 0.052111693 -0.012901807 -0.04779307 0.032378193 -0.018583287 -0.022176486
0.032983746 0.0031297149 -0.06328116 -0.0036587543 -0.009821181 -0.02569549 0.052227862 0.0727041
0.0128629515 0.02275553 -0.008189229 -0.01047656 -0.00801867 0.019919857 -0.029225526 0.03314838
-0.04965916 0.008211582 0.03155351 0.06294819 0.058788702 -0.050187346 0.0013674961 -0.018657282

layers.8.bias f4 [64]
00000000: ae45 3b3c 114a e73c 895b b4bd 4de4 f53c
00000010: 9321 103e e525 053c 44b7 13bd 4e57 ca3c
00000020: bf87 eb3c cdcd ab3a d281 c7bc 7198 733b
00000030: de29 e0bc 1679 ba3c ddbe 703d d531 803d
00000040: c468 96bd fc40 b2bb 4d8e bc3d 627f 5dbd
00000050: 94ab 53bd 255d 9fbd c2b0 1e3d b3a9 38bd
00000060: 20c9 d53a a11a 513c 69ca 7c3c 7a18 503d
00000070: 6d2b 68bc 97e5 c43c 9dfa 9cbc 08f3 06bc
00000080: 4a64 e13b 30a6 05bb 4dc5 183d 0587 da3c
00000090: 5067 983c a099 053e 551f 893c 05dd fabb
000000a0: 705d 56bd 110e 403c ca46 0b3d 1d91 c63d
000000b0: 3f32 0c3b 6986 613c df21 0bbd cbfb 043d
000000c0: 1621 143d 7711 493e 402a 093c 2235 613d
000000d0: a6ac 003d 7517 63bc 6ca9 71bd 4a65 513c
000000e0: 6c34 97bd 193f e9bd ea13 8b3d 00aa 72bc
000000f0: 6790 ef3c ce18 c83a a55e b13c f720 e13c
0.011430187 0.02823356 -0.088065214 0.030016089 0.14075308 0.008126711 -0.036063448 0.024699833
0.028751252 0.0013107598 -0.024353895 0.003716972 -0.027363714 0.022762816 0.05877577 0.06259505
-0.07344201 -0.0054398756 0.09206829 -0.05407656 -0.0516773 -0.07781438 0.038742788 -0.045083713
0.001631055 0.0127626965 0.015429118 0.050804593 -0.01417051 0.024035258 -0.01916247 -0.008236654
0.0068784105 -0.0020393245 0.037297536 0.02667571 0.01860395 0.13046885 0.016738573 -0.007655742
-0.052335203 0.011722104 0.034003057 0.09695647 0.0021392254 0.013764956 -0.03396785 0.03246669
0.036164366 0.19635569 0.00837189 0.054982312 0.03141465 -0.013860573 -0.058999464 0.012780497
-0.073830456 -0.11388988 0.06790908 -0.014811039 0.029243661 0.0015266181 0.021651575 0.02748154

layers.10.weight f4 [64]
00000000: b9ef 9b3f e72a 9c3f 6133 9c3f 60f8 9b3f
00000010: 80c3 9b3f be2e 9c3f 508a 9c3f ac80 9b3f
00000020: 0bf1 9b3f fd66 9b3f 4bc3 9b3f 9739 9c3f
00000030: b027 9c3f 65dd 9b3f ffdc 9b3f f074 9c3f
00000040: 46d3 9b3f b30b 9b3f 1fcd 9b3f a183 9b3f
00000050: fd79 9b3f 7978 9a3f fad9 9b3f 8ec6 9c3f
00000060: c6ae 9b3f 011f 9c3f b370 9c3f e313 9c3f
00000070: 91c8 9b3f b767 9b3f 69ba 9b3f 3702 9c3f
00000080: 44e5 9b3f 0523 9c3f a472 9c3f df9d 9b3f
00000090: 0ed2 9b3f 4bcb 9b3f cec4 9b3f 857e 9c3f
000000a0: cde9 9b3f 8a42 9a3f f89d 9b3f 9c52 9c3f
000000b0: f3ea 9a3f 387c 9c3f eda1 993f d4a2 9c3f
000000c0: 56b5 9b3f d42d 9d3f 92ff 9b3f 4690 9c3f
000000d0: 64e9 9b3f 1c7c 9b3f 0c59 9c3f 9706 9b3f
000000e0: 50a1 9b3f 7270 9c3f a450 9c3f ae01 9c3f
000000f0: abcd 9b3f eeae 9b3f 7fec 9b3f bf8b 9d3f
1.2182533 1.2200593 1.220318 1.2185173 1.2169037 1.2201765 1.222971 1.2148643
1.2182935 1.2140805 1.2168974 1.2205075 1.2199612 1.2176939 1.2176818 1.2223186
1.217385 1.2112945 1.2171973 1.2149545 1.2146603 1.2068015 1.2175896 1.2248094
1.2162712 1.2196962 1.2221893 1.2193569 1.2170583 1.2141026 1.2166263 1.2188176
1.2179341 1.2198187 1.2222486 1.2157553 1.2173479 1.2171415 1.2169435 1.2226111
1.2180725 1.2051556 1.2157583 1.221271 1.2102951 1.2225409 1.2002541 1.2237191
1.2164714 1.2279611 1.2187369 1.2231529 1.21806 1.214725 1.2214675 1.2111386
1.2158604 1.2221816 1.221211 1.2188013 1.217214 1.2162759 1.2181548 1.2308272

layers.10.bias f4 [64]
00000000: 04ef 633e e75f 26be a9f8 5d3e 6d5f 65be
00000010: b56a 583e 07ba 3c3e 4b58 653e cd7c 69be
00000020: 9f36 5d3e 7e7e 3b3e 6800 423e 774b 5e3e
00000030: e82c 603e ffba 363e d1ce 623e db8f 5e3e
00000040: bbab 423e fedd 59be de79 613e b336 51be
00000050: a8a5 5d3e 4768 4f3e 270a 3e3e 3736 5f3e
00000060: 6882 563e 2684 3f3e 0a6d 623e 7b9f 1c3e
00000070: 7a58 59be bf10 403e f07f 583e 9b6b 583e
00000080: 9315 67be 8df4 3d3e 2d5b 623e b06c 63be
00000090: 1abe 153e 4793 373e 0c1a 41be e348 5c3e
000000a0: a1ae 333e 649a 64be 04c4 453e 1194 43be
000000b0: 3ad5 32be 3e73 5f3e fee6 54be 79c4 43be
000000c0: 483d 573e 1336 41be 8fe0 3a3e 7804 08be
000000d0: be28 3c3e 7fdf 3a3e abe8 253e 4535 6bbe
000000e0: 7901 3c3e 6e6d 5c3e c765 5d3e 09eb 5b3e
000000f0: aad6 40be 6931 56be 812f 3a3e 5dd3 42be
0.22259146 -0.16247521 0.21676888 -0.22399683 0.21134456 0.18430339 0.22396962 -0.22801514
0.21602868 0.18309972 0.18945467 0.21708475 0.2189213 0.17844771 0.22149207 0.21734564
0.19010822 -0.2127609 0.22019145 -0.20431022 0.21645224 0.20254622 0.1855856 0.21798025
0.20948184 0.18702754 0.22111908 0.15295212 -0.21225157 0.18756388 0.21142554 0.21134798
-0.22566824 0.1855032 0.22105093 -0.2220943 0.14623299 0.17927276 -0.18857592 0.21512179
0.17547084 -0.2232452 0.19313055 -0.19099452 -0.17464152 0.21821305 -0.20791242 -0.19117917
0.2101947 -0.18868284 0.18249725 -0.13282955 0.18374917 0.1824932 0.16202037 -0.2296954
0.18359937 0.21526119 0.21620856 0.21476378 -0.18831888 -0.20917286 0.18182184 -0.19025941

layers.10.running_mean f4 [64]
00000000: 9e1a db3d 21b7 8d3f 113e 133f d0af 7c3f
00000010: 5fec 953f 676a 623f 22b9 5c3d 1bc1 3e3f
00000020: a5f3 503f 7b85 893f 8f69 493f a072 363f
00000030: 6d06 153f ca41 913f c699 8b3f 60de 843f
00000040: 4d20 be3e d4d8 533f 23f6 ab3f b418 6c3f
00000050: 9470 f53d db97 873d ec52 893f 5191 3f3f
00000060: a10b 9e3d 56bb 363f 4313 d13f 1c09 703f
00000070: d282 4f3f 1c66 5c3f 9cb4 023f deae 1e3f
00000080: bfad 3c3f d076 7c3f 2cd5 a33f 29f0 4e3f
00000090: a418 913f 3a0c 943f ccdf 893f 08d0 3d3f
000000a0: 0f4a 4e3f d8bd 243f 0b4d 193f 2548 773f
000000b0: e29d 883f 9f71 273f b59e 4c3f 634b 843f
000000c0: 1a80 1b3f 7d1f 9b3f e5ed 843f 5599 2e3f
000000d0: 82e0 9a3f 26e1 9a3f 3877 433f 2fea 253f
000000e0: 59f3 173f 0c9d d83e 4ef1 0b3e c097 e73e
000000f0: c2b2 653f 71e1 483f 88a5 a63f b4e3 223f
0.10698436 1.1071512 0.5751658 0.9870577 1.171276 0.8844361 0.053887494 0.74513406
0.8162177 1.074386 0.78676695 0.71268654 0.5821293 1.1348202 1.0906303 1.0380363
0.3713402 0.8275273 1.343449 0.92225194 0.11984363 0.06620761 1.0728431 0.7483111
0.07717062 0.713796 1.6334003 0.937639 0.8105899 0.86093307 0.5105684 0.61985576
0.73702615 0.98618793 1.279943 0.80835205 1.1335645 1.1566231 1.0771422 0.74145555
0.80581754 0.6435218 0.59883183 0.9659446 1.0673182 0.6540775 0.7992967 1.0335506
0.6074234 1.2118984 1.03851 0.68202716 1.2099764 1.209996 0.7635379 0.6481046
0.59355694 0.42307317 0.13666269 0.45232964 0.8972589 0.78468996 1.3019266 0.636287

layers.10.running_var f4 [64]
00000000: 215c 313d 37e6 4540 c23a 1c40 33c9 4840
00000010: 7afa 0b40 9086 2d40 b36b 423c 8053 cc3f
00000020: c77e 6740 cb43 7240 c756 1640 d751 3a40
00000030: fa4f ec3f e760 6e40 df2a 1640 63fb 2740
00000040: 0976 b23f 5d68 f53f 4d64 f23f babd 5740
00000050: 64bf 693d 45c1 2d3d 8cff 8340 881d 1f40
00000060: db89 ee3c 4da4 0a40 f2c3 f540 c486 0f40
00000070: bfd9 0f40 ba88 3840 cb51 ee3f 4a38 2440
00000080: 495e 0b40 d813 6440 2e82 d240 f3b0 0340
00000090: a0bf 5940 9872 2c40 9b9e 3c40 29db 4640
000000a0: 844f 3040 2fca fc3f ae9a be3f f697 ae3f
000000b0: 2060 5f40 2a24 0540 6593 b33f c7ab 1a40
000000c0: 6fc9 1140 f89f d53f 281a 3840 530a f03f
000000d0: da57 a540 f85c af40 2193 1140 01a4 ba3f
000000e0: e1b5 f73f bd76 af3f 79dd 723d 07e0 c43f
000000f0: b931 5a40 98b3 1340 6f11 ad40 8b89 913f
0.04330075 3.0921762 2.4410863 3.1372802 2.1871629 2.711338 0.011866498 1.5962982
3.6171129 3.7853878 2.3490465 2.911245 1.8461907 3.7246644 2.3463666 2.6247184
1.3942271 1.9172474 1.8936859 3.370955 0.05706729 0.042420644 4.1249447 2.4861774
0.029118469 2.1662781 7.680169 2.2426004 2.2476652 2.8833451 1.8618711 2.5659356
2.1776297 3.5637112 6.578391 2.0576751 3.4023209 2.6944942 2.9471805 3.1071265
2.7548532 1.9749202 1.4890954 1.3640125 3.490242 2.0803323 1.4029356 2.4167345
2.2779195 1.6689444 2.8765965 1.8753151 5.166974 5.4800987 2.274605 1.45813
1.935238 1.3708111 0.059293244 1.5380868 3.4092848 2.3078365 5.408378 1.13701

actor_classifier.weight f4 [15, 256]
00000000: de42 933b 52fa 87bc cf69 85bb 9072 11bd
00000010: e48b 603d e3ed 6fbd 88c3 563b 4c17 98bc
00000020: 6ff4 353d e9db 073b e077 5b3d cdcc f3bc
00000030: e522 b4bb 0ec1 27bd ee93 2c3d 6fec 863d
00000040: 2619 363c 0666 8e3c 671f e4bc 0323 3dbd
00000050: 0a44 333d 7c71 bc3c 007a 713d a79d 2e3d
00000060: 086e 043c 539e a43c 4d93 4fbd 81aa 0c3d
00000070: 16dd b4bc 8466 3dbd a2c1 22bd 7bc2 4cbd
00000080: e606 763d a5bc 6e3d 149b 0f3b 7ce5 743b
00000090: 7b3a aabc df7a 5ebd ec94 84bb 5df2 38bd
000000a0: e0e8 28bc 832f 613d b96b 363c a407 bd3b
000000b0: 36b6 80bd fa67 babc 86ff 32bd dd8e 9d3c
000000c0: db61 87bd f307 353c efe6 45bd 40e4 393d
000000d0: 274a 6e3c bcc5 60bc a568 423d 44dc 203d
000000e0: 3bf7 37bd 46c3 e7bb 3f15 7ebb b6d6 9abc
000000f0: 771c 8a3d cc79 c1bc 9db3 0e3d 26e2 47bb
00000100: d604 253b bcae 31bd f43b e9bc cdb4 d8bc
00000110: 9c4c d63c c0c1 83bd 4af1 313d 61f0 0c3d
00000120: 4ec4 22bd b463 583c 07b7 b3bc e9c5 c53b
00000130: ee30 7dbd 8ce7 06bd 696f c3bc 26ec 51bd
00000140: 6ae5 393d c132 363c 58fa e9bb 0f60 7fbd
00000150: f354 933c cf33 873c f966 4fbc dc52 6abd
00000160: 552a 1abd fef4 333b f024 34bd 6a0f 6e3d
00000170: e2b7 323d 3ac1 8d3c 52e6 47bd fda5 123d
00000180: de72 123d bd4b 213d a295 253d 054e efbc
00000190: e52e 5bbd c658 953c 3ce9 45bb 9cac da3c
000001a0: c5b2 f13c a8ae cd3b 52b1 7c3d 73fa 34bd
000001b0: 9ef1 60bd 7129 0a3d 0002 70bd 7b82 14bd
000001c0: 0e16 25bd 175f 753c 09d4 f6bc 709b b6bc
000001d0: b28c b5bc 52f9 663d ca62 5f3d 23e5 3d3d
000001e0: bafc 43bd bba5 603d 66a3 2d3c 71ec 273d
000001f0: 30d2 8c3c 4b19 bebc ff3a 16bb e531 f2bc
00000200: c42c f4bc 8c85 75bd d580 1b3d 0a74 653d
00000210: 23d2 613d aa25 0dbd 3006 843c cd84 d33c
00000220: c85d 4c3c 85b2 983c 6149 21bd 5c8b 02bb
00000230: 818e bf3c 6407 ea3c cdd6 1d3d bdba a0ba
00000240: e9a5 6cbc 75ac 253d dbe8 113c 3901 7a3d
00000250: c6b3 fd3c 872e 3cbd 4e02 8b3d 591a fe3c
00000260: 5f0b 45bd 7eed 31bc 1083 b7bc 4c0b 2abd
00000270: 6673 52bd cd37 23bd 2319 6e3d 6a64 1fbd
00000280: d68d 02bd c135 ad3c c65c a6bb 6079 19bd
00000290: 0178 33bd 6fc3 5abb 3257 883d cd6c e6bb
000002a0: e488 6cbd c51b 4fbc db95 3aba 3c31 253d
000002b0: e25b 373c 105b a03c ff14 383d bb8e b23c
000002c0: bc57 6c3d 58cc 9a3c 9862 69bd 3b77 7e3d
000002d0: 23a0 8b3c 3b28 223d f8a2 063d 03d3 52bd
000002e0: c0f4 debc 155d d53b 1b58 bcbc dd06 4c3d
000002f0: b75d 3cbc 9144 f93b e909 dcbc a882 12bd
00000300: 8648 263d 063d 003d 8223 49bd 7964 2cbd
00000310: 8b37 80bd f7c1 363d b104 753d c1a6 563a
00000320: 6693 0dbd a074 613c b7fc be3c 75ac 5ebd
00000330: b074 50bd 727e ef3c 2807 74bc 5d05 13b8
00000340: 1bd3 36bd 832c 92bb 6410 45bd 6681 9d3c
00000350: d237 c33c 3771 abbc db28 db3c 8151 8a3d
00000360: 0a23 34bd cb5d 6cbd 11b4 743c 906c edbc
00000370: be3d 053d 9d8b 343c a64a 643d 8076 60bd
00000380: 3275 9abc d51b 1f3d 59e3 40bd 2d23 08bd
00000390: 88b2 6cbd d42b 1abc db18 86bd 830e 023d
000003a0: d42b 9d3c 5071 d93c 1655 6cbc 3483 49bd
000003b0: 4915 ddbb c371 4a3d 3f04 0d3d 2daa 6c3c
000003c0: 1ce9 debc 391e 5d3d 8805 35bd 6043 233d
000003d0: 54b2 b13b fa2f 59bd 385f 45bd bd67 83bc
000003e0: 624a 86bd 697c af3b 557c 2cbd 329a 803c
000003f0: c58c 29bc 7dca 1d3b 434c cebc ca7e 7b3c
0.004494055 -0.016598854 -0.0040714513 -0.035509646 0.05482091 -0.058576476 0.0032770354 -0.018565796
0.044422563 0.0020730442 0.05358112 -0.029760743 -0.005497324 -0.040955596 0.042133264 0.06588065
0.011114394 0.017382633 -0.027847005 -0.046175968 0.04376606 0.023003332 0.05895424 0.042630818
0.008082874 0.020095026 -0.050677586 0.034342293 -0.022078078 -0.046240345 -0.039735444 -0.04999016
0.060065173 0.058285374 0.0021912502 0.0037368229 -0.020779839 -0.054316398 -0.004046073 -0.04515301
-0.010309428 0.05497695 0.0111340815 0.005768733 -0.06284754 -0.022754658 -0.043700717 0.019233162
-0.06610461 0.0110492585 -0.04831594 0.04538369 0.0145440465 -0.013719019 0.047463078 0.03927256
-0.04491351 -0.007072839 -0.0038769988 -0.01890121 0.067437105 -0.023617648 0.03483926 -0.0030499785
0.0025179884 -0.04337953 -0.02847097 -0.0264534 0.026159577 -0.06433439 0.043443 0.03440893
-0.039737992 0.013207365 -0.02193786 0.0060355556 -0.06181424 -0.032935664 -0.023856835 -0.0512506
0.045384802 0.011120499 -0.007140439 -0.062347468 0.017984843 0.016504196 -0.012658828 -0.057207927
-0.037638027 0.002745926 -0.04398054 0.05812017 0.043632396 0.017304052 -0.048803635 0.03580283
0.035754077 0.03937887 0.040425904 -0.029212007 -0.05351152 0.018230807 -0.0030198833 0.026693635
0.02950419 0.006276924 0.061692543 -0.04418416 -0.054917924 0.033730928 -0.058595657 -0.03625725
-0.040304236 0.0149762845 -0.030130403 -0.022290915 -0.022161815 0.056390114 0.054537572 0.0463611
-0.04784844 0.054845553 0.010598039 0.040996972 0.017190069 -0.02320542 -0.0022923348 -0.029564807
-0.029806502 -0.059941813 0.03796466 0.056018867 0.055132043 -0.034459747 0.016116232 0.02582016
0.012473531 0.018639812 -0.03937662 -0.001991949 0.02338338 0.028567977 0.038534928 -0.0012262684
-0.014443853 0.04044767 0.008905615 0.061036322 0.030969512 -0.04594281 0.06787549 0.031018423
-0.048106547 -0.010859845 -0.022401363 -0.04151468 -0.051379584 -0.039848138 0.05812944 -0.03891412
-0.031873547 0.021143796 -0.0050769774 -0.037469268 -0.043815617 -0.0033380648 0.06657256 -0.007032013
-0.057747737 -0.012640898 -0.0007117667 0.040330157 0.01119134 0.019574672 0.0449419 0.021796575
0.057700858 0.018896267 -0.056978792 0.062125426 0.017044133 0.039589148 0.032870263 -0.051470768
-0.027216315 0.0065113404 -0.02299123 0.049811233 -0.011496953 0.0076070507 -0.026860194 -0.035769135
0.040596507 0.031308196 -0.04910613 -0.042088006 -0.06260594 0.044618573 0.059818927 0.00081883004
-0.0345644 0.013760716 0.023313863 -0.054363687 -0.050892532 0.029235099 -0.014894284 -3.5052526e-05
-0.04463492 -0.0044608726 -0.048111334 0.019226741 0.023830328 -0.020928008 0.02675288 0.06753827
-0.04397873 -0.057706635 0.014935509 -0.02898243 0.032529585 0.0110196145 0.055735253 -0.05480051
-0.018854711 0.038844902 -0.047091816 -0.03323667 -0.05778745 -0.0094098635 -0.065477096 0.03175212
0.019185938 0.02654329 -0.014424583 -0.04919739 -0.006746922 0.049424898 0.034427878 0.01444487
-0.027210765 0.0539839 -0.044194728 0.039859176 0.0054228697 -0.05302427 -0.04818651 -0.016040677
-0.06557156 0.005355407 -0.04211076 0.015698526 -0.0103485035 0.0024076991 -0.025182849 0.015350053

actor_classifier.bias f4 [15]
00000000: ade2 12bc d197 0ebd 5d71 81bd 50a7 cdbb
00000010: 3c5a 0f3c 0fb8 2bbd df92 e43c 8cde 8f3a
00000020: 1305 48bd b3a9 8a3d 38ad 403d 0418 b6bc
00000030: 0f09 6a3d 18e3 eb3b a66a 52bb
-0.0089651765 -0.034812752 -0.063204505 -0.0062760487 0.008749541 -0.04192358 0.027902065 0.0010976358
-0.048832964 0.06770649 0.047040194 -0.022228248 0.057137545 0.0071987025 -0.0032107024
