Saved Models/model_checkpoint_bigfish_42_0.0004_1200_6_256_0.99_0.95_0.2_1024_0.75_end_1200.pth (torch, 154838 bytes, 21 tensors)

layers.0.weight f4 [32, 3, 8, 8]
0	0x3e79aff4	0.24383527
1	0x3e3b10a3	0.18268065
2	0xbca3772d	-0.019954288
3	0xbbee0443	-0.0072636916
4	0x3e6f9459	0.23396434
5	0x3e3a2333	0.1817749
6	0x3d5e1389	0.05421785
7	0xbd6d35f1	-0.05791277
8	0xbdc1d42d	-0.094642974
9	0xbe5c5730	-0.21517634
10	0xbe396c97	-0.1810783
11	0xbe87bfbc	-0.2651347
12	0xbdf25438	-0.1183247
13	0xbe3bbe1a	-0.18334237
14	0xbe79bd53	-0.24388628
15	0xbe2da1ac	-0.16956204
16	0xbd2e3f55	-0.042540867
17	0xbd3c0ede	-0.045912616
18	0xbd48aff0	-0.048995912
19	0xbb8a9a60	-0.0042298287
20	0xbd6932f2	-0.05693335
21	0xbd270f3b	-0.04078601
22	0x3dea6246	0.114445254
23	0x3db5413a	0.088503316
24	0x3d13d849	0.036094937
25	0xba2fe929	-0.0006710464
26	0xbd288372	-0.04114098
27	0xbdeb7de0	-0.11498618
28	0xbd4aee91	-0.04954392
29	0x3d1fa322	0.038973935
30	0x3dca8637	0.09888881
31	0x3d676dec	0.056501314
32	0xbbb535cf	-0.005530096
33	0xbca8cb35	-0.02060471
34	0xbd40946a	-0.04701654
35	0xbdca5a51	-0.09880508
36	0xbdce7b8f	-0.10082161
37	0xbc579d9f	-0.013160138
38	0x3d6e475d	0.058173526
39	0xbc5c0294	-0.013428349
40	0x3c6a9b60	0.014319271
41	0xbd6efaa9	-0.058344517
42	0xbd81cf20	-0.06338334
43	0xbda37e18	-0.07983035
44	0xbe028358	-0.12745416
45	0x3d37516a	0.044755377
46	0x3dbc5dc0	0.09197569
47	0x3c85c821	0.01633078
48	0x3d8dbeed	0.06921182
49	0xbbe91c2b	-0.0071139536
50	0xbd8a954d	-0.06766758
51	0xbd0205b2	-0.031743713
52	0x3d12707d	0.03575181
53	0x39c83c67	0.00038191976
54	0x3d15c127	0.036561158
55	0xbd67fa7e	-0.056635372
56	0x3e73b369	0.23798908
57	0xbcf9219e	-0.030411538
58	0xbe3a91b0	-0.18219638
59	0xbe05f91b	-0.13083307
60	0x3c73ac5c	0.014872637
61	0x3de9e45d	0.1142051
62	0x3cbee682	0.023303274
63	0xbd7be7cf	-0.061500367
64	0x3e747530	0.23872828
65	0x3d921a10	0.07133877
66	0xbcca873f	-0.024722693
67	0xbc4c68be	-0.012476144
68	0x3e063cb2	0.13109091
69	0x3e2c5c1f	0.16832016
70	0x3da4135c	0.08011505
71	0xbc931c48	-0.017957821
72	0xbcc4b943	-0.02401412
73	0xbe586363	-0.21131663
74	0xbe0a06f4	-0.13479215
75	0xbe45516f	-0.19269346
76	0xbdd48bae	-0.10378204
77	0xbda472f4	-0.08029738
78	0xbe8186e2	-0.2529822
79	0xbe8af876	-0.27142686
80	0xbdeaefaa	-0.114714935
81	0xbdfdd2a7	-0.12393694
82	0xbe6f54c0	-0.23372173
83	0xbdd627c7	-0.10456806
84	0xbd915487	-0.070962004
85	0x3bf8eb6f	0.0075964252
86	0x3de3e25d	0.1112716
87	0x3d8c36ee	0.068464145
88	0x3d2005c8	0.039068013
89	0x3dfc385a	0.12315436
90	0x3c65c61c	0.014024284
91	0xbc3462f1	-0.011009918
92	0xbe0a5aba	-0.13511172
93	0xbdc2df4b	-0.09515246
94	0x3ce1b871	0.027553769
95	0xbd3121b5	-0.043245036
96	0x3da6f860	0.081528425
97	0x3d9aa0ad	0.07550178
98	0x3d2ad6c5	0.041708726
99	0x3d03fe38	0.032224864
100	0xbdda54d9	-0.10660715
101	0xba1535fa	-0.0005691942
102	0xbc95c568	-0.018282607
103	0x3c8d950d	0.017282987
104	0xb8d28072	-0.00010037505
105	0x3dca846e	0.0988854
106	0x3e179480	0.14802742
107	0x3b5c2283	0.0033589907
108	0xbd6d4400	-0.057926178
109	0x3c8771f8	0.016533837
110	0x3e3104b2	0.17286947
111	0x3e4ac62f	0.19802164
112	0x3ce463dd	0.02787965
113	0xbac323e0	-0.0014888011
114	0xbda101d2	-0.07861675
115	0xbe18845a	-0.14894238
116	0xbc667540	-0.0140660405
117	0xbbc9654e	-0.0061461097
118	0xbdc98254	-0.09839311
119	0x3d3c74e7	0.046009924
120	0x3ea1d34c	0.3160652
121	0x3e06cdcc	0.13164443
122	0x3d16b88a	0.036797084
123	0xbd451cb9	-0.048123095
124	0x3de538ca	0.11192472
125	0x3e599db3	0.21251564
126	0x3e0df335	0.13862307
127	0xbd148cdf	-0.036267158
128	0x3d734f85	0.059402008
129	0xbd7925ab	-0.06082694
130	0xbdff85d3	-0.12476697
131	0xbbbb3f30	-0.0057143196
132	0xbdd2e0e5	-0.102968015
133	0xbcec29b0	-0.028828472
134	0xbcfe2730	-0.031024545
135	0xbdebd059	-0.115143485
136	0x3e5c88b5	0.21536525
137	0xbe094f90	-0.13409257
138	0xbe9bdfa6	-0.30444068
139	0xbeed1837	-0.46307537
140	0xbe752ba4	-0.23942429
141	0x3d37055d	0.04468285
142	0xbd1d76b1	-0.03844327
143	0xbc495f6b	-0.012290816
144	0x3da38b55	0.0798556
145	0xbde5a296	-0.112126514
146	0xbd944ef8	-0.072416246
147	0xbdb1d829	-0.086838074
148	0x3c731b34	0.014838029
149	0x3e30105a	0.17193738
150	0x3d1c7f7d	0.03820752
151	0x3b5709bc	0.0032812199
152	0x3d54a081	0.05191088
153	0x3de155ab	0.11002668
154	0x3d95a7d6	0.07307403
155	0x3def9ec6	0.117002055
156	0x3da9521f	0.082676165
157	0x3d9bbc9a	0.07604332
158	0x3e64f829	0.2236029
159	0x3e2f3fe2	0.17114213
160	0x3db9803e	0.090576634
161	0x3c48d838	0.012258582
162	0x3df80ab5	0.12111417
163	0x3e0209d7	0.12699066
164	0x3dbbbdc2	0.09167053
165	0x3df95653	0.12174668
166	0x3dc49b8f	0.09599983
167	0x3e0dc35f	0.1384406
168	0xbcf788c7	-0.030216588
169	0x3b72920a	0.0037013316
170	0x3e30ae63	0.17254023
171	0x3dbf82f7	0.093511514
172	0x3e1e0425	0.15431269
173	0x3e1f107c	0.15533632
174	0x3e87f7cf	0.2655625
175	0x3e1cbe9b	0.15307085
176	0xbe69ba15	-0.22824891
177	0xbdfa92c1	-0.12235022
178	0xbd907f81	-0.070555694
179	0xbddf4307	-0.10901456
180	0xbafe29dd	-0.0019391138
181	0x3cb623c9	0.02223386
182	0xbca07198	-0.019585416
183	0x3b7bc526	0.003841707
184	0xbdc26e4f	-0.09493696
185	0x3cc27e02	0.023741726
186	0xbde56cd0	-0.11202395
187	0xbdf2f6d4	-0.11863485
188	0xbd0519be	-0.032495253
189	0xbd9bc05c	-0.07605049
190	0xbcc9072c	-0.024539553
191	0xbe2f362e	-0.17110512
192	0xbdd18c5e	-0.10231851
193	0x3d575674	0.052572682
194	0x3c238caf	0.009982272
195	0x3cd5d23c	0.026101224
196	0x3e12c94b	0.143346
197	0x3ca9cdc3	0.020727998
198	0xbe0646bc	-0.1311292
199	0xbe835441	-0.25650218
200	0xbdc41b5e	-0.095755324
201	0xbdd65d70	-0.104670405
202	0x3d9140ca	0.07092436
203	0x3a446075	0.000749118
204	0x3b8592dc	0.004076345
205	0x3d1b118c	0.03785853
206	0xbd616a19	-0.055032823
207	0xbd211101	-0.039322857
208	0xbdb31f9a	-0.08746262
209	0xbdde17ed	-0.10844407
210	0xbc902007	-0.017593397
211	0xbd2ca5b5	-0.042150218
212	0xbd945752	-0.072432175
213	0xbd114440	-0.03546548
214	0xbdc0b7d4	-0.094100624
215	0xbe39a146	-0.18127927
216	0xbd8ccc0f	-0.068748586
217	0xbda997b0	-0.08280885
218	0x3d914e79	0.070950456
219	0xbc63feb2	-0.013915705
220	0x3b7d93e5	0.0038692888
221	0xbe2a10d5	-0.16607983
222	0xbe0d3b88	-0.1379224
223	0xbd73a359	-0.059481952
224	0xbd8b5d47	-0.068049006
225	0xbdc902f7	-0.098150186
226	0x3dc5170e	0.09623538
227	0x3e1d03fa	0.15333548
228	0x3de313b9	0.11087746
229	0xbcad25bd	-0.02113616
230	0x3cb64f0d	0.022254491
231	0xbd7776b8	-0.060415953
232	0x3d23fcf8	0.04003617
233	0x3bec93ce	0.007219768
234	0x3bd72f16	0.0065668924
235	0xbb992a61	-0.0046742414
236	0x3daded78	0.08492559
237	0x3d2938fc	0.04131411
238	0xbcfb0c45	-0.030645499
239	0x3d6c7bef	0.05773538
240	0xbe2fdf83	-0.17175107
241	0x3e0b654b	0.13612859
242	0x3e07fea6	0.13280734
243	0x3d4e628e	0.050386958
244	0x3c391e5b	0.011298741
245	0x3dfe4397	0.124152355
246	0x3e0eed54	0.13957721
247	0xbbd2aa0e	-0.0064289635
248	0xbe14a080	-0.14514351
249	0xbe8cd4be	-0.2750606
250	0xbe0a5712	-0.13509777
251	0xbe973094	-0.2952925
252	0xbe4f316d	-0.20233698
253	0xbdd6dfb2	-0.10491885
254	0x3e2cd3ce	0.16877672
255	0x3e640212	0.22266415

layers.0.bias f4 [32]
0	0x3da4c35c	0.08045074
1	0x3d7f2ffe	0.06230163
2	0x3ad5e2b9	0.0016318179
3	0xbde9da49	-0.11418588
4	0x3defa5c1	0.11701537
5	0x3be6d622	0.0070445696
6	0x3c76956f	0.015050276
7	0xbd2f03b1	-0.04272813
8	0x3daa15eb	0.08304962
9	0xbd75a25e	-0.0599693
10	0x3dd6fe7e	0.10497759
11	0x3d82c4aa	0.06385167
12	0x3ceb1fcc	0.028701685
13	0x3cbc1c20	0.02296263
14	0xbe32a5b7	-0.17446028
15	0x3ce97a88	0.02850081
16	0xbe4e9d61	-0.20177223
17	0xbb076ab6	-0.002066297
18	0x3d161190	0.036637843
19	0x3d159b58	0.0365251
20	0xbc94e3e8	-0.01817508
21	0x3dadf182	0.084933296
22	0xbe20a40d	-0.1568758
23	0xbda63f93	-0.081175946
24	0x3dd1b43e	0.102394566
25	0x3cc35f8c	0.023849271
26	0xbd5c83b3	-0.053836536
27	0x3d8a3803	0.06748965
28	0xbc7c8820	-0.015413314
29	0xbe115040	-0.14190769
30	0xbcf3c9bd	-0.029759282
31	0x3ccdc1bf	0.0251168

layers.2.weight f4 [32]
0	0x3f892f61	1.0717584
1	0x3f7c106a	0.98462546
2	0x3f88ffbb	1.0703043
3	0x3f8e774e	1.1130159
4	0x3f6d3528	0.92659235
5	0x3f7b1f74	0.9809487
6	0x3f5915c5	0.8479884
7	0x3f7cb1a2	0.98708546
8	0x3f8cdc4e	1.1004732
9	0x3f6b629e	0.9194735
10	0x3f8dc7b1	1.1076566
11	0x3f7030bc	0.9382436
12	0x3f82ad7f	1.0209197
13	0x3f636dd4	0.8883946
14	0x3f87b2e7	1.0601472
15	0x3f969d1e	1.1766698
16	0x3f7ca0b4	0.98682714
17	0x3f7dbd3c	0.99116874
18	0x3f98367e	1.189163
19	0x3f8778f8	1.0583792
20	0x3f687d3c	0.9081609
21	0x3f639d69	0.88912064
22	0x3f7c92b2	0.9866134
23	0x3f8466dc	1.034389
24	0x3f80cd80	1.0062714
25	0x3f7ecc38	0.99530363
26	0x3f93f161	1.1558038
27	0x3f936874	1.1516252
28	0x3f820b05	1.0159613
29	0x3f8904ed	1.0704628
30	0x3f684ed3	0.90745276
31	0x3f89e8b0	1.0774136

layers.2.bias f4 [32]
0	0x3df1d208	0.118076384
1	0x3c9502d2	0.018189821
2	0x3d01513b	0.031571608
3	0x3e23f432	0.16011122
4	0x3e40bf8a	0.18823066
5	0xbccd1c5d	-0.025037939
6	0x3daf82aa	0.08569844
7	0x3e56cb74	0.20976049
8	0x3e0ebf92	0.13940266
9	0xbcb73683	-0.02236486
10	0x3e41b093	0.18915014
11	0x3dab532c	0.08365473
12	0xbb99f603	-0.0046985163
13	0x3dba58b4	0.0909895
14	0x3d987a31	0.07445181
15	0xbbf74aba	-0.00754675
16	0x3e4913c6	0.19636449
17	0x3e11f92f	0.14255212
18	0x3c8cceee	0.017188516
19	0x3df437c0	0.11924696
20	0x3d1cb7cc	0.03826122
21	0x3e174e7d	0.14776035
22	0x3d59db81	0.05318785
23	0x3e1921d7	0.14954315
24	0x3d92d9f4	0.071704775
25	0x3cde6186	0.027146112
26	0x3e0e4d32	0.13896635
27	0x3dd279eb	0.1027716
28	0x3e3e0d84	0.18559843
29	0xbc6f2af5	-0.014597644
30	0x3dda8a36	0.10670893
31	0x3de66e56	0.11251514

layers.2.running_mean f4 [32]
0	0x3db78bed	0.089622356
1	0x3d751534	0.059834674
2	0x3b8ee88d	0.0043612183
3	0x3afbfbf0	0.0019224863
4	0x3e005cdb	0.12535422
5	0x3becf743	0.0072316243
6	0x3c785ab8	0.015158348
7	0x3b3954de	0.0028279345
8	0x3dac338f	0.084082715
9	0x3b8ad8fb	0.004237292
10	0x3de06ce7	0.109582715
11	0x3d82dc77	0.063897066
12	0x3ce73b03	0.028226381
13	0x3cbdf25e	0.023186859
14	0x3c0d5792	0.008626835
15	0x3d0220a4	0.03176941
16	0x3c17f8c1	0.009275616
17	0x3a65c109	0.0008764421
18	0x3d1a28a2	0.037636407
19	0x3d2329d4	0.039834812
20	0x3a01213d	0.00049259124
21	0x3dd79472	0.105263606
22	0x3c42ca8b	0.01188911
23	0x3aa76fd3	0.0012774415
24	0x3dcb27b6	0.09919684
25	0x3ccbf7c0	0.02489841
26	0x3bed404a	0.00724033
27	0x3d86773c	0.06565711
28	0x3b81e548	0.0039641
29	0x3b809da7	0.0039250436
30	0x3949d294	0.000192473
31	0x3cdc5233	0.026894664

layers.2.running_var f4 [32]
0	0x3bb8e312	0.0056423033
1	0x3a1f9804	0.0006088021
2	0x3a849721	0.0010115841
3	0x3ab0221c	0.00134379
4	0x3bbd625f	0.005779549
5	0x3916f30f	0.00014395661
6	0x39642173	0.00021756235
7	0x3a819b4b	0.00098882
8	0x3b043871	0.0020175243
9	0x3acbed05	0.0015558308
10	0x3bf0cc7b	0.0073485947
11	0x3ab33bd6	0.0013674449
12	0x39bc2cfd	0.00035891673
13	0x3a0f7fb7	0.0005474048
14	0x3bcd4d92	0.0062653506
15	0x3b2e37e4	0.0026583606
16	0x3bbbc60c	0.005730396
17	0x393ac14e	0.00017810354
18	0x3a8a6ee5	0.0010561614
19	0x3b171399	0.0023052453
20	0x38c93aac	9.5953554e-05
21	0x3cd6f7c7	0.026241196
22	0x3bf83c51	0.0075755497
23	0x3a048eaa	0.0005056659
24	0x3ad542b5	0.0016270491
25	0x3a1c9007	0.00059723895
26	0x3b74e20c	0.003736618
27	0x3a50a092	0.0007958497
28	0x3add92f9	0.0016904763
29	0x3ad90608	0.0016557584
30	0x37a93808	2.0172462e-05
31	0x3a959693	0.0011412672

layers.4.weight f4 [64, 32, 2, 2]
0	0xb931e1c0	-0.00016964134
1	0x3cc6caf7	0.024266703
2	0x3da70f7b	0.081572495
3	0x3d509a86	0.050928615
4	0xbe190430	-0.14943004
5	0xbd304d87	-0.043042686
6	0x3c9ec73e	0.019382115
7	0x3d198db0	0.03748864
8	0x3d780adf	0.060557242
9	0xbca99e45	-0.020705352
10	0xbe5c1713	-0.21493177
11	0xbe03131c	-0.12800258
12	0xbe2f74eb	-0.17134444
13	0x3d6698a7	0.056297924
14	0x3e1f446a	0.15553442
15	0x3dcb79f5	0.09935371
16	0xbe028fba	-0.1275014
17	0xbd1451c6	-0.036210798
18	0x3dacb006	0.08432011
19	0x3d97a209	0.07403953
20	0xbc5f825e	-0.013641922
21	0xbd872e41	-0.06600619
22	0x3d9f51df	0.077792875
23	0x3d552043	0.05203272
24	0x3e2a0b0f	0.16605781
25	0x3d9f05f6	0.07764809
26	0xbe4b238b	-0.19837777
27	0x3e042a68	0.12906802
28	0xbd9be54f	-0.076120965
29	0xbc15e443	-0.00914866
30	0xbc7c25b6	-0.01538985
31	0x3e25244b	0.16127126
32	0xbd042daa	-0.03227011
33	0x3de5b177	0.11215489
34	0xbe0d8004	-0.13818365
35	0xbbd16467	-0.0063901427
36	0x3d7fcdb9	0.06245205
37	0x3d6ed9cd	0.05831318
38	0x3db7d657	0.08976429
39	0xbda61787	-0.08109956
40	0xbb94f352	-0.0045456076
41	0xbbc048fc	-0.0058680754
42	0xbe638f5b	-0.22222655
43	0x3c9f382d	0.019435966
44	0x3d02adf4	0.031904176
45	0x3d8c9279	0.06863875
46	0x3e156738	0.14590156
47	0x3ba74396	0.0051044924
48	0x3b8951f0	0.004190676
49	0x3d0b826a	0.03405992
50	0xbc96c1ec	-0.018403016
51	0x3c2c6f06	0.010524517
52	0xbdb3baba	-0.0877585
53	0xbde5b467	-0.1121605
54	0xbd26fc3b	-0.04076789
55	0xbdda6278	-0.10663313
56	0xbd7cc52b	-0.06171147
57	0xbdba7113	-0.091035984
58	0x3da280f9	0.07934756
59	0x3de12324	0.10993031
60	0xbb2b8544	-0.0026171962
61	0xbb24b552	-0.002513249
62	0xbdf154ee	-0.11783777
63	0x3ce582b2	0.028016422
64	0xbd8bf121	-0.06833101
65	0xbd9d51d1	-0.07681621
66	0x3d039f97	0.03213462
67	0xbe24938f	-0.16071914
68	0x3e1c5187	0.15265475
69	0xbe2d8c40	-0.16948032
70	0xbd61b984	-0.055108562
71	0x3e0585ae	0.13039276
72	0x3e12b5fd	0.14327236
73	0x3e8cca71	0.274982
74	0xbe0fa94d	-0.14029427
75	0xbe02baf4	-0.1276663
76	0xbe1baf79	-0.15203656
77	0x3bed4690	0.0072410777
78	0xbb033638	-0.002002133
79	0xbd499a1a	-0.04921923
80	0x3d7f6740	0.062354326
81	0xbdc25bc7	-0.094901614
82	0xbd1f10e4	-0.038834468
83	0xbd814498	-0.06311911
84	0xbdabfe82	-0.08398153
85	0x3d6903d9	0.056888435
86	0x3c1216a1	0.008916528
87	0x3e1271c3	0.14301209
88	0x3c97f34c	0.01854863
89	0xbea81639	-0.32829455
90	0xbcb9bd29	-0.022673206
91	0x3dad948f	0.08475601
92	0xbe73905d	-0.23785539
93	0xbd81a6fe	-0.06330679
94	0x3d66bcaf	0.056332286
95	0x3def6f21	0.11691118
96	0xbdd199ea	-0.10234435
97	0x3ddb57a3	0.10710075
98	0xbe0c01f1	-0.13672616
99	0x3dba405c	0.09094307
100	0xbe011989	-0.12607397
101	0x3e1a8e6e	0.15093395
102	0xbdefbc53	-0.11705842
103	0x3da75952	0.081713334
104	0xbdec7a10	-0.11546719
105	0xbe757efb	-0.2397422
106	0x3e0b8dbd	0.13628288
107	0x3d604fa1	0.05476344
108	0x3e3e233c	0.18568128
109	0x3c159022	0.009128602
110	0xbde219be	-0.11040066
111	0xbdd83e74	-0.10558787
112	0xbe93455a	-0.2876385
113	0xbe633687	-0.2218877
114	0x3d28c161	0.041200045
115	0xbe035643	-0.12825875
116	0x3e5e31d2	0.21698692
117	0xbe2d7d6f	-0.1694238
118	0x3d728811	0.059211794
119	0xbd62baea	-0.055354036
120	0x3e4ee76b	0.20205466
121	0xbc48224b	-0.012215207
122	0x3dc7b8f7	0.09752076
123	0x3e1cf281	0.15326883
124	0x3dda77ed	0.10667405
125	0x3e81d1c0	0.2535534
126	0xbe1218ef	-0.14267324
127	0xbd1e4712	-0.038641997
128	0x3e42d08f	0.19024871
129	0xbe0e9cf3	-0.13927059
130	0xbd51f06c	-0.051254675
131	0xbd8d4336	-0.06897585
132	0x3d94fb86	0.07274537
133	0x3da22e87	0.07919031
134	0x3d7f4f5a	0.062331535
135	0x3c5286dd	0.012849537
136	0x3d8302eb	0.06397041
137	0x3dafb75d	0.08579896
138	0xbd980114	-0.07422081
139	0x3dad4cc9	0.08461911
140	0x3c174d02	0.009234669
141	0xbe73ff16	-0.23827776
142	0xbe0a1ea1	-0.13488247
143	0x3d365453	0.04451401
144	0x3e039885	0.1285115
145	0x3dc1802e	0.094482765
146	0x3d4ee500	0.05051136
147	0xbd55f875	-0.0522389
148	0x3e3ded99	0.18547668
149	0x3c87d0bc	0.016579024
150	0x3e16be95	0.14721139
151	0xbddd260c	-0.107982725
152	0x3df9c31c	0.12195417
153	0xbe24f9bf	-0.16110896
154	0x3d4ac6a2	0.049505837
155	0xbe111dcc	-0.14171523
156	0x3e9dcf78	0.3082235
157	0xbe02aa57	-0.12760292
158	0x3d0ca335	0.034335334
159	0xbe11c33a	-0.1423463
160	0x3e1b21cc	0.15149611
161	0xbd1df733	-0.038565826
162	0x3d01660f	0.03159147
163	0xbd938260	-0.072026014
164	0xbd0ba871	-0.034096185
165	0xbd3e7b90	-0.046504557
166	0xbd9abacd	-0.07555161
167	0x3e0eaa67	0.13932191
168	0x3de455c5	0.11149172
169	0xbdc4a36b	-0.09601482
170	0xbdfc3533	-0.123148344
171	0xbe44f9dc	-0.19235939
172	0x3d62e89e	0.055397622
173	0x3d5cdb79	0.053920243
174	0x3e4af39d	0.19819494
175	0xbe5af7b3	-0.21383552
176	0x3cc4ee34	0.024039365
177	0xbd60620d	-0.05478101
178	0xbd59807a	-0.05310104
179	0xbd3e488c	-0.046455905
180	0xbd5dcff3	-0.054153394
181	0xbd3a4d6b	-0.045483988
182	0xbbe9487d	-0.007119237
183	0x3e2363ab	0.15955989
184	0xbdab76b5	-0.08372251
185	0x3da0463c	0.07825896
186	0xbe023f8a	-0.1271955
187	0xbd3b703b	-0.04576133
188	0x3e06a304	0.13148123
189	0xbe5d0a21	-0.21585895
190	0x3dce4334	0.10071412
191	0xbdcf442a	-0.10120423
192	0xbd98b4f9	-0.07456393
193	0x3da04a49	0.07826669
194	0xbe351872	-0.17685106
195	0xbdcc1489	-0.09964854
196	0xbd8e7b06	-0.069570586
197	0xbdbc7eb9	-0.09203858
198	0x3e5d0a55	0.21585973
199	0x3cbe85c1	0.023257138
200	0xbc9a4d23	-0.01883561
201	0xbd1f7b6c	-0.038936064
202	0xbce41ecd	-0.027846718
203	0xbd6b9008	-0.057510406
204	0xbc974bc7	-0.01846875
205	0x3cfdc00c	0.030975364
206	0x3daf36f1	0.08555401
207	0xbbbc6761	-0.0057496284
208	0x3dc809e9	0.09767515
209	0x3cfbd5a0	0.030741513
210	0xbce8e790	-0.02843073
211	0xbd95ce6b	-0.07314762
212	0xbd2ed473	-0.042683076
213	0xbd04f2f1	-0.03245825
214	0x3de473ea	0.11154921
215	0xbe2701d8	-0.16309297
216	0xbd7c1c52	-0.061550446
217	0xbd264c2a	-0.04059998
218	0xbd2b2e5a	-0.04179225
219	0x3dc3ab11	0.09554113
220	0x3cbce5d7	0.023058815
221	0xbd11f030	-0.03562945
222	0xbe8875e5	-0.26652446
223	0x3e302bff	0.17204283
224	0xbd7dc2a9	-0.06195322
225	0xbe26e28c	-0.16297358
226	0x3e12a732	0.14321592
227	0xbd964bdf	-0.0733869
228	0x3e1cf0a0	0.15326166
229	0xbda5ea51	-0.08101333
230	0x3e7f8260	0.24952078
231	0xbdd19886	-0.1023417
232	0x3d847b16	0.06468789
233	0x3e68e26f	0.22742628
234	0xbe063226	-0.13105068
235	0x3d4f071b	0.050543886
236	0xbca3ca5c	-0.019993953
237	0xbd45d13d	-0.04829525
238	0x3d0c2773	0.03421731
239	0xbe737801	-0.23776247
240	0xbd220624	-0.039556637
241	0x3d26093e	0.040536158
242	0x3e1bdbbd	0.15220542
243	0x3b255575	0.0025227938
244	0xbe19260c	-0.1495592
245	0x3db5a679	0.08869643
246	0x3d417989	0.047235046
247	0x3e2027b9	0.15640153
248	0x3d923db4	0.07140675
249	0xbce35722	-0.02775151
250	0x3d91d03b	0.07119795
251	0xbe65fffc	-0.22460932
252	0x3da32f7e	0.07968043
253	0xbd60b299	-0.054857824
254	0xbcdef5a4	-0.02721674
255	0xbdd745d0	-0.105113626

layers.4.bias f4 [64]
0	0x3db0a57a	0.08625312
1	0x3df9d4cd	0.12198792
2	0xbeb44444	-0.35208333
3	0x3d92f0b1	0.071748145
4	0xbd0c1688	-0.034201175
5	0xbe1e60c7	-0.15466605
6	0xbe160572	-0.14650515
7	0x3df09623	0.11747386
8	0xbdeb030e	-0.11475192
9	0xbdac1ffd	-0.08404539
10	0xbda1e8b6	-0.07905714
11	0x3d7560c4	0.059906736
12	0x3c3328f5	0.010935058
13	0xbd6d9fce	-0.05801373
14	0x3ced390f	0.028957872
15	0xbd9e1b2c	-0.077200264
16	0x3de6902f	0.112579696
17	0x3bcbf9e9	0.00622486
18	0xbd12e11e	-0.03585922
19	0x3d8517a7	0.06498652
20	0xbc5658af	-0.013082667
21	0x3e013d07	0.12620936
22	0xbd7683fa	-0.060184456
23	0x3e57be41	0.2106867
24	0xbdbcf8c0	-0.09227133
25	0x3d25101e	0.040298574
26	0x3d15cab2	0.03657026
27	0x3e1be52f	0.15224145
28	0xbdfb332d	-0.122656204
29	0xbec5b1cd	-0.38612214
30	0xbe603522	-0.21895269
31	0x3de67645	0.11253027
32	0x3d92b11e	0.07162689
33	0x3d2b35c9	0.04179934
34	0xbd33ee41	-0.04392839
35	0x3cfd633a	0.030931104
36	0xbda377c4	-0.07981828
37	0x3d054042	0.032531984
38	0xbe4158e0	-0.1888156
39	0xbe246cf9	-0.16057195
40	0xbe1be08a	-0.15222374
41	0x3d10e949	0.035378728
42	0xbdb1bd4e	-0.08678685
43	0x3dc90810	0.09815991
44	0xbcda9ad1	-0.02668515
45	0x3da31b26	0.079641625
46	0xbc5e0c57	-0.013552747
47	0xbd422330	-0.04739684
48	0xbe367096	-0.17816386
49	0xbcd1a2cd	-0.025590325
50	0x3c3f427c	0.011673566
51	0x3d9e7591	0.07737268
52	0xbd942cd7	-0.07235115
53	0x3deef634	0.11668053
54	0xbe654c0d	-0.22392292
55	0x3e56cbaf	0.20976137
56	0x3e0991bb	0.13434498
57	0xbc643750	-0.013929203
58	0x3c5eeb8c	0.013605963
59	0x3c9c57a0	0.019084752
60	0xbd9b1fb7	-0.075744085
61	0xbd25db9d	-0.040492643
62	0xbd16e1b6	-0.03683635
63	0xbe592686	-0.21206102

layers.6.weight f4 [64]
0	0x3f7628b4	0.9615586
1	0x3f88693d	1.0657116
2	0x3f67aa49	0.9049421
3	0x3f6cc7ea	0.92492545
4	0x3f922e5c	1.1420398
5	0x3f5ad250	0.8547716
6	0x3f6e3583	0.930504
7	0x3f6d1e1e	0.9262408
8	0x3f7f27c2	0.9967004
9	0x3f9243bb	1.142692
10	0x3f6897b3	0.90856475
11	0x3f80eb15	1.0071741
12	0x3f807eb0	1.0038662
13	0x3f7b69cd	0.98208314
14	0x3f777788	0.96666765
15	0x3f52d820	0.8236103
16	0x3f7526d5	0.9576238
17	0x3f765c63	0.9623472
18	0x3f7fc1d0	0.9990511
19	0x3f737ebe	0.9511527
20	0x3f827069	1.0190555
21	0x3f8357f4	1.0261216
22	0x3f7d2bbd	0.98894864
23	0x3f638bfc	0.88885474
24	0x3f6df2f4	0.9294884
25	0x3f7b0ec4	0.98069406
26	0x3f692fc1	0.9108849
27	0x3f6b7d8d	0.9198845
28	0x3f864c82	1.0492098
29	0x3f8bd77f	1.0925139
30	0x3f68f6b3	0.91001433
31	0x3f7618d6	0.96131647
32	0x3f76d948	0.96425295
33	0x3f76f726	0.9647087
34	0x3f7d2394	0.9888241
35	0x3f7ccf35	0.9875367
36	0x3f78dcc6	0.97211874
37	0x3f8465d1	1.0343572
38	0x3f6bb8f0	0.9207907
39	0x3f8755dc	1.0573077
40	0x3f94530a	1.1587842
41	0x3f733142	0.94997036
42	0x3f6a6bca	0.91570723
43	0x3f78f38d	0.9724663
44	0x3f68b51b	0.90901345
45	0x3f923a42	1.1424029
46	0x3f735e5a	0.95065844
47	0x3f6bdbc5	0.92132217
48	0x3fae0981	1.359665
49	0x3f8f2eb4	1.1186128
50	0x3f8f9bf3	1.1219467
51	0x3f83784f	1.027109
52	0x3f875d37	1.0575322
53	0x3f823ebb	1.0175394
54	0x3f937ee8	1.1523104
55	0x3f62fd69	0.88667923
56	0x3f85f4e2	1.0465357
57	0x3f8180ff	1.0117491
58	0x3f7bd26c	0.98367953
59	0x3f82c673	1.0216812
60	0x3f8680b3	1.0508026
61	0x3f793780	0.9735031
62	0x3f818d36	1.0121219
63	0x3f94bb04	1.1619573

layers.6.bias f4 [64]
0	0x3dcc0910	0.09962666
1	0xbc79c4be	-0.015244661
2	0xbe02887b	-0.12747376
3	0xbe34457e	-0.17604634
4	0xbe34a193	-0.1763976
5	0xbd965a06	-0.07341389
6	0x3d767680	0.060171604
7	0x3e164aed	0.1467702
8	0x3e5731df	0.21015118
9	0x3d1ea245	0.03872897
10	0x3e6977a4	0.22799546
11	0xbe0e75f4	-0.13912183
12	0xbc9653fc	-0.018350594
13	0xbdcb780a	-0.09935005
14	0xbd68abd3	-0.05680449
15	0xbd571acc	-0.05251579
16	0x3e3ed964	0.18637615
17	0xbd13afee	-0.03605645
18	0x3e52758d	0.20552655
19	0x3e147023	0.14495902
20	0x3e526f5c	0.20550293
21	0x3e38bb82	0.18040279
22	0x3d1b9ae0	0.037989497
23	0x3e0b6ee7	0.13616525
24	0x3d20aa63	0.039224993
25	0xbcbae865	-0.022815892
26	0xbdfdfe09	-0.12401969
27	0x3dd59904	0.10429576
28	0xbd6e598a	-0.05819086
29	0xbdf74ba3	-0.120749734
30	0xbe04a602	-0.12953952
31	0x3e50fc31	0.20408703
32	0x3add43e7	0.0016881198
33	0x3e00f37a	0.12592879
34	0x3dfd8fc9	0.123809405
35	0x3e39db47	0.18150054
36	0xbd0853ee	-0.033283167
37	0xbca3301d	-0.019920403
38	0x3e2cc961	0.16873695
39	0xbdb91662	-0.09037472
40	0xbdefe8d2	-0.11714329
41	0x3e2b8e85	0.16753586
42	0xbe1e0b58	-0.15434015
43	0x3e5c4023	0.21508841
44	0xbb53a158	-0.0032292213
45	0xbdd3266c	-0.10310063
46	0x3a2affb8	0.00065230904
47	0x3e104cc9	0.14091791
48	0xbe35f6d7	-0.17769943
49	0x3df80bc7	0.12111621
50	0xbe19a132	-0.15002897
51	0x3dd49d71	0.10381592
52	0x3c0ea287	0.008705742
53	0xbde88db9	-0.113551565
54	0xbe336c18	-0.17521703
55	0x3dc1c796	0.09461896
56	0x3dda8b43	0.10671093
57	0x3e13af79	0.14422406
58	0x3e06454c	0.13112372
59	0x3ca5eae1	0.0202536
60	0xbe1f7f8b	-0.15575998
61	0x3e090362	0.13380197
62	0xbe276423	-0.16346793
63	0xbd9aae7d	-0.07552812

layers.6.running_mean f4 [64]
0	0x3e9c7dff	0.30564877
1	0x3e783dac	0.24242276
2	0x3e29e659	0.16591777
3	0x3d4bfdb6	0.049802504
4	0x3e977194	0.2957884
5	0x3c9e0b0d	0.019292379
6	0x3c827cbf	0.015928624
7	0x3e901c0d	0.281464
8	0x3d287e94	0.04113634
9	0x3f1f216c	0.6216037
10	0x3e06d899	0.13168563
11	0x3e0cc82f	0.13748239
12	0x3e4727f0	0.19448829
13	0x3c08a159	0.0083392495
14	0x3c98c9d5	0.018650929
15	0x3d8b5146	0.06802611
16	0x3f32bd4f	0.6982011
17	0x3cbdb236	0.023156267
18	0x3db31725	0.08744649
19	0x3d422e23	0.04740728
20	0x3e6d9957	0.23203026
21	0x3f4d5de3	0.80221385
22	0x3e8ffc51	0.2812219
23	0x3f20b8ad	0.6278179
24	0x3e205649	0.15657915
25	0x3d20d4d3	0.039265465
26	0x3f29b43a	0.6629063
27	0x3f054333	0.5205566
28	0x3e8dc234	0.27687228
29	0x3f31b442	0.69415677
30	0x3e258f72	0.16168001
31	0x3eaabd78	0.33347678
32	0x3c9c9154	0.019112267
33	0x3e98e9db	0.29865918
34	0x3d0e02c0	0.03467059
35	0x3f95473a	1.1662362
36	0x3e9864af	0.29764315
37	0x3db9132f	0.09036862
38	0x3db4964d	0.0881773
39	0x3cc8dfcf	0.024520783
40	0x3c4c877d	0.012483475
41	0x3edb4e2e	0.42833084
42	0x3d85ee09	0.06539542
43	0x3f145373	0.57939833
44	0x3e28983f	0.16464327
45	0x3e8b3eea	0.27196437
46	0x3e445328	0.19172347
47	0x3d0a5167	0.033769038
48	0x3d61cb56	0.055125557
49	0x3d1eec09	0.03879932
50	0x3e95066b	0.2910646
51	0x3e343ebd	0.17602058
52	0x3db97415	0.09055344
53	0x3e81f88e	0.25384945
54	0x3d3bbd7b	0.045835
55	0x3f2004ad	0.62507135
56	0x3ee5d6a1	0.4489031
57	0x3c9e93ba	0.01935755
58	0x3edd8887	0.43268225
59	0x3cdc8a01	0.026921274
60	0x3ca99ec5	0.02070559
61	0x3d267062	0.04063452
62	0x3ec7e095	0.3903853
63	0x3e83430f	0.256371

layers.6.running_var f4 [64]
0	0x40acfc5b	5.405805
1	0x4023441a	2.5510316
2	0x3fb9b9de	1.4509847
3	0x3dd46786	0.10371308
4	0x4031b662	2.7767568
5	0x3ce5d264	0.028054424
6	0x3d01c212	0.03167922
7	0x4021b8d9	2.5269072
8	0x3e0ce48d	0.1375906
9	0x41043a32	8.264208
10	0x3fbe4824	1.4865766
11	0x3f49dc67	0.7885193
12	0x403811fa	2.8760972
13	0x3bea52cb	0.007150983
14	0x3c601789	0.013677486
15	0x3e87e984	0.26545346
16	0x40dc390f	6.881965
17	0x3db52f71	0.08846939
18	0x3f280745	0.6563609
19	0x3e340bd8	0.17582643
20	0x400ae51e	2.1702342
21	0x40c4adc1	6.14621
22	0x402bc39c	2.683814
23	0x4056e9cd	3.35802
24	0x3f65a135	0.8969911
25	0x3e19b4fd	0.15010448
26	0x40c15ea3	6.0428023
27	0x4053b8df	3.3081586
28	0x4008f0fc	2.1397085
29	0x411442e1	9.266328
30	0x3f8ab099	1.0835143
31	0x3f592680	0.8482437
32	0x3c2d4016	0.010574361
33	0x3f64429e	0.8916415
34	0x3d60c8bf	0.054878946
35	0x413aa724	11.665806
36	0x402f0561	2.7347033
37	0x3e80f363	0.2518569
38	0x3e865608	0.26237512
39	0x3daa2563	0.08307912
40	0x3c425d7e	0.011863111
41	0x3fd24aba	1.6429055
42	0x3ec562aa	0.38551837
43	0x405514ab	3.3293865
44	0x3f76873f	0.9630012
45	0x3fc3201c	1.5244174
46	0x4009127a	2.1417527
47	0x3e4b9a99	0.19883193
48	0x3e848a01	0.2588654
49	0x3df7a5b7	0.120921545
50	0x4040907f	3.0088193
51	0x3fb3aa36	1.4036319
52	0x3f56065f	0.8360347
53	0x3fceba51	1.6150609
54	0x3e4e1a63	0.20127253
55	0x40bd9177	5.924007
56	0x400c5855	2.1928914
57	0x3cf5c0a6	0.029999088
58	0x3fb5c7a8	1.4201555
59	0x3d773471	0.060352746
60	0x3d61ec34	0.0551569
61	0x3e220193	0.15820913
62	0x40b2ace9	5.583607
63	0x3fe7f26c	1.8120856

layers.8.weight f4 [64, 64, 2, 2]
0	0x3cca0034	0.0246583
1	0x3e04b8ef	0.12961172
2	0xbe2ac3ad	-0.16676207
3	0xbdaa59c1	-0.083179004
4	0xbbf29a47	-0.007403645
5	0xbe7bf4b3	-0.24605064
6	0x3e2bacd4	0.16765147
7	0x3cd1dfd7	0.02561943
8	0xbe4289fc	-0.1899795
9	0xbde68e0b	-0.11257561
10	0xbd596661	-0.05307615
11	0x3d4e01ba	0.050294615
12	0x3db1aed3	0.08675923
13	0xbe279d1a	-0.16368523
14	0xbb2cc691	-0.0026363472
15	0x3cd213c3	0.025644189
16	0x3dcc1c61	0.0996635
17	0xbca71e46	-0.020400178
18	0xbea66137	-0.32496044
19	0xbd570ee2	-0.052504428
20	0x3db4d19e	0.08829044
21	0xbe24bf34	-0.16088563
22	0xbd111b8a	-0.035426654
23	0x3cbe3dbc	0.023222797
24	0x3d39d13f	0.04536557
25	0x3e276af3	0.16349392
26	0x3dc29b59	0.095022865
27	0x3d25e9e6	0.040506266
28	0x3b07f873	0.0020747453
29	0xbe2c8a09	-0.16849531
30	0x3d610839	0.054939482
31	0xbd7e69d8	-0.06211266
32	0xb999d4a6	-0.0002934087
33	0xbd9ca60e	-0.0764886
34	0x3e137463	0.14399867
35	0xbd57125a	-0.052507736
36	0x3e0d25a2	0.13783887
37	0x3db71385	0.0893927
38	0xbe28465c	-0.1643309
39	0x3cd310f3	0.025764918
40	0x3ddca2c4	0.107732326
41	0x3c242dd2	0.01002069
42	0xbda1a1cf	-0.07892191
43	0xbe04dcdd	-0.12974878
44	0xbcd967e8	-0.026538804
45	0xbd055000	-0.032546997
46	0x3dd2a0d0	0.10284579
47	0xbe3efa0e	-0.18650076
48	0xbe34337e	-0.17597768
49	0xbd34aba6	-0.04410901
50	0x3db932da	0.09042902
51	0x3cb91040	0.022590756
52	0x3e03b001	0.12860109
53	0xbc54c44d	-0.012986255
54	0xbe0bddc5	-0.13658817
55	0x3d77165e	0.060324065
56	0xbe27334e	-0.16328165
57	0xbc034fa6	-0.008014595
58	0x3df2379b	0.11827012
59	0xbbe5895d	-0.0070049004
60	0xbd399ea1	-0.045317296
61	0xbcf55a94	-0.029950418
62	0x3dcc90db	0.099885665
63	0xbdcfe6d3	-0.10151448
64	0xbce0f5e0	-0.027460992
65	0xbe1bfb9f	-0.15232705
66	0x3e22af2d	0.15887137
67	0x3d452309	0.048129115
68	0xbd82633d	-0.063665845
69	0x3de95c80	0.11394596
70	0xbb1e0d82	-0.0024116938
71	0xbe075171	-0.13214661
72	0x3ccb3594	0.024805821
73	0x3e1e9857	0.154878
74	0xbcd401dd	-0.025879795
75	0x3c791f00	0.015205145
76	0xbd91ad4a	-0.071131304
77	0x3dee79bd	0.116443135
78	0x3dddff35	0.108396925
79	0xbe0c6458	-0.13710153
80	0xbd9b07bd	-0.07569835
81	0x3dd17f91	0.102294095
82	0x3e0cf46d	0.13765116
83	0x3dce1386	0.100623176
84	0x3e08fe98	0.1337837
85	0x3de5a440	0.11212969
86	0x3d1447cb	0.03620128
87	0x3df395ce	0.11893807
88	0x3bf2024b	0.0073855272
89	0x3db4833f	0.08814096
90	0xbe09008c	-0.13379115
91	0x3e0c776a	0.13717428
92	0x3df52947	0.11970764
93	0x3ca34495	0.019930163
94	0x3c81a1fb	0.015824309
95	0x3de777a1	0.11302114
96	0xbdbf59ce	-0.09343301
97	0xbdbf2173	-0.09332552
98	0xbd30fa0f	-0.043207224
99	0x3dd620cc	0.10455474
100	0x3d5ed890	0.05440575
101	0xbdd83cdb	-0.10558482
102	0x3e283fc4	0.16430575
103	0xbd827735	-0.06370393
104	0xbdc74a7e	-0.09731005
105	0xbdf219f4	-0.118213564
106	0xbda17c13	-0.078849934
107	0x3cdf1890	0.027233392
108	0x3d77db92	0.060512133
109	0xbdbe1a9d	-0.0928242
110	0x3db98c0c	0.09059915
111	0xbda4a1e3	-0.0803869
112	0xbd10a9b8	-0.035318106
113	0xbd477c76	-0.04870268
114	0xbe45166f	-0.19246839
115	0x3da849ce	0.08217202
116	0x3a297480	0.0006464198
117	0xbdf6d126	-0.12051611
118	0xbe4eea4e	-0.20206568
119	0xbd219364	-0.039447203
120	0x3d05d062	0.032669432
121	0xbd25211c	-0.04031478
122	0xbdce622e	-0.1007732
123	0xbdef6028	-0.11688262
124	0x3c589a8f	0.013220443
125	0x3dbe7f35	0.093016066
126	0x3dd4577a	0.10368247
127	0x3cbdf563	0.023188299
128	0xbe012c4e	-0.12614557
129	0xbd401a75	-0.04690023
130	0x3e173f43	0.14770226
131	0x3d95d44d	0.07315884
132	0xbdc0e22f	-0.09418141
133	0xbe33f479	-0.17573728
134	0x3b24b701	0.0025133493
135	0x3df541cd	0.11975441
136	0xbdd49011	-0.10379041
137	0xbdb572d6	-0.08859794
138	0x3dca4d7e	0.09878062
139	0x3d0bcce5	0.03413095
140	0x3dcbc26e	0.09949194
141	0x3e1424de	0.14467189
142	0x3d92e1da	0.07171984
143	0x3d5f5a85	0.054529686
144	0x3d8fd361	0.07022739
145	0xbc797229	-0.015224972
146	0xbcb0f5d9	-0.021601604
147	0xbe0826f2	-0.13296106
148	0x3c652c5f	0.01398763
149	0xbda4c0e4	-0.080446035
150	0xbdb225df	-0.086986296
151	0x3e2a1a99	0.16611709
152	0x3dce013c	0.10058829
153	0x3df4e35a	0.11957426
154	0xbe1ae488	-0.1512624
155	0xbcdf532d	-0.027261341
156	0xbd05a002	-0.0326233
157	0xbda13b2b	-0.078726135
158	0x3e0ecdcc	0.13945693
159	0xbdf43b42	-0.11925365
160	0xbdca6852	-0.09883179
161	0xbd526a72	-0.051371045
162	0x3e3a9f86	0.18224916
163	0xbe10e26b	-0.14148872
164	0xbe09db17	-0.13462482
165	0xbd2cd1cb	-0.04219226
166	0x3e08f059	0.13372935
167	0x3cdc6c58	0.026907131
168	0xbdabd12d	-0.083895065
169	0xbdd54b79	-0.10414786
170	0xbd8cb49e	-0.068703875
171	0x3e45c664	0.19313961
172	0xbde78f23	-0.11306598
173	0xbd85cd2e	-0.065332755
174	0x3e13fce0	0.14451933
175	0x3e05f2a7	0.13080846
176	0xbe211576	-0.15730843
177	0xbd837333	-0.06418457
178	0xbc9ba507	-0.01899959
179	0x3dd69738	0.104780614
180	0x3db2163b	0.086956464
181	0xbe3fae03	-0.18718724
182	0x3de600bd	0.112306096
183	0xbdbf88a3	-0.09352233
184	0x3e0d21b2	0.13782385
185	0x3d2388cf	0.039925393
186	0xbdf8ffea	-0.12158187
187	0x3d94eb23	0.07271411
188	0xbd2aff94	-0.041747645
189	0x3e00b1bd	0.12567802
190	0x3cd4e91a	0.025990058
191	0xbcfcea4b	-0.030873438
192	0x3e221fd1	0.1583245
193	0xbeb96729	-0.36211517
194	0xbe80463b	-0.25053582
195	0xbdf706bd	-0.12061832
196	0xbc259f34	-0.010108758
197	0x3debf7cd	0.115218736
198	0x3dd39db2	0.10332812
199	0xbe663452	-0.22480896
200	0xbc0cc77c	-0.008592483
201	0xbd950d02	-0.07277872
202	0xbe7c3cbc	-0.24632543
203	0xbdaf48bb	-0.08558794
204	0x3d908c31	0.070579894
205	0xbe73be5c	-0.23803085
206	0x3d0f08f1	0.034920637
207	0x3cb484ae	0.022035923
208	0x3e4359f2	0.1907728
209	0xbe4e05af	-0.20119356
210	0xbdc7e06e	-0.097596034
211	0x3c98146c	0.018564425
212	0xbd10cf1d	-0.03535377
213	0x3e09cf30	0.13457942
214	0xbe27b641	-0.16378118
215	0x3b7d4793	0.0038647398
216	0xbd8d93fd	-0.06912992
217	0x3e0891be	0.13336846
218	0xbe38e317	-0.18055378
219	0xbe5bd4e6	-0.21467933
220	0xbe34f735	-0.17672427
221	0xbd3ea2cf	-0.046541985
222	0x3dfa7289	0.12228877
223	0xbd2d3189	-0.04228357
224	0xbe25468f	-0.16140197
225	0x3db403c5	0.087897815
226	0x3dd47575	0.10373966
227	0x3de50aea	0.11183722
228	0xbc0f1cde	-0.00873491
229	0xbe1b77aa	-0.15182367
230	0xbd170494	-0.0368696
231	0x3de47b64	0.111563474
232	0x3d2c8605	0.04212
233	0x3c1f7d79	0.009734505
234	0x3e4242f3	0.18970852
235	0xbe0d6c1b	-0.1381077
236	0x3c86059f	0.016360102
237	0xbc4e7010	-0.01259996
238	0xbe575ebb	-0.2103223
239	0x3e070614	0.13185912
240	0xbce22f0d	-0.027610326
241	0xbe01010b	-0.12598054
242	0xbe297ef8	-0.16552341
243	0x3dd0d53f	0.101969235
244	0xbd10b19e	-0.03532564
245	0xbdaf4829	-0.08558685
246	0xbc324596	-0.010880848
247	0x3dcca86e	0.09993063
248	0xbd9b2cbf	-0.07576894
249	0xbcf413b9	-0.02979456
250	0x3c08dded	0.0083536925
251	0xbe4a05af	-0.1972873
252	0x3c042044	0.008064333
253	0xbdc53024	-0.09628323
254	0xbe373491	-0.17891146
255	0x3e2113ac	0.1573016

layers.8.bias f4 [64]
0	0x3e0a41bb	0.13501637
1	0x3e0f3fa0	0.13989115
2	0x3e1393b0	0.14411807
3	0x3e100ed7	0.14068161
4	0x3e0a4c76	0.1350573
5	0x3e096923	0.13419013
6	0x3dff5b94	0.12468639
7	0xbec70717	-0.38872597
8	0x3e08b88e	0.13351652
9	0x3e19b166	0.15009078
10	0x3e0cc0a1	0.13745357
11	0x3e049a96	0.12949595
12	0x3e0eb75c	0.13937134
13	0x3e0639ee	0.13108036
14	0x3e05ab19	0.1305355
15	0x3e1873de	0.1488795
16	0x3e0e4fce	0.1389763
17	0x3e0eddcc	0.13951796
18	0x3e1743e7	0.14771996
19	0x3e125afa	0.14292517
20	0x3e1dd07a	0.15411559
21	0x3e0962c6	0.13416585
22	0x3e164b28	0.14677107
23	0x3e0503ac	0.12989682
24	0x3e11acd1	0.1422608
25	0x3e1b390f	0.15158485
26	0x3e09e37c	0.13465685
27	0x3e0bcbd7	0.13651977
28	0x3e000431	0.12501599
29	0x3e143f20	0.14477205
30	0x3e081ccb	0.13292234
31	0x3e1b39f1	0.15158822
32	0x3e0f9d89	0.14024939
33	0x3df025cd	0.1172596
34	0x3e0e4abf	0.13895701
35	0x3e1c0428	0.1523596
36	0x3e0be649	0.13662066
37	0x3e1143ec	0.14186066
38	0xbec3385b	-0.38128933
39	0x3e19c9ab	0.15018336
40	0x3e125097	0.14288555
41	0x3e0943ed	0.13404818
42	0x3e0d84f8	0.13820255
43	0x3e0a1002	0.13482669
44	0x3e106bdb	0.14103644
45	0x3e0a8571	0.13527466
46	0x3e06a151	0.13147475
47	0x3e17eb61	0.14835884
48	0x3e0ae67f	0.1356449
49	0x3e2421d9	0.16028537
50	0x3e21f3ad	0.15815611
51	0x3e10dba1	0.14146282
52	0x3e08ffbc	0.13378805
53	0x3e0e91db	0.13922827
54	0x3e04e8ed	0.12979479
55	0x3e190271	0.14942338
56	0x3e049eb3	0.12951164
57	0x3e0d8b75	0.1382273
58	0x3e0105db	0.1259989
59	0x3e092d70	0.1339624
60	0x3e0a48c1	0.13504316
61	0x3e0ede6d	0.13952036
62	0x3df36947	0.118853144
63	0x3e025b5a	0.1273016

layers.10.weight f4 [64]
0	0x408579b3	4.171106
1	0x408591d2	4.1740503
2	0x4084fd8b	4.15595
3	0x4084de3c	4.152128
4	0x4084b021	4.1465
5	0x408567ac	4.1689053
6	0x4085b235	4.178004
7	0x40829ff1	4.082024
8	0x40854130	4.1642075
9	0x408544dc	4.1646557
10	0x4084c8c6	4.1495085
11	0x4084e088	4.1524086
12	0x4084b34e	4.146888
13	0x4085f254	4.185831
14	0x4085ea87	4.184879
15	0x40848875	4.1416574
16	0x40856514	4.1685886
17	0x40848524	4.1412525
18	0x40851b60	4.1595917
19	0x40854599	4.164746
20	0x40863ab2	4.194665
21	0x408544d7	4.1646533
22	0x4085a001	4.1757817
23	0x408629c4	4.1925983
24	0x40859d5e	4.17546
25	0x40852a21	4.1613927
26	0x4084d335	4.150782
27	0x4085ac11	4.177254
28	0x40860e67	4.189258
29	0x4084d4ee	4.1509924
30	0x4084dc36	4.151881
31	0x4085a7cb	4.1767325
32	0x4084ce89	4.150212
33	0x4085d924	4.1827564
34	0x40851713	4.1590667
35	0x408540b1	4.164147
36	0x40853670	4.162895
37	0x40856eda	4.1697817
38	0x408256c7	4.073093
39	0x4085513d	4.166167
40	0x408478a9	4.139729
41	0x40851920	4.159317
42	0x4085811d	4.172011
43	0x4084e004	4.1523457
44	0x40853d44	4.1637287
45	0x4084daef	4.1517253
46	0x408542fc	4.164427
47	0x408592b4	4.174158
48	0x4084ff2a	4.156148
49	0x4084d6a1	4.1512
50	0x4083e41a	4.1215944
51	0x40859093	4.173898
52	0x40855234	4.1662846
53	0x408568a0	4.1690216
54	0x40858c57	4.1733813
55	0x408510b4	4.158289
56	0x40853b6e	4.1635046
57	0x40858189	4.1720624
58	0x4084d62e	4.151145
59	0x4084f888	4.1553383
60	0x4085532d	4.1664033
61	0x40853bbe	4.1635427
62	0x4085952c	4.1744595
63	0x40846e72	4.138482

layers.10.bias f4 [64]
0	0x404b9667	3.1810548
1	0x404a6d4a	3.1629205
2	0x4048d416	3.1379447
3	0x40488f32	3.13374
4	0x4048ac7f	3.1355283
5	0x404ac7f2	3.1684537
6	0x404a6c3c	3.162856
7	0xc04b0cfc	-3.1726675
8	0x4049b5e3	3.1517265
9	0x4046871e	3.101997
10	0x404917f2	3.1420865
11	0x4049b1c4	3.151475
12	0x4049b048	3.1513844
13	0x4046391b	3.0972354
14	0x40479139	3.1182387
15	0x40437f30	3.054638
16	0x404a22ad	3.1583664
17	0x40482eb7	3.1278512
18	0x4048ed77	3.1394937
19	0x4045c261	3.089989
20	0x40438c3e	3.0554347
21	0x404a9bf7	3.1657693
22	0x4046d018	3.106451
23	0x4046072e	3.0941882
24	0x4047b294	3.1202745
25	0x4049588a	3.146029
26	0x40487864	3.132348
27	0x404a86b5	3.1644719
28	0x4044736f	3.0695455
29	0x4048835b	3.1330173
30	0x40489dcc	3.1346312
31	0x40421c35	3.0329716
32	0x404991e7	3.1495302
33	0x40462cdf	3.0964887
34	0x40493b8f	3.1442602
35	0x40497fb3	3.1484191
36	0x4049b5bc	3.1517172
37	0x404b125f	3.1729963
38	0xc04b66e5	-3.1781552
39	0x404a9e3a	3.1659074
40	0x4049506b	3.1455333
41	0x40494df7	3.1453836
42	0x404a7275	3.163236
43	0x404893d1	3.134022
44	0x40499cfc	3.1502066
45	0x404901e0	3.1407394
46	0x404b0088	3.1719074
47	0x404a2e34	3.15907
48	0x40497a1b	3.1480777
49	0x403556e6	2.8334289
50	0x403fa0fe	2.9942012
51	0x404b027d	3.1720269
52	0x4049d7b1	3.1537898
53	0x404b271b	3.1742618
54	0x404b4377	3.1759927
55	0x4049b562	3.1516957
56	0x404a0b0e	3.1569247
57	0x404b2e54	3.1747026
58	0x4047e94c	3.1236143
59	0x404af2f1	3.171078
60	0x404aad96	3.1668448
61	0x40499e9b	3.1503055
62	0x404afc0b	3.1716335
63	0x4048abed	3.1354935

layers.10.running_mean f4 [64]
0	0x3facd0ff	1.350128
1	0x3fa8930c	1.3169875
2	0x3fa8e8b3	1.3196014
3	0x3fa869c1	1.3157274
4	0x3fa878d4	1.3161874
5	0x3fa6bb3c	1.3025889
6	0x3fa5f146	1.2964256
7	0x3ea423d9	0.320586
8	0x3fa79651	1.3092748
9	0x3fa7c3b6	1.3106601
10	0x3fa8dbdd	1.3192097
11	0x3fa74a5c	1.3069568
12	0x3fa8ad0b	1.3177809
13	0x3fa861a9	1.3154804
14	0x3fa956b9	1.3229591
15	0x3fac004d	1.3437592
16	0x3fa738ef	1.306425
17	0x3fa8e5ea	1.3195164
18	0x3faa64a7	1.3311967
19	0x3facadac	1.34905
20	0x3fad87a9	1.3557025
21	0x3fa86446	1.3155601
22	0x3faa6e96	1.3314998
23	0x3fa8873c	1.316627
24	0x3faa3e23	1.3300213
25	0x3fa6f22a	1.3042653
26	0x3fa6b31a	1.3023407
27	0x3faab042	1.333504
28	0x3fab411a	1.3379242
29	0x3fa78c23	1.3089641
30	0x3fa633ed	1.2984596
31	0x3fa9d978	1.3269491
32	0x3fab11db	1.3364824
33	0x3fa831ff	1.3140258
34	0x3fa9efe5	1.3276335
35	0x3fa85432	1.3150694
36	0x3fa6aefa	1.3022149
37	0x3fa85479	1.3150779
38	0x3ea994a7	0.33121225
39	0x3fa9d38e	1.3267686
40	0x3fa88fac	1.3168845
41	0x3fa77a53	1.3084205
42	0x3fa875df	1.3160971
43	0x3fa8f7c1	1.3200608
44	0x3fa62954	1.2981362
45	0x3fa8a185	1.3174292
46	0x3fa8b0b1	1.3178922
47	0x3fa839c1	1.3142625
48	0x3fa89d0b	1.3172926
49	0x3faf0f80	1.3676605
50	0x3faa58f1	1.3308393
51	0x3fa8aa9a	1.3177063
52	0x3fa95e22	1.3231852
53	0x3faa61b9	1.3311073
54	0x3fa78c69	1.3089725
55	0x3fa899ac	1.3171897
56	0x3fa77c2e	1.3084772
57	0x3fa897f2	1.317137
58	0x3fa9c739	1.3263923
59	0x3fa71de3	1.3055996
60	0x3fa99698	1.3249083
61	0x3fa893e4	1.3170133
62	0x3fa7ba56	1.310374
63	0x3fa6fb69	1.3045474

layers.10.running_var f4 [64]
0	0x3f429932	0.7601501
1	0x3f3713e7	0.71514744
2	0x3f3741ec	0.71584964
3	0x3f355b1c	0.70842147
4	0x3f35df0d	0.71043473
5	0x3f318231	0.6933928
6	0x3f2ed7b4	0.68297887
7	0x40197267	2.3976076
8	0x3f334efc	0.70042396
9	0x3f33e95f	0.7027797
10	0x3f3729fd	0.71548444
11	0x3f31a642	0.69394314
12	0x3f36ad3b	0.7135808
13	0x3f3576e5	0.70884544
14	0x3f374502	0.7158967
15	0x3f3da7b2	0.7408401
16	0x3f339872	0.7015449
17	0x3f35fbd6	0.71087396
18	0x3f3ac647	0.729588
19	0x3f3f8944	0.74818826
20	0x3f46965d	0.77573186
21	0x3f370e0a	0.71505797
22	0x3f3dbf1c	0.74119735
23	0x3f36ed52	0.7145587
24	0x3f3b0ce9	0.73066574
25	0x3f312143	0.6919138
26	0x3f2f3fad	0.68456537
27	0x3f38da1e	0.7220782
28	0x3f3a06ab	0.72666425
29	0x3f312e93	0.6921169
30	0x3f314ee9	0.6926103
31	0x3f3ba4f1	0.73298556
32	0x3f3be2c3	0.73392886
33	0x3f3542d9	0.70805126
34	0x3f380dfc	0.7189634
35	0x3f335fb4	0.70067906
36	0x3f31181d	0.6917742
37	0x3f3453d0	0.7044039
38	0x40200645	2.5003827
39	0x3f39b9e2	0.7254926
40	0x3f3774e5	0.7166274
41	0x3f32f4bf	0.699047
42	0x3f359b5f	0.709402
43	0x3f350fb5	0.7072709
44	0x3f2f6ab1	0.68522173
45	0x3f369296	0.7131742
46	0x3f385633	0.7200653
47	0x3f33fc36	0.7030672
48	0x3f36c54d	0.7139481
49	0x3f4b931f	0.79521364
50	0x3f3ba68c	0.73301005
51	0x3f39b518	0.7254195
52	0x3f36d6dc	0.714216
53	0x3f3a7d01	0.7284699
54	0x3f33c8b5	0.7022813
55	0x3f382aff	0.71940607
56	0x3f33b2cc	0.701947
57	0x3f37e165	0.718283
58	0x3f385444	0.7200358
59	0x3f32b3c2	0.6980554
60	0x3f37734f	0.7166032
61	0x3f344920	0.7042408
62	0x3f33774a	0.70103896
63	0x3f32ad2f	0.6979551

actor_classifier.weight f4 [15, 256]
0	0x3cccbb35	0.024991611
1	0xbe112afe	-0.14176556
2	0x3e057d33	0.13036041
3	0xbc9ec4a7	-0.01938088
4	0x3daa5029	0.083160706
5	0xbd9dc87e	-0.077042565
6	0x3dd8bbfc	0.1058273
7	0xbcdded18	-0.027090594
8	0x3d57fff1	0.05273432
9	0xbe1807cc	-0.14846724
10	0x3d93a57d	0.07209299
11	0xbd04fd0a	-0.03246788
12	0x3d0f5ecd	0.03500252
13	0xbe1e0039	-0.15429772
14	0x3db5eb7d	0.088828065
15	0xbdce29cd	-0.100665666
16	0x3d690d77	0.056897607
17	0xbe04e616	-0.12978396
18	0x3d242385	0.040072937
19	0xbc279782	-0.010228993
20	0x3d351578	0.044209927
21	0xbe12bede	-0.14330623
22	0x3dfb9e7d	0.122860886
23	0xbd883784	-0.06651214
24	0x3d87ca21	0.0663035
25	0xbdb5a923	-0.08870151
26	0x3d08068c	0.03320937
27	0xbdaa100e	-0.083038434
28	0xbf063ec4	-0.5243952
29	0xbef7fb9b	-0.48434147
30	0xbf06ff14	-0.5273297
31	0xbefd8f5f	-0.49523446
32	0x3d984535	0.07435075
33	0xbdac3def	-0.084102504
34	0xbcda21ce	-0.026627447
35	0xbc88d52c	-0.01670321
36	0x3d3a2d22	0.0454532
37	0xbdf3d392	-0.11905588
38	0x3d16210f	0.03665262
39	0xbdfc390c	-0.12315568
40	0x3da602de	0.081060156
41	0xbda721e6	-0.081607625
42	0x3ca0815c	0.019592933
43	0xbd584300	-0.05279827
44	0x3d721f55	0.05911191
45	0xbdaeb84f	-0.08531248
46	0x3d5d80ef	0.05407804
47	0xbde69930	-0.11259687
48	0x3c1133d4	0.008862454
49	0xbdcbdb51	-0.09953941
50	0x3dda6cf6	0.10665314
51	0xbdddaf3d	-0.1082444
52	0x3d68811f	0.056763764
53	0xbe16ab26	-0.14713725
54	0x3d85f3ef	0.06540667
55	0xbdb6ac4d	-0.089195825
56	0x3daa1bdb	0.08306094
57	0xbd40382d	-0.046928573
58	0x3bcd3ccb	0.0062633506
59	0xbdbe7da4	-0.09301308
60	0x3cf71870	0.03016302
61	0xbda751a5	-0.08169869
62	0x3e087eab	0.1332957
63	0xbdbb1218	-0.091343105
64	0x3dae7c96	0.08519857
65	0xbde6f314	-0.11276832
66	0x388973fe	6.554274e-05
67	0xbd9e2818	-0.07722491
68	0x3d733d88	0.059384853
69	0xbdbaf253	-0.09128251
70	0x3d1a77aa	0.037711777
71	0xbd206c97	-0.03916606
72	0x3dfb017d	0.12256143
73	0xbd6889d8	-0.056772083
74	0x3d1b1bbe	0.037868254
75	0xbddacd5d	-0.10683701
76	0x3cfda41d	0.030962044
77	0xbe119914	-0.14218551
78	0x3d5d13c2	0.05397392
79	0xbd8d7376	-0.06906788
80	0x3b0663c9	0.0020506254
81	0xbe36064e	-0.17775843
82	0x3999ebd6	0.00029358146
83	0xbdaf2e05	-0.085536994
84	0x3dd6c1f1	0.1048621
85	0xbd4a997e	-0.049462788
86	0x3d84036c	0.06445965
87	0xbd7a830e	-0.06116014
88	0x3d009059	0.03138766
89	0xbe5a8137	-0.21338354
90	0x3dc9c96c	0.09852871
91	0xbd893fe8	-0.06701642
92	0x3d6fa2ae	0.058504753
93	0xbe1f2e4d	-0.15545006
94	0x3d588371	0.052859727
95	0xbd68e75f	-0.056861278
96	0x3dccde82	0.100033775
97	0xbdd97c43	-0.10619404
98	0xbd013e2c	-0.031553432
99	0xbcc7202b	-0.024307331
100	0x3d2f3306	0.04277327
101	0xbe27a7a4	-0.16372544
102	0x3cb9c7a8	0.022678211
103	0xbd01d824	-0.03170027
104	0x3d5be07a	0.053680874
105	0xbdbf50b6	-0.09341566
106	0x3d8d38e9	0.068956204
107	0xbd6c486b	-0.05768625
108	0x3c46182f	0.012090727
109	0xbe156619	-0.14589728
110	0x3dcd017f	0.10010051
111	0xbde50d7d	-0.11184213
112	0x3d87b6f9	0.06626696
113	0xbe13f980	-0.14450645
114	0x3d95d6f7	0.07316392
115	0xbbb465ef	-0.0055053155
116	0x3d330cc2	0.04371334
117	0xbe04c684	-0.12966353
118	0x3d98b65f	0.074566595
119	0xbce9d5a8	-0.028544262
120	0x3dbebf29	0.09313805
121	0xbde1cec7	-0.11025768
122	0x3d015fec	0.03158562
123	0xbddc312e	-0.10751568
124	0x3da0a81b	0.078445636
125	0xbe1eb8ef	-0.15500234
126	0x3d7851be	0.06062483
127	0xbdc0ac08	-0.09407812
128	0x3d0438a0	0.032280564
129	0xbdb2f488	-0.08738047
130	0x3d601f76	0.054717503
131	0xbdd5cb7a	-0.10439201
132	0x3de272ca	0.110570505
133	0xbe0366ba	-0.12832156
134	0x3dadbe58	0.08483571
135	0xbe062185	-0.13098724
136	0x3d94ba1b	0.07262059
137	0xbdcce3d2	-0.10004391
138	0x3d790938	0.060799807
139	0xbce6d9d9	-0.02818005
140	0x3d9e70b5	0.07736341
141	0xbe0088c4	-0.12552172
142	0x3d8c16f8	0.068403184
143	0x3b868c0a	0.0041060494
144	0x3d10a0ee	0.035309725
145	0xbd35e517	-0.04440793
146	0x3d1920a8	0.03738466
147	0xbda7c8e0	-0.08192611
148	0x3d99c5bc	0.07508418
149	0xbd4f2913	-0.05057628
150	0xbc6a8c0c	-0.014315616
151	0xbcba984a	-0.022777695
152	0xbf0ab255	-0.54178363
153	0xbee0a3a6	-0.43874854
154	0xbef3d53b	-0.4762362
155	0xbedc28c1	-0.42999843
156	0x3dd518b1	0.104051
157	0xbd939f92	-0.0720817
158	0x3dc770bd	0.097383
159	0xbdc7c99f	-0.09755253
160	0x3db07018	0.0861513
161	0xbdcdec46	-0.10054831
162	0x3d9614f1	0.07328213
163	0xbce8e89f	-0.028431235
164	0x3b284405	0.0025675308
165	0xbda6147a	-0.08109374
166	0x3dce4dc2	0.10073425
167	0xbdbfaf1c	-0.09359571
168	0x3d9475e9	0.07249052
169	0xbd9a2890	-0.07527268
170	0x3d0c90c6	0.034317754
171	0xbd5a75d8	-0.05333504
172	0x3dd16c68	0.10225755
173	0xbd836f35	-0.064176954
174	0x3d66fe7b	0.056395035
175	0xbdf6a24d	-0.12042675
176	0x3d81938c	0.063269705
177	0xbded4940	-0.11586237
178	0x3e17615e	0.14783236
179	0xbdd56f99	-0.10421676
180	0x3cc7d080	0.024391413
181	0xbe034099	-0.12817611
182	0x3c00515d	0.0078318985
183	0xbd966569	-0.07343561
184	0x3d4fb2a7	0.050707486
185	0xbdde1cdc	-0.10845348
186	0x3e12314e	0.14276621
187	0xbd13348b	-0.03593878
188	0x3dc82a00	0.09773636
189	0xbdbbca11	-0.091694005
190	0x3d92f34d	0.07175312
191	0xbdcb50fe	-0.099275574
192	0x3dfb3266	0.12265472
193	0xbd97dbea	-0.07414992
194	0x3d925557	0.071451835
195	0xbe0a942d	-0.13533087
196	0x3d91889f	0.071061365
197	0xbe1a0b78	-0.15043437
198	0x3c36c9cb	0.01115651
199	0xbe074fa4	-0.13213974
200	0x3d476441	0.048679594
201	0xbe0823fb	-0.13294975
202	0x3e023b81	0.12718011
203	0xbdb3b56b	-0.08774837
204	0x3daa4044	0.08313039
205	0xbe0ef7de	-0.13961741
206	0x3d25354c	0.04033403
207	0xbd6a3ae6	-0.057185076
208	0x3cfd341f	0.030908642
209	0xbe1cebb6	-0.15324292
210	0x3d4baf29	0.049727593
211	0xbdc3634a	-0.09540422
212	0x3d94db37	0.072683744
213	0xbd49110d	-0.049088527
214	0x3d08e9cd	0.033426095
215	0xbdaddfc1	-0.08489943
216	0x3d5eaa96	0.054361902
217	0xbe1ad867	-0.15121613
218	0xbb8dfe01	-0.004333258
219	0xbcc3b58e	-0.023890283
220	0x3dd9c42e	0.106331214
221	0xbdb3f43e	-0.0878682
222	0x3cf3aaee	0.029744592
223	0xbb1e0c3e	-0.0024116184
224	0x3d640c0d	0.055675555
225	0xbe01c1fb	-0.12671654
226	0x3d6e97fc	0.058250412
227	0x3ae5dc40	0.0017536953
228	0x3cf77ff0	0.030212373
229	0xbdc9b292	-0.09848513
230	0x3d8c0f97	0.06838911
231	0xbd19299a	-0.03739319
232	0x3d1d17b8	0.038352698
233	0xbdee5362	-0.11636998
234	0x3d461847	0.048362996
235	0xbd94679b	-0.07246324
236	0x3de6ca4c	0.11269054
237	0xbd209eaf	-0.039213832
238	0x3dc06ece	0.09396134
239	0xbdd5cc46	-0.10439353
240	0x3dbdc5c2	0.09266235
241	0xbdf4d84b	-0.11955317
242	0x3dd2e86f	0.102982394
243	0xbdd22c23	-0.10262325
244	0x3dbd4d4d	0.092432596
245	0xbd678563	-0.056523692
246	0x3c3512c6	0.011051839
247	0xbd84ce33	-0.06484642
248	0x3dc43139	0.09579701
249	0xbd35b07d	-0.044357765
250	0xbbb9a156	-0.0056649847
251	0x3c85392f	0.016262619
252	0x3d94e182	0.07269575
253	0xbd858dec	-0.0652121
254	0x3d8210f7	0.06350892
255	0xbdb07e43	-0.086178325

actor_classifier.bias f4 [15]
0	0x3f01cb42	0.5070077
1	0xbdf93893	-0.12168994
2	0xbe41d2aa	-0.18928018
3	0xbe8610a3	-0.26184568
4	0xbe1534f3	-0.1457098
5	0xbe3e62b0	-0.18592334
6	0xbe82f940	-0.25580788
7	0xbd9209a0	-0.07130742
8	0xbe054c61	-0.13017417
9	0xbe6d56c2	-0.23177627
10	0xbe35b32b	-0.17744128
11	0xbe274f42	-0.16338828
12	0x3e266d6d	0.1625268
13	0xbe719d95	-0.23595269
14	0xbe9856de	-0.29753774
