Saved Models/model_checkpoint_coinrun_42_5e-05_400_6_256_0.99_0.95_0.25_1024_0.5_end_400.pth (torch, 154751 bytes, 21 tensors)

layers.0.weight f4 [32, 3, 8, 8]
0	0x3d64b699	0.0558382
1	0x3d423a4e	0.047418885
2	0x3cf281dc	0.029602937
3	0xbcfc8df3	-0.030829405
4	0x3d7226ff	0.05911922
5	0x3d391540	0.04518628
6	0x3c63f87d	0.013914225
7	0xbd875eb5	-0.06609861
8	0x3c7c9231	0.015415714
9	0x3c9f6e7f	0.019461868
10	0xbc428bd4	-0.011874158
11	0x3d465c80	0.04842806
12	0xbc7acabb	-0.015307124
13	0xbd0b244b	-0.03397016
14	0xbcc49b9b	-0.02399998
15	0x3d146fad	0.036239315
16	0x3d92b933	0.0716423
17	0xbd8225d9	-0.06354875
18	0x3d07536a	0.033038534
19	0x3d1ee9fa	0.038797356
20	0x3ccb23bd	0.024797315
21	0xbc9ba0bb	-0.01899754
22	0x3d44ef9c	0.04808007
23	0x3d6372ee	0.055529527
24	0xbd9d2006	-0.076721236
25	0x3bf42142	0.0074502537
26	0xbd3538b4	-0.04424353
27	0x3b97f99d	0.0046379105
28	0x3d4e2561	0.050328616
29	0x3d8ad672	0.067791834
30	0x3d58eb83	0.052958976
31	0xbc07b6d6	-0.008283338
32	0xbd3e3b4a	-0.04644326
33	0xbd6d0683	-0.05786754
34	0xbd2d3ba9	-0.042293224
35	0x3d8104be	0.062997326
36	0x3d08705f	0.03331029
37	0xbdbe15c5	-0.09281496
38	0xbdbeb688	-0.09312159
39	0xbc23f5b6	-0.0100073125
40	0xbc82ed1c	-0.015982203
41	0x3bdb49df	0.0066921557
42	0x3d7a5bad	0.061122585
43	0xbd86ac97	-0.06575888
44	0xbc198735	-0.009370615
45	0x3d22fdc1	0.03979278
46	0xbc899af4	-0.01679752
47	0x3c98eb55	0.018666903
48	0xbcec3725	-0.028834889
49	0x3d1c0acd	0.038096238
50	0x3d3ad4e5	0.04561319
51	0x3d34104e	0.04396086
52	0xbcaf99d5	-0.021435658
53	0x3c4103db	0.011780704
54	0x3cf0a198	0.029373929
55	0x3d05a5f2	0.03262896
56	0x3ccf080e	0.025272395
57	0xbd97c90b	-0.07411393
58	0x3d138482	0.03601504
59	0xbd18c869	-0.0373005
60	0xbd67b8c9	-0.05657271
61	0xbc6aaf6c	-0.01432405
62	0x3d0e91e8	0.034807116
63	0xbc8eade6	-0.017416906
64	0x3ba3db71	0.0050005247
65	0xbca63c9b	-0.02029257
66	0x3d477553	0.048695873
67	0x3c5e87ea	0.013582209
68	0xbd15acc4	-0.036541715
69	0x3dac2282	0.08405019
70	0x3cf93031	0.030418487
71	0xbd6b14af	-0.057392772
72	0xbd92f399	-0.07175369
73	0xbd3b138a	-0.04567293
74	0xbd81c350	-0.06336081
75	0x3be75525	0.0070597106
76	0xbd430a11	-0.047617022
77	0xbd50b7ce	-0.05095654
78	0xbd1cacf2	-0.03825087
79	0x3aaed238	0.0013337797
80	0xbd2ea256	-0.042635284
81	0x3ce9b8c1	0.02853048
82	0xbd80b360	-0.06284213
83	0xbd8768c3	-0.066117786
84	0xbd3cbbbe	-0.046077482
85	0x3d8c3271	0.068455584
86	0x3a10ab59	0.0005518697
87	0x3da6bac8	0.081410944
88	0x3d84f8e8	0.064927876
89	0xbd9581dc	-0.07300159
90	0x3d5e0e3f	0.054212805
91	0x3ca2550f	0.01981595
92	0x3d2b7874	0.04186292
93	0x3d297921	0.041375283
94	0x3c61e4a4	0.013787422
95	0x3cc977f6	0.024593335
96	0x3d0c77b0	0.03429383
97	0x3d1aa606	0.03775599
98	0x3bc67daa	0.006057461
99	0xbaeea5ee	-0.001820741
100	0xbb8daa51	-0.004323282
101	0x3c67c8d5	0.014147003
102	0x3cd24e62	0.025672141
103	0x3cff0bfa	0.03113364
104	0xbba6c1a6	-0.0050890027
105	0x3ca36003	0.019943243
106	0x3d2ee900	0.042702675
107	0xbd3c0fea	-0.045913614
108	0xbd8c1393	-0.06839671
109	0xbce407d0	-0.027835757
110	0x3c0e0bf5	0.008669843
111	0xbd8725bb	-0.065989934
112	0xbd2b2585	-0.04178383
113	0x3d403108	0.04692176
114	0xbc3b23f2	-0.011422144
115	0x3af44ca1	0.001863856
116	0xbd31e874	-0.043434575
117	0xbcc135e4	-0.023585267
118	0xbd9a414e	-0.07531987
119	0xbd99f600	-0.07517624
120	0xbcb65285	-0.022256145
121	0x3d7cced8	0.0617207
122	0xbd2ac0d1	-0.04168779
123	0xbd4de907	-0.05027106
124	0xbd76e1aa	-0.060273804
125	0xbba1fad3	-0.0049432307
126	0xbd2f96aa	-0.042868294
127	0xbd62db54	-0.05538495
128	0xbd32c127	-0.043641236
129	0x3b652a2c	0.0034967763
130	0x3cb5d867	0.022197915
131	0x3cce9c86	0.02522112
132	0x3bc81273	0.006105715
133	0xbc9fd6cf	-0.019511608
134	0x3d9c05e8	0.07618314
135	0x3d488524	0.048955098
136	0x3d3b1ecd	0.04568367
137	0x3ce2c36a	0.027681071
138	0x3d72c141	0.059266333
139	0xba89d4c6	-0.0010515682
140	0x3ce7e29b	0.028306296
141	0x3d9bd032	0.076080695
142	0x3d12d6c9	0.035849366
143	0xbd582fdc	-0.052780017
144	0x3d86528c	0.06558713
145	0xbba16b66	-0.004926133
146	0xbd594b71	-0.053050462
147	0xbb67c5cb	-0.0035365697
148	0x3d357edd	0.04431044
149	0x3c9c0259	0.019044088
150	0x3d4aa25d	0.049471248
151	0x3d67bd92	0.056577273
152	0xbd4b38a2	-0.049614556
153	0x3ca4cd72	0.020117495
154	0xbcaea1cb	-0.021317383
155	0x3d3287b2	0.04358644
156	0xbd850e7c	-0.06496903
157	0x3ca5dd17	0.020247025
158	0xbc47ddc0	-0.012198865
159	0x3c5c5b34	0.013449479
160	0x3d5242e6	0.05133333
161	0x3d22154d	0.039571095
162	0xbd1d1ba5	-0.038356442
163	0xbd0abb68	-0.03387013
164	0xbc87117c	-0.01648783
165	0x3d091ff0	0.033477724
166	0xbd93e86f	-0.072220676
167	0xbd312296	-0.043245874
168	0xbd81fd1b	-0.06347104
169	0xbd4f0483	-0.050541412
170	0xbd407e51	-0.046995465
171	0x3bbd1a4a	0.005770956
172	0x3cc5b22c	0.02413281
173	0xbd752dc3	-0.059858095
174	0xbd56fd6b	-0.052487772
175	0x3c0c4539	0.008561426
176	0xbcde1ac4	-0.027112372
177	0x3d27aef1	0.04093832
178	0x3d84782d	0.06468234
179	0xbbe08e9d	-0.0068529383
180	0x3b00193d	0.0019546293
181	0xbd932452	-0.07184662
182	0x3d5e79b7	0.054315295
183	0x3d08841b	0.03332911
184	0x3cf62d7c	0.030050986
185	0x3ceb96a7	0.02875836
186	0x3d683f0a	0.056700744
187	0x3d7ea758	0.06217131
188	0x3d83edd0	0.064418435
189	0xbc7290b6	-0.01480501
190	0x3c93be3c	0.018035047
191	0xbd2bd61e	-0.041952245
192	0xbd1de334	-0.038546756
193	0x3d9eecf5	0.0776004
194	0x3d4b403f	0.049621817
195	0x3d83d60c	0.064373106
196	0x3d70a3d0	0.058749974
197	0xbd107c0c	-0.03527455
198	0x3d80b1b0	0.06283891
199	0xbcf79e12	-0.030226741
200	0xbd0f83c9	-0.03503779
201	0xbd81f359	-0.06345243
202	0xbd3c46b6	-0.045965873
203	0x3d5ed3e6	0.0544013
204	0x39f7d7f0	0.00047272397
205	0xbd3cdc07	-0.046108272
206	0xbda0c889	-0.07850749
207	0xbc878827	-0.016544415
208	0xbca4aaa1	-0.020100893
209	0xbb5618c9	-0.0032668582
210	0x3c94263d	0.01808464
211	0x3d054431	0.032535736
212	0xbcd4139b	-0.025888255
213	0x3c7312ba	0.014836008
214	0x3d6b52f8	0.057452172
215	0xbd211ab8	-0.03933212
216	0x3bcd6368	0.0062679537
217	0xbd5094f3	-0.0509233
218	0xbd3e41c6	-0.046449445
219	0x3c1d0ea6	0.009586012
220	0xbc8c9e84	-0.01716543
221	0x3d0ee2b4	0.03488417
222	0x3d5fe1aa	0.05465857
223	0x3cbec398	0.023286626
224	0x3d355372	0.044269033
225	0x3d789382	0.06068755
226	0xbc794929	-0.015215197
227	0xbd813174	-0.063082606
228	0xbd417d37	-0.047238555
229	0xbd4b29b2	-0.04960031
230	0xbd64bbd4	-0.05584319
231	0xbd7df0f8	-0.061997384
232	0x3d07e4b5	0.033177096
233	0xbc79ca6b	-0.015246014
234	0x3d25e9e7	0.04050627
235	0xbc79ea6f	-0.015253647
236	0x3d5e731e	0.054309003
237	0x3d1f5ee1	0.038908843
238	0xbca46803	-0.020069128
239	0x3d46bb0f	0.048518237
240	0xbc2fae77	-0.010722748
241	0xbb1e9dab	-0.0024202864
242	0xbb8488e8	-0.004044641
243	0xbd0314e5	-0.03200235
244	0x3d43f253	0.04783852
245	0x3d817dc1	0.06322814
246	0xba7bdecb	-0.0009608089
247	0x3bddd296	0.0067694886
248	0x3d7a17d9	0.0610579
249	0xbcfee66f	-0.031115739
250	0x3b294ccf	0.0025833135
251	0xbce4f955	-0.027950922
252	0xbda6211a	-0.08111782
253	0xbccb9205	-0.024849901
254	0x3d250a01	0.040292744
255	0xbc7b71bf	-0.015346943

layers.0.bias f4 [32]
0	0xbdc2d591	-0.09513391
1	0xbd14bcdc	-0.036312923
2	0xbcf73bae	-0.030179825
3	0x3b848faa	0.0040454464
4	0xbe18719e	-0.14887092
5	0xbbc3a78c	-0.005970901
6	0xbdd4cf21	-0.10391069
7	0x3c7a7669	0.01528702
8	0xbc9a22b8	-0.018815383
9	0x3cbbe8a8	0.022938088
10	0xbcd326d9	-0.02577536
11	0xbcf086f4	-0.029361226
12	0xbdb62850	-0.08894408
13	0x3da6fb8c	0.081534475
14	0x3b38f28a	0.0028220736
15	0x3c81a8fd	0.01582765
16	0xbd666ab4	-0.056254104
17	0x3b880c9d	0.0041518942
18	0xbd7bd75c	-0.06148468
19	0x39017aba	0.00012348118
20	0xbd8a76c5	-0.06760935
21	0xbd9fa065	-0.07794265
22	0x3d50d9ca	0.05098895
23	0xbd9bd6bb	-0.07609316
24	0xbd0649cb	-0.03278522
25	0x3d8c2ef7	0.06844895
26	0xbdaec0dd	-0.085328795
27	0x3d65a853	0.05606873
28	0xbdb848c5	-0.08998255
29	0x39fe3424	0.00048485503
30	0xbc068ea7	-0.008212722
31	0xbd4aa59d	-0.049474347

layers.2.weight f4 [32]
0	0x3f805cf8	1.0028372
1	0x3f7ebc1e	0.99505794
2	0x3f7ef793	0.9959652
3	0x3f81e940	1.0149307
4	0x3f84a935	1.0364138
5	0x3f80c0ff	1.0058898
6	0x3f85539c	1.041614
7	0x3f7911ea	0.9729296
8	0x3f73cf8a	0.95238554
9	0x3f80c4dd	1.0060078
10	0x3f82ff20	1.0234108
11	0x3f71fb4b	0.9452407
12	0x3f76269f	0.9615268
13	0x3f7c11df	0.9846477
14	0x3f7ab58b	0.9793326
15	0x3f80e46f	1.0069712
16	0x3f824106	1.0176094
17	0x3f7e30c9	0.9929319
18	0x3f7d9d8b	0.99068516
19	0x3f807dd2	1.0038397
20	0x3f7f697f	0.9977035
21	0x3f7c3403	0.98516864
22	0x3f80814c	1.0039458
23	0x3f83c9f4	1.0296006
24	0x3f802a10	1.0012836
25	0x3f750dfc	0.95724463
26	0x3f7ede83	0.99558276
27	0x3f8106c1	1.0080186
28	0x3f849689	1.035844
29	0x3f7fc96f	0.9991674
30	0x3f75db0f	0.9603738
31	0x3f81b0fc	1.0132136

layers.2.bias f4 [32]
0	0xbbf4c014	-0.0074691866
1	0xbd4984d8	-0.049198955
2	0xbca22ad7	-0.019795818
3	0xbcaf24fc	-0.02137994
4	0xbd5465ba	-0.051854827
5	0xbd7cce8b	-0.061720412
6	0x3d68a1c9	0.056794915
7	0x3d160723	0.0366279
8	0x3cb5bf85	0.02218605
9	0x3d109b13	0.03530414
10	0xbc642518	-0.013924859
11	0xbd05b104	-0.03263952
12	0xbc8ecfcf	-0.017433075
13	0x3d32f133	0.043687057
14	0x3d230ef6	0.03980919
15	0xbd0f4930	-0.034981906
16	0xbced8b48	-0.028997079
17	0xbc9f12dd	-0.019418174
18	0x3d258c2a	0.040416874
19	0xbc000c98	-0.007815503
20	0xbd2aa704	-0.041663185
21	0xbd43ff6b	-0.047851007
22	0xbc3d8805	-0.011568074
23	0xbd3c5b16	-0.045985304
24	0xbc6fb297	-0.0146299815
25	0xbc7c7c44	-0.015410487
26	0x3c7b8ed3	0.015353876
27	0xbcd6ad3d	-0.026205653
28	0x3d3a21c7	0.04544237
29	0xbd7d90c2	-0.06190563
30	0x3c48751a	0.01223495
31	0x3d4032bd	0.046923388

layers.2.running_mean f4 [32]
0	0x4118bd5a	9.546228
1	0x40a2f1b8	5.0920067
2	0x42321093	44.516186
3	0x419d0063	19.625189
4	0x3ecd8075	0.40137067
5	0x423f0b8e	47.761284
6	0x3ef90957	0.48639938
7	0x40b6d155	5.713053
8	0x41468fd5	12.410115
9	0x3ef6a43e	0.48172182
10	0x414c17f8	12.755852
11	0x40621b99	3.5329344
12	0x3ffb3003	1.9624027
13	0x413857f5	11.521474
14	0x4004969f	2.0716932
15	0x40fbb9c8	7.8664284
16	0x404eaf77	3.2294595
17	0x41e45941	28.543581
18	0x40ddc04e	6.9297247
19	0x4212f235	36.73653
20	0x4116d2d1	9.426469
21	0x3f7fd68c	0.9993675
22	0x4212d3a2	36.706673
23	0x3ef48f13	0.47765407
24	0x41b93f3e	23.15588
25	0x40d45bb2	6.6361933
26	0x41e9faad	29.2474
27	0x4204dcc8	33.215607
28	0x3f1692a6	0.5881752
29	0x4223083e	40.75805
30	0x3f9ea988	1.2395487
31	0x3ec6bd91	0.38816503

layers.2.running_var f4 [32]
0	0x43448349	196.51283
1	0x42e6fc41	115.49268
2	0x4542e4e0	3118.3047
3	0x441af2bf	619.7929
4	0x41671567	14.442725
5	0x45589fb8	3465.9824
6	0x41cc78bc	25.558952
7	0x43906564	288.7921
8	0x440f16a7	572.35394
9	0x42163716	37.553795
10	0x43af4d2e	350.60297
11	0x433d2890	189.15845
12	0x424b9082	50.89112
13	0x442e613a	697.51917
14	0x4261e402	56.472664
15	0x43092275	137.1346
16	0x423cce3a	47.201393
17	0x44b0ed89	1415.423
18	0x432c8db9	172.5536
19	0x4509e996	2206.599
20	0x432e0cb9	174.0497
21	0x41ea1905	29.262217
22	0x44da1b72	1744.8577
23	0x41903096	18.023724
24	0x44515f88	837.4927
25	0x43c55d12	394.7271
26	0x448c0b03	1120.3441
27	0x44d30ec7	1688.4618
28	0x42469e31	49.654484
29	0x4524f0d2	2639.0513
30	0x42128a00	36.634766
31	0x416361c7	14.211371

layers.4.weight f4 [64, 32, 2, 2]
0	0x3c6f7453	0.014615136
1	0x3d96416e	0.073366985
2	0x3c8bc1cd	0.017060185
3	0x3d034a49	0.032053266
4	0xbe0f863e	-0.14016053
5	0xbdbfe1fd	-0.09369276
6	0xbd9495cb	-0.07255133
7	0x3d5b6db3	0.053571414
8	0x3cb4da90	0.022076875
9	0x3d4d24ce	0.050083928
10	0xbd71f9e5	-0.05907621
11	0xbbec8e2f	-0.007219098
12	0xbd8fc1a3	-0.07019355
13	0x3d9c1eed	0.07623086
14	0x3c59d6fa	0.013295883
15	0xbb826620	-0.0039794594
16	0xbba4cd42	-0.0050293515
17	0xbc9bacda	-0.01900332
18	0xbcc8f9fb	-0.024533262
19	0xbcf1ad26	-0.029501509
20	0xbd02d2e8	-0.031939417
21	0x3d20cd98	0.03925857
22	0x3da19999	0.078906246
23	0x3d1b8cc8	0.037976056
24	0x3bd84b1a	0.0066007497
25	0x3dae0b54	0.084982544
26	0x3b9aa2ac	0.004719099
27	0x3ccb847a	0.024843443
28	0xbd6efcca	-0.058346547
29	0x3c967d8c	0.018370412
30	0x3d0c8c4f	0.034313496
31	0xbdc75576	-0.09733097
32	0x3c3c7b29	0.011503973
33	0x3991d5b7	0.00027815785
34	0x3be683e3	0.007034765
35	0x3cf23d64	0.029570289
36	0x3d25ddb4	0.040494636
37	0x3d218170	0.03943008
38	0xbdbc4873	-0.09193506
39	0x3d209983	0.0392089
40	0x3d0bf694	0.034170702
41	0xbd8d8721	-0.069105394
42	0xbcc1d908	-0.023663059
43	0xbd9ebd50	-0.07750952
44	0xbce7d145	-0.02829803
45	0x3d16e30d	0.036837626
46	0xbd1053f4	-0.035236314
47	0xbd99229d	-0.07477305
48	0xbd3a9e63	-0.045561206
49	0xbd6f8db2	-0.05848474
50	0x3c99fab7	0.018796308
51	0x3ca041ac	0.019562565
52	0xbcecf1cb	-0.02892389
53	0xbda97254	-0.082737595
54	0xbd31b03c	-0.04338096
55	0x3d07c0d9	0.0331429
56	0x3d8954c2	0.067056194
57	0xbd7df9d4	-0.062005833
58	0x3da2bb0a	0.07945831
59	0x3c6ea97f	0.014566778
60	0x3be0863f	0.006851941
61	0xbd39417e	-0.045228474
62	0x3c8fa902	0.017536644
63	0x3be134fa	0.0068727704
64	0x3ca3a954	0.019978203
65	0xbdac7640	-0.08420992
66	0x3d18a4cf	0.03726655
67	0x3d1ee1b5	0.03878947
68	0xbd34bb7c	-0.04412411
69	0xbcc9a281	-0.02461362
70	0x3d1821ac	0.037141487
71	0xbdb30fe0	-0.08743262
72	0xbd3ed573	-0.04659028
73	0x3d0af0f0	0.033921182
74	0x3d33bdf3	0.04388232
75	0xbc098db8	-0.008395605
76	0xbbae97c1	-0.005328149
77	0xbd2235ed	-0.03960221
78	0x3da09442	0.07840778
79	0x3d7c7e0d	0.06164365
80	0xbc6d778a	-0.014493832
81	0x3d1b53ec	0.03792183
82	0xbcc2a79e	-0.023761567
83	0xbd1d5faa	-0.03842131
84	0x3d90a379	0.0706243
85	0x3c7d6d2e	0.015467925
86	0xbd5e95bc	-0.054342017
87	0x3c22e341	0.009941877
88	0xbcee4d4d	-0.029089594
89	0x3d289d3e	0.041165583
90	0xbd4bb262	-0.049730666
91	0xbda036cb	-0.07822951
92	0x3d157ce5	0.03649606
93	0xbd4b420f	-0.049623545
94	0xbc090a6e	-0.008364303
95	0xbca88f37	-0.020576103
96	0xbd935ebb	-0.07195803
97	0xbc6dec3b	-0.014521654
98	0x3daa539f	0.08316731
99	0x3d9a7fd9	0.07543916
100	0xbcd2a4e4	-0.025713392
101	0xbd2260a6	-0.039642952
102	0xbd42e2c7	-0.047579553
103	0xbd7ca119	-0.061677072
104	0xbd80cc53	-0.06288972
105	0x3da33325	0.079687394
106	0xbd02d3c1	-0.031940226
107	0x3cd237a9	0.025661306
108	0x3dc53086	0.09628396
109	0xbd01b93e	-0.0316708
110	0x3cd1f148	0.025627747
111	0xbd21daaf	-0.039515194
112	0x3d388f1e	0.045058362
113	0xbb8f54b3	-0.0043741106
114	0xbdb3a274	-0.0877122
115	0x3ccfce4b	0.025366923
116	0x3d3f5e1a	0.0467206
117	0x3cef7f1a	0.029235411
118	0x3d635a8f	0.055506285
119	0x3cce492b	0.025181374
120	0xbd657f7f	-0.056029793
121	0x3caea6f2	0.02131984
122	0x3b1e11b5	0.002411944
123	0x3d878be0	0.06618476
124	0xbd992e17	-0.07479494
125	0x3db5d8dc	0.08879253
126	0xbc4e3fe4	-0.012588475
127	0x3d203429	0.039112244
128	0xbd2409ea	-0.040048517
129	0xbd0ca42c	-0.034336254
130	0xbd8f2575	-0.06989566
131	0xbdaedfe7	-0.085388
132	0xbdbfbb0b	-0.093618475
133	0xbc888722	-0.016665999
134	0x3c89d659	0.016825842
135	0xbcb7333e	-0.022363301
136	0xbd468410	-0.04846579
137	0xbd966260	-0.07342982
138	0x3b3037b8	0.002688868
139	0x3cf7909c	0.030220322
140	0x3d1362b8	0.035982817
141	0x3c396186	0.011314755
142	0xbd6242cf	-0.055239495
143	0xbbb45d2a	-0.00550427
144	0xbd0cd365	-0.03438129
145	0x3cd81feb	0.026382407
146	0x3d112c36	0.035442553
147	0xbd5266e9	-0.051367674
148	0x3d4b55f0	0.049642503
149	0x3d247923	0.040154587
150	0x3cd62419	0.02614026
151	0xbdb22db3	-0.08700123
152	0x3d2c45a7	0.042058613
153	0x3d9e4031	0.07727087
154	0x3da40512	0.080087796
155	0xbcfb325d	-0.030663664
156	0xbd182bd5	-0.037151176
157	0xbd43c850	-0.047798455
158	0xbd8cb942	-0.068712726
159	0xbccee2d8	-0.025254652
160	0x3dbe3050	0.09286559
161	0x3d69712d	0.0569927
162	0xbd09801c	-0.03356944
163	0x3d5ad44b	0.053425115
164	0x3ce95af5	0.028485755
165	0xbd97313f	-0.0738244
166	0xbd375256	-0.044756256
167	0xbd84094f	-0.06447088
168	0xbd985b7c	-0.07439324
169	0xbd882dd6	-0.066493675
170	0xbd6da552	-0.05801899
171	0xbd26c40c	-0.04071431
172	0xbd8051c7	-0.06265598
173	0x3c8a3165	0.016869256
174	0x3ce74d28	0.028235033
175	0x3d02ad20	0.031903386
176	0xbd911e63	-0.07085874
177	0x3d094551	0.03351337
178	0x3dbe539f	0.09293293
179	0xbd2e9886	-0.042625926
180	0xbc399183	-0.011326197
181	0x3ce1509c	0.027504258
182	0x3dc2e053	0.09515443
183	0xbda3cd12	-0.079980984
184	0xbd6a67e8	-0.057228
185	0xbd538a7b	-0.051645737
186	0xbd5c45ef	-0.05377763
187	0xbd87ca99	-0.06630439
188	0x3da5828e	0.08081542
189	0xbd87531a	-0.06607647
190	0xbcfb0d7a	-0.030646075
191	0xbdbe82ca	-0.0930229
192	0xbd080e90	-0.033217013
193	0xbd64e68d	-0.055883933
194	0x3d40081e	0.04688274
195	0x3d2a6c8d	0.04160743
196	0xbdf13196	-0.11777036
197	0xbdbd87d6	-0.09254424
198	0x3cb9dc95	0.02268819
199	0xbcc064a2	-0.023485485
200	0xbd603fd5	-0.054748375
201	0xbd776e84	-0.06040813
202	0x3cb395fe	0.021922108
203	0xbd54888c	-0.051888034
204	0xbd537a04	-0.051630035
205	0xb96d43a9	-0.00022627287
206	0xbd045700	-0.032309532
207	0xbd5b6122	-0.05355943
208	0x3cdf6a8f	0.02727249
209	0x3ca17dc0	0.019713283
210	0x3cf0968c	0.029368661
211	0x3c066fb7	0.008205346
212	0xbd9c1660	-0.07621455
213	0xbcbca0da	-0.023025919
214	0x3d83b373	0.064307116
215	0x3c23e7ea	0.010004023
216	0x3d576d4d	0.05259447
217	0xbc0ad048	-0.00847251
218	0xbcea39a4	-0.028591938
219	0xbdcd4d79	-0.10024542
220	0xbdc548df	-0.0963304
221	0xbd45df60	-0.04830873
222	0x3d8dc63f	0.06922578
223	0x3d0fbe92	0.03509385
224	0xbbfe34ab	-0.0077577434
225	0xbd919032	-0.07107581
226	0xbd45f1b6	-0.048326217
227	0xbd7983b0	-0.060916603
228	0xbd9668f2	-0.073442355
229	0xbccd891d	-0.025089795
230	0xbc5a0f21	-0.013309271
231	0xbca8249d	-0.020525271
232	0xbd12987c	-0.03578995
233	0xbd97c854	-0.074112564
234	0x3d7c59f1	0.061609212
235	0xbcb1e4c7	-0.021715535
236	0xbd020b21	-0.031748895
237	0xbd9f3fbc	-0.07775828
238	0xbdd142b4	-0.10217801
239	0xbbe0f109	-0.006864671
240	0x3d5a074b	0.05322961
241	0x3cc59e27	0.024123264
242	0xbd887f60	-0.0666492
243	0xbcd1aea2	-0.025595967
244	0xbd40c86c	-0.047066137
245	0x3c10f826	0.008848226
246	0x3da7c37b	0.08191582
247	0xbd92a202	-0.07159807
248	0xbd608df9	-0.054822896
249	0xbceb7046	-0.02874006
250	0x3c55dc8b	0.01305307
251	0x3d3bc423	0.045841347
252	0x3d7ef2da	0.06224332
253	0x3d769073	0.06019635
254	0x3d77116e	0.060319357
255	0x3b32b5c7	0.0027268992

layers.4.bias f4 [64]
0	0xbb8b419e	-0.0042497655
1	0xbbe4050a	-0.0069586085
2	0x3c4e9e2a	0.012610951
3	0xbdf8918f	-0.12137138
4	0x3ca23ef7	0.019805415
5	0x3c839e55	0.01606671
6	0x3d200f19	0.0390769
7	0x3d56e18b	0.05246119
8	0xbdc71c96	-0.09722249
9	0x3d0b2819	0.033973787
10	0xbd21b41e	-0.039478414
11	0x3d7dbf85	0.061950225
12	0xbdcbf0ef	-0.09958064
13	0xbd6ab0c0	-0.05729747
14	0x3db4634c	0.08808002
15	0xbcf25a4a	-0.029584069
16	0x3ccdb919	0.025112676
17	0x3d535ad8	0.051600307
18	0xbdff2bd8	-0.124595344
19	0xbdaf7cb8	-0.0856871
20	0xbb11fecb	-0.0022277113
21	0xbdc945dd	-0.098277785
22	0xbd653057	-0.055954304
23	0xbda49a89	-0.08037288
24	0xbdafd651	-0.085857995
25	0x3d027e9e	0.031859033
26	0xbc43e6c7	-0.011956877
27	0x3bc32f13	0.0059565394
28	0x3c975db1	0.018477293
29	0x3c2adc8d	0.01042856
30	0xbd4dfca0	-0.05028975
31	0x3c9429c6	0.018086325
32	0x3de93c21	0.11388422
33	0x3dd2a817	0.10285967
34	0xbc7ab83c	-0.015302714
35	0x3dab3c52	0.083611146
36	0x3c3bed89	0.011470207
37	0x3d0d8eca	0.034560002
38	0xbd87bc82	-0.06627752
39	0xbbe779df	-0.0070640887
40	0xbd12e2c8	-0.035860807
41	0xbcbd71ed	-0.023125613
42	0x3d51d89c	0.051231965
43	0x3cc8e6b3	0.024524068
44	0xbbd56ba6	-0.006513077
45	0xbd46833b	-0.048464995
46	0xbd9f8ea7	-0.07790881
47	0xbdd9ca2e	-0.10634266
48	0xbc9fffb0	-0.019531101
49	0x3e093b93	0.13401632
50	0xbc0a59ec	-0.008444291
51	0x3cce668a	0.025195379
52	0x3df5140c	0.11966714
53	0xbbc37b5c	-0.0059656333
54	0x3c8d9d48	0.017286912
55	0xbdd5decd	-0.104428865
56	0x3993bc09	0.00028178122
57	0xbca91738	-0.020640954
58	0xbda652c4	-0.08121255
59	0xbda6afca	-0.08138998
60	0x3ad2f429	0.0016094494
61	0x3d81027a	0.062993005
62	0xbc45ffd5	-0.012084921
63	0x3d1d0ec1	0.03834415

layers.6.weight f4 [64]
0	0x3f7b9bd0	0.98284626
1	0x3f7c13fc	0.98467994
2	0x3f8098d4	1.004664
3	0x3f842e40	1.0326614
4	0x3f816f07	1.0112008
5	0x3f7b0073	0.9804756
6	0x3f803438	1.0015936
7	0x3f74cfc5	0.9562953
8	0x3f842774	1.032454
9	0x3f837bad	1.0272118
10	0x3f7cbe1b	0.9872758
11	0x3f7bfcab	0.98432416
12	0x3f85d610	1.0455952
13	0x3f8874f9	1.0660697
14	0x3f772ee0	0.965559
15	0x3f7e068f	0.9922876
16	0x3f7b2ecd	0.9811829
17	0x3f7c6942	0.9859811
18	0x3f82df62	1.0224421
19	0x3f795593	0.973962
20	0x3f7b4331	0.981494
21	0x3f823db7	1.0175084
22	0x3f7e5438	0.9934726
23	0x3f81f445	1.015267
24	0x3f81a047	1.0127038
25	0x3f7cb103	0.987076
26	0x3f81aec2	1.0131457
27	0x3f7d4608	0.98934984
28	0x3f81943d	1.0123364
29	0x3f78e5be	0.9722556
30	0x3f814dd8	1.0101881
31	0x3f80200a	1.0009778
32	0x3f7ad65f	0.97983354
33	0x3f7aec3b	0.9801671
34	0x3f7ba9cf	0.9830598
35	0x3f79b571	0.9754248
36	0x3f7b0b1c	0.98063827
37	0x3f807839	1.0036689
38	0x3f821c60	1.0164909
39	0x3f83460d	1.0255753
40	0x3f839aed	1.0281655
41	0x3f7c605c	0.9858453
42	0x3f7b679f	0.9820499
43	0x3f7e5cff	0.9936065
44	0x3f827b59	1.0193893
45	0x3f7cfe8b	0.988259
46	0x3f7855df	0.9700603
47	0x3f79fd5d	0.97652227
48	0x3f8760f5	1.0576464
49	0x3f77e042	0.96826565
50	0x3f7ac134	0.97951055
51	0x3f7d22e2	0.9888135
52	0x3f753dba	0.9579731
53	0x3f80ff1c	1.0077853
54	0x3f786e8d	0.9704369
55	0x3f82b9e4	1.0212979
56	0x3f78cfbb	0.9719197
57	0x3f781808	0.9691167
58	0x3f78e9c1	0.9723168
59	0x3f7b3554	0.9812825
60	0x3f7e53d5	0.9934667
61	0x3f80952a	1.0045521
62	0x3f803fa7	1.0019425
63	0x3f811f53	1.0087684

layers.6.bias f4 [64]
0	0xbd3facad	-0.046795536
1	0x3d0aaaf2	0.033854432
2	0x3bc12174	0.0058938805
3	0xbc4a0be1	-0.012331934
4	0x3d521f22	0.05129922
5	0x3d3a2e08	0.045454055
6	0xbc87e4f1	-0.01658866
7	0x3d7f6e13	0.062360834
8	0xbc0aa201	-0.008461476
9	0xbd68af2e	-0.05680769
10	0x3c2af121	0.010433466
11	0x3d515a15	0.0511113
12	0xbc11a32b	-0.008889
13	0x3d8c8064	0.06860426
14	0x3c4d2013	0.012519854
15	0x3d384031	0.044983093
16	0x3cf318d7	0.02967493
17	0xbcbdae41	-0.02315438
18	0xbc8463ad	-0.01616081
19	0x3cf51017	0.029914899
20	0x3c084759	0.008317792
21	0x3d2445a9	0.040105496
22	0x3d03d400	0.0321846
23	0xbd23488e	-0.039864115
24	0x3cc39cd8	0.0238785
25	0xbc1200fe	-0.008911369
26	0x3d00c749	0.031440053
27	0x3ca358be	0.019939777
28	0x3cceeeab	0.02526029
29	0x3c595e91	0.013267175
30	0x3d064f27	0.03279033
31	0xbb3128ee	-0.0027032453
32	0x3d007231	0.0313589
33	0x3d3a7301	0.045519833
34	0xbc8ca160	-0.017166793
35	0x3c84ed1b	0.016226342
36	0x3b6944da	0.0035594017
37	0x3c9297f0	0.017894715
38	0x3cabfc02	0.02099419
39	0x3cb2c39d	0.021821791
40	0x3d63b309	0.055590663
41	0x3ced950c	0.029001735
42	0x3c403cfc	0.01173329
43	0x3c162402	0.009163858
44	0xbc0388c1	-0.00802821
45	0xbd20539e	-0.039142244
46	0x3cce6502	0.025194649
47	0x3d5b4993	0.053536963
48	0x3d8412f9	0.06448931
49	0x3c048b58	0.008089863
50	0x3d66cce0	0.056347728
51	0x3bc812ec	0.0061057713
52	0x3d36fbe6	0.044673823
53	0xbc114017	-0.008865378
54	0x3c09f200	0.008419514
55	0x3c56ca74	0.013109792
56	0x3cf3411b	0.02969413
57	0x3d088baf	0.033336338
58	0x3d4bddd5	0.049772102
59	0x3d229c2e	0.039699726
60	0x3c513f63	0.01277146
61	0x3c476b74	0.012171615
62	0x3c435327	0.0119216805
63	0x3c48ed92	0.012263672

layers.6.running_mean f4 [64]
0	0x3e1268ad	0.14297743
1	0x3f28c052	0.6591846
2	0x3ef03b08	0.46920037
3	0x3de4524e	0.11148511
4	0x3e74b5cb	0.23897474
5	0x3ebc4ee9	0.36778954
6	0x3e16b073	0.14715748
7	0x3ed65920	0.41864872
8	0x3d3fb244	0.046800867
9	0x3e76cce4	0.24101597
10	0x3dc2cba9	0.09511501
11	0x3e54ae94	0.20769721
12	0x3da5d336	0.08096926
13	0x3d8048bc	0.06263873
14	0x3ec629ca	0.38703758
15	0x3f18b332	0.5964843
16	0x3eeb99c7	0.4601576
17	0x3f0bc23b	0.5459325
18	0x3d93e3cf	0.072211854
19	0x3e7a81d1	0.24463584
20	0x3e94b3db	0.2904347
21	0x3dbf909b	0.09353753
22	0x3ec8b161	0.3919783
23	0x3e24cbf2	0.16093424
24	0x3ea6c399	0.32571104
25	0x3e10af59	0.1412939
26	0x3e315103	0.1731606
27	0x3ec71c6c	0.38888872
28	0x3e0c79e1	0.13718368
29	0x3e881baf	0.2658362
30	0x3e078d2d	0.13237448
31	0x3e4150a7	0.18878423
32	0x3f116691	0.5679713
33	0x3f584747	0.8448376
34	0x3e18b0fa	0.14911261
35	0x3eccb867	0.39984438
36	0x3ea305f2	0.31840473
37	0x3e1194a4	0.14216858
38	0x3e877065	0.26452938
39	0x3dd9cf3d	0.10635231
40	0x3debbc79	0.11510558
41	0x3e8db068	0.2767365
42	0x3f0a303a	0.5397984
43	0x3e45556d	0.19270869
44	0x3ead4b12	0.33846337
45	0x3ea9b099	0.33142546
46	0x3e900498	0.28128505
47	0x3e4ca1f1	0.1998365
48	0x3d723e5c	0.0591415
49	0x3f084bb9	0.53240544
50	0x3f07b73b	0.5301396
51	0x3e4a5237	0.19757925
52	0x3e9b3881	0.30316547
53	0x3e56cb41	0.20975973
54	0x3e9acb50	0.3023324
55	0x3ea38a9f	0.31941697
56	0x3eda458d	0.42631188
57	0x3f5f9203	0.8733217
58	0x3eb86b37	0.36019298
59	0x3e945d42	0.289774
60	0x3e0d140e	0.13777182
61	0x3f49e4e6	0.78864896
62	0x3ecf93ed	0.40542546
63	0x3e3b83d4	0.18312007

layers.6.running_var f4 [64]
0	0x3e226eca	0.15862575
1	0x3eeb80fb	0.45996842
2	0x3f8cd8e8	1.1003695
3	0x3e86848e	0.26273006
4	0x3e63b8ac	0.22238415
5	0x3ec2f955	0.3808085
6	0x3e3bd768	0.1834389
7	0x3e3d36ae	0.1847789
8	0x3e14f5b6	0.14546856
9	0x3f1e3d9e	0.6181277
10	0x3d68390b	0.056695025
11	0x3e3365fc	0.17519373
12	0x3e6fbcbc	0.2341184
13	0x3d615a92	0.055018015
14	0x3e3128d6	0.17300734
15	0x3f8eb9a5	1.1150404
16	0x3f22bbc7	0.63567775
17	0x3f42dd1f	0.76118654
18	0x3e36ca41	0.17850591
19	0x3f78dd50	0.97212696
20	0x3e81dd7e	0.25364298
21	0x3e80ccd5	0.25156274
22	0x3fc9173b	1.5710214
23	0x3e9b07f4	0.30279505
24	0x3f6fbf41	0.93651205
25	0x3d9c285f	0.07624888
26	0x3e1cd7f3	0.15316753
27	0x3ef1b67b	0.47209534
28	0x3ea959bd	0.33076277
29	0x3f06aad2	0.526044
30	0x3e1437d0	0.14474416
31	0x3e683b26	0.22678813
32	0x3ee02b38	0.43782973
33	0x3f32b610	0.69809055
34	0x3e950572	0.29105717
35	0x3f8dfcf4	1.109282
36	0x3f63e369	0.89018875
37	0x3e15b59a	0.14620057
38	0x3f052a06	0.5201725
39	0x3dab2180	0.08355999
40	0x3e81a466	0.2532074
41	0x3ece9e4f	0.40355155
42	0x3f434986	0.7628406
43	0x3e420747	0.18948089
44	0x3f2853c5	0.6575282
45	0x3f80aa7c	1.0052028
46	0x3e9ca4b7	0.30594417
47	0x3e374613	0.17897825
48	0x3d63abe0	0.055583835
49	0x3ea2882c	0.31744516
50	0x3e89b674	0.26897013
51	0x3e274356	0.1633428
52	0x3ebfc89e	0.37457746
53	0x3e5e78aa	0.21725717
54	0x3f206cb3	0.6266586
55	0x3ecbd7f2	0.3981319
56	0x3e485659	0.19564189
57	0x3fac478d	1.3459336
58	0x3ee25770	0.44207335
59	0x3ec5d50c	0.38639104
60	0x3e03ea32	0.12882307
61	0x3fbb6d07	1.4642648
62	0x3f4888bf	0.7833366
63	0x3ea17d19	0.31540754

layers.8.weight f4 [64, 64, 2, 2]
0	0xbd405d6d	-0.046964098
1	0x3cb94596	0.022616189
2	0xbd058013	-0.032592844
3	0xbd541c2e	-0.051784687
4	0xbcc03ebd	-0.023467416
5	0x3d2a8187	0.041627433
6	0x3d28a193	0.041169714
7	0xbcd76950	-0.026295334
8	0xbb374ef9	-0.0027970655
9	0x3d50a64c	0.050939843
10	0xbd1b8c3e	-0.037975542
11	0xbd00c13d	-0.031434286
12	0xbbbc041a	-0.0057377936
13	0x3d9360dd	0.071962096
14	0x3c98ef0f	0.01866868
15	0xbcfb485e	-0.030674156
16	0xbc2b6a54	-0.010462362
17	0x3c5ef069	0.013607123
18	0x3d6c8ba0	0.057750344
19	0x3d257485	0.040394325
20	0xbce25c64	-0.027631946
21	0x3daf5e22	0.08562876
22	0x3d071443	0.032978307
23	0x3caedb46	0.021344792
24	0xbccdf691	-0.025141986
25	0x3c1ef29c	0.009701397
26	0xbd0689f3	-0.032846402
27	0x3c7553af	0.014973565
28	0x3cc8c2bd	0.024506921
29	0x3b249cec	0.0025117947
30	0x3d250827	0.040290978
31	0x3cbc2fd0	0.022972018
32	0xbc835bbc	-0.016034953
33	0xbd08afc5	-0.033370752
34	0x3d93c8bb	0.07216021
35	0x3cd608a3	0.026127165
36	0xbd2985a2	-0.041387208
37	0xbd8c6858	-0.068558395
38	0x3ca0e2fd	0.019639486
39	0xbd280c78	-0.041027516
40	0x3d4315fb	0.047628384
41	0xbbe61bf2	-0.0070223743
42	0x3bd9ac57	0.006642859
43	0x3d06cc5c	0.032909736
44	0x3bbe48a1	0.005806998
45	0xbc442750	-0.011972263
46	0xbc51cd57	-0.0128053045
47	0xbbe77600	-0.0070636272
48	0xbb4039e2	-0.0029331376
49	0x3d1fd263	0.039019
50	0xbcb63b85	-0.022245178
51	0x3baa964b	0.0052059046
52	0xbbed752a	-0.007246633
53	0x3d447b1d	0.047968972
54	0xbc580e23	-0.013186964
55	0xbc59e5c8	-0.013299413
56	0x3cbca73b	0.02302896
57	0xbca130d5	-0.019676605
58	0x3d1987d4	0.03748305
59	0x3c8cfdbc	0.017210834
60	0x3c66be75	0.014083494
61	0x3da905b3	0.0825304
62	0xbb64b92b	-0.0034900408
63	0xbc19eb21	-0.009394438
64	0xbd96bf97	-0.073607616
65	0xbca8884d	-0.020572806
66	0xbd1f4208	-0.03888133
67	0x3d22a0d0	0.039704144
68	0x3cb298d5	0.021801392
69	0x3c8d150c	0.01722195
70	0x3c925a5d	0.017865354
71	0xbd35fee1	-0.044432525
72	0xbd8b6754	-0.06806818
73	0xbd242520	-0.040074468
74	0x3cafa4f9	0.02144097
75	0xbaee54a8	-0.0018183189
76	0x3bc1130c	0.005892163
77	0x3c66a4f5	0.014077415
78	0xbd057cce	-0.032589726
79	0xbbb299a8	-0.005450446
80	0xbd2d4d0a	-0.0423098
81	0x3c8fbf8d	0.017547393
82	0xbc8a8bbf	-0.01691234
83	0xbcad11e3	-0.021126693
84	0x3cfeb9ab	0.031094393
85	0xbc8ab500	-0.01693201
86	0xbceaa647	-0.02864374
87	0xbb7d6113	-0.0038662597
88	0xbc6815f0	-0.014165387
89	0xbd452218	-0.048128217
90	0x3cca6cc1	0.024710061
91	0x3c427988	0.011869796
92	0xbd855052	-0.065094605
93	0xbd318036	-0.043335162
94	0xbc9c7fee	-0.01910397
95	0x3b9cf7ed	0.0047902972
96	0xbd038c62	-0.0321163
97	0xbd90ff48	-0.07079941
98	0x3c816f37	0.015800102
99	0x3cfed296	0.031106275
100	0x3d2923a9	0.041293774
101	0x3d9ad9d2	0.07561077
102	0xbc6e053e	-0.014527617
103	0x3cb94486	0.022615682
104	0x3d89a0ae	0.067201
105	0x3cd7508f	0.02628353
106	0x3d72dfe7	0.05929556
107	0x3ca4bba9	0.020109015
108	0x3d124e36	0.03571912
109	0x3d5e2615	0.054235537
110	0xbca828ec	-0.020527326
111	0x3d604b5a	0.05475936
112	0xbd5ffc60	-0.054684043
113	0x3cc9e08c	0.024643205
114	0x3cbb76e5	0.022883842
115	0x3acdb17a	0.0015693151
116	0xbca75f6c	-0.020431243
117	0xbd749c3d	-0.059719313
118	0x3c03df90	0.008048907
119	0xbd0b56e6	-0.03401842
120	0xbc885983	-0.016644245
121	0xbd24745f	-0.040150043
122	0x3d2b82f2	0.041872926
123	0xbd19361d	-0.037405122
124	0x3d4bff25	0.04980387
125	0xbccc0375	-0.024903992
126	0xbc503906	-0.012708908
127	0x3cb99ca4	0.0226577
128	0x3bb76cb0	0.0055976734
129	0xbcbcde3c	-0.023055188
130	0xbbb36028	-0.005474109
131	0x39a98295	0.00032331483
132	0xbc9ceea0	-0.019156754
133	0x3dab6975	0.08369724
134	0xbcf41843	-0.029796725
135	0x3d1bc103	0.038025867
136	0xbd116a72	-0.035501905
137	0xbd4679f2	-0.04845614
138	0xbd3e30d1	-0.046433274
139	0xbd3999a2	-0.04531253
140	0x3ce4b148	0.027916566
141	0xbc67d7e6	-0.014150595
142	0x3c5b3894	0.0133801885
143	0x3c59ab1f	0.013285427
144	0x3cd149a8	0.025547817
145	0x3c97f522	0.018549506
146	0xbc371986	-0.011175519
147	0x3ca68650	0.020327717
148	0xbc856d74	-0.016287543
149	0x3db18f65	0.086699285
150	0xbbb21b45	-0.0054353797
151	0x3c9f1f62	0.019424144
152	0xbd1d4d3a	-0.038403727
153	0x3c9655ed	0.01835152
154	0xbcac4de8	-0.021033242
155	0x3c503587	0.012708074
156	0x3aaa5fda	0.0012998537
157	0x3d9542dc	0.07288143
158	0x3ada040a	0.0016633284
159	0xbd0bfe96	-0.03417834
160	0xbcd6ee3f	-0.026236651
161	0xbbc0d0b5	-0.005884255
162	0x3d583e4d	0.05279379
163	0x3d582fdf	0.05278003
164	0x3ccb12b8	0.0247892
165	0xbd1fb90e	-0.03899484
166	0x3c9f9978	0.01948236
167	0x3a843ce1	0.0010088944
168	0x3d5b5f79	0.053557847
169	0x3d449190	0.04799038
170	0x3cf961c6	0.03044213
171	0x3d4161dc	0.047212467
172	0x3c756786	0.014978295
173	0xbc51a126	-0.012794768
174	0xbbf0e2ff	-0.007351279
175	0xbcb3385e	-0.021877464
176	0xbd526a91	-0.05137116
177	0x3d949af5	0.07256118
178	0x3d399ae7	0.045313742
179	0xbc997f1d	-0.01873737
180	0xbd35520a	-0.04426769
181	0x3ced8499	0.028993892
182	0xbc52f03d	-0.01287466
183	0xbd5d69d8	-0.05405602
184	0xbac1036d	-0.0014725752
185	0x3d1faa65	0.03898086
186	0x3a26ab91	0.0006357963
187	0x3cd0f531	0.025507541
188	0x3d253cc9	0.040341172
189	0x3c8627f1	0.016376467
190	0xbbf455b3	-0.007456505
191	0x3d13f3e6	0.03612127
192	0x3c295cbf	0.010337054
193	0xbc49f0a4	-0.01232544
194	0xbce00246	-0.027344834
195	0x3cecd762	0.028911296
196	0x3bf65ab1	0.0075181355
197	0x3c3a48a9	0.011369863
198	0xba5ea25a	-0.000849282
199	0xbd071de7	-0.0329875
200	0xbbf3b0ac	-0.0074368324
201	0x3c32e9b7	0.01091998
202	0xbcb4da18	-0.022076651
203	0x3d49d319	0.049273584
204	0x3d592d71	0.053021852
205	0xbc570cbc	-0.013125595
206	0x3d10158b	0.035176795
207	0xbc3d2300	-0.011543989
208	0xbce7ba60	-0.028287113
209	0x3c6f86d2	0.014619546
210	0x3b2efbca	0.002670037
211	0x3cf1e060	0.029525936
212	0x3d17880b	0.036994975
213	0xbc6fb104	-0.014629606
214	0x3ce24472	0.027620528
215	0xbbea762f	-0.007155202
216	0xbd82fa4e	-0.06395398
217	0xbcb8f7a1	-0.022579016
218	0xbced4c84	-0.02896715
219	0x3c5e6971	0.013574944
220	0xbd84ec73	-0.064904116
221	0xbceb103a	-0.02869426
222	0x3d156b68	0.036479384
223	0x3c9b1f63	0.018935865
224	0x3d2bb5d2	0.041921444
225	0x3d9313c8	0.07181507
226	0x3d1c783d	0.038200606
227	0x3b4fbabd	0.0031696998
228	0xbd017a75	-0.031610925
229	0xbd881ce2	-0.06646134
230	0x3cf9c39c	0.030488782
231	0xbc1778b6	-0.009245088
232	0xbc643e4b	-0.013930867
233	0xbcda383b	-0.02663814
234	0x3d4db9d7	0.05022606
235	0x3ca3a2c4	0.019975074
236	0xbcb5250c	-0.022112392
237	0x3c3629a0	0.011118323
238	0xbca2e4b0	-0.019884437
239	0xbc8e0946	-0.017338406
240	0xbce1e10a	-0.027573127
241	0x3c81be23	0.015837735
242	0x3d53b8c5	0.05168988
243	0xbd033b9e	-0.032039277
244	0x3cd9b305	0.026574621
245	0x3d88b38b	0.0667487
246	0x3d040b89	0.032237563
247	0xbd632720	-0.055457234
248	0x3cb89977	0.022534115
249	0x3d51c1a2	0.051210053
250	0xba7d8cbf	-0.0009672157
251	0xbcc76b2b	-0.024343094
252	0x3d0175d3	0.031606507
253	0xbd1c25af	-0.038121875
254	0xbb1c5831	-0.0023856277
255	0x3d2fa065	0.042877574

layers.8.bias f4 [64]
0	0x3ca34311	0.01992944
1	0x3d1009e1	0.03516567
2	0x3cd25a41	0.025677802
3	0x3d3213a1	0.04347575
4	0xbd09e6b6	-0.03366729
5	0x3d881755	0.06645075
6	0xbd80a2e6	-0.062810704
7	0x3cc016fb	0.023448458
8	0x3d78fcc6	0.06078794
9	0xbd0168a1	-0.031593923
10	0xbd83e853	-0.06440797
11	0xbd9df546	-0.07712798
12	0xbcf94bc2	-0.030431632
13	0x3e02651c	0.12733883
14	0x3d9cc61c	0.07654974
15	0xbcadbaee	-0.0212073
16	0xbd769eac	-0.060209915
17	0xbd063d16	-0.0327731
18	0x3bbc0368	0.0057377107
19	0xbdb7377f	-0.08946132
20	0x3bea347a	0.007147369
21	0x3c9c67db	0.01909249
22	0xbd48a354	-0.048983887
23	0x3c8dbd1f	0.017302094
24	0x3cc37785	0.023860702
25	0xbd8c0f24	-0.06838825
26	0x3d03ebc8	0.03220728
27	0x3be66a56	0.007031719
28	0xbd9d0761	-0.07667423
29	0xbdd532d9	-0.10410089
30	0xbd3a5b3c	-0.045497164
31	0x3d60e87f	0.054909226
32	0xbd7ffa7f	-0.06249475
33	0x3cf8ca81	0.030369999
34	0xbb1d4c18	-0.0024001654
35	0xbd1c5bdb	-0.038173538
36	0xbcbaf79e	-0.022823151
37	0xbd4a87e0	-0.049445987
38	0xbc3acd18	-0.011401437
39	0x3cd8b9c1	0.026455762
40	0xbd57d698	-0.052694887
41	0xbd8393e5	-0.06424693
42	0xbd85c87c	-0.0653238
43	0xbcd4b0bf	-0.025963185
44	0xbd285caa	-0.041103996
45	0xbd5c0a2b	-0.053720634
46	0x3b8b9e9a	0.00426085
47	0xbb819b67	-0.003955293
48	0x3bd09a4a	0.006366049
49	0xbc5a4e8d	-0.013324392
50	0xbd098e28	-0.033582836
51	0xbd2920e7	-0.041291144
52	0xbd1091b9	-0.035295222
53	0xbcafa4fc	-0.021440975
54	0xbc0f9168	-0.008762695
55	0xbd748917	-0.05970105
56	0x3cf1a8b9	0.029499399
57	0x3d1c9982	0.038232334
58	0x3db02f96	0.08602826
59	0xbd446df2	-0.047956415
60	0xbd51c590	-0.0512138
61	0x3cf8fa5b	0.030392816
62	0xbd87362c	-0.06602129
63	0x3b340424	0.0027468288

layers.10.weight f4 [64]
0	0x3f91fac9	1.1404659
1	0x3f91f8c7	1.1404046
2	0x3f8fdb17	1.1238736
3	0x3f91df18	1.1396208
4	0x3f917eeb	1.1366857
5	0x3f91c55d	1.1388355
6	0x3f915c29	1.135625
7	0x3f91900b	1.1372083
8	0x3f91c299	1.1387511
9	0x3f9164b9	1.1358863
10	0x3f912cd2	1.1341803
11	0x3f91803f	1.1367263
12	0x3f91a6cf	1.1379031
13	0x3f9210d4	1.1411386
14	0x3f922fdd	1.1420857
15	0x3f9281bb	1.1445841
16	0x3f926f98	1.1440306
17	0x3f9289fb	1.1448358
18	0x3f91b77a	1.1384118
19	0x3f917e01	1.1366578
20	0x3f91b240	1.1382523
21	0x3f91e707	1.1398629
22	0x3f91e812	1.1398947
23	0x3f90cc72	1.1312392
24	0x3f925204	1.1431279
25	0x3f914db6	1.135184
26	0x3f904b02	1.127289
27	0x3f91c447	1.1388024
28	0x3f913cb2	1.1346648
29	0x3f91e9a1	1.1399423
30	0x3f917323	1.1363262
31	0x3f927550	1.1442051
32	0x3f91a680	1.1378937
33	0x3f927388	1.1441507
34	0x3f91a749	1.1379176
35	0x3f91b503	1.1383365
36	0x3f8f25ed	1.1183449
37	0x3f917346	1.1363304
38	0x3f91d430	1.139288
39	0x3f91f0c2	1.1401598
40	0x3f91bd22	1.1385844
41	0x3f9176ca	1.1364377
42	0x3f91a3a1	1.137806
43	0x3f916b43	1.1360859
44	0x3f91a692	1.1378958
45	0x3f924957	1.1428632
46	0x3f913fdf	1.1347617
47	0x3f91af2b	1.1381582
48	0x3f923cca	1.1424801
49	0x3f918e81	1.1371614
50	0x3f914e3c	1.1352
51	0x3f920d1c	1.1410251
52	0x3f9181b3	1.1367706
53	0x3f91d5e2	1.1393397
54	0x3f91f5f6	1.1403186
55	0x3f91c9e8	1.1389742
56	0x3f91433c	1.1348643
57	0x3f91428f	1.1348437
58	0x3f917ca9	1.1366168
59	0x3f9025bb	1.1261514
60	0x3f922436	1.1417301
61	0x3f92b0a7	1.146016
62	0x3f90ba35	1.1306826
63	0x3f91d916	1.1394374

layers.10.bias f4 [64]
0	0x3df670c0	0.12033224
1	0xbe09fd52	-0.1347554
2	0xbdeb015f	-0.11474871
3	0xbe088d9f	-0.13335274
4	0x3df479d3	0.119372986
5	0x3e08d5fc	0.13362879
6	0x3df58ff9	0.11990351
7	0xbe150d91	-0.14555956
8	0xbe10d0cc	-0.1414215
9	0x3de97a32	0.1140026
10	0xbdc3d3ba	-0.09561868
11	0x3e07df3c	0.13268751
12	0x3e180bc4	0.14848238
13	0x3e10153f	0.14070605
14	0xbdf3b651	-0.119000085
15	0x3decc03b	0.115601026
16	0xbde79146	-0.113070056
17	0xbbf96861	-0.00761132
18	0x3e090c42	0.13383582
19	0x3e0dcbe4	0.1384731
20	0x3e092eb5	0.13396724
21	0xbdf1aec6	-0.118009135
22	0xbe06a807	-0.13150035
23	0xbe0ab239	-0.13544549
24	0x3e038ebc	0.12847418
25	0x3e0666f2	0.13125208
26	0xbe10c048	-0.1413585
27	0x3ca6ef60	0.020377815
28	0x3dfa8c0a	0.122337416
29	0x3e0b87b5	0.13625987
30	0x3df7c199	0.12097473
31	0xbdf4584b	-0.11930903
32	0x3e078426	0.13234004
33	0xbe04bce7	-0.12962686
34	0x3e08dd6e	0.13365719
35	0x3e0b20a7	0.13586675
36	0xbe0bb022	-0.13641408
37	0xbe111444	-0.14167887
38	0x3dfb37b3	0.12266483
39	0x3dca28cd	0.098710634
40	0x3e16c06f	0.14721845
41	0x3e0b4ce9	0.13603558
42	0x3df03a96	0.117299244
43	0xbe0e13d4	-0.13874751
44	0x3e11d0f7	0.1423987
45	0x3e0b151a	0.13582268
46	0xbe089387	-0.13337527
47	0x3e0caa6a	0.13736883
48	0xbdf1bacf	-0.11803209
49	0x3de6be6b	0.11266788
50	0xbe03d9f0	-0.12876105
51	0xbe194be6	-0.14970359
52	0x3e12bdfe	0.14330289
53	0x3e09710d	0.13422032
54	0x3dfdb9ba	0.1238894
55	0x3e0ce904	0.13760763
56	0xbe1471f1	-0.1449659
57	0xbe1c19f4	-0.15244275
58	0xbe0fb8c3	-0.14035325
59	0xbe0d8e51	-0.1382382
60	0x3dc386b4	0.09547177
61	0xbe16c835	-0.1472481
62	0xbe19f2dc	-0.1503405
63	0x3e0c4f78	0.1370219

layers.10.running_mean f4 [64]
0	0x3f51556f	0.81770986
1	0x3f494d0b	0.78633183
2	0x3f795ced	0.9740742
3	0x3f5f3f17	0.8720564
4	0x3f293105	0.6609042
5	0x3dd33584	0.10312942
6	0x3e8e4db5	0.2779366
7	0x3eb7badf	0.3588476
8	0x3f6f2138	0.9341006
9	0x3f37e025	0.7182639
10	0x3f23c233	0.639682
11	0x3ee1c0d7	0.44092438
12	0x3e20ac2a	0.15690675
13	0x3f67fe8c	0.9062278
14	0x3fa4fcac	1.2889609
15	0x3d83711a	0.06418057
16	0x3f7a642e	0.9780911
17	0x3d8b5602	0.06803514
18	0x3deaa1c2	0.11456634
19	0x3ef8ab46	0.4856817
20	0x3dff3940	0.124620914
21	0x3f32adec	0.69796634
22	0x3f45fdd3	0.7734043
23	0x3f441456	0.7659353
24	0x3e39c2fd	0.18140788
25	0x3ecb54d4	0.39713156
26	0x3f29b816	0.6629652
27	0x3f7fcc94	0.99921536
28	0x3e6299c9	0.22128977
29	0x3f1b7d04	0.60737634
30	0x3e1aee8f	0.15130065
31	0x3fac179f	1.3444709
32	0x3f01eb01	0.5074921
33	0x3f7f9c76	0.99848115
34	0x3db9145e	0.09037088
35	0x3ed6ddf5	0.41966215
36	0x3ed9ee97	0.42564842
37	0x3f5058b2	0.8138534
38	0x3eef1cfb	0.46701798
39	0x3fc5d768	1.5456362
40	0x3d2011df	0.039079543
41	0x3ed6b434	0.4193436
42	0x3f8ccb52	1.0999548
43	0x3f71e507	0.94490093
44	0x3e2473d2	0.16059807
45	0x3ec8b024	0.39196885
46	0x3f2665b0	0.6499891
47	0x3df581a3	0.11987617
48	0x3f6d008c	0.9257896
49	0x3f703a88	0.9383931
50	0x3f2cbde2	0.6747724
51	0x3f667356	0.9001974
52	0x3d9a777f	0.07542323
53	0x3dc458ff	0.09587287
54	0x3ebd6d8e	0.36997646
55	0x3f037fc6	0.5136684
56	0x3f0b0728	0.54307795
57	0x3f1e47ab	0.61828107
58	0x3f47a29f	0.77982515
59	0x3f34b0e8	0.7058244
60	0x3d6f4f18	0.05842504
61	0x3f66b42c	0.9011867
62	0x3f059720	0.52183723
63	0x3f0a06a5	0.5391639

layers.10.running_var f4 [64]
0	0x3ffbd30f	1.9673785
1	0x3fe532ad	1.790609
2	0x4047f279	3.1241744
3	0x4032428e	2.7853122
4	0x3fc9ec3f	1.5775222
5	0x3d0cfd01	0.03442097
6	0x3f643d7e	0.8915633
7	0x3f533663	0.8250486
8	0x403ed72e	2.9818835
9	0x3fd84839	1.6897041
10	0x402338bd	2.550338
11	0x3fbd4037	1.4785222
12	0x3db136fa	0.08653064
13	0x3fc12b72	1.5091383
14	0x4082c7e8	4.0869026
15	0x3c3e0de3	0.011599991
16	0x4067bd88	3.620943
17	0x3d20a099	0.039215658
18	0x3d661b65	0.05617847
19	0x3fcfefb5	1.6245028
20	0x3d8d0679	0.06886
21	0x3fe2e12e	1.7724969
22	0x3f9c77ba	1.2224038
23	0x400a76dd	2.1635048
24	0x3ec40ae5	0.38289562
25	0x3f970c46	1.180062
26	0x3ff0adcb	1.8803037
27	0x405ae82e	3.4204211
28	0x3f0a0e96	0.53928506
29	0x4031994a	2.774981
30	0x3e8923d1	0.26785138
31	0x409b7da7	4.8590884
32	0x3ff49a06	1.9109504
33	0x404e1fa2	3.2206807
34	0x3d0920a0	0.03347838
35	0x3f996afd	1.1985775
36	0x3ee91b15	0.45528474
37	0x4046b905	3.1050427
38	0x3f966823	1.175053
39	0x40d1c5a2	6.555375
40	0x3d1a2bba	0.037639357
41	0x3fa8aab9	1.31771
42	0x4094227f	4.629211
43	0x403696c8	2.852953
44	0x3e00f349	0.12592806
45	0x3f8d7835	1.1052309
46	0x3fc39d8d	1.5282456
47	0x3d96567f	0.073407166
48	0x400d593c	2.2085714
49	0x404b264d	3.1742127
50	0x400d4408	2.2072773
51	0x40401f51	3.0019114
52	0x3d86e65e	0.06586908
53	0x3ce082c3	0.027406102
54	0x3f91071d	1.1330296
55	0x3fb5724f	1.4175509
56	0x3fbb59fd	1.4636837
57	0x3ffec5cd	1.9904114
58	0x3fd88d65	1.691815
59	0x4013e95d	2.3111184
60	0x3c231479	0.0099536115
61	0x401cc79b	2.449683
62	0x3fbce8b6	1.4758518
63	0x3fc8f8c7	1.5700921

actor_classifier.weight f4 [15, 256]
0	0xbd501a4f	-0.05080634
1	0x3d5ec3fc	0.054386124
2	0xbd65ac5e	-0.056072585
3	0x3d89e577	0.0673322
4	0x3d73dd7a	0.05953739
5	0x3d553471	0.052051965
6	0xbd38c99d	-0.04511415
7	0xbb921ffb	-0.004459379
8	0xbd287be9	-0.041133795
9	0xbc8360aa	-0.016037304
10	0xbd6dc5eb	-0.058050077
11	0xbca68d65	-0.020331094
12	0xbb2ade9e	-0.0026072632
13	0x3cfe0724	0.031009264
14	0x3d551f28	0.052031666
15	0xbd154a5b	-0.036447864
16	0xbc324ee2	-0.010883065
17	0xbca783c6	-0.020448577
18	0xbc8f401f	-0.01748663
19	0x3cfeab8e	0.031087663
20	0xbcc49e68	-0.024001315
21	0x3d16674c	0.036719605
22	0xbd34da0a	-0.04415325
23	0x3d55a997	0.052163687
24	0xbce6f312	-0.028192077
25	0x3c354087	0.011062748
26	0x3d7b8196	0.06140288
27	0xbd8122a9	-0.06305439
28	0x3c909ddf	0.017653404
29	0x3d29c53d	0.041447867
30	0x3be64b4d	0.0070280195
31	0xbd02dbcd	-0.0319479
32	0x3d2c6dbd	0.042096842
33	0x3c5f7641	0.013639034
34	0xbc223e6f	-0.009902581
35	0x3c296cf2	0.010340916
36	0x3d59cedb	0.05317579
37	0xbd07a430	-0.033115566
38	0xbd3a8b1f	-0.045542832
39	0x3d70aaa1	0.058756474
40	0xbcd722ec	-0.02626177
41	0xbc96038d	-0.01831224
42	0x3d0531f9	0.03251836
43	0xbd449578	-0.047994107
44	0x3cd2a59c	0.025713734
45	0x3cf66559	0.030077623
46	0xbd301b82	-0.042994983
47	0xbd159ad7	-0.03652462
48	0x3cd4f178	0.025994048
49	0x3d3eee78	0.04661414
50	0xbd4a77b0	-0.04943055
51	0xbb069b4a	-0.0020539337
52	0x3c7fe00b	0.015617381
53	0x3d2922ee	0.041293077
54	0x3a21f20e	0.00061777316
55	0xbd43e860	-0.047829032
56	0x3d8edb75	0.06975452
57	0xbc30b751	-0.010785894
58	0xbd603706	-0.054739974
59	0xbbc2c7fd	-0.0059442506
60	0xbd2836cc	-0.041067883
61	0x3d067198	0.032823175
62	0x3c8abbb5	0.016935209
63	0xbbee778c	-0.0072774347
64	0xbd40d964	-0.04708232
65	0xbd025c74	-0.03182645
66	0x3c95e093	0.018295562
67	0xbc4c0752	-0.012452917
68	0x3d523ea4	0.05132927
69	0x3d001977	0.031274285
70	0xbd7b7db4	-0.061399177
71	0x3ba6906f	0.005083136
72	0x3bc1ecfd	0.005918144
73	0x3d2be230	0.041963756
74	0xbceef332	-0.029168699
75	0x3cc5fa5e	0.024167236
76	0x3d62fb24	0.055415288
77	0xbd4a4485	-0.04938175
78	0x3d19dbfd	0.037563313
79	0xbcce19a7	-0.025158716
80	0x3d49607c	0.04916428
81	0xbb6cceda	-0.0036134035
82	0x3d331c8e	0.043728404
83	0x3d45ecd9	0.04832158
84	0xbcee94ee	-0.02912375
85	0xbd16d938	-0.03682825
86	0x3d3223ad	0.043491054
87	0xbd390949	-0.04517487
88	0x3d943063	0.072357915
89	0x3b1d759d	0.0024026402
90	0xba0082fe	-0.0004902332
91	0xbcdc840e	-0.026918437
92	0xbcac4e00	-0.021033287
93	0x3d02e87e	0.031960003
94	0xbcff9ade	-0.031201776
95	0x3c223581	0.009900452
96	0xbd487861	-0.048942927
97	0x3c11ae89	0.00889171
98	0xbd34d575	-0.04414888
99	0x3d182464	0.03714408
100	0xbc2f44ae	-0.010697527
101	0x3ca4bd20	0.020109713
102	0xbce25d66	-0.027632426
103	0x3d47cc8a	0.048779048
104	0xbd1a4a9a	-0.0376688
105	0xbbd61663	-0.0065334304
106	0xbbd8f67a	-0.006621179
107	0xbd168c63	-0.036754977
108	0x3d622bc4	0.05521752
109	0xbd551952	-0.0520261
110	0x3d8c38ed	0.06846795
111	0xbd37a593	-0.04483564
112	0xbc047688	-0.008084901
113	0xbd4825b8	-0.048864096
114	0xbd437696	-0.047720514
115	0xbd746872	-0.05966992
116	0x3d906cc7	0.07051998
117	0x3c7e5128	0.015522279
118	0xbce7d465	-0.02829952
119	0xbd60a7a6	-0.054847382
120	0xbd130f2f	-0.035903152
121	0x3c55b23a	0.013042981
122	0xbd6bb890	-0.05754906
123	0xbc0be348	-0.008538075
124	0xba84b6e1	-0.0010125303
125	0x3c6282f3	0.013825166
126	0x3d8218a0	0.06352353
127	0x3d48fd9a	0.04906998
128	0x3c91193a	0.017712224
129	0x3bc48b2e	0.005998037
130	0x3d4bb648	0.049734384
131	0x3b1fef4c	0.0024404107
132	0x3cb9bcb2	0.022672985
133	0xbb7c42b3	-0.0038491904
134	0x3d1bb62f	0.03801554
135	0xbd762de5	-0.060102362
136	0xbd3b0e1a	-0.045667745
137	0xbc1c7d98	-0.009551428
138	0x3d28624f	0.04110938
139	0xbcc9b446	-0.024622094
140	0xbd337755	-0.043814976
141	0xbca1694b	-0.019703528
142	0xbcd51cfb	-0.026014796
143	0x3c4deec6	0.012569135
144	0xbab1f50e	-0.001357706
145	0xbd0fc484	-0.03509952
146	0xbcc08918	-0.023502871
147	0xbc8483fc	-0.016176216
148	0xbcd845d2	-0.02640048
149	0x3c92d595	0.01792411
150	0x3caeb944	0.021328576
151	0x3b41efe8	0.0029592458
152	0x3d3b2841	0.045692686
153	0xbbbbcf27	-0.0057314816
154	0xbc57fd57	-0.0131829595
155	0xbd147477	-0.036243882
156	0x3d8075e9	0.062724896
157	0x3b99646f	0.004681162
158	0xbd450017	-0.04809579
159	0xbd36315a	-0.04448066
160	0x3d26b0c9	0.04069594
161	0x3d0dad28	0.034588963
162	0x3d1e2902	0.038613327
163	0x3d2841fa	0.041078545
164	0xbd6dbaa3	-0.05803932
165	0xbd80a39b	-0.06281205
166	0x3d420dea	0.04737655
167	0xbd68c81f	-0.056831475
168	0x3d2b75a9	0.041860256
169	0xbcc35853	-0.023845827
170	0x3d887dc6	0.066646144
171	0xbcd54805	-0.026035318
172	0x3d742bdd	0.059612144
173	0x3d394dae	0.045240097
174	0x3d5bca96	0.053659998
175	0x3c508281	0.012726427
176	0x3c944223	0.018097943
177	0x3d50471d	0.05084907
178	0xbd23f32c	-0.04002683
179	0xbc54b222	-0.012981923
180	0x3d535e13	0.051603388
181	0xbd003ee9	-0.031309996
182	0xbc881c53	-0.016615069
183	0x3d1474c5	0.036244173
184	0xbcac4ebb	-0.021033635
185	0xbc9edbda	-0.019391943
186	0x3d0a9658	0.033834785
187	0x3d08fae0	0.033442378
188	0xbd24205c	-0.040069923
189	0xbd562ea2	-0.052290566
190	0x3d0ac2d3	0.033877205
191	0xbcc458e3	-0.023968166
192	0xbcd96386	-0.026536714
193	0x3d4a527b	0.049395066
194	0x3d504b41	0.050853018
195	0x3d04a855	0.032387096
196	0xbd00462d	-0.031316925
197	0x3bb5fe36	0.005553986
198	0x3d20a80a	0.039222755
199	0x3d344dd1	0.044019524
200	0x3cf2b0fe	0.029625412
201	0xbd361d42	-0.044461496
202	0x3cf3f634	0.029780485
203	0x3aff355e	0.0019470861
204	0xbc29149b	-0.010319854
205	0x3c812bfe	0.015768047
206	0x3c2f848c	0.010712754
207	0xbd7d64e4	-0.061863795
208	0xbd5ec1a8	-0.054383904
209	0x3cc23e69	0.0237114
210	0xbd3b6874	-0.04575391
211	0xbd6929aa	-0.0569245
212	0xbcea0cd7	-0.028570576
213	0xbd2d33d5	-0.04228576
214	0x3d041568	0.032246977
215	0x3c5ea304	0.013588671
216	0xbbb74476	-0.005592878
217	0xbd8287d5	-0.06373564
218	0xbcb154aa	-0.021646816
219	0x3d285cc6	0.0411041
220	0x3c95a4d9	0.018267082
221	0x3d32ebad	0.04368179
222	0x3bb9fbcd	0.005675769
223	0x3b83fed0	0.0040281788
224	0xbc68f98f	-0.014219656
225	0x3bf26b76	0.0073980642
226	0xbd5fb8e7	-0.054619696
227	0x3cf090aa	0.029365856
228	0x3c2133eb	0.009839038
229	0x3d87843a	0.06617017
230	0x3cdbb8c7	0.026821507
231	0xbd612566	-0.054967307
232	0x3d18ea5a	0.03733287
233	0xbaf194e5	-0.0018431215
234	0xbc4bb92d	-0.012434286
235	0x3c3de61d	0.011590508
236	0x3d5a5dc0	0.053312063
237	0xbb3e45b5	-0.0029033248
238	0xbd254d4b	-0.040356915
239	0x3cbaabdb	0.022787025
240	0x3c297636	0.010343125
241	0xbd0bb132	-0.034104533
242	0xbcdd2b45	-0.026998172
243	0xbc289bae	-0.010291023
244	0xbd57a72a	-0.052649654
245	0xbc97c743	-0.018527633
246	0xbd5245c9	-0.051336084
247	0x3d2745f0	0.040838182
248	0xbd65538f	-0.05598789
249	0xbd652e55	-0.05595239
250	0xbd456926	-0.04819598
251	0xbd40a3bb	-0.047031146
252	0x3cab62a2	0.020921055
253	0xbd7e53d4	-0.062091663
254	0x3cd4d3f8	0.02597998
255	0x3d25d755	0.04048856

actor_classifier.bias f4 [15]
0	0x3d576eea	0.05259601
1	0x3c5c6c36	0.013453534
2	0xbc102937	-0.008798889
3	0xba344e08	-0.00068780826
4	0x3d1d063d	0.038336027
5	0x3d00329d	0.03129827
6	0xbce08ff1	-0.027412387
7	0xbd099101	-0.033585552
8	0xbd2cf5df	-0.04222667
9	0x3d17c347	0.037051465
10	0x3d727ff6	0.059204064
11	0xbcb7973e	-0.022410985
12	0x3d213189	0.03935388
13	0xbd0e96b2	-0.034811683
14	0x3ac6eb02	0.0015176239
