Saved Models/model_checkpoint_bigfish_42_0.0001_1200_6_256_0.9_0.6_0.2_1024_0.5.pth (torch, 153018 bytes, 21 tensors)

layers.0.weight f4 [32, 3, 8, 8]
00000000: 4e32 7dbd d337 01bd 86e7 4a3d 5422 6abc
00000010: 4b36 003d e845 853b 7d3e ee3c 69b2 5b3d
00000020: 4c90 04bc 9a8c 213c 0889 94bd 3a5b 13bd
00000030: 4a58 e7bb a19c 8ebc f314 e73c 3af4 803c
00000040: b5df f0bc a409 adbd e6ca 81bd ff07 0a3d
00000050: 6b67 8cbd 8de8 ad3b b3c7 7f3c 502a 3c3d
00000060: 4cc1 a5bc ddb0 71bd 7ff9 74bd 221c 6ebd
00000070: 5a2c 323c c6b0 643d 0b57 b53b 12fb e13c
00000080: 4b8e e6bb ec01 823c 5006 3abd 14b8 72bd
00000090: 5098 083d 5db6 84bc 8d30 01bd 12ab 86bc
000000a0: 62d7 da3c c832 c73c 7553 edba 0fe9 dfbc
000000b0: 142f 91bb 2156 623d a537 1f3d dd96 99bd
000000c0: 4342 98bd aa8e d5bd f3b6 e9bd da1f 55bd
000000d0: d7a4 a8bd f055 a73c 5ee9 a5bd e9da 47bd
000000e0: a4c9 3b3d e668 83bd 51bb a93c f5a0 9abd
000000f0: 5946 c0bd 5ac9 6ebd 0c70 5d3c 09a9 a3bc
00000100: d70f 23bd 701a 6f3d 5f2a 183d 082c 863d
00000110: 32aa 53bc 5141 a0bd 6f00 2e3d e928 7d3d
00000120: d44b e03a 7eea 443d 4655 b93c 9809 8cbd
00000130: ded7 68bd d2d8 d0bc 5cfa fcbc 3698 943d
00000140: f8de ff3c 96d4 973d bc7d ec3a a7b4 033d
00000150: 5519 e33b 7a26 c93c 7787 c8bd fec4 1abd
00000160: a466 08ba f80b 863d 9d5b 8e3d e964 a93c
00000170: 361c 753d f839 7f3c 3e9a a5bd 95c2 c6bc
00000180: e143 033b bef5 b13d c6af 41bd e076 263d
00000190: 1d35 a5bd 46d6 1cbd 282a 933d b4b5 d43c
000001a0: 90e7 2a3d 0e76 4d3d 5ccb 423d 3e13 e03c
000001b0: 3b13 613b 3f69 933d 256f 953d fe17 ae3d
000001c0: 9cf4 b83d 6146 073d 3d98 e03c 1efc 90bc
000001d0: d72f 853d a5a1 4a3d fa7c 373d f1c9 b13d
000001e0: b846 2d3d e1c9 b4bc 2e74 bc3d d512 8b3d
000001f0: ed24 443c a398 4e3d e996 a43d 9d9e 873d
00000200: 0373 f93c efaf 3cbc 8bf3 a43c a7c0 24bd
00000210: 933d 0e3c fde4 78bd db26 e0bc e38d 70bc
00000220: 9a86 adbb 631d 5e3c b07d 263d 6307 67bd
00000230: 9f41 853d de77 773d cd53 6d3d 43fe c5bb
00000240: 9610 f3bc debb 6ebb badd 4dbd e685 99bc
00000250: a9ea 483d 48b3 053d c0b7 b6bd 6283 3bbd
00000260: d21e 573b 6487 973c 7d3b 4b3d f28d d7bc
00000270: b515 863d 28d2 0abd 844e 273d 57b3 8a3d
00000280: e0fc 6b3d 6e3f 293d 3086 c33c df97 83bc
00000290: c486 06bc 39ee 353d 001b 28bd fa23 6ebb
000002a0: eb93 58bd 276d f0bc 26c8 803d 2c0f b33c
000002b0: 9352 f43c d26c f53c bfb9 683d e7fe 6d3c
000002c0: b024 523d 98c5 47bd 511a 473d 2f01 60bd
000002d0: dbb8 36bd bf1d efbc e98e e7bc 5388 053d
000002e0: 7490 483d d126 5dbd 5b8d 433d 1bcb 823d
000002f0: a52c 1d3d 7f4c 783a 9653 883d 7686 e33c
00000300: 2ce2 abbd 2413 e0bc 858c ae3d 8a64 ee3c
00000310: 514a 17bd fefc 453d 7764 d1bc 72de 90bd
00000320: 5395 bc3d 3607 ff3c 316f a23b 1fdb 84bd
00000330: b3bd 7b3d 55f8 16bd 02e3 693c 1f03 febb
00000340: 65eb 263d 5d2f 4e3d 04c4 3fbd f89c 97bb
00000350: 9ecd a5b9 4832 34bc e350 9c3d 24e6 0b3b
00000360: 5355 373d 9bd6 763d 164b e13c d8c8 733d
00000370: 5c2c b73d 05c0 cdbc 3254 fabc 801e bbbc
00000380: d05c e03c ac02 9abc c310 33bc 1cca 98bc
00000390: ec70 d7bc 4710 88bd 386b 06bd fa73 243d
000003a0: c260 9dbc 92c5 f0bc bc0a 4bbd 1524 273d
000003b0: 745f 09bc d504 9b3d d2e6 823d 97b4 5d3d
000003c0: 222b 35bc 45ee d43b f036 40bd da20 253d
000003d0: e9b1 bf3d 7f9c 223d a82f d33d 5b68 bd3d
000003e0: 8cac 563d 70e4 d83c 6495 523d 8b17 66bc
000003f0: 4296 353a 4039 723d bfb5 453d 4989 d03c
-0.061815552 -0.03154738 0.049537204 -0.014290411 0.031301778 0.0040671714 0.029082531 0.053636942
-0.008091044 0.009860182 -0.07252699 -0.035975672 -0.0070600854 -0.01740867 0.028208232 0.015741456
-0.029403547 -0.084491044 -0.06337528 0.033699032 -0.06855663 0.005307263 0.015611577 0.04593879
-0.020233773 -0.05900656 -0.05980825 -0.0581323 0.010874832 0.055832647 0.005534058 0.02758554
-0.0070360056 0.015870057 -0.045416176 -0.05925758 0.03334838 -0.016200239 -0.031540442 -0.016438995
0.02671403 0.024316207 -0.0018106537 -0.02733281 -0.004430661 0.05525792 0.038871426 -0.07499478
-0.074345134 -0.10427602 -0.11411848 -0.05203233 -0.08234566 0.02042672 -0.08101152 -0.048792753
0.045846596 -0.06416492 0.020719202 -0.07550231 -0.09388418 -0.058297493 0.013515484 -0.019978063
-0.039810028 0.058374822 0.037149783 0.06551367 -0.012918996 -0.07824958 0.042480882 0.061806593
0.0017112442 0.04807519 0.02262367 -0.06837767 -0.056846492 -0.025494013 -0.0308811 0.072555944
0.03123425 0.074135944 0.0018042843 0.032154705 0.00693051 0.02455448 -0.09791463 -0.037785523
-0.0005203283 0.065452516 0.069510676 0.020678 0.059841357 0.015577786 -0.0808606 -0.024262706
0.0020029473 0.0868945 -0.04728677 0.04064071 -0.08066771 -0.038290285 0.07185775 0.025965549
0.04172474 0.050161414 0.04755722 0.027352925 0.0034343738 0.071978085 0.0729659 0.0850067
0.090310305 0.033026103 0.027416343 -0.017698344 0.06503265 0.049470562 0.04479692 0.086810954
0.04230377 -0.02206892 0.09201847 0.06790701 0.011971694 0.050438534 0.08036596 0.0662205
0.03045035 -0.011516555 0.020135662 -0.04022279 0.008681673 -0.060765255 -0.027362278 -0.014682266
-0.005295587 0.013556811 0.04064721 -0.05640353 0.06506657 0.06041705 0.057941247 -0.0060422732
-0.029670995 -0.0036427896 -0.050260283 -0.018740606 0.049051914 0.03264168 -0.08921766 -0.045779593
0.0032824767 0.018497176 0.04961728 -0.026312802 0.06547109 -0.033891827 0.040846363 0.067724876
0.057614207 0.041320257 0.023867697 -0.016063629 -0.008210842 0.04441664 -0.041041374 -0.0036337362
-0.05287544 -0.029348923 0.06288175 0.02185782 0.02982453 0.029959116 0.056817766 0.0145261055
0.05130452 -0.048772424 0.04860908 -0.05468863 -0.044609886 -0.029188989 -0.028266387 0.032600712
0.048965886 -0.053992096 0.04774223 0.063863955 0.038372654 0.0009471848 0.06656568 0.027774077
-0.08392748 -0.027352877 0.08522896 0.029100675 -0.036936108 0.048336975 -0.0255606 -0.07073678
0.09208169 0.031131368 0.0049571027 -0.064871065 0.06146021 -0.03685792 0.014275314 -0.007751837
0.040751833 0.050338138 -0.046817794 -0.0046268664 -0.0003162445 -0.010998316 0.076326154 0.0021346891
0.044759106 0.060263257 0.027501624 0.05951771 0.08944008 -0.025115976 -0.030557726 -0.022841692
0.027388006 -0.018800102 -0.010929289 -0.01865106 -0.026298963 -0.0664373 -0.032817096 0.040149666
-0.019211177 -0.029391084 -0.049570784 0.040805895 -0.008384574 0.07569281 0.06391682 0.054127302
-0.011057647 0.0064981305 -0.046927392 0.040314533 0.093601055 0.039700028 0.10311824 0.0924842
0.052410647 0.026476115 0.051412 -0.014043699 0.0006926992 0.05913663 0.04826903 0.025456088

layers.0.bias f4 [32]
00000000: c5e3 903a d85b 033d 2bca 0bbc 5e1c 9d3d
00000010: c564 073c 47d5 9cbb 75d2 09bd 98c9 223d
00000020: bd42 333d 8ca5 ac3d 1864 af3a eb63 883d
00000030: be38 143d 2a78 3ebc 53fc 18bd 0626 053d
00000040: f04a 533c d6a9 da3c d6ff d23c 8435 153d
00000050: ec15 85bd 894d 8ebd 18ef 823d 2d32 8a3b
00000060: 8cdb be3b 8b8c 703d f0f0 5f3b fa9a 2b3d
00000070: 4eb8 b03c bc58 7d3b d1f0 8dbd ee8d 353d
0.0011054209 0.03207001 -0.008532087 0.07671426 0.008263771 -0.004786167 -0.033647973 0.039743036
0.04376482 0.08430013 0.0013381271 0.06659683 0.036186926 -0.011625329 -0.03735001 0.032506965
0.012896284 0.026692312 0.025756758 0.03642799 -0.06498322 -0.069483824 0.0639326 0.004217407
0.005824512 0.058727782 0.003417071 0.041895844 0.021572258 0.0038657626 -0.06930698 0.044324808

layers.2.weight f4 [32]
00000000: a0c2 7b3f 56d1 7f3f d624 7f3f e58d 7f3f
00000010: a3b6 813f 0056 823f 1af7 803f 05ee 7e3f
00000020: 8842 7f3f a5b3 783f 6cc5 843f 7326 773f
00000030: 7b13 843f de75 7e3f 5a96 853f 9be8 803f
00000040: 6c15 7f3f 404a 803f 45a2 7a3f 8f28 823f
00000050: cb3d 773f 0039 803f 3cd9 763f fc47 783f
00000060: 6144 7f3f 6b19 823f fb92 803f 32e9 793f
00000070: 0a67 843f b103 7d3f 6e43 7e3f fce7 833f
0.9834385 0.99928796 0.9966558 0.9982589 1.0133861 1.0182495 1.007541 0.9958194
0.99710894 0.97149116 1.0372748 0.96543044 1.0318445 0.993986 1.0436509 1.0070986
0.9964206 1.0022659 0.97903854 1.0168628 0.96578664 1.0017395 0.96425223 0.9698484
0.9971371 1.0164007 1.0044855 0.9762145 1.0343945 0.9883376 0.9932164 1.0305171

layers.2.bias f4 [32]
00000000: a057 8ebc 3ddf d03d b5c7 8f3c d935 9d3d
00000010: ed2e 173d dd7f 8b3d ce66 5a3d 1461 703d
00000020: d585 403d f45f 363d 3d4e 03bd 1862 913c
00000030: 950c 503d 9f7f 28bc 4ee8 883d b57b da3b
00000040: d27f a13d c0d0 c43c b2c7 183c de98 053d
00000050: c66e 003d 8128 893d 58e8 ae3d 32dc 173d
00000060: fcab 643d 2bb2 653d bc3a 4b3d de5a 0a3d
00000070: 65ae 3c3d 3ccb 753c cb80 a43d 715b 903d
-0.017375767 0.10198829 0.017551282 0.07676286 0.036909986 0.06811497 0.0533207 0.05868633
0.047002632 0.0445251 -0.032057036 0.01774697 0.05079325 -0.0102843335 0.066849336 0.006667579
0.07885708 0.024025321 0.009324955 0.03261649 0.03135564 0.06697179 0.0854041 0.03707523
0.05582808 0.056078117 0.04961656 0.033778064 0.046064753 0.015002068 0.08032378 0.07048691

layers.2.running_mean f4 [32]
00000000: ba48 8f3c e95e 913d 99b3 8b3c ff4b bd3d
00000010: 636d 3f3c eedc 7e3c 1580 0c3c 0207 273d
00000020: 6085 2e3d 24fb a13d 39c6 a03b b6cd 8d3d
00000030: 0ccc 1c3d d244 973c 6c50 4a3c 1c19 d63c
00000040: 1491 193d b95b 4d3d 9237 233d befc f33c
00000050: 1610 7c3c 10ec 7e3c bc3b 903d eaf8 023c
00000060: 327f 0a3c 0f8a 683d a4e1 c13b 87ec b03d
00000070: d7af d43c b0c2 ba3b 63f4 dd3c 9fc8 773d
0.017490733 0.07098181 0.017053412 0.09243011 0.011683795 0.015555603 0.008575459 0.040778168
0.042607665 0.079092294 0.0049064425 0.06924002 0.03828053 0.018465433 0.012348276 0.02613502
0.037491873 0.0501363 0.039847918 0.029783603 0.015384695 0.015559211 0.070426434 0.007993916
0.008453177 0.056772288 0.005916791 0.08638864 0.025962753 0.005699478 0.027094072 0.06049406

layers.2.running_var f4 [32]
00000000: 1a41 893b 3124 663c d604 853b e34e be3b
00000010: 4d35 673a 761f 943b aa28 c53a ea37 ad3a
00000020: 74cc 9f3a f0aa c93a 3c26 033a 55ea 2e3b
00000030: fe96 7a3a ecd1 a03b ac66 413b 1309 9539
00000040: abf5 223c 1348 b53b a1e4 4d3b d1c4 d539
00000050: b693 943b d4e6 7d3b f050 4c3b 7372 053a
00000060: d175 3a3a 2b3e b73a ba9a 9739 e328 553c
00000070: 5f13 a83a 3988 aa39 c617 0f3c b6cc 9b3b
0.004188669 0.014046715 0.0040594144 0.005807744 0.0008819893 0.004520352 0.0015042026 0.0013215516
0.0012191669 0.0015386026 0.0005002951 0.0026689966 0.0009559243 0.004907837 0.002951066 0.00028426255
0.009946267 0.0055322736 0.003141679 0.00040773166 0.00453421 0.003874232 0.0031176172 0.00050906016
0.0007112893 0.001398032 0.00028916245 0.013010236 0.0012823156 0.0003252642 0.008733695 0.004754628

layers.4.weight f4 [64, 32, 2, 2]
00000000: a83a 943d c5bd 31bc 023a 6ebd 0677 acbd
00000010: 2d2f c63c 7d66 b1bd e0c8 cd3d 7376 1b3d
00000020: 7947 21bd d600 a7bd ade0 8cbd 1a1e 80bd
00000030: d736 04bd 1839 9d3a 9f7a 83bd 847b 3e3d
00000040: 18a8 aabc 476c c13c 8704 88bc 63ba fbbc
00000050: 8a0c 903d 168c 6bbd 3e33 72bd 745a 1c3d
00000060: c93f 39bc 9da2 943d 68b4 293d c11b 0bbd
00000070: 157f 893c 71b0 d03d 0040 2e3c 8740 8c3d
00000080: 6bc4 abba b8bd ce3d afea 0bbd d1cf 60bd
00000090: d661 08bd 5e55 b43d 3764 35bb 2bc9 b8bc
000000a0: dec3 a1bc f356 6bbc 723b a4b9 63f0 e7bd
000000b0: 4670 263d 941a b23c 28de 773c 63d5 68bd
000000c0: 0e84 b4bd 652d d0bc 9593 db3d 6748 e2bc
000000d0: eabd a1bd 1fc7 913d 4bcd 43bc 93fd 90bd
000000e0: 7bcf d5bd 8eb3 2cbd 3b6b 883c a4bd 9c3c
000000f0: 9c24 4bbd c9db a4bc 6a5d 453d 7bf2 1e3d
00000100: 25be 53bd 984e 07be 83e3 4abd 570a 88bd
00000110: 3ee4 54bd 2c7f b6bc 5117 cb3d 6e4a 88bd
00000120: fc85 aabc 764c e73d e135 aa3c 073b 8c3a
00000130: 4eb1 7bbd 7de4 0b3d 7959 b23d deaa 7b3d
00000140: d603 f53c 3365 aabd bbdb fbbc 736e 44bd
00000150: a652 d3ba 9da0 863d 2d85 05bd 5e4d 103d
00000160: 5370 593d 58b0 a23d 65b5 163d 546d 543d
00000170: 62a9 0e3c f4bb 5e3d 4508 f0bc 924a 81bc
00000180: 40e9 6abd 5db1 5dbd af38 acbc 1b7d 043b
00000190: 0377 0dbd f7a5 2fbd 0609 d3bc 5d26 673d
000001a0: bcd3 edbd ed64 9a3c afe6 9a3d b797 ad3d
000001b0: ac13 d83c 2ba3 66bc b889 f03c a8f1 403d
000001c0: 7ec5 1dbd b35a 843d b712 9b3d f925 913d
000001d0: d05b c93d 4e09 f4bc 2642 143d a058 063b
000001e0: e735 1ebc b4d9 1fbd 14b3 893d 6959 2a3d
000001f0: 6784 5e3c e620 64bd d8e5 353d 7938 6fbd
00000200: e3a8 05bd 7706 283d bd67 58bd 20fe 4dbc
00000210: c41e 7e3d 18c5 c43c 8f48 a6bd 8825 dcbd
00000220: e3d5 83bd ab2c 3e3d 7e48 963d 7beb 91bd
00000230: 6298 cdbc 6f5f 53bd 424e 39bd 66f7 c93c
00000240: fdfa 4f3d 884d c1bd b475 963b c6fc 0a3c
00000250: d631 bcbd 6cdb 743d 2e54 acbd 2a52 d3bd
00000260: 8489 1bbd 50b1 75bd bd56 603d e6d4 06bc
00000270: e5d2 a0bd f24d 8abd 2dd6 7b3d eeaa 4bbd
00000280: f121 f23b 2802 8b3c 4503 e03d 116b 01bd
00000290: b31e f5bc 01f9 76bc a1a0 1abc 0a65 81bc
000002a0: 0c02 c13d a608 2a3d fc86 b4bd 1099 a83d
000002b0: e160 223d b44f c63c 36db 893a 7940 5ebd
000002c0: 84b3 853c 490d 79bc d8a9 ae3d f6bc 7fbd
000002d0: 8ddf 8fbd 8398 8cbd 263f cdbd a30c a3bd
000002e0: c2d5 3bbd 9ff8 6dbd 3640 763c 287c f9bc
000002f0: 549f ae3d 976f c4bd b0a1 293d affe 5fbd
00000300: f00b 5f3c bf6b 993c 8d34 cabc 0aa3 4abd
00000310: 26f4 fd3b 1bfb 07be fa81 77ba bd25 64bc
00000320: ea37 c9bd a9f8 06bd d0ae 7dbd 54f0 2bbd
00000330: e599 a3bb ef74 dbbd f263 563d 95f9 a0bc
00000340: d6e2 483d bcb2 3cbd 7c1e 7bbc db74 7dbb
00000350: 5f23 bbbc b647 8abd 398e 5fbd dbc3 163d
00000360: fbc7 c0bc ae91 c43c 4ba0 e0bb 7626 89bd
00000370: 0f78 03bb bde9 c1bd a991 1d3c bdd8 d6bc
00000380: e25f 35bd 9419 90bd 7092 f1bb 5d1d 38bd
00000390: 9de4 583d d1d1 283a 7344 cdbd 74a1 1bbd
000003a0: adcc e13d fd1e d5bd 1f9d 113c 3d7a 843c
000003b0: c113 633c 58a0 013c 6bf1 153d 2722 963d
000003c0: fc2f 083d 68ee 80bd c79a 2bbd cea1 d3bd
000003d0: 5943 a03b c5fb c8bd ef1b 8ebb 805c 453d
000003e0: 76e5 ebbc a469 b63d 607c 79bd 8163 6d3d
000003f0: bcb2 9b3b 3dae 60bd 7816 293c d5bf ffbc
0.0723775 -0.010848467 -0.05816079 -0.084211394 0.024192417 -0.08662126 0.100480795 0.03795476
-0.039374802 -0.08154456 -0.06878791 -0.062557414 -0.03227886 0.0011995165 -0.064198725 0.046504512
-0.020832106 0.023611201 -0.016603721 -0.030728525 0.07033642 -0.057506643 -0.0591309 0.0381722
-0.0113067115 0.072575785 0.041431814 -0.033962015 0.01678423 0.101899035 0.010635376 0.06848245
-0.0013104802 0.1009478 -0.03415936 -0.05488569 -0.03329643 0.08805345 -0.002767814 -0.022556862
-0.019746717 -0.014363992 -0.00031324808 -0.11325147 0.040634416 0.021741189 0.01512865 -0.056844126
-0.0881425 -0.02541227 0.107215084 -0.027622415 -0.07897551 0.071180575 -0.011950801 -0.070796154
-0.104399644 -0.042163424 0.016652694 0.019133396 -0.04959546 -0.020124333 0.04818479 0.038805466
-0.051695008 -0.13213575 -0.04953338 -0.06642597 -0.05197548 -0.022277437 0.099165566 -0.06654821
-0.020815842 0.11293881 0.020777645 0.0010698744 -0.061448388 0.03415345 0.08708472 0.06144225
0.029909056 -0.083200835 -0.030744424 -0.047956895 -0.0016122654 0.06573603 -0.03259771 0.035230033
0.053085636 0.07943791 0.036794085 0.051862076 0.008707376 0.054378465 -0.029300818 -0.015782628
-0.05735135 -0.054124225 -0.021023123 0.002021617 -0.034537327 -0.042882886 -0.025761139 0.05643307
-0.11612651 0.018846953 0.07563531 0.08476203 0.026376568 -0.014076988 0.029362544 0.04710546
-0.03851842 0.06462612 0.07571929 0.07087321 0.09831965 -0.029789593 0.036195897 0.0020499602
-0.009656406 -0.039025977 0.067236096 0.041589174 0.013581372 -0.055695437 0.04440865 -0.058403466
-0.032631766 0.04102179 -0.052833308 -0.012572795 0.06204106 0.024019763 -0.08119308 -0.10749346
-0.0643728 0.046429317 0.073380455 -0.071249925 -0.025097076 -0.051604684 -0.045240648 0.024654102
0.05077647 -0.09438616 0.004591668 0.008483117 -0.09189193 0.05977957 -0.084144935 -0.10318406
-0.037972942 -0.05998355 0.05477022 -0.00822947 -0.07852725 -0.06753148 0.06148355 -0.049723558
0.0073893 0.016968802 0.109381236 -0.031596247 -0.029921865 -0.015074016 -0.009437711 -0.01579525
0.094242185 0.041512154 -0.08814809 0.08232319 0.039643172 0.024207927 0.00105176 -0.054260705
0.016320951 -0.015200921 0.08528489 -0.062436067 -0.07025061 -0.06865027 -0.1002181 -0.07961395
-0.045858152 -0.05809843 0.0150299575 -0.03045471 0.08526483 -0.095915966 0.041413963 -0.054686245
0.013613686 0.018728135 -0.024683261 -0.049471892 0.007750052 -0.13279383 -0.000944167 -0.013925013
-0.09825118 -0.032951985 -0.061934292 -0.04197724 -0.004992711 -0.10715663 0.05234141 -0.01965026
0.049044453 -0.046068892 -0.015327092 -0.0038674388 -0.022844015 -0.06751959 -0.054578993 0.036807876
-0.023532858 0.023995247 -0.006855046 -0.06696789 -0.0020060574 -0.0946841 0.009617248 -0.026226396
-0.044280894 -0.07036129 -0.007372193 -0.044949878 0.052952398 0.00064399565 -0.10022821 -0.03799577
0.11025367 -0.10406301 0.008887558 0.016171569 0.01385969 0.007911764 0.036607187 0.07330733
0.033248886 -0.062954724 -0.041895654 -0.10333596 0.004890841 -0.09813646 -0.004336826 0.048183918
-0.028795939 0.08906868 -0.06090963 0.057956222 0.0047515314 -0.054853667 0.010320298 -0.031219402

layers.4.bias f4 [64]
00000000: 24a3 073c e94e b63c f128 a83d aa64 c9bd
00000010: b3f8 95bd 6d14 bb3a 2753 81bb 51de 5bbc
00000020: cb35 bd3d c913 613b c814 89bd 8796 b2bd
00000030: ec00 d03d 4413 eeba 5ca6 36bd 4fed f73c
00000040: e362 813d 7032 f6bd 5015 8dbc 2eba 04bd
00000050: 8ea2 cabc 8304 6a3e 42fc 2dbd 1b22 3d3a
00000060: 548a 6fbd a982 1f3c a510 12be b779 3c3d
00000070: 7b4e 813d dda4 673c 2d7a 233c 777d 57bd
00000080: 230e 89bd 69a2 843d 0f55 44bd 872f 7abd
00000090: c329 87bd 4542 0dbd a47f 303c 1afe b03d
000000a0: 47a4 4b3d efe2 963c cf19 2b3c 0a61 603d
000000b0: d0e5 923c 44fd 26bd 08e4 62bd 5db3 483a
000000c0: 5dea 033e 4bef 83bc 9d9f 083e 8899 973a
000000d0: 3dba 263d 2d8c 12be 26bc f2bc 91ef abbd
000000e0: f1f6 13bd eac3 ae3c e8c1 cfbd 6d10 0d3d
000000f0: b852 f139 fd2f a23d dfe2 933d 9563 6c3d
0.008278642 0.022254424 0.08210934 -0.09833653 -0.07322826 0.0014273055 -0.00394668 -0.013419704
0.09238776 0.0034344068 -0.06693417 -0.08720117 0.10156426 -0.0018163701 -0.044592246 0.030264525
0.06317689 -0.12021339 -0.017222077 -0.032404117 -0.024735715 0.22853284 -0.0424769 0.000721486
-0.05848153 0.009735742 -0.14264162 0.046014514 0.06313797 0.014138428 0.009977859 -0.052609887
-0.066921495 0.0647629 -0.04793268 -0.06108048 -0.06599762 -0.034487028 0.010772619 0.08642216
0.049717214 0.018418757 0.010443165 0.054780044 0.017931849 -0.040768877 -0.05539325 0.0007656122
0.12882371 -0.016105315 0.13342138 0.0011566142 0.040704954 -0.14311285 -0.029630732 -0.08395303
-0.036124174 0.021333653 -0.101444066 0.034439493 0.00046028732 0.07919309 0.072210066 0.057712156

layers.6.weight f4 [64]
00000000: 7297 7f3f 9e37 7d3f 82c5 7b3f f032 813f
00000010: 82bb 893f 74ab 853f 9e14 823f 3d02 833f
00000020: 80c9 7c3f 87b7 833f 4c46 7d3f ebbb 7c3f
00000030: 6fd2 7c3f 952b 7e3f d842 733f ba39 783f
00000040: 297a 703f a7c2 6e3f 88ca 793f 22da 843f
00000050: 2bc6 783f ca65 783f e4e0 833f f397 823f
00000060: a7ca 863f c916 813f e6ff 893f 022b 7c3f
00000070: 3d0c 733f 9673 6c3f 8a4b 813f 477d 7b3f
00000080: 00ae 7e3f 8944 823f 2681 753f 0c50 833f
00000090: 3588 843f 7229 7b3f 4230 773f 9246 6b3f
000000a0: e090 7f3f 8fea 763f 3e0f 753f 86dc 763f
000000b0: a4e2 793f 329f 7b3f b6d1 813f dc83 783f
000000c0: 9bd1 7f3f f665 7b3f 646b 793f 5c19 823f
000000d0: 6258 703f 26ca 813f 407e 6f3f 7c2c 823f
000000e0: d14e 713f 59dd 833f d758 813f 5f54 7f3f
000000f0: d72f 7e3f f278 753f 46e7 7b3f d7ee 7d3f
0.9984046 0.9891299 0.9834825 1.009367 1.0760348 1.0442948 1.0162542 1.0235058
0.98744965 1.0290383 0.9893539 0.9872424 0.98758596 0.9928525 0.9502387 0.96963084
0.939364 0.93265766 0.97574663 1.0379069 0.9717738 0.9703032 1.0303006 1.0202621
1.0530595 1.0085078 1.0781219 0.98503125 0.9494055 0.9236387 1.0101178 0.98238033
0.9948425 1.0177165 0.9590019 1.0258803 1.0354067 0.98110116 0.9655801 0.91904557
0.99830437 0.9645166 0.9572638 0.9643024 0.9761145 0.9828979 1.0142124 0.970762
0.9992921 0.98202455 0.9742949 1.0163989 0.9388486 1.0139816 0.9355202 1.0169826
0.9426089 1.0301925 1.0105237 0.99738115 0.9929175 0.9588767 0.9839977 0.99192566

layers.6.bias f4 [64]
00000000: c111 033e 5380 e5bd ca7a da3d c9d6 a3bc
00000010: 86f3 0abe 82ae a2bd ed02 5b3d 5c1c 0ebe
00000020: c824 ef3d d610 4b3d a6a4 b4bd 73c9 00be
00000030: e55f c73d 128c f93d af0c 48bd 710c c3bd
00000040: c9ce c63d a64e dbbd 2a1e d0bd 9df3 6abd
00000050: a822 95ba 742c de3d 881d 0bbd 3103 bbbd
00000060: 0644 04be aeb7 bb3d c41f d83c 421e f3bd
00000070: 68b8 cdbc 0b5d d4bd 6a54 f7bd efc9 c2bd
00000080: c570 1b3d 5cf2 c3bd 0dba c83d f767 20bd
00000090: a661 403d f201 ed3d 8a6c f1bd efc9 9c3c
000000a0: ce37 9b3d 19bb d13d 7a47 a2bd ef91 de3d
000000b0: 8d7a 653d ae18 05bd 0d53 aabd 543c d73d
000000c0: 0911 1bbc f228 d73d ccfa d03d ca73 983d
000000d0: 8513 b3bd cafa 01be cc8c b7bd ab40 683c
000000e0: eceb dfbd f391 30bd 9a3f e63d 6197 1bbc
000000f0: 9a21 033e 4b08 473d a1a5 7fbd cffd 8d3d
0.12799741 -0.112061165 0.106679514 -0.019999878 -0.1356946 -0.07943441 0.053469587 -0.13878006
0.11676937 0.049576603 -0.08820467 -0.12576847 0.09735087 0.121849194 -0.04884022 -0.095238574
0.0970741 -0.107083604 -0.10162003 -0.057361234 -0.0011378126 0.108483225 -0.03396371 -0.09131468
-0.12916574 0.091658935 0.026382335 -0.118710056 -0.025112346 -0.10369309 -0.120766476 -0.09511172
0.037949342 -0.09567711 0.09801111 -0.03916165 0.046968125 0.11572637 -0.1178828 0.019139258
0.07579003 0.10240764 -0.07923789 0.108676784 0.056025077 -0.03249424 -0.08316622 0.105095536
-0.009464511 0.105058566 0.10204086 0.0744396 -0.087439574 -0.12693325 -0.08962402 0.014175574
-0.109336704 -0.043107938 0.112426 -0.009496541 0.12805787 0.048591893 -0.062413815 0.06933176

layers.6.running_mean f4 [64]
00000000: baee bf3e 93e3 3e3e 55e0 9d3e 1a30 363d
00000010: 20f3 b33c edad e73e d1e3 5a3e bb4f 283e
00000020: e3b6 c93e 3e91 4a3e 59bb 8d3e 8866 463e
00000030: d96c de3e e15f b53e 40d4 f83e 5a2b 7f3e
00000040: e08d 743f be97 d93e 57a4 093f 7fda 923d
00000050: bf8b 153f 2b3b 933f f927 7f3e 5116 023e
00000060: 589e 323d 81e6 0a3e be72 203d dd08 b63e
00000070: bd4d 9c3e f109 003f 7598 333e ee83 783e
00000080: 43c9 103e a5af 6c3e 311b 883e a3a5 243e
00000090: 459c 063e 6738 6d3e 46eb 903e 33d0 373f
000000a0: 2999 cc3e 9b6a 253f 85d1 1f3f a9b4 063f
000000b0: 9855 8b3e 56a8 963e 855e 183e b132 1e3f
000000c0: 31cb 2c3f 6cc1 ea3e 8439 dc3e c881 4a3e
000000d0: f942 003f 6ff0 cb3e b195 553f ef86 e03d
000000e0: 3b0f 683f ed8b 4e3e d6f9 a43c 0809 973e
000000f0: eb1f f53e c474 ef3e a336 f23e 4a74 cb3e
0.3748682 0.186415 0.30835214 0.044479467 0.021966517 0.45249882 0.21375968 0.16436665
0.39397344 0.19781968 0.27681997 0.1937505 0.4344242 0.35424712 0.48599434 0.24918881
0.95528984 0.42498583 0.5376639 0.07170581 0.5841636 1.1502432 0.24917592 0.12703826
0.04360804 0.13564493 0.039171927 0.35553637 0.3052806 0.5001517 0.17538626 0.24269077
0.14139275 0.23113878 0.26583245 0.1607881 0.1314555 0.23166047 0.283045 0.7180206
0.39960602 0.6461579 0.62429076 0.52619416 0.2721374 0.29425305 0.14879806 0.617961
0.67497545 0.45850694 0.4301263 0.1977607 0.5010219 0.39831874 0.83431536 0.109632365
0.9064824 0.20170565 0.020138662 0.29499078 0.47875914 0.46768773 0.4730731 0.3973716

layers.6.running_var f4 [64]
00000000: 87b0 803e ac09 5a3d 4b3c b03d 0ed8 a43c
00000010: ad6a 9f3c 5e97 633f 2ea4 323d b7e3 ad3e
00000020: 6d91 443f 33e9 723d 6dcd bb3d 686d b23e
00000030: b9c5 083f 5e04 293e 2d9a 6e3f 5fb7 fb3e
00000040: e808 4540 f3d2 883f d83e cb3f e02d b83c
00000050: 9ef3 0740 b3f0 6e40 4d0b ac3d 0d3e 903d
00000060: 204c 713d b766 8c3d ef7b 633c 3fed 343f
00000070: 3310 b73e 4b2e 833f c7c6 1f3e fd4e 4d3e
00000080: b956 673d fba6 4a3e f634 7f3d 67e5 6d3d
00000090: eb37 5a3d b73e 533d ddb2 3b3f f07e b23f
000000a0: 09cb c43e df5d d83f 0988 bc3f 75f7 d83f
000000b0: b3d4 c83d 8b79 a13e 188d 493e 5a53 6e3f
000000c0: 3e4d bc3f cdeb b23f b288 b63e ec7e b43d
000000d0: ef84 ac3f d1a5 663f 5160 1c40 7d84 cb3c
000000e0: a7bd 3240 99da 643e f41b 1b3c d6ef ac3e
000000f0: 0543 bf3f 1dc7 303f 38fd 803f 1613 743f
0.2513468 0.05323188 0.0860525 0.020122554 0.019460047 0.88902843 0.043613605 0.33962795
0.767844 0.059304427 0.09170041 0.34849095 0.534267 0.16505572 0.93204004 0.4916334
3.0786686 1.0689377 1.5878553 0.022482812 2.1242442 3.733441 0.08400593 0.07043085
0.05891049 0.06855529 0.013884529 0.7067451 0.35754547 1.0248502 0.15603171 0.20049663
0.05647919 0.1979026 0.062306367 0.058080103 0.053275984 0.05157348 0.733198 1.3944988
0.38436154 1.6903647 1.4729015 1.6950518 0.09806194 0.31538042 0.19682729 0.93095934
1.4711072 1.3978211 0.35651165 0.08813271 1.3478068 0.90096766 2.4433787 0.024843449
2.7928255 0.22349013 0.009467114 0.3377673 1.4942328 0.6905382 1.0077276 0.9534162

layers.8.weight f4 [64, 64, 2, 2]
00000000: 1793 863c d315 b2bc a5b4 833d f772 0ebd
00000010: 22b3 d5bc fb72 bbbd 58d1 b9bc 47d3 51bb
00000020: 1720 803d 23e9 f0bc 3b6b f73c d6b2 823b
00000030: a8f9 93bd 1f0f 683c a2e9 26bd 6f11 ca3c
00000040: 19d4 9dbc d967 333b 3031 73bd d397 a2bd
00000050: f83d 0f3d dbb6 80bd 5613 2cbc 86b5 f7bb
00000060: 8455 b1bc 6fa7 a8bc 0a61 503d 9909 e83b
00000070: b27a 2c3a 8383 4cbd f6e9 a6bc 06c0 043c
00000080: f427 12bd fe2d 993c 2796 93bc a831 923c
00000090: e2cb a1bc fe06 653d c406 863c 4595 01bc
000000a0: 3935 033d a64c b2bd 16a1 123b 1478 ed3c
000000b0: a2f1 50bc 14f8 263c 19e9 67bd b85e 2cbd
000000c0: 61ee 3a3d aacf c43b b3e4 0c3d 472a e53b
000000d0: df18 843d 6ce7 9f3c d32b 2a3d 0d1c 17bd
000000e0: 46bd 183d 6d9d 17bd ad45 433d 3890 623b
000000f0: 9fe4 f13c 09b0 88bd 784b 5cbd 0272 e33c
00000100: 86f9 b73d 2897 28bd 9bcc 66bd f851 3b3d
00000110: 5552 0dbd 3dd1 efbc 1b64 4a3c a6dc a8bc
00000120: e0c5 29bc 64ba 83bd 71eb 80bd 1568 843c
00000130: d3c9 193d b40a 1bbd 8653 f93c 70af 753c
00000140: ccb1 44bc e42c 9a3c 8168 ae3c 3dea a43c
00000150: 7876 4f3c d589 923c 7b5b 74bd 33de 1fbd
00000160: 224a 133d ca27 08bb 2039 c2bc 3dc3 27bc
00000170: a754 103d 1646 443c 12b2 b1bc eb64 4dbd
00000180: 2776 53bd 04be 7ebc d235 4dbd 1fde 2abd
00000190: 661a a5bb d5c5 bbbc 5846 a93a d70d 7f3d
000001a0: 9c6d 28bc 0e3f 3fbd 2dbd 62bd 9d3e 703d
000001b0: d824 5abc 1b9b 8dbb 85e2 2bbd 8e44 5d3b
000001c0: 93b5 2c3d 8429 9dbc 31c4 dcbb 29bf afbd
000001d0: 4889 ad3c 0228 8cbd a30c 643c f6a1 293d
000001e0: 460b 33bb bbe9 cf3d 8ce3 1dbc bfde cebd
000001f0: 2f2e 49bc 240e f3bc f156 2dbd c581 cb3c
00000200: f23a 5cbc 075a c43a 8987 063d 4740 803c
00000210: 35e8 723c 7ad3 01bc 45f9 5abd 0b3c 17bd
00000220: 6355 3f3d 11e6 85bd d55c cfbc 3bad 893d
00000230: 6059 2f3c c0ca bfbc b7db 90bd 224d 003d
00000240: 1121 af3c 52fb 69bd ebd7 ca3c 4685 573d
00000250: 3a63 863d dcc1 353d bd59 23bb 7f91 96bc
00000260: 105f 0bbb 4eb1 5dbb 7090 dcbc 4d67 a6bc
00000270: b3ad b43c 9dcd 233d f7b4 00bd 00af 88bb
00000280: fa19 0b3d 345a 6dbd 1b8c 473c e2be 8cbc
00000290: 99f3 c63c 627a 853c 2ef0 703c b57e 84bd
000002a0: 8278 27bd f65c 1c3d bd97 9ebb dce8 f23c
000002b0: 7d07 d5ba 975f e93c 956a aa3c cdf0 59ba
000002c0: 87fd c2bc 2232 563c fac3 9e3d 54bd cebc
000002d0: 96f5 5d3c 7a41 35bd af95 193a 03de c13d
000002e0: 9a6b 543d 061b 88bd e678 6abd 6d9a 3fbd
000002f0: 81d2 4b3c 34c8 fc3c 06e5 fbbb 541d cd3c
00000300: e577 db3c ca09 a1bd 3a5f ba3b 73dd 493d
00000310: 718a 373d f033 b23d 485c b9bc 6b24 75bc
00000320: c12b 56bd baef 4d3d 3675 27bc bc91 0abd
00000330: 9f86 a73d 38f2 7cbd 523d 4dbd 61d6 d7bb
00000340: af0c b63c 972b f73b bc6f 933c 8a1b a2bc
00000350: 3238 45bd a5b1 1abd 3807 05bb 083c 80bd
00000360: 4d47 813c f6bd a4bc af92 14ba 5d1c 2ebd
00000370: 1a2f 693b d1db 56bd b659 e5bc e0c2 2d3d
00000380: e669 ebbc b19f ba3c 1ccd 763b 9ae6 23bd
00000390: b6c2 8b3c bec1 95bd e965 6ebd 3b53 9e3c
000003a0: 2a5f 1fbd 125b f23c 746f 82bb a07d f93c
000003b0: 886e 31bd f56c 823c 76e1 40bb 1472 9d3d
000003c0: abf9 31bc 1b60 6d3d d743 9a39 0bf4 00bd
000003d0: 57d9 8f3b 95fa 833d 22fc d7bc 6f51 723c
000003e0: d767 df3c af3b 74bc 82ce 783c 6a48 503c
000003f0: 1278 403d 1781 943d 8828 d23c 7ddc 1bbd
0.01642756 -0.021738922 0.064309396 -0.034777608 -0.026086394 -0.0915279 -0.02268283 -0.00320168
0.06256121 -0.029408043 0.030202499 0.003988604 -0.072253525 0.014163761 -0.040750153 0.024666516
-0.019266175 0.002737513 -0.05937308 -0.079391144 0.034971207 -0.06284877 -0.010502657 -0.007559481
-0.021647222 -0.020587651 0.050873794 0.0070812223 0.00065795623 -0.049930107 -0.020375233 0.008102423
-0.035682634 0.018698689 -0.018015934 0.017845944 -0.01975054 0.05591487 0.016360648 -0.007909124
0.03203318 -0.08706026 0.0022373847 0.028987922 -0.012752922 0.010190982 -0.056618784 -0.04208252
0.045637492 0.006006201 0.034397792 0.0069935652 0.06450056 0.01951953 0.0415457 -0.036891986
0.03728988 -0.037015367 0.04767387 0.0034570824 0.02952796 -0.06674201 -0.05378291 0.027764324
0.0898314 -0.04115978 -0.05634747 0.04573247 -0.034502346 -0.029274577 0.012352969 -0.020613026
-0.0103621185 -0.064320356 -0.06294907 0.016162911 0.03754599 -0.037852004 0.030435335 0.014995441
-0.012005281 0.018820234 0.021290066 0.020131225 0.0126625225 0.017887989 -0.059657555 -0.039030265
0.03595937 -0.002077567 -0.02370888 -0.0102394195 0.03523698 0.0119796 -0.021691356 -0.05014507
-0.05162635 -0.015548233 -0.050100155 -0.041715737 -0.0050385473 -0.022921482 0.0012914641 0.062269058
-0.010280039 -0.046690993 -0.055356193 0.058653463 -0.013314448 -0.0043214685 -0.041964073 0.0033762786
0.04216535 -0.019184835 -0.006737255 -0.08581383 0.021183625 -0.068435684 0.013919028 0.041414224
-0.0027319952 0.101520024 -0.009636771 -0.10101079 -0.012279077 -0.029669829 -0.042319242 0.024842152
-0.013441788 0.0014980444 0.0328441 0.01565565 0.01482587 -0.007923955 -0.05346038 -0.036922496
0.04671229 -0.06538022 -0.02531282 0.06722494 0.010702461 -0.023412108 -0.07073157 0.03132356
0.021378072 -0.057124443 0.02476116 0.052617334 0.06561895 0.04437433 -0.0024925314 -0.018379925
-0.0021266378 -0.0033827606 -0.026924342 -0.02031293 0.022055482 0.03999101 -0.03142258 -0.0041712523
0.03396032 -0.057947353 0.0121794 -0.017180864 0.024286078 0.016293708 0.014705701 -0.0646948
-0.04088641 0.038174592 -0.004839866 0.029652052 -0.0016252842 0.028487964 0.020802775 -0.0008313775
-0.023802532 0.013073476 0.07752223 -0.025236763 0.013547322 -0.044251896 0.00058587914 0.094661735
0.05186043 -0.06645779 -0.057244204 -0.04677813 0.012440325 0.030857183 -0.007687214 0.025038399
0.026790569 -0.07863195 0.0056876214 0.049283456 0.044809762 0.087013125 -0.022627011 -0.014962296
-0.05228782 0.05027745 -0.010220816 -0.03383039 0.08179974 -0.061754435 -0.050107308 -0.0065868353
0.022222845 0.007543038 0.017997615 -0.019788522 -0.048149295 -0.03776707 -0.0020298492 -0.0626145
0.01578107 -0.020110112 -0.00056676095 -0.042507518 0.0035581053 -0.052455727 -0.02799688 0.042422175
-0.02873702 0.022781225 0.0037658876 -0.04001484 0.017060619 -0.07312344 -0.058202658 0.019326797
-0.038909115 0.029584441 -0.0039805714 0.03045541 -0.0433183 0.015921095 -0.002943126 0.07687774
-0.010862748 0.05795298 0.00029423714 -0.031482738 0.0043899226 0.06444279 -0.026365343 0.014789923
0.027271194 -0.014906808 0.015185954 0.012712577 0.046989508 0.072511844 0.025654092 -0.03805207

layers.8.bias f4 [64]
00000000: ebb3 9c3d 5d2c bb3d fde6 b93d 8c47 8a3d
00000010: 15bf 4e3d 8f49 8f3d efb5 003d 7b36 be3d
00000020: e110 793d a020 c33d b846 f53d 1757 ea3d
00000030: 3ac9 a03d 8dff b23d 651a b63d da19 e33d
00000040: 0185 453d 3d72 d73d 8503 093e 6a94 813d
00000050: 398f bd3d e9ec 8f3d 17d0 9d3d 7664 8b3d
00000060: e7a1 c13d 7d2b af3d 565f 983d a928 ccbb
00000070: fad4 d13d 36f6 773d 9951 9f3d 9b27 6b3d
00000080: cfc2 da3c 1e80 f13d fcb3 ba3d a710 c03d
00000090: e4dc 703d a6ec 2a3c 1e0e c23d 289a 8c3d
000000a0: 103f cb3d dd42 d73d b51b fc3d 43b1 413d
000000b0: 047e d33d eeee e93d 8a6c e03d 3599 cd3d
000000c0: b40c 403d d275 e33d c403 b93d 7508 cc3d
000000d0: bc0d 903d d0c2 2d3d 35b9 f03d 1998 ac3d
000000e0: 6821 083e eaa7 4e3d 25db ac3d 412c 953d
000000f0: bc2c 233e f209 d93c 19fe a93d 3eb1 dc3d
0.07651504 0.09139321 0.09077261 0.06751928 0.0504752 0.06996452 0.031423505 0.09287735
0.060807113 0.09527707 0.11976379 0.11442392 0.07850881 0.08740149 0.08891753 0.11088915
0.048222546 0.10519836 0.13380249 0.06327136 0.09255833 0.07027609 0.077057056 0.06806271
0.094547085 0.085532166 0.07440059 -0.006230433 0.102457 0.06053754 0.077792354 0.057410818
0.02670422 0.117920145 0.091163605 0.09378176 0.058804408 0.010432398 0.09475349 0.068653405
0.099241376 0.105108 0.12309972 0.04728819 0.1032677 0.11422525 0.10958202 0.100389875
0.046887115 0.11106457 0.09033921 0.099625506 0.070338696 0.042422116 0.117540754 0.08427448
0.13293993 0.050453104 0.08440236 0.072838314 0.15935034 0.026494 0.083004184 0.10775994

layers.10.weight f4 [64]
00000000: 57f1 b33f c288 b33f ebf4 b23f df9a b33f
00000010: 4b30 b43f aa80 b33f 50e3 b13f fc56 b33f
00000020: 0f06 b33f ab62 b33f 8a16 b33f 7e9a b33f
00000030: f444 b33f ca0d b33f aa7b b33f 4976 b33f
00000040: b84f b33f 5677 b33f 2684 b23f 0089 b33f
00000050: 7eb3 b23f a165 b33f fa21 b23f c285 b33f
00000060: 05de b23f 5f48 b33f f01f b33f 16a4 b13f
00000070: 53fa b23f e43f b33f dc23 b33f ff16 b33f
00000080: 03fb ae3f 44a3 b33f 33db b23f 4d2a b43f
00000090: 5b12 b33f 7680 b33f bf31 b03f a07d b33f
000000a0: 32a4 b03f 65fe b33f 5985 b33f 1722 b33f
000000b0: 4b9c b23f 41f6 b23f adad b23f eaee b33f
000000c0: b661 b33f 39b7 af3f d913 b33f 36cc b33f
000000d0: 4758 b33f f027 b03f 7a33 b33f 8a6b b23f
000000e0: 1d61 b33f 6312 b33f 1bed ae3f b502 b33f
000000f0: 00f8 b33f c1d9 b33f b4c9 b23f 8ebf b23f
1.4058026 1.402611 1.3980993 1.4031638 1.4077238 1.402364 1.3897495 1.401092
1.3986224 1.4014486 1.3991253 1.4031522 1.4005418 1.3988583 1.4022114 1.4020473
1.4008703 1.4020793 1.3946579 1.4026184 1.3961027 1.401539 1.3916619 1.4025195
1.3974005 1.4006461 1.3994122 1.38782 1.3982643 1.4003873 1.3995318 1.3991393
1.3670353 1.40342 1.3973144 1.4075409 1.3989977 1.4023578 1.3765181 1.4022713
1.3800108 1.406201 1.402507 1.3994778 1.3953947 1.3981401 1.3959252 1.4057286
1.4014194 1.372779 1.3990432 1.4046695 1.4011315 1.3762188 1.4000084 1.3939068
1.4014012 1.3989986 1.3666109 1.3985201 1.4060059 1.4050828 1.3967805 1.3964708

layers.10.bias f4 [64]
00000000: 1b84 d03e 64e2 ce3e a82f cc3e 6a83 cf3e
00000010: 650b cf3e 393b ce3e bc24 c43e 6041 cc3e
00000020: 24c3 ca3e a782 cd3e eb9d cc3e 005f d03e
00000030: e5f7 cd3e 15ff cb3e 9212 d03e 87f6 ce3e
00000040: bbd7 cb3e f41e cd3e 817a ca3e 33e5 c83e
00000050: 42ba d03e 2168 cd3e 8bc2 c43e cb0b cd3e
00000060: 9875 c43e 629a cb3e 0b3a cf3e 0679 c33e
00000070: e8b4 cb3e baf4 c63e 92d3 ce3e cecd cd3e
00000080: 5590 bb3e 2637 ce3e 7993 ca3e b0a2 cd3e
00000090: 9aff cb3e 2b71 cc3e 3aeb b93e ab95 cd3e
000000a0: c603 c13e 550a d03e 4540 ce3e 7ac9 cc3e
000000b0: be0a ca3e 69a9 ca3e dec4 c03e 15e6 cf3e
000000c0: 161a ce3e e942 b73e 596e cc3e f94a cf3e
000000d0: a4cb ca3e 8074 bf3e df0b cc3e cee9 c63e
000000e0: fb91 cc3e 9c08 cc3e c22c b83e e504 cc3e
000000f0: d829 d13e 8a80 ce3e 2980 ca3e 7563 cb3e
0.40725788 0.40407097 0.3988011 0.40529948 0.4043838 0.40279558 0.38309276 0.39893627
0.39602005 0.40138742 0.39964232 0.4069748 0.4022819 0.3984305 0.40639168 0.4042246
0.39813027 0.40062678 0.39546588 0.39237365 0.40767103 0.40118507 0.38429675 0.4004806
0.38370967 0.39766222 0.4047397 0.3817827 0.39786458 0.38858587 0.4039579 0.4019608
0.36633554 0.4027645 0.39565638 0.40163183 0.39843446 0.3993009 0.36312276 0.4015325
0.3769819 0.40632883 0.4028341 0.39997464 0.3946132 0.39582375 0.37650198 0.40605226
0.40254277 0.35793236 0.3992794 0.40486887 0.3960849 0.3739357 0.39852807 0.38850254
0.39955124 0.39850318 0.35971648 0.39847484 0.40852237 0.40332443 0.39550903 0.39724317

layers.10.running_mean f4 [64]
00000000: 2895 2b3f 92ff 3c3f 8909 3b3f 61ac 193f
00000010: 0efe 153f d579 353f c2f1 053f 934d 1e3f
00000020: 56ad 213f ff1d 2e3f 0287 3a3f 0ea7 303f
00000030: f56a 173f 3a38 3f3f 7085 2f3f d866 303f
00000040: 6f98 123f b92a 423f 5376 0d3f bda6 153f
00000050: 65a1 1a3f 4722 323f c448 233f 22c5 123f
00000060: 462e 263f 1d8c 0d3f f306 153f 6692 1c3f
00000070: e250 3c3f 4c16 323f 77ae 2e3f 33e6 0d3f
00000080: 71a5 023f f59e 263f f615 453f ac0f 2d3f
00000090: c191 3f3f 4d0a 273f 0f4d 303f 89af 323f
000000a0: f738 343f 7b4b 293f 95c3 0b3f fc83 083f
000000b0: ccac 373f 0fd4 2a3f 4eec 3e3f a215 163f
000000c0: 61ea 463f e331 273f 6b70 1c3f 1e29 323f
000000d0: 2059 273f 8c69 2e3f cef0 093f 20d4 233f
000000e0: aa5c 283f 6274 373f a91f 353f d2f8 323f
000000f0: 0534 263f d8cc 253f ce57 2d3f 3315 1f3f
0.6702447 0.7382747 0.73061424 0.60028654 0.5859078 0.70889026 0.5232202 0.6183712
0.63155115 0.6801452 0.72862256 0.69004905 0.5914758 0.7469517 0.68562984 0.6890693
0.57263845 0.7584644 0.55258673 0.5845755 0.6040252 0.69583553 0.63782907 0.5733205
0.6491436 0.5529192 0.5821373 0.61160886 0.7356092 0.6956527 0.6823496 0.5542938
0.51033694 0.650863 0.76986635 0.6760204 0.7483178 0.6525009 0.6886758 0.69799095
0.7039942 0.661308 0.5459531 0.5332639 0.7174804 0.66729826 0.7457932 0.5862676
0.77701384 0.65310496 0.61109036 0.6959399 0.6537037 0.681298 0.53883064 0.6399555
0.65766394 0.7166196 0.70751435 0.6991092 0.64923126 0.6476569 0.67712104 0.6214172

layers.10.running_var f4 [64]
00000000: 3a58 4d3f 30f5 653f 61a7 5a3f de7c f53e
00000010: 90fd 1f3f eddc 663f 4fe0 063f b2e7 3a3f
00000020: ee51 2d3f 5399 433f e83c 603f f236 4e3f
00000030: ac09 243f 0f0e 663f 064c 4e3f f173 4b3f
00000040: 2448 273f 77a7 683f 28a4 233f f197 f23e
00000050: 99b6 373f fafc 3b3f 8fed 193f e9a4 233f
00000060: 3f89 473f d48b 1a3f 0e0f 313f fc7e 3c3f
00000070: 83e2 573f cbad 593f e218 463f e12b 073f
00000080: 0c9b 053f 3710 403f a8ce 6e3f 0509 4b3f
00000090: 350c 743f 18e3 2c3f 11cb 4d3f 31c3 403f
000000a0: 8151 5e3f 57a6 3f3f b783 1a3f 6c9e 223f
000000b0: b19c 4b3f 3649 303f 2c9a 623f f948 1c3f
000000c0: f468 843f cbef 583f e1cb 123f 4021 443f
000000d0: a0ce 3d3f 842b 473f c53f 013f 0377 313f
000000e0: b31d 313f 0433 573f d240 543f 4230 603f
000000f0: 9aa7 3d3f df7e 293f 8e29 483f 2541 253f
0.8021275 0.8982725 0.8541165 0.4794683 0.6249628 0.90180856 0.5268602 0.7300979
0.6770314 0.7640583 0.87592936 0.8055259 0.6407726 0.898652 0.8058475 0.7947379
0.6534445 0.9088053 0.6392236 0.47381547 0.71762997 0.73432887 0.6012811 0.6392351
0.77943796 0.6036961 0.69163597 0.7363126 0.84330004 0.8503081 0.7738172 0.5280133
0.5218971 0.7502474 0.9328408 0.7931064 0.95331126 0.6753402 0.8038798 0.7529784
0.86843115 0.7486319 0.6035723 0.6352298 0.7953597 0.6886171 0.885165 0.6104885
1.0344529 0.84740895 0.57342345 0.76613235 0.7414341 0.77800775 0.5048793 0.6932222
0.6918594 0.8406222 0.8291141 0.87573636 0.74083865 0.66209215 0.7818841 0.6455253

actor_classifier.weight f4 [15, 256]
00000000: 25bf e6bb 81a6 8ebd 6978 633d f97c d2bb
00000010: 46fd 36bc 0235 983c aef6 1a3c 51a8 03bd
00000020: 024e 61bc 72ff 583c fc71 70bd 7534 203d
00000030: c383 69bd f308 293c 1311 75bc 1dfc 41bc
00000040: 59d0 6e3c 29a8 6c3d 9e0f 7fbd 9041 8a3c
00000050: 2dd4 82bc 2365 ff3c 9125 df3c 782f 29bd
00000060: eb23 133d 5e30 56bd 9b1e fdbc f2df 593d
00000070: 9db2 ca3c 695b b53b 074b c43c beb2 8abc
00000080: b8eb a4bc a973 543d 8f58 53bd 1530 cd3b
00000090: 7f41 393d b645 6e3d 8d03 5c3d b10b 873c
000000a0: bbb2 4b3d 129f 653d 900d 073c 7c89 1fbd
000000b0: fad3 54bc a7e3 0d3d 3124 5b3a 8a22 2e3d
000000c0: 8ae6 53bd 9f97 803d 6237 c6bb 4f89 0cbd
000000d0: f152 eabc d76e e83c 6a0f 7a3b c08e 3d3d
000000e0: c04f 6a3d 2fc3 eb3c 3546 12bc 9bff bdbc
000000f0: be1f ddba 6cd1 8fbc b5a8 b5bc 62f6 513d
00000100: 6aa4 873c bcb9 053d 5db6 e4bc 0c5b 0ebc
00000110: d01b 1abc ddbb 18bd 9c2c 54bd 990c 6fbc
00000120: 40a9 4dbd eac0 173c c8af 2fbd 8267 c0bc
00000130: 5d1c 033d 8e19 ae3c dc71 ef3c 4d5e 51bd
00000140: 272e d0bb dbab 273d d4ef 5fbd 02d7 7cbb
00000150: 0c63 81bd 39c0 303d ac61 063d c135 683d
00000160: f602 ce3c 7c83 0dbd 83b8 443d 2c7b 3fbd
00000170: 129b d53c e21e 063d 714a 97bc d30b 73bd
00000180: ec3e 8ebb 31e1 233c 020e 3abd 3c2b 8c3c
00000190: 6f52 08bd 7f32 313d d7cf 1a3c ef0a 013d
000001a0: 1486 7e3c f06d 5ebc 9863 803c 9dd5 8b3d
000001b0: bb4f f43c 4220 273d 53c8 403d cbf4 a2bc
000001c0: f0a1 283d 3d39 2c3c c08d 393c c90e 6d3d
000001d0: dd4a 983c 6420 9cbc dfd8 31bd 4dc0 0a3d
000001e0: dd19 fa3c ddc5 83bd 3ec4 51bd 1090 5fbc
000001f0: 39b7 1dbd f495 eabc 86aa 383d 47fc 8fbb
00000200: 71be eb3b 6b60 55bd f578 ac3b 3d55 b8bc
00000210: 628c 8cbc 8c7d 4c3c b22d 09bd e384 fdbc
00000220: 1000 9fbc 0ccb 78bc 50eb 1d3d b665 b63c
00000230: 63f5 5ebd 91c6 473d afca 203d a45c 8c3c
00000240: c6f8 7abd f55a 67bd b4af 03bd 83cd 173d
00000250: b957 983c b0c2 2d3d 617a e7bb 8e2c 9b3c
00000260: 1f6d 8bbd 6a4c a53c 96c0 bdbc 14da 7b3c
00000270: 8829 b03c ee63 f63c 672c 0ebb 5d39 9fbc
00000280: a921 a3bc c4f6 423d 5223 8e3a 51d6 5abd
00000290: 6ca6 713a bef9 15bd 2903 953c a56e b23c
000002a0: 60bc ea3c 1327 1dbc b51a 29bd 5956 b73a
000002b0: 106c 9a3c b73e a8bc b082 393d d750 583d
000002c0: d4aa 20bd 2fcf cbbc 80b2 56bd e46b 39bc
000002d0: f633 363d 9326 923c 31ac e1bc 6df1 3f3c
000002e0: 4846 563c 6080 623d 6b07 4a3d 085d 2bbd
000002f0: 5249 78bc a61a 70bc 0726 e5ba 9a8a a73c
00000300: 446e 93bc df88 f7bc ab24 39bd 381b 23bd
00000310: d058 12bd 24cc f9bc 43e3 4cbd dfe8 aa3c
00000320: b009 2c3d afee 3abd 0b56 25bc 0228 4f3d
00000330: 4f4c 793c 0d45 473d 0550 9b3c 385e febb
00000340: 31d7 40bd 1e69 77bb 1a07 4c3c 8507 483c
00000350: 1a54 213c a5e9 0abc dacd 42bc 7d0c 5f3b
00000360: 6bba 2cbc a351 a33c 47af 08bd 1c24 333d
00000370: e492 ee3c ab16 9cbc a62e 51bd 03fe 403c
00000380: fe3a 6bbc 707c d03a 977c 483d 984f 4a3d
00000390: ae01 dbbc 325e 83ba f644 c9bc 963a 933d
000003a0: f85e 67bd c59d d0bc 5682 483d e349 4a3c
000003b0: 5d0d 663d e862 15bd 6047 5d3d efa5 3b3d
000003c0: 2256 503c 07dd cdbb 9f31 5bb9 b0c6 4e3d
000003d0: e12d 5bbd 170e f83c 66c4 41bc d806 c3bc
000003e0: a88a fbbb 4e3e 1fbd 2d0f 86bc 8839 35bb
000003f0: f71a 1ebd 80cc 5bbc a894 413d 9603 8e3d
-0.007041829 -0.06965352 0.055534754 -0.0064235893 -0.0111687835 0.018579964 0.009458227 -0.03214294
-0.013751509 0.013244497 -0.058702454 0.039112527 -0.057010423 0.010317075 -0.014957684 -0.011839894
0.014576041 0.057777558 -0.062270753 0.016876966 -0.015970314 0.031176155 0.027239593 -0.041305035
0.035922926 -0.05229222 -0.030898383 0.053192087 0.024743373 0.0055345786 0.023961557 -0.016930934
-0.02013193 0.051868115 -0.051598128 0.0062618353 0.045228478 0.05817195 0.053714324 0.016485067
0.049730998 0.056059904 0.00824298 -0.038949475 -0.012989992 0.034640934 0.000835958 0.042513408
-0.05173353 0.062789194 -0.0060490826 -0.034310635 -0.028604003 0.028373165 0.003815616 0.046278715
0.05720496 0.028779594 -0.0089278715 -0.023193171 -0.0016870422 -0.017555915 -0.022175172 0.05126036
0.01655789 0.032647833 -0.027918989 -0.008688699 -0.009406045 -0.037288535 -0.051800355 -0.014590406
-0.050210238 0.009262303 -0.042892247 -0.023486856 0.03200947 0.02125242 0.029229097 -0.051115323
-0.006353158 0.04093538 -0.054672077 -0.0038580303 -0.0631772 0.043152068 0.03280799 0.05669189
0.025147896 -0.03454922 0.048027527 -0.046748325 0.02607492 0.032744296 -0.018468114 -0.05933745
-0.004340997 0.01000242 -0.045423515 0.01711046 -0.03328174 0.043261047 0.009448967 0.031504568
0.015534896 -0.013576016 0.01567249 0.06827853 0.029823175 0.040802248 0.047066044 -0.019892117
0.04117006 0.010511694 0.0113253 0.05787543 0.018590385 -0.019058414 -0.043419715 0.0338748
0.03052991 -0.06434224 -0.05121254 -0.013645187 -0.038504813 -0.028635956 0.0450845 -0.0043940875
0.0071943332 -0.052093904 0.0052634426 -0.022501582 -0.017156783 0.012481105 -0.033490844 -0.030947154
-0.01940921 -0.015185129 0.03855449 0.022265296 -0.054433238 0.048773352 0.039255794 0.017134018
-0.061272405 -0.056483228 -0.032149985 0.037061226 0.018596517 0.042421997 -0.0070641492 0.018942144
-0.068079226 0.020178039 -0.023163121 0.015371818 0.021504179 0.030076947 -0.0021693946 -0.019436533
-0.019913511 0.047598615 0.0010844267 -0.053427044 0.0009218219 -0.036615126 0.018189983 0.021781275
0.028654277 -0.009591836 -0.041285235 0.0013987526 0.018850356 -0.020537717 0.04529065 0.05281147
-0.039225414 -0.024879066 -0.052416325 -0.011317227 0.044483148 0.01784066 -0.027547928 0.011715275
0.01307828 0.05529821 0.04932348 -0.04183677 -0.0151542 -0.014654791 -0.0017482647 0.020451833
-0.017996915 -0.030216632 -0.045200985 -0.03982088 -0.03572923 -0.03049285 -0.05002142 0.020862995
0.042001426 -0.045637783 -0.010091315 0.050575264 0.015215947 0.048649836 0.018959055 -0.0077626966
-0.047080223 -0.0037751864 0.012452865 0.012208824 0.0098467115 -0.008478557 -0.011889899 0.0034034543
-0.010542492 0.019936388 -0.033370283 0.04373561 0.029122777 -0.019053778 -0.051069878 0.011779311
-0.014357327 0.0015906226 0.048946943 0.049392313 -0.0267342 -0.0010022579 -0.024569016 0.07188909
-0.056487054 -0.025465855 0.048952423 0.0123467175 0.056165088 -0.036471277 0.054023147 0.045812543
0.012715848 -0.006282452 -0.00020903953 0.050482452 -0.05351055 0.030280156 -0.01182661 -0.023806974
-0.007676441 -0.038877778 -0.016364658 -0.00276527 -0.038599934 -0.013415456 0.04726091 0.06934278

actor_classifier.bias f4 [15]
00000000: 67a7 0dbd 1d65 92bd dfd2 2abd 595c 65bd
00000010: 9d1d 203c 4601 09bd cce2 c9bc 3b14 b8bc
00000020: 3cf1 1ebd 7067 0b3d 0d3c 493d 7d70 643d
00000030: 7def 3e3c d8db 673c 1d29 123d
-0.034583475 -0.07148192 -0.04170501 -0.055996273 0.009772685 -0.03344848 -0.024644278 -0.022470584
-0.038804278 0.034034193 0.049129535 0.05577134 0.011653778 0.014151536 0.03568374
