Saved Models/model_checkpoint_bigfish_42_0.0001_1600_6_256_0.99_0.95_0.2_1024_0.5.pth (torch, 153140 bytes, 21 tensors)

layers.0.weight f4 [32, 3, 8, 8]
00000000: 8a5f 54bd c00a 8fbb 56cc 19bd ec05 ed3c
00000010: 8f16 073c 5ba7 2fbd 242e 58bd a39f febc
00000020: 2d8b 1f3d 9c95 193c 2a59 013c 3856 33bd
00000030: b5f4 71bd a3a1 32bd b145 80bc 2f86 32bd
00000040: c8e6 99bc 74c9 e23d 4125 6b3d 6531 c73a
00000050: 1bda e33d 7763 b93c f017 4cbd d083 9cbd
00000060: e9c2 e93c 5cee 0bbd 3750 7a3b 767a b53a
00000070: bfc7 bb3c d845 bdbc 004e 75bd dd65 0a3b
00000080: 3fd7 733d 5054 2abd e973 7fbc df26 1b3d
00000090: 4a39 a7bc 8d44 d5bd 9f85 0bbe 2240 19be
000000a0: 5bd8 d1bc ea9c 753d 9c7e 453c ebe4 823c
000000b0: 6ea8 b83d 096d 5c3d c5d8 29be 0bcd b33b
000000c0: eb09 b73d 2640 4c3d 24a5 573d 6c6e ef3c
000000d0: 4256 193d cff7 de3c eb0c 523c aea6 45bd
000000e0: f692 083d f3e2 92bd eace fe3c a5fb 86bd
000000f0: b477 23bd 4756 4c3d ace7 bfbc ef58 9dbd
00000100: 09fb 663d 4459 7d3d d3be a73d 1866 7fbd
00000110: 0e27 51bd 9ec0 c2bd 2f9e 1ebd 7372 183d
00000120: 3598 993c fa39 ed3d c2fa 193c 7bd9 b63c
00000130: 7c6c 5c3d a1bc 0c3c 2e81 f2bd eb57 b8bc
00000140: 2bd2 d8bb fa0b db3d 3d83 1c3d fa13 193a
00000150: cbe8 c93d b286 913c 65fa 953a e03d 643d
00000160: e600 b53b 0827 a73d c1a9 443d 0b15 0b3d
00000170: 003f dd3d 86ae 8dbd 5f0e cf39 401d 6cbd
00000180: f73d 803d e158 663c 7aee 543d b78d 1b3b
00000190: 400c 9c3c 12ba 8cbc fabe ffbd bb6d 03be
000001a0: 7327 5b3d 5405 94ba 3d52 acbc 84d8 a33d
000001b0: e4c7 31bb f930 bc3b 7238 c3bd e7ad c5bd
000001c0: dc41 16bc bb0f 033d 8c65 f63c c19b be3d
000001d0: 05f3 0f3d cacc b93c a7c8 cdbd f9dd 12bd
000001e0: 98bd febc 43a2 fa3c ffde b2bc 33d7 7fbd
000001f0: be93 ea3c 1c18 0cbd 5deb 0d3b 7a44 183d
00000200: 4930 223d e068 af3b ad7c a33d dd9a acbc
00000210: e79d eabc 9dc6 82bd 4179 debd f97e 013b
00000220: fe4d 4bbc 44f5 cd3b 022d 483d 35ca 0cbd
00000230: 49b9 d1bc ac52 1e3d 36c5 e9bc 696b 193d
00000240: 8584 b83d 9263 67bd 038a 823c ed49 97bc
00000250: 652c 603d 2989 51bd 725b 0abe f5f3 16bd
00000260: 8e98 a53c d890 44bd 46d3 413c c7ed bc3c
00000270: afd3 223d eb96 263d 7cb9 963c 7fe7 443d
00000280: 06c6 823d dbb0 fbbc e230 903d c02a 643b
00000290: bad3 dd3c 3605 e43c 108b bbbd 6b27 87bd
000002a0: d1da ae3d 0258 a5bc b540 093b d6ed 6a3d
000002b0: 5086 3a3b 48a0 61bd ab7c b6bd b987 7fbc
000002c0: c360 193d a8dc de3c a8f1 753d aa2d 063d
000002d0: ba88 2cbd 7ab3 a9bd 6153 15bb 5e15 93bd
000002e0: ad24 90bd 850b c3bd 5516 aebd 9c95 58bd
000002f0: 1281 00bd 4142 813d 44c0 23bd f380 89bc
00000300: a6b8 e93b c5b7 85bd 4ce7 adbd c2db 613b
00000310: 06ff f43c 3be2 753d 1ab8 5a3d 74aa 683d
00000320: 0b40 e13d d713 a6bd f058 d3bc 0531 90bc
00000330: 652b 37bd 938f 47bd 80ea d23c 4361 73bd
00000340: 0412 a63c ee90 33bc 75c9 7bbd 2b21 e3bd
00000350: 96bd 9abd 2a8c 603c debb b73c f5ef 9abd
00000360: 0b60 babc ae16 79bb d8b1 09bd a6a1 d9bd
00000370: f2a0 59bd a3dc 6e3d ba89 e4bd 7641 533d
00000380: 3bc2 503d 3840 b83c 3379 a13d 6ab1 0d3c
00000390: 837b ee3d 4db3 4cbb 31e4 efbd 9166 15bd
000003a0: 576b 71bc fb65 9abd 4840 b1bd 7fc9 aabc
000003b0: f694 13bd f3ab a9bc 3a76 9dbd 59a7 19bd
000003c0: 7ded 823d 2796 44bd ac29 99bd 68e3 ff3d
000003d0: 10e7 4a3a 7f71 a93d f5e1 30be f7d2 13bd
000003e0: e2a5 5e3d deeb f43c 6e3a bcbc bd8f e3bc
000003f0: c4bb f53c 634f 2a3a 4f8a b5bd 498e d9bd
-0.051848926 -0.004365295 -0.037548386 0.028933488 0.0082451245 -0.042884212 -0.052778378 -0.03108198
0.038951088 0.009374049 0.0078947935 -0.043783396 -0.05907126 -0.04361118 -0.015658231 -0.043585
-0.018786803 0.110735804 0.057408575 0.0015197216 0.11125585 0.022630436 -0.049827516 -0.07642329
0.028535323 -0.034162864 0.0038194784 0.00138457 0.022922395 -0.023104593 -0.05988884 0.0021117844
0.059531447 -0.041584313 -0.0155916 0.037878867 -0.02041306 -0.10413466 -0.13625191 -0.14965871
-0.025615862 0.059964098 0.012054112 0.015978297 0.090165004 0.05381492 -0.16586597 0.0054870895
0.089374386 0.049865864 0.052647725 0.029227458 0.037435777 0.027217774 0.012820463 -0.04825466
0.033343278 -0.071721934 0.031104524 -0.06590966 -0.03990908 0.049886968 -0.0234259 -0.07682978
0.05639175 0.06185271 0.08190694 -0.062353224 -0.051062636 -0.09509395 -0.038725074 0.037218522
0.018749336 0.11583324 0.009398164 0.0223205 0.053814396 0.0085898945 -0.11841045 -0.02250286
-0.006616851 0.10695644 0.038211096 0.00058394636 0.09858855 0.017764423 0.0011442421 0.05572307
0.0055237887 0.081617415 0.048013452 0.033955615 0.10803032 -0.06918053 0.00039492824 -0.057645082
0.06261819 0.014059276 0.05198524 0.0023735592 0.01904881 -0.017178569 -0.12487598 -0.12834828
0.05350442 -0.0011293092 -0.021035308 0.080002815 -0.00271272 0.0057431427 -0.095322505 -0.0965231
-0.009170976 0.031997424 0.030077718 0.093070515 0.03514387 0.022680659 -0.10048037 -0.03585622
-0.031096265 0.03059495 -0.021834848 -0.06246109 0.028634902 -0.03420268 0.002165518 0.03717468
0.03959683 0.0053530782 0.079827644 -0.021069938 -0.028639747 -0.06385539 -0.10862971 0.001975952
-0.0124087315 0.0062853415 0.048871048 -0.034372527 -0.025601046 0.03865306 -0.02853642 0.03745595
0.09009651 -0.056491442 0.01593495 -0.018467868 0.054729838 -0.051156197 -0.13511446 -0.03685375
0.020214345 -0.047989696 0.011830157 0.0230626 0.03975266 0.04067127 0.018398993 0.048072334
0.06385426 -0.03072398 0.07040574 0.003481552 0.027078498 0.027834516 -0.091573834 -0.06599315
0.0853783 -0.020183567 0.002094311 0.057355724 0.0028461404 -0.055084497 -0.08910497 -0.015596324
0.037445795 0.027204826 0.060044914 0.032758392 -0.04212258 -0.082861856 -0.0022785293 -0.0718181
-0.07038245 -0.095236816 -0.08500353 -0.052877054 -0.03137309 0.06311465 -0.03997828 -0.01678512
0.0071326075 -0.06529192 -0.08491382 0.0034463261 0.02990676 0.060030203 0.05339823 0.05680318
0.10998543 -0.08109253 -0.025799245 -0.0176015 -0.04471912 -0.048720907 0.025746584 -0.059418928
0.020272262 -0.010959847 -0.06147142 -0.11090311 -0.07555692 0.013705293 0.02242845 -0.075652994
-0.022750875 -0.0038007903 -0.03361687 -0.10626535 -0.053132005 0.058315884 -0.11159082 0.0515761
0.050966483 0.02249156 0.07884445 0.008648256 0.11644652 -0.0031234801 -0.11713446 -0.036474768
-0.0147350645 -0.075389825 -0.08654839 -0.020848034 -0.036030732 -0.020711875 -0.076885656 -0.03751311
0.063929535 -0.04799476 -0.074786514 0.12494546 0.00077401195 0.08273601 -0.17273696 -0.036089864
0.054357417 0.029897626 -0.02297708 -0.0277785 0.02999676 0.0006496815 -0.08864271 -0.10622842

layers.0.bias f4 [32]
00000000: dce4 44bd 49dc 9e3b 8e62 5a3d 216b a93a
00000010: 632a 2ebc 4c9d 51bd 4e3c c9bc 524b b63b
00000020: 1cf0 543c 56de 883b 708e 2dbd 7aa6 093d
00000030: d509 bcbd 8d3e 8e3d 0b57 59bd 6e84 423c
00000040: f0b5 8abd ddf8 8f3d 773f 1d3d 0011 023e
00000050: 1509 84bd a534 f4bc 60ba 333d 8a7d 003b
00000060: 76f9 423b 3c28 bfbd 82ca 6b3d d21a 8c3c
00000070: e417 c13c 17f2 0e3d 540e 9f3c 0f14 b53b
-0.04806982 0.0048480374 0.053316645 0.0012925604 -0.010630223 -0.0511754 -0.024564888 0.005563178
0.0129967 0.004176895 -0.042372167 0.03360603 -0.09181563 0.06945524 -0.053061526 0.011872394
-0.06772983 0.07029889 0.038390603 0.12701797 -0.06447045 -0.02981026 0.043878913 0.0019606077
0.002975074 -0.09333846 0.057566173 0.017102633 0.023570962 0.034898844 0.019416012 0.005526073

layers.2.weight f4 [32]
00000000: 469b 7e3f d180 783f 859a 853f 82b8 863f
00000010: 55af 793f 141c 7f3f de6e 763f e81c 743f
00000020: 0abd 7e3f c086 773f 4ed1 783f 494d 7e3f
00000030: 2670 7b3f 923a 803f e058 793f 684c 8a3f
00000040: f46a 793f f8e7 793f 7a3a 783f 251e 7a3f
00000050: d8ea 863f 69d9 7d3f 5b69 8a3f 8609 7e3f
00000060: 3411 843f 9312 7e3f 6e4a 813f a158 833f
00000070: 2d79 823f 490d 773f 349e 803f 4a01 7c3f
0.9945568 0.9707156 1.0437781 1.0525057 0.9753316 0.9965222 0.9626292 0.9535661
0.995072 0.9668999 0.97194374 0.9933668 0.98218 1.0017874 0.9740124 1.0804567
0.9742882 0.9761958 0.9696423 0.97702247 1.0540419 0.99159867 1.0813402 0.9923328
1.031775 0.9924709 1.0100839 1.0261422 1.019323 0.96504647 1.004828 0.98439467

layers.2.bias f4 [32]
00000000: 8a89 df3d c406 7fbb a26c 513d e8c5 dd3d
00000010: b8ba 8c3d 0760 0f3e edca c13d bb58 883d
00000020: 7e66 db3c d0ed 053d c0de f83d 6e29 da3d
00000030: 7e9b cd3d 82cc 943d 5e2c d73d 5351 703d
00000040: 7e02 013e 58ff 333b 3737 2a3d ded3 893d
00000050: 392c b13d 930f 873d 622a b63d 68e3 5d3d
00000060: cc14 bf3c 5014 8d3d 2510 0a3e f8a6 c03d
00000070: d003 aa3d 405a 7e3d b8e7 fb3d 111b af3d
0.10914905 -0.0038913945 0.05112899 0.10828763 0.06871551 0.14001475 0.09462533 0.06657549
0.02678227 0.0326975 0.12151861 0.10652433 0.100394234 0.07265569 0.10506509 0.058671307
0.12598607 0.002746543 0.041556563 0.067298636 0.08651013 0.065947674 0.08894803 0.05417195
0.023325346 0.0688864 0.13482721 0.09406847 0.083015084 0.062097788 0.12300056 0.085500844

layers.2.running_mean f4 [32]
00000000: 3425 3d3c ca0d a93b 37e2 563d 7f3e 713b
00000010: e930 cd3b 2182 2b3c 968d d43b d3e3 6c3c
00000020: 836b 923c 2d9e 8e3c 126d 763b df48 083d
00000030: ddc5 dc3b c792 993d 7724 1d3c b745 903c
00000040: ddf8 283c eddb 913d 421e 2d3d f889 063e
00000050: 6ee3 bd3a 76c4 123c ec3d 323d 027f 983b
00000060: 7a8e 813b 0cf2 c03b 7dd4 7a3d fe08 953c
00000070: c452 da3c a069 2b3d fa74 e13c 4daf c13c
0.011544514 0.0051591145 0.05246183 0.0036810932 0.006261934 0.010468037 0.006486605 0.014458614
0.017873531 0.017409408 0.0037601632 0.03327262 0.0067374543 0.07498699 0.009591213 0.017611368
0.01031324 0.07122026 0.042265184 0.13138568 0.0014487335 0.008957973 0.043516085 0.0046538124
0.003953752 0.0058882292 0.0612378 0.018192764 0.026650794 0.04184878 0.0275216 0.02364316

layers.2.running_var f4 [32]
00000000: 0a0e a33b 4b2c 9738 3b78 143a a75a c539
00000010: 83d5 ae3a e834 2d3b 6542 083b b75e 593b
00000020: 2201 df3a 7832 a43b 6a49 233a 9435 bc39
00000030: 530d e83a 52e1 303b 4c56 5c3b 54b4 d63a
00000040: bb4f 723b f776 a03a 57f0 c43a 3c31 913b
00000050: aad1 df39 8ee2 263b 1439 103a dad6 153a
00000060: 6d31 4339 30c7 d93a 8322 033b 233f e539
00000070: 7e48 693a 37e2 f63a f379 153b d9ee 203c
0.004976039 7.208491e-05 0.00056636677 0.0003764231 0.0013338778 0.002642924 0.0020791527 0.0033168027
0.0017013887 0.005010899 0.0006228896 0.00035898073 0.0017704166 0.002698977 0.0033620773 0.0016380646
0.0036973793 0.0012242486 0.001502524 0.004430918 0.00042690086 0.0025464627 0.00055016694 0.00057159143
0.00018615062 0.0016615149 0.0020009584 0.00043725324 0.0008899047 0.0018835728 0.0022808283 0.009822571

layers.4.weight f4 [64, 32, 2, 2]
00000000: 3710 6e3d 054c 52bd 3f61 903c e9bd 69bd
00000010: c771 92ba 838c f73b d5f8 963c 91ae 78bc
00000020: a106 56bc 01c4 a4bd da1d a93b 1d81 903d
00000030: 8a56 9a3d c383 8ebd b150 b2bd f4a6 7d3c
00000040: 1706 15bd 21bd bf3d 2d1b 193c d4ab 17bd
00000050: 67d5 f4bd 0423 06bd 979f 8b3d de74 28bd
00000060: ca70 22bd 7667 e03d 12d5 983d 2fb9 333c
00000070: 58d0 803d 86c5 6a3c bfe2 49bd 4fdf 92bc
00000080: fc98 063d 36ed f93c c991 8dbd d9b1 7e3d
00000090: d709 b13d 1c80 8fbc 2a61 c2bc 9ba1 4c3c
000000a0: 6de9 01bd 8a95 d13c 9012 66bc 75b2 063d
000000b0: a3b7 f03c e1be 193d b9ca b4bd c542 863d
000000c0: f23e 0c3e 43a8 743d 5cb7 4e3d 18bf e73c
000000d0: f3c0 fa3d 5bd6 c539 6f15 a63c 523a d13c
000000e0: 86d5 7bbb 0530 da3d dc1e 0ebd 57b8 19bd
000000f0: 40ea e93d 49dd 643c 1a84 96bd c38b b1bd
00000100: 7480 a3bd 9a5d 863c 9bed 5cbd 7f73 d0bc
00000110: 9d18 2bbc e27c e83d 8471 c2bb d86f 823c
00000120: 3586 9f3d ccf4 53bd 031e 91bd 194d 42bd
00000130: 7ddf f23c 4d68 a9bd fb44 873d a95a 5dbd
00000140: 12a4 f73d 160d 9b3d 1440 8fbb 4bfd db3c
00000150: a8be 64bd 5a5f 3fbd fdc4 283d 99b6 c0bc
00000160: 5b0c 8e3c 1a44 9b3d e119 ca3c a00c 57bc
00000170: e826 993d 3461 543d 7000 44bd e6b3 0ebd
00000180: 99fb 91bc e102 01be 272b ae3c 6cf3 73bd
00000190: c340 cfbd 5eec 293c 8cf3 9dbd 64e7 8b3c
000001a0: 5e03 fcbd a203 253c 1d98 6e3a 64d9 08bd
000001b0: ecb0 07bc da67 1b3c f106 653d d4c3 01bd
000001c0: 79a4 993c a510 783d 69b5 453d 9fa0 a4ba
000001d0: 9049 833c 5f03 333d 1f80 34bd 2f0b 86bd
000001e0: 9702 533d 8021 b33c 50ac eabd 485a 28bd
000001f0: 425c a73d 4cfe f83d 60ee 2fbd 64e7 00bd
00000200: 6a36 19bd 1e5a b53d 2227 db3c 9249 c1bd
00000210: 42cf a43d fa7c ac3c 5f36 94bb 9715 843d
00000220: cb40 0abe 964a 6b3c a969 44bd 8f1f 6abd
00000230: adf5 d93c df39 adbd b2fc 323d 98a8 503d
00000240: 5bc7 a73d c8db 7ebd 9003 91bb b5d7 efbc
00000250: cebb a8bd 21db 663d 04a2 02bc 0d1a 2b3b
00000260: a068 8e3d 3488 32bc 8acc 3e3d 4e09 90bd
00000270: 72f2 43bd 114e 9fbd bbee 6bbd 375d b43c
00000280: 929d ba3d 156e 20bd fd38 08bd 088b d23c
00000290: 675a a1bd b4c1 9a3d 2fb3 353c e31b 993c
000002a0: 01ef 363d 805e 343d da62 643d ec80 febd
000002b0: 13b2 a03d b089 3b3d 89c8 4ebb 9a58 b73d
000002c0: 9b92 a3bd bb7f 9e3c 8e52 3c3d bef3 08be
000002d0: 58ad 9ebd 2a53 313d 2e4a 9fbd 73f5 20bd
000002e0: 7e26 903d 6fa2 993c bebd f5bc 10c9 6fbc
000002f0: 1540 383d ef29 65bb cdfe 1dbd e681 1dbd
00000300: 62b4 8ebd 2a33 2ebb 86a6 b1bc e3da 07bd
00000310: 74b0 cbbd 62b8 25bd 97dd b2bd 7bc2 653c
00000320: f1d5 31bd 76b1 bdbd fe16 b93d 314d 01bd
00000330: d0a0 b4bb 572b 8d3d 32ab c6bd 2695 78bd
00000340: 269e 56bd cb7d a03d b1ba 7f3d 7e6b 06bd
00000350: d01b 843d 35c2 e9bd ef28 8b3d 8f69 c2bd
00000360: 3407 0abd ccd7 48bd e0cb b4bd ed11 513d
00000370: f701 9e3c 6c7f 913d bc1c fbbc 2f2e 113d
00000380: 1c80 81bc dd20 143e cccd 6cbd 0ff1 09bc
00000390: ef5f 1a3d 6930 02be 4307 873d a624 8c3c
000003a0: 2972 993d 6c27 173d aba5 40bd b673 49ba
000003b0: 1f6d 49bd 17f3 3b3d 9f1b 0cbd e318 8b3c
000003c0: 1643 56bc 4b79 aabb 1315 d2bd ad6e 533d
000003d0: 6b85 d43c 944f 253d fb7b 183d 60e9 70bd
000003e0: 27e1 7d3d 0065 883c d0f7 933c bdd5 0cbd
000003f0: 75da 253d f9de ce3d 422f 8ebd 7bc7 6dbd
0.058120932 -0.05134203 0.017624496 -0.057065878 -0.0011172824 0.007554592 0.0184292 -0.015178339
-0.013063104 -0.08045197 0.0051610293 0.070558764 0.07536037 -0.06958725 -0.08706797 0.015481699
-0.03638276 0.09362245 0.009344858 -0.037029102 -0.11954766 -0.032748237 0.06817549 -0.04112708
-0.039658345 0.109572336 0.07462515 0.010969444 0.062897384 0.01432932 -0.049288508 -0.017928747
0.03286074 0.030508619 -0.06912572 0.062181327 0.08644455 -0.017517142 -0.023727972 0.012489702
-0.031716753 0.025584001 -0.014042512 0.032885034 0.02938444 0.037535552 -0.08827729 0.06555704
0.13695887 0.05973078 0.050467834 0.028289363 0.122438334 0.00037734475 0.020273892 0.025540505
-0.003842683 0.1065369 -0.0346974 -0.037529316 0.11421633 0.013968774 -0.07349415 -0.086692356
-0.07983485 0.016402055 -0.053937536 -0.025445698 -0.01044288 0.113519445 -0.0059339423 0.015922472
0.0778927 -0.05174713 -0.070858024 -0.047436807 0.029647583 -0.08271847 0.06604954 -0.05404154
0.12091841 0.07570855 -0.0043716524 0.026854178 -0.055845886 -0.046721794 0.041203488 -0.02352457
0.017339876 0.07581349 0.024670543 -0.013125569 0.07478124 0.051850513 -0.04785198 -0.034839533
-0.017820166 -0.12598754 0.021260811 -0.059558317 -0.10119774 0.010371296 -0.077124685 0.01707811
-0.1230533 0.010071667 0.0009101646 -0.033410445 -0.008281928 0.009485209 0.055914823 -0.031680897
0.018755184 0.06056275 0.04826871 -0.0012560076 0.016026288 0.043704387 -0.0440675 -0.06545102
0.05151614 0.02186656 -0.11458647 -0.041101724 0.08171894 0.12157878 -0.04295194 -0.03147067
-0.03740541 0.08855079 0.026752058 -0.094378605 0.08047344 0.021055687 -0.004523083 0.064494304
-0.13501279 0.014361044 -0.047952328 -0.057159003 0.026606405 -0.08458304 0.04369802 0.050942034
0.08192321 -0.06222132 -0.0044254735 -0.029277662 -0.08238946 0.05636132 -0.007973198 0.0026108057
0.069535494 -0.010896731 0.046581782 -0.07033025 -0.047838636 -0.07778562 -0.057600718 0.022017105
0.091120854 -0.039167482 -0.033257473 0.02570106 -0.07878571 0.07556477 0.011090084 0.018690055
0.044661526 0.044035435 0.055758335 -0.12426934 0.07846465 0.045785606 -0.0031552634 0.08952446
-0.07986947 0.019348016 0.045977168 -0.1337423 -0.077479064 0.043292202 -0.077778205 -0.03929658
0.07038592 0.018754212 -0.029997703 -0.014635339 0.04498299 -0.0034967621 -0.038573075 -0.03845396
-0.06967999 -0.002658079 -0.02168585 -0.03316773 -0.09945765 -0.040459044 -0.08733671 0.014023419
-0.04341692 -0.092623636 0.090375885 -0.031567756 -0.0055123344 0.06893032 -0.09700622 -0.060689114
-0.052396916 0.07836493 0.062433902 -0.032817356 0.06450617 -0.11413995 0.06794917 -0.0949279
-0.033698276 -0.049033925 -0.088279486 0.051042486 0.019288046 0.07104382 -0.03065335 0.035444435
-0.015808158 0.14465661 -0.05781345 -0.008419289 0.037689146 -0.1271378 0.06593182 0.01710732
0.074924774 0.03690283 -0.047032993 -0.0007684784 -0.04917633 0.045886125 -0.03420603 0.01697964
-0.013077518 -0.0052024475 -0.10257926 0.05161922 0.025942525 0.040359095 0.037227612 -0.058816314
0.0619823 0.016649723 0.018062502 -0.034383524 0.04049154 0.101011224 -0.069426075 -0.058051568

layers.4.bias f4 [64]
00000000: 83f3 0ebe 7288 b33d c1a6 c93d 1f8a 153d
00000010: 23f3 963b 5cc7 a7bd edcd 903d efa3 ffbc
00000020: 037e 90bd 8b9c 883d 2466 24bd 98e2 253d
00000030: 299e f33d 7eec b9bd 9463 e93c 3a3e d0bd
00000040: bc44 d6bc 4833 933d 86dd cfbc 04ff 8d3a
00000050: cca5 a1bd 2842 063e 31cd 643d ac1f 403d
00000060: 8d71 b6bd b382 663d 0c07 09bd 066b 28be
00000070: 12db 2d3c 399f 8d3d 37a8 32bb ca2b b43d
00000080: 5062 ebbc c3a3 9bbd 9a83 9abd 77ec 063e
00000090: 9088 2a3b b150 eabd 0b13 e03d 39b4 323e
000000a0: c73e 733d e714 6fbd 2a8c 0cbd afdb 1e3d
000000b0: 9efd f83d 138e a33b 39fd a13d 4794 4d3c
000000c0: 2f9f 15bd 02fb a33d 3027 d7bc e207 d03d
000000d0: e192 f53d c9c0 083d 6f62 46bc ee70 703d
000000e0: 83bb 6dbb c523 58bd 0405 a4bc c76c d5ba
000000f0: 9004 123e 5a17 f93d a90c 5a3d ac1e d9bc
-0.1396008 0.08766259 0.09846259 0.036508676 0.004606621 -0.08192322 0.07070527 -0.0312061
-0.07055285 0.06670483 -0.04013647 0.0404993 0.11895401 -0.090783104 0.028489865 -0.10168119
-0.026155822 0.071875155 -0.025374185 0.0010833447 -0.07892951 0.13111174 0.05585975 0.046905205
-0.08908377 0.05627699 -0.033453986 -0.16447076 0.010611312 0.06915135 -0.0027260908 0.087974146
-0.028733402 -0.075995944 -0.07544632 0.13176142 0.002602134 -0.11441172 0.10941132 0.17451562
0.05938604 -0.058369543 -0.03431336 0.038783725 0.12157749 0.004991302 0.079096265 0.012547559
-0.036528762 0.0800686 -0.026263803 0.101577535 0.119909056 0.03338698 -0.012108429 0.05870145
-0.0036275096 -0.052768487 -0.020021923 -0.0016283029 0.14259553 0.12162657 0.05323473 -0.026503883

layers.6.weight f4 [64]
00000000: 3464 6d3f 0efa 763f 3127 763f a780 7e3f
00000010: cd01 753f b9ed 6e3f 9f0f 743f 5dae 803f
00000020: 2c4d 823f 9f58 803f 9714 903f 8e52 7b3f
00000030: 03c9 6f3f 2a3d 843f 2db4 803f 63d0 823f
00000040: 8057 773f aad8 793f efd9 813f 7fbc 723f
00000050: ff0d 863f 6a31 7e3f 1d36 643f 9ab5 843f
00000060: b6a0 853f f4e1 783f 8d0b 773f 9b17 773f
00000070: f235 803f 2121 773f 99a9 863f 2d60 803f
00000080: 719e 893f 2f45 833f b078 773f a85d 813f
00000090: 9481 833f c001 7a3f 4f48 773f c361 763f
000000a0: b8d8 7f3f c4d8 803f b814 5e3f 9c09 723f
000000b0: 31b5 7b3f 66b0 783f 72ca 853f 3091 793f
000000c0: fc01 7b3f c0b2 723f 1f22 843f 0f19 823f
000000d0: 5de7 783f 0257 823f 8ec9 7f3f e91a 723f
000000e0: 90e1 7f3f e8dd 7a3f f512 7c3f 19cd 7d3f
000000f0: e1b3 7b3f faa3 723f e9b9 773f 4cf7 703f
0.9273102 0.96475303 0.9615355 0.9941506 0.9570587 0.93331486 0.95336336 1.0053211
1.0179801 1.0027045 1.1256284 0.98172843 0.93666095 1.0331166 1.0054985 1.0219845
0.9661789 0.9759623 1.0144633 0.9481887 1.0473021 0.9929415 0.8914507 1.036792
1.043967 0.9721978 0.96502 0.96520394 1.0016463 0.96534926 1.0520507 1.002935
1.0751477 1.0255488 0.9666853 1.0106707 1.0273919 0.9765892 0.9659471 0.9624292
0.9994006 1.0066152 0.86750364 0.9454591 0.9832335 0.9714416 1.0452406 0.97487164
0.980499 0.94804 1.0322913 1.0163897 0.9722803 1.0182803 0.99916923 0.9457231
0.99953556 0.9799485 0.98466426 0.9914108 0.9832135 0.9478146 0.9676805 0.94127345

layers.6.bias f4 [64]
00000000: 96e2 01be 5db4 343e 2159 4f3e 185b 103e
00000010: e27c 2dbe ecda 0fbe 5d05 af3c 941e f13d
00000020: f8d8 af3d ffcb 4bbe f987 c9bd d74e 3bbe
00000030: 37b9 3e3e e5c8 e83d c845 073e 30de 243d
00000040: 0a34 543e 4a1a df3b bab2 03be 4028 46be
00000050: 4bad 5ebe c2e8 1b3e 5efc 91bd 37ff 123d
00000060: c863 25be 7a9c 153e 4609 30be e489 43be
00000070: 5a3b 153e 35ed 13be 15e6 1bbe 7dcb 293d
00000080: a803 5ebd 16e4 f7bd 59f2 06be 3e29 533e
00000090: e9eb 5b3d 49b3 27be 63d2 20be d069 e2bd
000000a0: c522 46be da56 27be ca07 20bc 52fa 903d
000000b0: ac37 0e3e c406 42be 5132 3a3e dfc9 3e3e
000000c0: 58b2 24be 3081 323e 2424 1b3e 7b74 08bc
000000d0: 7430 143e c833 0e3e 4b13 90bc 77ff 1a3e
000000e0: ef48 26be 034e 523e 55b2 383e 3112 5abd
000000f0: 8653 603e b759 253e e445 2f3e 8793 45be
-0.12684092 0.17646928 0.20248844 0.1409725 -0.1694217 -0.14048356 0.021364862 0.117734104
0.085863054 -0.19902037 -0.09840388 -0.18291794 0.18625341 0.113664426 0.13210213 0.040250957
0.20722976 0.006808554 -0.12861148 -0.19351292 -0.21745794 0.15225509 -0.07128213 0.035887923
-0.16151345 0.14610472 -0.17191038 -0.1909557 0.14573422 -0.14445956 -0.15224488 0.041453827
-0.054202706 -0.12104051 -0.13178386 0.20621201 0.05369178 -0.16376986 -0.15705256 -0.110553384
-0.19349201 -0.16341725 -0.009767482 0.07078995 0.13888425 -0.18947893 0.18183257 0.18631695
-0.16083658 0.17432094 0.15150505 -0.008328552 0.14471608 0.1388694 -0.017587325 0.15136515
-0.1623876 0.20537572 0.18036778 -0.053240005 0.21906862 0.16147505 0.17116505 -0.19294558

layers.6.running_mean f4 [64]
00000000: f2a5 4d3e 2f7b 093e c80b 3c3e 8fcb 023e
00000010: a410 993e a48d 623e 375d ae3e 7454 323d
00000020: 8975 753d fe90 403e 50b3 ce3c 72ea e13e
00000030: c8e8 043f 8909 9f3c 2f02 993d 0c02 263d
00000040: ce33 4b3e b195 823e a244 973e 3c24 a93e
00000050: b58b 463d 7683 703e 267d 583f 6d52 283e
00000060: b93f 693d 1350 543e 276b b33d f55f 4e3d
00000070: 795e f13d a2e0 da3e 5086 543e e64e 1c3e
00000080: c5e3 a63d 58ef 893c 8a78 383d 5a81 113e
00000090: fb9a bb3d 00b9 b63c c13a f03e 3651 773f
000000a0: 2a9f 173f c7a3 183d c1ff 243e bec7 393e
000000b0: ca92 bd3e 8e0e 663e 7791 ce3d c7f4 bd3e
000000c0: 66dd c33e 2571 df3d 15e3 563c e8f6 803e
000000d0: 442d f43e 413f fa3c ced5 bb3d 721e fa3e
000000e0: fb76 f43d 52e0 173d 228b dc3d 3651 8e3d
000000f0: 11cf c33e dc93 e53e d7ed f43e 0538 703e
0.20082834 0.13425897 0.18363869 0.12772964 0.29895508 0.22124344 0.34055492 0.043537572
0.059926543 0.1880531 0.025231987 0.4412418 0.51917696 0.019413726 0.074711196 0.040529296
0.1984398 0.2550483 0.2954455 0.33035457 0.04847308 0.23487648 0.8456596 0.16437693
0.056945536 0.20733671 0.08760672 0.05038448 0.11785597 0.42749506 0.20754361 0.15264472
0.08148912 0.01683776 0.04503683 0.142095 0.091604196 0.022305012 0.46919826 0.96608293
0.5922724 0.037265565 0.16113187 0.18142602 0.37026054 0.2246649 0.10086339 0.37100813
0.3825485 0.109102525 0.013115664 0.25188375 0.47690785 0.03054774 0.091716394 0.48851353
0.11936756 0.037079163 0.10768725 0.069490835 0.38243917 0.4483937 0.47837707 0.2345887

layers.6.running_var f4 [64]
00000000: 47ca 9e3f 146a e13d db7d c83e 1539 2a3d
00000010: 5acd 773f 7a4b ab3f aa29 923f d483 b53c
00000020: 62dc 8c3d a12b 543e 1572 fe3c 2e23 cd3f
00000030: 85d7 2040 939b 203d da69 f13c a626 3e3b
00000040: ee1a c23e aa85 e43e 62bd 9b3f c72b a13f
00000050: e04e d73d 9000 9b3f cfd7 f740 71d3 c23e
00000060: 7743 9e3d d0d9 4f3f eec8 cf3d ded4 3c3e
00000070: 8d26 093f a1e5 2940 203e 9a3e c942 ca3e
00000080: dba7 3f3d 1a97 523d 95cb fb3d 8a4f 9d3d
00000090: 0803 923e fb94 f93c 14e1 a13f b991 b140
000000a0: f9fe 5c40 fb5d 043d 6cdf 0e3f dc98 2c3f
000000b0: 8a98 8d3f 326b 2b3f 5e60 b63e 719e f53f
000000c0: 680b e13f a274 bb3c 4fd8 c83c 7ad2 533e
000000d0: cc48 5c40 5db7 523d 4ebd 9a3e bc53 2640
000000e0: c803 b73e e3f1 433d 551f b03d fdf8 173e
000000f0: 4263 7e3f 5176 fd3f 675c da3f fe8b 713f
1.240548 0.11006561 0.3915852 0.041558344 0.96797717 1.3382409 1.1418965 0.022157587
0.06877972 0.20719768 0.031060258 1.6026361 2.5131543 0.039210867 0.02946942 0.0029014735
0.3791117 0.44633228 1.216717 1.2591485 0.10513091 1.2109547 7.745094 0.38051942
0.07727712 0.8119173 0.10145746 0.18440577 0.5357445 2.6546404 0.30125523 0.39504078
0.04679094 0.051413633 0.122946896 0.076811865 0.28517938 0.030466547 1.2646813 5.5490384
3.4530623 0.03231619 0.55809665 0.67420745 1.1062176 0.6696044 0.35620397 1.9188977
1.7581606 0.022882763 0.024517206 0.20685759 3.4419432 0.0514444 0.30222553 2.5988607
0.35745072 0.047838103 0.08599726 0.14841075 0.99370205 1.9801732 1.7059449 0.94354236

layers.8.weight f4 [64, 64, 2, 2]
00000000: 4517 c13c 53db a1bc 9bb3 b6bd e45a aa3c
00000010: 735b 093c eb69 933d 2f47 0abd 3808 5e3b
00000020: 544f 713d 065e 6a3d 99a4 bcbc 0bae c03c
00000030: c8a2 82bd 0374 3f3d 619f 463d e77f 34bb
00000040: 2ecc 9f3c 7b7d 3cbd 0708 42bd 496d d3ba
00000050: 4afc 18bd 8181 e73b ab6a 86bd e2a9 813d
00000060: 95ac a93a 425d 123c bc1f 55bb a7f4 22bc
00000070: 9060 213d c251 423b 3f9c 833d ed53 b6bd
00000080: ac4f 553c 584b 363c 5aab 133d 30fd 74bc
00000090: fdcd bd3c 7fb9 ddbc 2667 66bd c495 df3c
000000a0: 5537 18bd a707 b83d d89a d4bb facc 4abd
000000b0: 619c 2dbd f39e 63bd 2651 9d3b 8994 023d
000000c0: f1d4 d6ba 4e76 9a3d 8682 0b3d 46cb 74bc
000000d0: a1a8 9abc 89cb 61bb 56d3 053d 035a 353d
000000e0: 8b59 123d e06f 60bd be00 5cbd fb8e aa3d
000000f0: c5d4 c3bc 280d f5bc 82fa c33c 920b aa3b
00000100: fd0a 09bd 1dc1 753c 340f 783d fb9a b8bb
00000110: afd9 18bd 58a9 a63c 5e26 ca3c 7d4b 5a3d
00000120: dd21 10bd fca9 92bd 0421 48bc 6ffe 7b3d
00000130: 842e c23c 037e bcbd 4280 163d 5db2 0b3d
00000140: 8bca 303d 0c79 77bd e331 9ebd 85bd 7cbd
00000150: 3d9c c23c 6c66 073d 4f9e 223d 275c a13c
00000160: 52e8 e63c 030e aabc 5c27 ca3b 73e9 8abd
00000170: 42e0 2f3d d842 aebd 501a 113c 5d64 acbc
00000180: d050 003c b422 10be 47ba 89bd ddce 19bd
00000190: 1c1f 3f3d 98bf a23b daf7 13bc 6c12 11bd
000001a0: 1929 bbbc fa27 133d d7f3 babb 2806 99bd
000001b0: 1e35 4cbd 1b1b 08bc 8b69 82bd c569 4abc
000001c0: 3c41 cc3a 2515 ca3d 7bd3 59bc 9c1a 94bc
000001d0: 7bc6 243d ee10 00bd 2784 0cbd 7ded 0bbd
000001e0: 6ac5 5e3c 3bad fdbd 33a6 553c cdee 0639
000001f0: 0cfb 23bd 1901 903d e333 603c 5cd1 c53a
00000200: a50f b2bd 2304 e3bc aa99 c3bc bb69 a73d
00000210: 0649 503d 2f01 03bd 2072 6ebd 9c81 4ebc
00000220: dc3c 76bc d119 163d aaab 1ebd 7e8c 8d3b
00000230: 6a11 23bc 24b8 a13d e3f0 713c 7f9e 153d
00000240: beca e73c b4b8 e0bd 7e38 83bc 43a2 d83c
00000250: 7e1e bebc 148e 413c 9aca 9f3d ffec 93bd
00000260: 07f5 54bd 1aa2 a3bc 1f45 0ebc ee1a e73c
00000270: 494a febc b630 d0bc 36ed f73c 54c3 f23c
00000280: f4ed 81bc 6d2a a0bd 33c7 4b3d fc08 53bd
00000290: cd8d e9bd 50ae 05bd 92f5 de3a ed05 a4bc
000002a0: 462c 51bd 0bfb 0e3d 1a1c 8a3c 3060 ccbc
000002b0: 30d3 e23c a7e9 4f3d d9df 54bc 129a 0abb
000002c0: f52b 573d c0cc 42bc ce42 353d 8b46 87bd
000002d0: 1d44 b7bc 0a03 e9bb ca24 663d ed3d 4ebd
000002e0: 6523 bb3c 83ed a83d 63ae 28bc 172f 9fbd
000002f0: 1337 f73c 8a03 0b3d 1095 aa3c 8464 e0bb
00000300: c514 8dbd 9fc2 82bd b461 263c 2f73 48bc
00000310: c49e 06bd ffc1 243d e754 733c de79 fe3b
00000320: 930d dc3d 94f3 8ebc bab0 d3ba 0a28 2a3b
00000330: 1355 3d3d 219e 97bd 63ce 243c cb9c c73b
00000340: a93a 293d a1be 9b3d 7e8c 7ebc c032 293c
00000350: 54fe c83c 2974 943d 93cd ecba b346 b1bd
00000360: f7d9 93bd 6a93 993d fc0c 40bd a228 f8bc
00000370: 028a dd3d 4fac 2cbd 46cb b13c 6870 e03c
00000380: 13a1 d4bc aca8 193d 1a0a 17b9 82e1 83bd
00000390: d058 8abb 5cc4 183d 4173 0cbc a4d0 203d
000003a0: a9fb 9f3b 2d5e e0bc 76df 583a 471d 9b3d
000003b0: 39b3 103d c3d6 ee3c cb3a 1d3c 8306 d4bc
000003c0: 158f 653d 07b9 b03c 8abe eb3c 522d 6a39
000003d0: e297 903b 40fb 743d 8dc6 913c 10b5 d13c
000003e0: 2372 10bd 96bf 803c 04ef 813d f3f7 08bd
000003f0: 4f54 59bc 2554 99bc 5c37 0bbc 9736 003b
0.023570666 -0.019757902 -0.08920976 0.020795293 0.00838362 0.071979366 -0.033759292 0.003387941
0.058913544 0.057218574 -0.023027705 0.02352049 -0.06378704 0.046741497 0.04849184 -0.0027542056
0.01950654 -0.046018105 -0.047370937 -0.0016130592 -0.037349977 0.0070649986 -0.06563314 0.06331231
0.001294511 0.008933367 -0.0032520136 -0.009946025 0.03939873 0.0029650782 0.06426286 -0.08902726
0.013019484 0.011126362 0.036052085 -0.014952943 0.023169512 -0.02706599 -0.056250714 0.027293094
-0.037162144 0.089858346 -0.0064881854 -0.049511887 -0.042385463 -0.055571508 0.0048009334 0.031879935
-0.0016390366 0.07542096 0.034060024 -0.014941042 -0.018879237 -0.0034453592 0.03267225 0.044275295
0.035729926 -0.054794192 -0.053711645 0.083280526 -0.023905167 -0.0299135 0.023923162 0.0051893676
-0.033457745 0.014999655 0.060561374 -0.0056337095 -0.037316974 0.020344421 0.024676498 0.053294647
-0.035188545 -0.07161328 -0.012214903 0.061521944 0.023703821 -0.09203722 0.03674341 0.034105647
0.04316191 -0.060418174 -0.07724359 -0.061704177 0.02375614 0.03305666 0.039701756 0.019697262
0.02818695 -0.020758634 0.006169243 -0.06782808 0.04293848 -0.08508843 0.008856371 -0.02104395
0.007831767 -0.14075738 -0.06724983 -0.037550796 0.046660528 0.0049666874 -0.00903126 -0.03541796
-0.022846745 0.035926796 -0.0057053375 -0.07471877 -0.049855344 -0.008307244 -0.06367787 -0.012354319
0.0015583406 0.09867314 -0.01329505 -0.018079095 0.04022835 -0.031266145 -0.034305718 -0.034162033
0.013596872 -0.12386557 0.013040113 0.00012868196 -0.04003434 0.07031459 0.013684246 0.0015092301
-0.0869439 -0.027711933 -0.023876984 0.08174463 0.05085089 -0.03198355 -0.058214307 -0.0126041435
-0.015029158 0.036645714 -0.03873793 0.0043197265 -0.009952882 0.0789645 0.0147669045 0.036528107
0.028294917 -0.10972729 -0.016018149 0.02644456 -0.0232079 0.011813659 0.07802315 -0.07222938
-0.05199149 -0.019974757 -0.008683472 0.028211083 -0.031041281 -0.025413852 0.030264478 0.029634155
-0.015860535 -0.07820592 0.049750518 -0.05152224 -0.114039995 -0.03263694 0.0017010442 -0.020022357
-0.051067613 0.034907382 0.016859103 -0.02494821 0.027688593 0.050759938 -0.012992823 -0.0021148962
0.052532155 -0.0118896365 0.044253163 -0.06605252 -0.022371346 -0.007110958 0.05618743 -0.050352026
0.022844026 0.08248427 -0.010295483 -0.077726535 0.030177629 0.033938922 0.020823032 -0.00684792
-0.06888727 -0.06384777 0.01015513 -0.012234493 -0.032866254 0.04022407 0.014851785 0.0077659925
0.107447766 -0.017450131 -0.0016150691 0.0025963807 0.04622371 -0.074032076 0.010058972 0.006091689
0.04131571 0.07604719 -0.015536426 0.010327041 0.024535336 0.07248718 -0.0018066637 -0.08656063
-0.07219308 0.0749882 -0.046887383 -0.030292813 0.108173385 -0.042156514 0.021703374 0.02739735
-0.025955712 0.037514374 -0.00014404245 -0.064394966 -0.004222013 0.037296638 -0.008572401 0.039261475
0.004882295 -0.027388657 0.00082730444 0.075739436 0.03532717 0.02915514 0.009596537 -0.025882011
0.056044657 0.021572603 0.02877738 0.00022332862 0.004412637 0.059809923 0.017794872 0.025599033
-0.0352651 0.015716355 0.06344417 -0.033439588 -0.01326473 -0.018716881 -0.008497085 0.0019563788

layers.8.bias f4 [64]
00000000: 6470 153e ca3d d73d d252 473e b095 313e
00000010: a64e 443e db5b 1c3e a0ad 2a3e 85ce 083e
00000020: de2d 3c3e 2a7f 063e 56c7 083e 018c 1e3e
00000030: 7cae 2b3e 6ca7 1d3e d5dc 163e 99fd 273e
00000040: 1ee8 3f3e bb0c 453e 8e7b ff3d e992 173e
00000050: 2b5b 193e 5cb8 e43d 4c7b 313e 3fa4 3e3e
00000060: 951c 303e 4823 023e 4b29 2c3e 2f38 363e
00000070: a199 243e 9985 153e eb11 093e 2b27 d73d
00000080: dad2 433e 43d3 4e3e 3bce 293e 211f 2d3e
00000090: 8486 1d3e 1bfb 393e 042a e43d 05a6 193e
000000a0: cae3 343e f389 433e e09d 123e d2f0 023e
000000b0: b192 2d3e 8a3a fc3d f679 1c3e 8154 103e
000000c0: bc80 4d3e c0fc 393e 494c 1e3e c2f4 0b3e
000000d0: c5fc e83d 4442 583e e54e 213e 424a 223e
000000e0: 82a8 3d3e a772 2e3e 8f21 373e 180e 2e3e
000000f0: ebc0 113e 1972 1e3e 7e54 3b3e 60fd 0d3e
0.14593655 0.10509832 0.19465187 0.17342257 0.19170627 0.15269415 0.16667795 0.13360031
0.18376872 0.13134447 0.1335729 0.15483095 0.1676578 0.15395898 0.14732678 0.16405334
0.1874089 0.19243138 0.12474738 0.14802136 0.14976184 0.11167976 0.1733219 0.18617342
0.17198403 0.12708771 0.16812627 0.1779487 0.1607423 0.14601745 0.13385741 0.105055176
0.19123402 0.20197777 0.16582577 0.16906406 0.15383345 0.18162195 0.11140826 0.15004738
0.1766502 0.19095592 0.14318037 0.12787178 0.1695049 0.12315853 0.152809 0.14094736
0.2006864 0.18162823 0.15458788 0.13667586 0.11376337 0.21119028 0.15752752 0.1584864
0.18521312 0.17035924 0.17883895 0.16997564 0.14233749 0.15473212 0.1829395 0.13866186

layers.10.weight f4 [64]
00000000: 16e4 e73f 6274 e43f 6ed6 e73f 3460 e63f
00000010: 9b18 e73f de4c e83f c762 e63f ba86 e73f
00000020: b9d2 e63f c649 e83f 37da e53f c93d e83f
00000030: 6039 e73f 9065 e73f 87e4 e63f 3f01 e13f
00000040: 4791 e63f 12c2 e73f c28d e73f ebf5 e73f
00000050: 45cf e73f f758 e83f 0390 e83f a476 e63f
00000060: 9f9e e73f a42d e83f a4f3 e53f a97c e83f
00000070: 8825 e73f 62f5 e73f a229 e73f 1136 e43f
00000080: 4580 e73f f2dc e73f 75bb e73f 82d1 e63f
00000090: 6e7d e73f 1a67 e83f 3075 e53f 327b e63f
000000a0: 3b2c e53f f079 e73f 8e5d e73f e183 e63f
000000b0: f6b7 e73f 372a e83f 011f e73f db92 e73f
000000c0: 9dd4 e63f 26a9 e53f bf3d e73f 6b8b e73f
000000d0: 235c e53f 0915 e83f f096 e63f 3e67 e83f
000000e0: affb e73f 9084 e53f 21e0 e73f 7353 e73f
000000f0: 5bd2 e73f b343 e63f 2830 e83f c226 e83f
1.8116481 1.7848017 1.8112314 1.7998109 1.8054384 1.8148458 1.7998894 1.808799
1.8033057 1.8147514 1.7957219 1.8143855 1.8064384 1.807787 1.8038491 1.7578505
1.8013085 1.81061 1.8090136 1.8121923 1.8110129 1.815215 1.8168949 1.8004956
1.8095282 1.8138928 1.7964978 1.8163043 1.8058329 1.812176 1.805958 1.7829
1.808602 1.8114302 1.8104082 1.8032687 1.8085153 1.8156464 1.7926388 1.8006346
1.7904123 1.8084087 1.8075426 1.8008996 1.8103015 1.8137883 1.8056337 1.8091692
1.8033634 1.7942245 1.8065718 1.8089422 1.7918743 1.813142 1.8014812 1.8156507
1.8123683 1.793108 1.8115274 1.8072342 1.811107 1.798941 1.8139696 1.8136828

layers.10.bias f4 [64]
00000000: f7d3 4d3f 6ec5 433f b5cb 4e3f 50e5 4a3f
00000010: eb4e 4d3f 74fe 4e3f ccc2 4f3f be42 4f3f
00000020: 7115 4b3f bbb1 4c3f 8a8f 453f 36c1 483f
00000030: 9f5e 4c3f 8007 4d3f 71ca 4b3f b21b 3e3f
00000040: 6a9c 4b3f c140 4e3f 14ca 4e3f 1ee4 493f
00000050: 2436 4f3f 8285 4f3f f7e4 4f3f 7dbb 463f
00000060: e28f 4d3f 9970 4f3f 7df4 483f a9ce 4e3f
00000070: ed51 4e3f 2244 4f3f ebfe 4b3f 4c08 423f
00000080: 5522 4f3f cd56 4d3f c1db 4e3f b818 4d3f
00000090: 7f03 503f 4116 4d3f 8d05 423f 29c8 4c3f
000000a0: f327 473f f671 4d3f a14c 4d3f c53c 4b3f
000000b0: 3bff 4d3f 73cc 4e3f af7f 4c3f 69d9 4f3f
000000c0: 40c5 4c3f 84f5 403f 0243 4c3f ba64 4c3f
000000d0: f147 443f 3561 4f3f d555 4b3f 44a2 4f3f
000000e0: f12f 4e3f 20de 453f af7b 4f3f 7529 4b3f
000000f0: f5f8 4c3f 197d 4a3f 2414 4a3f cc4d 4e3f
0.8040156 0.7647313 0.8077958 0.79256153 0.80198544 0.80857015 0.8115661 0.80961215
0.7932959 0.79958695 0.7717215 0.78419816 0.7983188 0.8008957 0.79605776 0.7426101
0.79535544 0.80567557 0.80777097 0.78863704 0.8094199 0.8106309 0.8120875 0.77629834
0.8029767 0.81031185 0.7849806 0.8078409 0.8059376 0.8096334 0.7968585 0.7579391
0.8091176 0.8021057 0.8080407 0.8011584 0.81255335 0.8011208 0.7578972 0.7999292
0.7779533 0.80252016 0.8019505 0.793896 0.80467576 0.80780715 0.7988233 0.81191117
0.7998848 0.7537463 0.79789746 0.79841197 0.76672274 0.810077 0.79427844 0.8110697
0.805419 0.7729206 0.810481 0.79360133 0.8006738 0.79097134 0.7893698 0.8058746

layers.10.running_mean f4 [64]
00000000: 399c 9c3f 59eb a03f 610a 6e3f 3804 a63f
00000010: 1df3 a63f 44fa ab3f 9b16 4b3f a5e4 a23f
00000020: d916 a13f 8786 a23f 71fc 9d3f 3411 a33f
00000030: 6d6c 9f3f 2e6b a43f 3fe2 a53f 03bf a13f
00000040: 97d2 a43f e2e4 a43f dbf8 9c3f bf6a a33f
00000050: a8ae a53f c861 9a3f 43db a63f 5bfb a73f
00000060: 9504 a53f d78f 9c3f e70d a23f e268 9d3f
00000070: 11dd 9e3f 5365 833f 4171 a03f 9736 673f
00000080: 0a36 a13f 745b a23f bed7 9f3f 018a 983f
00000090: afde 863f a19d a03f 3f48 a03f 9de5 a73f
000000a0: 9f45 a13f 3c17 a83f 8c27 a63f cc83 a23f
000000b0: 676f 9b3f 7f8d 9d3f 563f a03f dbe0 9a3f
000000c0: 7db8 933f 788f 983f 779e 9d3f b946 a83f
000000d0: b1dd 7f3f e6fa 943f 683d a13f 9aa5 a23f
000000e0: 2349 a53f 0943 a03f 9350 a03f d13a a23f
000000f0: f467 a03f 63e0 813f 453d a83f 3b79 a03f
1.2235175 1.2571822 0.92984587 1.2970037 1.3042942 1.343575 0.7933137 1.2726027
1.2585098 1.2697304 1.2342664 1.2739625 1.2454964 1.2845209 1.295967 1.2636417
1.2876767 1.288235 1.2263445 1.2766951 1.2943926 1.206109 1.3035663 1.3123583
1.2892023 1.2231396 1.2660493 1.2297633 1.2411214 1.0265297 1.2534562 0.9031767
1.2594616 1.2684159 1.2487714 1.1917115 1.0536708 1.2548105 1.2522048 1.3116947
1.2599372 1.313209 1.2980819 1.2696471 1.2143372 1.2308806 1.2519329 1.209987
1.1540676 1.1918783 1.2313985 1.3146583 0.9994765 1.1639068 1.2596865 1.2706788
1.2912945 1.2520458 1.2524589 1.2674199 1.2531724 1.0146602 1.3143698 1.2536997

layers.10.running_var f4 [64]
00000000: 5eda 1740 4c1f 1940 189d af3f fe90 2b40
00000010: 79f6 2140 0b82 3040 44c9 8f3f b000 1c40
00000020: 3f88 1240 e589 1b40 e15c 1b40 a624 1f40
00000030: bd3d 1a40 8563 2c40 2823 2140 c20b 1640
00000040: 14ad 1e40 86fc 1940 d60a 1240 5fdc 1d40
00000050: 3696 2740 3a21 0d40 66e4 2a40 d16e 2b40
00000060: 8aee 2440 c064 0d40 3fb6 1440 5094 1640
00000070: 451f 1640 0555 1240 71c4 2340 8134 ea3f
00000080: 5aa5 1b40 b038 1a40 1567 0f40 8888 fd3f
00000090: f1b7 1640 82d1 1540 8270 1940 0b60 2440
000000a0: 0525 2440 de3e 2f40 7a30 2740 068e 1440
000000b0: 2462 1c40 2e26 1940 5c45 0d40 b282 0440
000000c0: 928e 0a40 9849 3b40 a116 2040 c322 2a40
000000d0: ef24 0b40 c170 1d40 954c 2340 deb6 2140
000000e0: 64ca 2240 d97a 1c40 4c63 1740 f1c9 1c40
000000f0: 8eb8 1240 d2cf 1240 d5e3 2040 3d28 1f40
2.372703 2.3925352 1.3719816 2.6807246 2.5306685 2.7579372 1.1233296 2.437542
2.2895658 2.4302914 2.4275439 2.4866118 2.4100182 2.6935742 2.5177708 2.3444676
2.4793139 2.4060378 2.2819114 2.4665754 2.6185431 2.205153 2.6701903 2.6786387
2.5770593 2.2092743 2.3236234 2.3528023 2.3456585 2.2864392 2.5588648 1.8297273
2.4319673 2.40971 2.2406666 1.9807291 2.354977 2.3409123 2.397492 2.568362
2.5647595 2.738212 2.6123338 2.3211684 2.44349 2.3929553 2.2073584 2.070477
2.1649518 2.9263668 2.5013812 2.6583717 2.1741292 2.460007 2.5515492 2.5267863
2.543603 2.444998 2.3654356 2.4498255 2.2925143 2.2939343 2.5139058 2.486831

actor_classifier.weight f4 [15, 256]
00000000: c451 3c3c 59ce 25bd 329e 3cbd e235 66bd
00000010: 31e5 62bd 3507 abbb e557 68bc d5f6 86bd
00000020: b942 43bd adb3 aebd 5d5e ad3c 6112 30bd
00000030: a28e 53bd 9280 9fbd 337d 1dbd c69e 7c3b
00000040: c4b4 a8bd db6c 69bd 191d 663b 3521 793c
00000050: f4ad 3e3c 9b60 9dbd 8cd2 4ebd 11e6 b2bc
00000060: 090f 13bc 512f c1bd b25b a0bd df1b d6bd
00000070: 87c5 48bc 1719 33bd 748c 9bbd 3627 8dbd
00000080: 6a99 90bd cc3b 89bd 2ba9 92bc 950d 0c3b
00000090: d842 27bb 3444 a7bd 769b 1bbd 013e e4bc
000000a0: a587 183c e53f 4cbd 2e08 fe39 73dd 89bd
000000b0: 9ae5 06bd 4e0d aebc e161 b1bd f62b 9dbc
000000c0: dac4 fd3c d011 edbc c5da b13c 30d3 bbbd
000000d0: 7066 47bb 23d2 d8bc 44b0 7cbc b664 aabd
000000e0: 1ae8 99ba eede d93c ea02 9dbc e72d 2f3c
000000f0: fae8 623c c0b1 893c 62b6 4cbd e2f3 4cbd
00000100: ea4c 3dbb 2636 a83c b7be a8bd 9312 89bd
00000110: 0a6a 7cbd 9969 a1bd a91d b7ba 7fcb 723c
00000120: f563 23bd ba22 13bd e442 f0bc f7c3 63bd
00000130: 9084 f0bc 1812 07bd 61f4 15bd 0416 2f3c
00000140: 016d 3dbd e57e c13a 1e49 eebc 77e3 23bd
00000150: f47a 9bbd 7a32 ae3c 6f28 9abd cf70 90bd
00000160: 86ec 91bd be91 52ba e9f1 14bd 1821 823c
00000170: 4f49 f4bc a6b8 b0bb 1e79 bbbd 2612 98bd
00000180: 6a81 afbc ac7b 80bd a1dd 0abd c4d2 de3b
00000190: afa0 12bd cc83 2ebd c472 94bc 7fc0 653c
000001a0: 0864 9abd 31ad 1a3d 7d84 f3bc 7708 9ebd
000001b0: 54a4 ab3c 3e03 fdbc fe55 01bd 7389 58bb
000001c0: f4ed 8abd 6d2c 6f3c 7101 96bd b2f6 2cbc
000001d0: 300f abbd 1c2e ffbc 7e99 97bc c80a f33b
000001e0: 7aa4 ad3b 2278 c9bd dbcc f5ba ba7f 11bc
000001f0: bd3c febb 8911 6cbd ae5a d33c 2eff 57bd
00000200: ad21 893c 0935 3abd dbba 28bd c131 0fbd
00000210: 2287 a7bd 6df1 2c3c 798f abbd 140e e9bc
00000220: e319 96bd c13e 07bd 173b 75bd ae02 d1bc
00000230: ad7b d9bc a68e 19bd 372d 9dbd b486 46bd
00000240: 0718 35bc dcf4 a3bc 2d81 89bd bc81 bdbc
00000250: b893 663c 989b 9f3c 9722 b33c 400d 48bd
00000260: eb84 82ba 955f f63c 5b70 d0bc 4107 24bd
00000270: e106 0abd b937 90bd 4996 c73b 39e4 00bd
00000280: 146d f53a d2bf 1b3c 3c82 31bd 800d 74bd
00000290: 03ad 893b c459 a53b ca8f 12bd 8a21 ccbd
000002a0: a373 b3bd 365c b0bc 08bd 233c 94c2 b1bd
000002b0: db42 563c d5d7 aebd a461 33bc 0866 d0bd
000002c0: 3d41 6cbd 0918 2cbc 4bd5 58bd bce7 bcbd
000002d0: 9cfe e73c c607 00bd 7c49 b9bd b8ab 81bd
000002e0: a33b 36bd 7711 44bc be33 453b c1d6 a6bd
000002f0: 32e0 f1bc 763d 95bc 01fb fe39 2067 85bb
00000300: 4d1e b7bd 6878 b7ba cb83 55bd df1c 69bd
00000310: caaf 743b 37d8 ffbc cd32 78bc 9e88 f13c
00000320: 6144 3c3c 1b7e e3bb 0372 46bb 32fe bbbd
00000330: 41cb 98bd bb23 91bd 4a40 92bd 4d1a 32bd
00000340: 26c0 a4bc 4256 5dbd 383b 40bd 572e 9fbd
00000350: 4caf 47bd 86d1 93bc e81d 953c 0ba8 42bb
00000360: 0cf4 1dbd c2dd 4ebd d330 e2bc 417a f5bb
00000370: 02ec 02bd 1681 43bd a082 b2bd 1467 babc
00000380: bc47 13bd 1e0f 4dbd ad56 9fbc ccbd 33bd
00000390: 6d62 17bd b6b5 21bd 9c93 adbb f641 97bc
000003a0: 4e10 38bd 2c53 ff3b 2266 efbc 359b 16bd
000003b0: 896c a6bc 0855 973c 409b a03c c917 bfbd
000003c0: 11f5 ffbc e4d8 e43b 6336 8bbc 31b9 583c
000003d0: 97b1 cfb8 84d5 c7bc d2e2 fcbc 53d9 a4bb
000003e0: fc76 8bbd 8416 0fbd c089 5abd a297 45bc
000003f0: 15cd 1bbc 0426 2a3d 895f 6fbd d2f1 2cbd
0.011494104 -0.04047999 -0.046049304 -0.05620373 -0.055394355 -0.005219365 -0.014181112 -0.06590048
-0.047671054 -0.08530364 0.02116316 -0.042986277 -0.051649697 -0.07788195 -0.038449477 0.0038546785
-0.08237603 -0.05698858 0.0035112558 0.015205671 0.011638153 -0.07684442 -0.050493762 -0.02183822
-0.008975753 -0.09432853 -0.078299895 -0.10454535 -0.012254125 -0.0437251 -0.07595149 -0.068922445
-0.070605114 -0.067008585 -0.017902931 0.00213704 -0.002552202 -0.081673056 -0.037990056 -0.027861597
0.009309684 -0.049865622 0.0004845275 -0.06731691 -0.03293381 -0.021246579 -0.08661247 -0.019186001
0.030977655 -0.028939158 0.021710763 -0.0917114 -0.0030426048 -0.026467388 -0.015422884 -0.0831999
-0.0011742145 0.026595559 -0.019166429 0.010692096 0.013849491 0.01680839 -0.04997862 -0.050037272
-0.0028884956 0.020533632 -0.08239501 -0.06692996 -0.061624564 -0.07881469 -0.0013970631 0.014819025
-0.03989025 -0.03592179 -0.029328771 -0.05560681 -0.029360086 -0.03297624 -0.03661001 0.010686401
-0.046246532 0.0014762549 -0.0290876 -0.04001185 -0.07591811 0.021264303 -0.07527243 -0.070527665
-0.071251914 -0.00080325815 -0.036363516 0.015884921 -0.029820113 -0.0053931056 -0.09153961 -0.074253365
-0.021424014 -0.062735885 -0.033902768 0.0068000276 -0.03579777 -0.04260616 -0.01812113 0.014022945
-0.07538611 0.037762824 -0.029726261 -0.07716458 0.020952381 -0.030885335 -0.03157615 -0.003304091
-0.06783667 0.014597994 -0.07324494 -0.010556864 -0.08352506 -0.031149916 -0.018505808 0.0074170567
0.005299148 -0.09837367 -0.0018753068 -0.00888055 -0.0077587054 -0.05763391 0.025800075 -0.052733593
0.01673969 -0.045460735 -0.041193824 -0.03495956 -0.081800714 0.010555607 -0.083769746 -0.028449096
-0.07329156 -0.03301883 -0.059870806 -0.025513973 -0.026548231 -0.037489556 -0.0767464 -0.048468307
-0.011053092 -0.020014219 -0.067140914 -0.023133151 0.014073305 0.019483373 0.02186708 -0.04884076
-0.0009957826 0.030074874 -0.0254442 -0.04004598 -0.033697966 -0.07041878 0.0060909134 -0.03146765
0.0018724524 0.009506183 -0.04333709 -0.059583187 0.004201533 0.0050461013 -0.03578166 -0.099673346
-0.0876229 -0.021528345 0.009993799 -0.08679691 0.013077463 -0.085372604 -0.010948572 -0.10175711
-0.057679404 -0.010503777 -0.052937787 -0.09223887 0.02831965 -0.031257413 -0.09047219 -0.06331581
-0.044490468 -0.011967055 0.0030090655 -0.0814643 -0.02952585 -0.018217783 0.00048633668 -0.0040711313
-0.08941326 -0.0013997676 -0.05212764 -0.0569123 0.0037336224 -0.031231029 -0.015148831 0.02948409
0.011490912 -0.006942523 -0.0030280359 -0.09179343 -0.074606426 -0.07086893 -0.071411684 -0.043482114
-0.020111155 -0.05403734 -0.046931475 -0.077725105 -0.04875116 -0.018044244 0.018202737 -0.0029702212
-0.03856282 -0.050504453 -0.027611172 -0.0074913804 -0.031963356 -0.047730528 -0.08716321 -0.02275423
-0.035957083 -0.050063245 -0.01945051 -0.043882176 -0.0369591 -0.039479934 -0.0052971374 -0.01846407
-0.044937424 0.0077918973 -0.029223505 -0.03676911 -0.020315425 0.018473163 0.019605279 -0.093307085
-0.031244786 0.006983863 -0.016993707 0.013227747 -9.903608e-05 -0.024393804 -0.030869875 -0.00503079
-0.06809804 -0.034933582 -0.053354025 -0.012060078 -0.009509345 0.04154016 -0.05844072 -0.042222805

actor_classifier.bias f4 [15]
00000000: ced2 3dbe 1512 79bc c117 bc3d 49d1 38bd
00000010: eb1b 2ebd 80f0 ad3d 49c0 16be f416 8ebd
00000020: efc0 65be 1f32 993c 0a81 213e df6e ae3c
00000030: 483b d3bd 2f3d 0fbe 01db 1ebe
-0.18537447 -0.015202065 0.09184218 -0.045121465 -0.042507093 0.08493137 -0.14721788 -0.06937972
-0.2243688 0.018700657 0.15771881 0.021293102 -0.103140414 -0.13988183 -0.15513231
