Saved Models/model_checkpoint_bigfish_42_0.0001_1200_6_256_0.9_0.6_0.2_1024_0.5_end_1200.pth (torch, 154751 bytes, 21 tensors)

layers.0.weight f4 [32, 3, 8, 8]
000000 a0 15 97 bd 31 64 11 bd ec 68 55 3d 2e 7c b3 bc
       -0.073771715 -0.03549594 0.052102014 -0.0219098
000010 6b f4 aa 3c 5e 95 ef 3b 40 d1 14 3d 7a 3c 54 3d
       0.0208685 0.007311507 0.03633237 0.051815487
000020 23 4c 45 bc 2d 0f 72 3b 18 6e b2 bd 56 ba 0a bd
       -0.012042078 0.0036935315 -0.08712405 -0.03386911
000030 ac 5b 42 bc d1 bb 88 bc d5 e3 18 3d c2 cd 1d 3d
       -0.011862677 -0.01669112 0.037326653 0.038526304
000040 a5 11 46 bd 36 6d b7 bd 71 85 69 bd 50 4d ac 3c
       -0.04835667 -0.08956377 -0.057012025 0.02103296
000050 b1 7c 9a bd 20 d4 66 bc 1d 40 77 bb 6c 10 50 3d
       -0.07543314 -0.0140886605 -0.0037727423 0.05079691
000060 52 11 10 bd 40 60 a4 bd b9 8b 86 bd 66 a3 9c bd
       -0.035172768 -0.08026171 -0.06569619 -0.07648353
000070 75 fc 3b bc ef 89 46 3d a7 ce ce bb d0 f1 c8 3c
       -0.011473765 0.048471387 -0.006311256 0.024529368
000080 f4 cd db bc f1 2c 21 3c f8 91 06 bd 0a 59 5f bd
       -0.026831605 0.009837375 -0.03285405 -0.054528274
000090 62 8d d9 3c e9 03 a0 bc 47 8b 08 bd 3a 23 92 bc
       0.026556674 -0.019533115 -0.03333595 -0.017839063
0000a0 86 fe 6d 3c c0 56 1d 3d ec 18 71 3c 99 0e 4a bc
       0.014526015 0.03841281 0.0147154145 -0.012332582
0000b0 fc 29 76 3b 1c 7a 2b 3d 21 9f 03 3d 19 3e 8b bd
       0.0037561646 0.0418645 0.03213418 -0.067989536
0000c0 8e 8a ae bd 7a 22 e1 bd a3 3c f0 bd f5 c5 3d bd
       -0.08522521 -0.10992904 -0.117303155 -0.046331365
0000d0 01 f8 b4 bd c5 cf 88 3c 0c da 9b bd 5b 5a 5d bd
       -0.088363655 0.016700635 -0.076099485 -0.054041248
0000e0 bd ce 2e 3d 4a cf 8f bd 8c 62 35 bb 1f f2 cc bd
       0.04267763 -0.07021959 -0.0027677147 -0.100071184
0000f0 30 06 f1 bd 7d 69 8c bd 63 48 30 ba 33 ab 0e bd
       -0.11768758 -0.06856058 -0.00067246536 -0.034831237
000100 65 35 4a bd 60 a0 6f 3d 4a f1 27 3d 38 32 60 3d
       -0.049367327 0.058502555 0.041001596 0.054735392
000110 ce da a2 bc 19 7c a3 bd 26 61 2a 3d f7 eb 74 3d
       -0.019879725 -0.07982654 0.041596554 0.059795346
000120 90 a6 1c 3c 5d 3d 60 3d fa 44 d6 3c d5 ae 7e bd
       0.009561196 0.05474602 0.026155937 -0.06217845
000130 19 16 63 bd 4d ab c2 bc 22 a8 89 bc a3 c3 c9 3d
       -0.055440996 -0.023763323 -0.016803805 0.09851768
000140 d1 b9 f6 3c f0 7f a7 3d f7 00 2a 3c 5a 93 e1 3c
       0.030117901 0.08178699 0.010376207 0.027536083
000150 85 e0 e0 3b a5 7a 91 3c 9f 5f cc bd fe 4b 40 bc
       0.0068627023 0.017758677 -0.09979176 -0.011736868
000160 ff 9c 69 ba 4e 2c 62 3d ea d9 81 3d 61 69 3d 3c
       -0.0008911639 0.055218033 0.06340392 0.011560769
000170 b0 ee 4e 3d a5 5c d5 3c f2 14 94 bd 2e 39 7b 3b
       0.0505206 0.026045153 -0.072305575 0.0038333642
000180 5f 8c 52 bc 1d 94 9e 3d ee 63 2c bd 1b 66 31 3d
       -0.01285085 0.07743094 -0.042087488 0.043310266
000190 51 ff a3 bd 9b 36 12 bd b3 38 b3 3d ec d3 41 3d
       -0.08007682 -0.035696607 0.08751049 0.047321245
0001a0 24 70 00 3d f9 d3 6d 3d 19 85 49 3d ad 90 fe 3c
       0.031356946 0.05806348 0.049199197 0.031074846
0001b0 d5 c5 29 3c 66 98 4c 3d dd 7f 9a 3d 79 69 ef 3d
       0.010362108 0.049950026 0.07543919 0.11690039
0001c0 af 7a a9 3d 6e 7b 09 3d 22 f0 66 3c 28 b1 e9 bc
       0.08275353 0.033564977 0.014095338 -0.028526857
0001d0 ea 13 4d 3d 30 04 1e 3d b8 ea 6a 3d 8d fa ec 3d
       0.05006782 0.038578212 0.05735275 0.11571226
0001e0 01 76 4e 3d cb f4 b0 bc 06 b4 a7 3d cd d4 30 3d
       0.050405506 -0.021601101 0.081886336 0.043171693
0001f0 86 98 79 bc 8d 78 66 3d 54 37 d3 3d d5 b5 d8 3d
       -0.015234118 0.05626731 0.103132874 0.10581557
000200 ea 1c 05 3c c8 aa 1e bd 22 04 2f 3c 4e 9e 50 bd
       0.008124569 -0.03873709 0.010682138 -0.05093222
000210 84 3a d0 3a 96 38 69 bd d9 1f c0 bc 5c 55 ac bc
       0.001588658 -0.05693873 -0.023452686 -0.021036796
000220 8d ef 34 bc 48 02 00 bb 9f 5c e0 3c a8 16 85 bd
       -0.0110434415 -0.001953261 0.027387915 -0.06498462
000230 7b 69 70 3d eb 6c 93 3d 23 00 9f 3d 6b dd 12 3c
       0.058694344 0.07198509 0.07763698 0.008963923
000240 59 35 fa bc 90 42 3e 39 e5 11 3c bd 3e 24 89 bc
       -0.030543016 0.00018144608 -0.045915503 -0.016740914
000250 e1 fe 49 3d 57 b6 c9 3c c2 8b bf bd 0d 24 ee bc
       0.049315337 0.02462308 -0.093528286 -0.029069925
000260 8f f3 0f 3b 7c 06 eb 3c 98 2e 65 3d b3 eb 8e bc
       0.002196524 0.028689615 0.05595264 -0.017446375
000270 40 ab 82 3d f3 4c 94 bc 8e 9d 2b 3d 5e 77 a2 3d
       0.063803196 -0.018103098 0.041898303 0.07932924
000280 d5 5f 08 3d 5f b2 04 3d d8 66 f5 3c 5b 70 ea bb
       0.033294518 0.03239667 0.029956266 -0.007154507
000290 1d 0a d6 bb 7a ed 3b 3d 3d fa d1 bc 9d 19 55 3c
       -0.0065319673 0.045880772 -0.025632018 0.013006595
0002a0 0c e4 74 bd 30 77 86 bc ab 30 a5 3d e9 2d 13 3d
       -0.059787795 -0.016414255 0.08065923 0.035932455
0002b0 c5 62 48 3d dd f0 fa 3c 3a f8 8f 3d 24 94 2b 3d
       0.04892232 0.03063243 0.07029767 0.041889325
0002c0 df 50 24 3d c6 d0 51 bd 85 d3 34 3d 1e d5 63 bd
       0.040116187 -0.051224492 0.044147033 -0.055623166
0002d0 ce f0 50 bd 1c a8 f6 bc 28 0f 94 bc 5e 84 f7 3c
       -0.0510109 -0.030109458 -0.018073633 0.030214485
0002e0 04 27 27 3d dd 93 7c bd 42 6c ef 3c b3 3c 08 3d
       0.040808693 -0.06166445 0.029226426 0.033261012
0002f0 22 8a bc 3b 42 7d 2a bc 46 71 5f 3d 06 32 47 3c
       0.0057537714 -0.01040584 0.054551385 0.012157923
000300 31 1c b2 bd ca 0f 17 bd c3 66 af 3d 6f 08 38 3d
       -0.08696783 -0.036880292 0.08564522 0.044929918
000310 0c ca 98 bc 22 50 8c 3d 46 f8 52 bc ec f9 52 bd
       -0.018651031 0.068512216 -0.012876576 -0.051507875
000320 06 3d b5 3d 7c 70 17 3d e8 13 4d 3c 28 e5 48 bd
       0.0884953 0.036972508 0.012516953 -0.049046665
000330 df 73 8a 3d 56 a9 d7 bc 55 c9 0f 3c f9 6b 29 3c
       0.06760382 -0.026325863 0.008776029 0.010340684
000340 0c d0 28 3d e0 ad 7a 3d 39 d3 f8 bc cc e3 8d 3c
       0.041214034 0.061200976 -0.030374156 0.017320536
000350 2a d9 15 3c 6a f9 5a ba 58 db 8f 3d db a1 0c 3c
       0.009146014 -0.00083532056 0.070242584 0.008583511
000360 ab 61 21 3d 5b 7c 93 3d 4d 31 22 3d 8d de 91 3d
       0.039399784 0.07201453 0.0395978 0.07122526
000370 77 bd c9 3d d4 e9 3e bc 6f 1c 83 bc 24 89 92 bc
       0.09850591 -0.011652429 -0.01600477 -0.01788766
000380 87 3e 4a 3c bd 35 f4 bc b2 a5 d1 3b 13 69 93 bb
       0.012344009 -0.02981078 0.0063979262 -0.00449861
000390 2b 37 77 bc db 6a 2c bd 45 fe b9 bc cb 1d 1e 3d
       -0.015088837 -0.042094093 -0.022704253 0.03860263
0003a0 1a 8a 83 3b 40 7a 2c bc 03 37 13 bd 55 c2 49 3d
       0.0040142657 -0.010527194 -0.035941135 0.049257595
0003b0 14 22 7c bc 5b 19 91 3d 49 54 60 3d 8e 12 5b 3d
       -0.015388984 0.07084914 0.05476788 0.053484492
0003c0 67 89 c1 3b e0 c0 58 3b 8d 7d 0d bd dc 0f d5 3c
       0.005906272 0.0033073947 -0.034543563 0.026008539
0003d0 18 7d be 3d 35 45 f5 3c ea f0 fc 3d d2 df da 3d
       0.093012035 0.029940227 0.12350638 0.106872216
0003e0 9e 9c 8c 3d 24 aa aa 3c 50 8d 5e 3d d5 fb 60 ba
       0.0686581 0.020833082 0.054333985 -0.0008582448
0003f0 e7 42 21 3c 19 82 87 3d fc 69 3e 3d e7 77 14 3d
       0.009842611 0.06616611 0.046487793 0.03624716

layers.0.bias f4 [32]
000000 c9 dd 2f 3c 55 ab 0f 3d 0e a4 a3 bb 17 03 87 3d
       0.01073403 0.035075504 -0.004993922 0.06592386
000010 f5 1f d4 3b 00 26 d4 3b 79 57 72 bc 5f 01 22 3d
       0.006473536 0.0064742565 -0.014791363 0.03955209
000020 d6 b7 fb 3c 2c ba 94 3d d5 35 98 ba 8b e9 9f 3d
       0.030727308 0.07262072 -0.0011612723 0.07808217
000030 6a 92 05 3d 22 32 7c 3b 35 9b da bc e8 ac 02 3d
       0.032610334 0.003848203 -0.026685337 0.031903177
000040 82 c0 be 3c 5f 87 13 3d 04 39 97 3c 73 34 fc 3c
       0.023285154 0.03601777 0.018459804 0.030786728
000050 12 b0 a0 bd 0f 41 7f bd e2 d9 69 3d 85 41 a3 3b
       -0.07846083 -0.062317904 0.057092555 0.004982176
000060 a6 a3 0d 3a f9 b0 84 3d a8 85 f9 3a c6 2a 0e 3d
       0.00054031087 0.06479067 0.0019037025 0.03470876
000070 30 2e 08 3d e4 0b 8e 3b 8f 06 8a bd b3 5f 29 3d
       0.033247173 0.0043349136 -0.06739532 0.04135103

layers.2.weight f4 [32]
000000 fb 46 7f 3f bf 72 7d 3f 54 7d 81 3f cc c7 7e 3f
       0.9971768 0.99003214 1.0116372 0.99523616
000010 e9 39 82 3f 9e 2d 85 3f 56 29 82 3f 3e 13 82 3f
       1.0173923 1.0404546 1.0168865 1.0162122
000020 2b 1b 7d 3f 14 f0 76 3f af 5c 88 3f e2 93 72 3f
       0.9886958 0.9646008 1.0653285 0.947569
000030 a5 6d 83 3f 5e ca 7f 3f a2 78 87 3f 7d 3e 7e 3f
       1.0267836 0.9991816 1.0583689 0.993141
000040 ee d7 7d 3f 0c dd 7f 3f f6 dc 7b 3f 1a 7f 80 3f
       0.9915761 0.99946666 0.98384035 1.0038788
000050 79 fd 79 3f 2d d5 81 3f f8 8e 78 3f 75 ef 75 3f
       0.97652394 1.0143181 0.97093153 0.9606851
000060 62 96 73 3f 37 8d 81 3f 1c 6f 7c 3f 9e 26 7a 3f
       0.9515134 1.012122 0.9860704 0.97715175
000070 b4 8b 87 3f 84 ea 78 3f 4f be 80 3f d5 ef 84 3f
       1.0589509 0.9723284 1.0058078 1.0385691

layers.2.bias f4 [32]
000000 fa 14 55 bc 5b e5 f8 3d f3 54 25 3d 64 28 c3 3d
       -0.0130054895 0.12153121 0.040364217 0.09529188
000010 33 57 28 3d 06 02 99 3d 3d 40 5d 3d 4b 0f 92 3d
       0.041098785 0.07471089 0.05401634 0.07131823
000020 f8 6f 84 3d b4 83 31 3d 4f 20 8f bd 0d 6c e4 3c
       0.06466669 0.043338493 -0.06988584 0.027883554
000030 43 6b 7e 3d bd 4e f0 3b af 36 9e 3d f0 2d aa ba
       0.06211401 0.007333605 0.07725274 -0.0012983661
000040 59 79 c5 3d c7 c3 3d 3d 43 ca d8 3b 6e a8 d4 3c
       0.09642286 0.046329286 0.0066159084 0.02595922
000050 47 21 85 3d e0 5e bb 3d 5e a7 cf 3d ca 1c 47 3d
       0.06500488 0.09148955 0.10139345 0.04861144
000060 59 a3 78 3d 3e 39 aa 3d 57 ff 59 3d ce c6 67 3d
       0.060702655 0.08311699 0.053222027 0.05658608
000070 e9 42 76 3d 21 fe 85 3c 7d de f3 3d 92 8c f0 3d
       0.060122404 0.01635653 0.11907671 0.11745562

layers.2.running_mean f4 [32]
000000 2c 1d bd 3c f0 23 73 3d aa 47 0b 3c e7 47 a5 3d
       0.0230852 0.059360445 0.008500973 0.08070355
000010 ba 85 04 3c 27 c2 8b 3c c7 fd 22 3c d1 db 1e 3d
       0.0080885235 0.017060352 0.009948201 0.038783852
000020 68 71 fe 3c 4e e0 96 3d c1 61 cf 3a 6f 98 a0 3d
       0.031059936 0.073670015 0.001582198 0.078415744
000030 26 2d 04 3d 19 a1 71 3c a4 8c d9 3b c5 2e eb 3c
       0.03226962 0.014747881 0.00663908 0.028708825
000040 04 89 2d 3d c7 6d 3d 3d b1 fb 0b 3d 0e 58 e1 3c
       0.042366996 0.04624727 0.03417558 0.027507808
000050 00 e3 a4 3b e0 b2 fc 3b 65 f8 6b 3d 6f e4 fd 3b
       0.0050319433 0.0077117532 0.057609934 0.0077481787
000060 2f 2e b4 3a 72 d4 85 3d d0 b3 3f 3b 3c 0c 34 3d
       0.0013746674 0.06534661 0.0029251464 0.04395698
000070 8d 3f 18 3d a1 6c b7 3b f1 05 0f 3c a8 89 4a 3d
       0.03716998 0.0055976664 0.008729444 0.049447685

layers.2.running_var f4 [32]
000000 93 8e 6b 3b 87 f7 4d 3c 0e 77 1c 3b 47 15 a9 3b
       0.0035943135 0.012571222 0.0023874673 0.005160007
000010 05 68 e4 39 91 f5 a9 3b be f2 31 3b d4 9b 46 3a
       0.0004356505 0.0051867445 0.0027152742 0.0007576321
000020 e7 6e 03 3a 86 fe ac 3a 08 85 79 39 52 98 ba 3a
       0.0005013779 0.0013198412 0.00023796048 0.0014236069
000030 fd 64 d7 39 bb fc 30 3b 61 4c bc 3a 5c bf f9 38
       0.00041083238 0.0027006108 0.0014366024 0.00011908889
000040 cf ab 29 3c 93 c1 31 3b e4 25 a6 3b 3b 34 d2 38
       0.010355904 0.0027123436 0.005070435 0.00010023309
000050 1f cf 7c 3a 10 8b 04 3b 66 5f b1 3a ff 5a e0 39
       0.00096439006 0.002022449 0.0013532459 0.00042792407
000060 8e 6f ff 38 d4 a3 99 3a 4b 28 e1 38 ad 8c 5b 3b
       0.00012180126 0.0011721798 0.00010736341 0.0033500597
000070 1c 9b 9f 3a c3 e3 a8 39 61 0e 19 3b 56 1b 21 3b
       0.0012176964 0.00032213153 0.0023354518 0.0024582944

layers.4.weight f4 [64, 32, 2, 2]
000000 56 a3 88 3d 24 6a 70 bb 5f cf 8e bd cb 5f ba bd
       0.06671779 -0.0036684358 -0.06973147 -0.09100302
000010 86 f5 00 3c 04 fc ba bd d3 72 cd 3d cb a3 e8 3c
       0.007871037 -0.091300994 0.100316666 0.028398415
000020 5e 4d 0d bd 23 7b d8 bd 4a 0f 87 bd 90 1a 92 bd
       -0.03449761 -0.105703615 -0.06594713 -0.07133973
000030 c9 29 55 bd a4 e1 9a bb 67 d6 88 bd 71 28 30 3d
       -0.052041803 -0.0047266055 -0.06681519 0.043007318
000040 6f 35 e8 bc 55 1c 87 bc c3 25 e1 bb ea 4a 62 bd
       -0.028345792 -0.016493002 -0.0068709566 -0.055247225
000050 8f 49 80 3d 24 c6 ca bd cf 7b 99 bd 43 09 27 3d
       0.0626403 -0.099010736 -0.07494318 0.040780317
000060 2b 81 1c bd 78 ce 87 3d 31 7e c5 3c 12 3e 0e bd
       -0.03820912 0.06631178 0.024108024 -0.034727164
000070 3f 4f 3f 3c b9 e1 bc 3d 98 7f ab 3c 39 02 d0 3d
       0.011676609 0.09222741 0.020934865 0.10156674
000080 b7 a4 f4 b9 df 05 a9 3d a9 9c 0f bd 8a 3d 65 bd
       -0.0004666203 0.08253073 -0.035061512 -0.05596689
000090 6d 52 2e bd 0c 56 af 3d 38 7f 2b bc 87 b6 5b bd
       -0.042559076 0.08561334 -0.010467343 -0.05364087
0000a0 a1 08 4d bb 77 17 cb 3a c2 eb 0c bd 3e 6e 0d be
       -0.003128566 0.0015494664 -0.034404524 -0.13811585
0000b0 69 20 9f 3c e9 f3 b5 3b d0 4c fc 3b 1b 02 57 bd
       0.019424634 0.005552758 0.0076995865 -0.052492242
0000c0 c7 5b a3 bd 64 90 88 bc 24 d6 f8 3d e2 80 07 bd
       -0.079764895 -0.016670413 0.12150219 -0.033081897
0000d0 54 c2 ab bd 41 57 60 3d 4e e0 a6 bc 35 1a 96 bd
       -0.083866745 0.05477071 -0.020370629 -0.07329217
0000e0 3c d0 d5 bd 46 d9 27 bd 1c 12 ff 3b c1 fe 7d 3b
       -0.10440108 -0.040978692 0.007784141 0.0038756581
0000f0 c7 ff 88 bd 6f ab 2b bd 28 39 63 3d dd e9 56 3d
       -0.06689411 -0.04191154 0.05547443 0.052469123
000100 2b 19 9a bd f4 0e 1d be 39 1d 79 bd 4b d2 94 bd
       -0.07524332 -0.15337735 -0.060818885 -0.07266673
000110 13 ee 62 bd a6 83 ec bc f7 e7 b7 3d fb c3 b1 bd
       -0.055402827 -0.028871369 0.08979791 -0.086799584
000120 42 e0 d9 bb 65 fe f1 3d d8 15 d8 3c 6f 74 c2 3b
       -0.006649048 0.118161 0.026377603 0.00593429
000130 37 4c 69 bd 86 7f 0f 3d 84 29 c0 3d 45 12 f7 3d
       -0.05695745 0.035033725 0.093829185 0.120640315
000140 c0 1b ab 3c a5 44 c2 bd 3b 55 05 bd 63 54 61 bd
       0.020887256 -0.09485749 -0.032551985 -0.055012118
000150 11 35 48 bc 74 fe 5d 3d fd ab 7b bc 2c 6b 11 3d
       -0.012219683 0.054197744 -0.015360829 0.035502598
000160 23 45 35 3d 74 82 9d 3d 10 5f 6f 3d 10 42 71 3d
       0.044255387 0.076908976 0.058440268 0.058900893
000170 c4 46 8d 3c 62 46 56 3d b6 69 46 bc 7b eb 4c bc
       0.017245658 0.052313216 -0.012110164 -0.012507315
000180 eb 2b 35 bd 97 93 25 bd 44 60 a5 bc be 61 b7 3b
       -0.044231337 -0.040423956 -0.020187505 0.0055963686
000190 86 42 0b bd 12 06 10 bd 93 c1 ff ba c7 7c 2a 3d
       -0.03399899 -0.03516204 -0.0019512646 0.041622903
0001a0 42 89 f1 bd e4 0c 5d 3d e3 e6 bc 3d dc 2e 8b 3d
       -0.11793758 0.05396737 0.09223726 0.06796047
0001b0 d5 7c ce 3b 3d dc 93 bc 0b a2 17 3d 72 8b 46 3d
       0.006301502 -0.018049354 0.03701977 0.04847283
0001c0 32 be fd bc 5e 05 33 3d 1c e5 62 3d 70 a7 6a 3d
       -0.030974481 0.04370629 0.055394277 0.057288587
0001d0 d5 57 a2 3d c9 38 18 bd a9 4f 4a 3d c2 3f 46 bc
       0.07926909 -0.03716353 0.049392376 -0.012100162
0001e0 99 96 92 bc 55 01 26 bd 3b a4 8e 3d c5 99 2c 3d
       -0.017894076 -0.040528614 0.06964918 0.042138834
0001f0 63 4d f9 3b 5c 81 95 bd 4e 0d 1e 3d 76 38 ab bd
       0.007608102 -0.07300064 0.038586907 -0.083603784
000200 52 e3 82 bc 42 ce c9 3c 95 8a 89 bc a7 a3 95 bb
       -0.015977535 0.024634484 -0.016789714 -0.004566628
000210 d7 8c 78 3d 11 8c 2e 3d 5e 56 a3 bd 0f 59 af bd
       0.06068119 0.042614046 -0.079754576 -0.085619085
000220 13 89 98 bd bb 09 47 3d 52 81 af 3d b9 23 71 bd
       -0.0744802 0.048593264 0.08569588 -0.05887196
000230 90 6b 00 bd 2e 13 94 bd da 65 45 bd e3 0d a7 3c
       -0.03135258 -0.07230221 -0.048192836 0.020392364
000240 cb dd 0c 3b 73 19 b5 bd 8e 1e 85 3b 42 f5 9c 3c
       0.0021494504 -0.08842745 0.0040624803 0.019159917
000250 fa 53 fa bd 9b 31 8c 3d 26 27 bc bd 9e a7 e9 bd
       -0.122230485 0.06845399 -0.091871545 -0.114089236
000260 54 0a 2a bd 4d 76 4b bd 4a 1f 79 3d 35 97 18 bc
       -0.041513756 -0.049673367 0.060820855 -0.009313394
000270 c7 1d c8 bd 82 e6 cb bd a9 11 63 3d 4a b4 82 bd
       -0.097713046 -0.09956075 0.055436764 -0.06382044
000280 08 40 db bb e0 67 be 3b 7b 00 d9 3d fc 86 32 bd
       -0.0066909827 0.0058107227 0.10595795 -0.043585762
000290 e2 a6 66 bc 58 91 6d bd e3 06 fa bc 6b e8 15 bd
       -0.014077874 -0.05799994 -0.030520862 -0.036598604
0002a0 f8 c4 cd 3d 1d 7e 57 3d 69 33 d8 bd d6 25 b5 3d
       0.100473344 0.052610505 -0.10556681 0.08845107
0002b0 c2 d9 f4 3c 6d be af 3c 71 14 b3 3a 7f 02 dc bc
       0.029888991 0.021453107 0.0013662708 -0.026856659
0002c0 6c 5f 10 3c 88 ea d5 3b e0 1e d5 3d fd 45 a1 bd
       0.008811813 0.0065282024 0.104062796 -0.07874677
0002d0 05 fe b9 bd 71 02 91 bd e9 af d9 bd 64 9f 89 bd
       -0.090816535 -0.07080544 -0.10629255 -0.067198545
0002e0 8e 52 11 bd 39 3a 02 bd 54 fb c2 3c e7 d8 44 3c
       -0.03547912 -0.031793807 0.023801483 0.012014604
0002f0 1a 73 b2 3d 95 f2 d7 bd c3 0e 1b 3d c7 dc 86 bd
       0.0871336 -0.10544316 0.037855875 -0.06585079
000300 6e ae 37 3b cc 5e a6 3c ef fc 0f bd 36 00 52 bd
       0.0028027552 0.020308875 -0.035153326 -0.051269732
000310 5a 29 85 3b 81 cd f5 bd 72 ad 02 3c 33 e1 da bc
       0.0040637674 -0.120020874 0.007975923 -0.026718711
000320 41 43 a7 bd ca 16 27 bd 82 ab 5a bd 7c 8e 4a bd
       -0.081671245 -0.040793218 -0.05338622 -0.04945229
000330 cf 35 d0 bc 35 56 f9 bd 15 6d 74 3d aa 5a 03 bd
       -0.025416283 -0.12174646 0.05967434 -0.032068886
000340 a3 05 1e 3d 2e 43 54 bd 3d 5c 1a bd 4f 9d f3 3a
       0.038579594 -0.05182188 -0.03768562 0.001858631
000350 e8 f4 e4 bc 59 44 8b bd 00 ce 85 bd d7 00 af 3c
       -0.027948812 -0.06800146 -0.06533432 0.021362705
000360 71 d4 d2 3c 11 f5 cd 3c b2 23 fc bc b3 30 9e bd
       0.025736066 0.02514127 -0.03077874 -0.077241324
000370 35 73 41 3c 7f 0d d4 bd 35 4e 1f bd 65 dc ec bc
       0.011807253 -0.10354137 -0.038892943 -0.028913686
000380 31 3d 7a bd 1b 43 a6 bd 2a 99 94 bb 2a b1 15 bd
       -0.061093513 -0.08118268 -0.00453486 -0.03654591
000390 44 3c 08 3d 51 5c 85 bc 60 0d 05 be 27 b1 91 bd
       0.0332606 -0.016279371 -0.12993383 -0.07113867
0003a0 cf fc a4 3d d7 b6 f1 bd 7b 2d 4b bb a6 e4 ba 3b
       0.08056032 -0.11802452 -0.003100245 0.0057035265
0003b0 22 fb 80 3c 6a b5 af 3b 6d 20 d9 3c 56 c3 78 3d
       0.01574475 0.0053622024 0.02650472 0.060733162
0003c0 89 f1 a3 3d 98 9f c2 bd f6 69 96 bd 0d ba 04 be
       0.080050536 -0.09503096 -0.07344429 -0.12961598
0003d0 7d ef 87 bc e3 c1 b0 bd 6a bb 70 bb 7b 58 3e 3d
       -0.01659369 -0.08630731 -0.0036732801 0.0464711
0003e0 1b 5f 52 bc ca 49 c4 3d 78 af 96 bd 78 a1 9a 3d
       -0.012840058 0.09584387 -0.07357687 0.07550329
0003f0 00 2e 01 bb 65 27 56 bd 43 b6 01 3c 55 7c 7a bc
       -0.0019711256 -0.052283663 0.00791699 -0.015288432

layers.4.bias f4 [64]
000000 95 3c eb bb f6 94 6e 3c 48 bd b3 3d 08 c7 d6 bd
       -0.007178853 0.014561882 0.08776337 -0.10487181
000010 20 27 96 bd 8d a7 41 3d 29 30 d7 bb a3 77 b3 bc
       -0.07331681 0.04727893 -0.0065670204 -0.021907633
000020 35 f3 a3 3d 15 25 f9 bc 35 5b 80 bd 14 e3 05 be
       0.080053724 -0.03041319 -0.06267396 -0.13074905
000030 d3 c9 ba 3d 89 6a 57 b9 17 fb 36 bb 06 69 e1 3c
       0.09120526 -0.00020543685 -0.0027920657 0.0275159
000040 26 c9 04 3e cc ca 3e be 85 6f 85 bd f9 91 e2 bc
       0.12967357 -0.18632048 -0.06515411 -0.027657496
000050 e3 92 ce b9 c2 02 7f 3e 64 8a 16 bd 7a 99 3c bc
       -0.0003940082 0.24903396 -0.036753073 -0.011511201
000060 66 19 9f bd e5 17 6f bc 0b 99 13 be ff 5d 91 3d
       -0.07768516 -0.014593099 -0.1441385 0.070980065
000070 3a 27 2c 3d 2a 9a 8f bc b6 69 1b bc f3 ad 4a bd
       0.042029597 -0.017529566 -0.009485653 -0.049482297
000080 ac cc ad bd 95 4e 10 3d ce 70 3d bd db 65 c2 bd
       -0.08486304 0.03523119 -0.046250157 -0.09492084
000090 97 47 7e bd 1b d1 aa bc 23 04 84 bc 7a 5f d9 3d
       -0.062079992 -0.020851662 -0.016115254 0.10613914
0000a0 e7 e2 0b 3d f3 d2 8a 3d 55 74 00 3d e2 4c 9a 3d
       0.034151938 0.067785166 0.031360943 0.075341955
0000b0 9d 1d 28 bd 2a 35 a8 bd 37 bf 93 bd 98 22 af 3c
       -0.041043866 -0.08213265 -0.07214206 0.0213788
0000c0 bf df 1e 3e 9b a8 ad bc 4a 10 12 3e 0d 03 b5 bb
       0.1551504 -0.021198561 0.14264026 -0.0055240453
0000d0 8c 8e 2f 3d ce 72 1f be a2 33 b8 bd 04 70 b2 bd
       0.042860553 -0.15571138 -0.08994223 -0.087127715
0000e0 32 17 a0 bd 15 4b a0 3c 18 5a b4 bd 1d 71 4a 3c
       -0.07816924 0.019567052 -0.088062465 0.01235607
0000f0 2c e6 62 3b 00 2c c0 3d f4 9f 93 3d 52 48 3c 3d
       0.0034622056 0.09383392 0.07208243 0.045967408

layers.6.weight f4 [64]
000000 a9 6c 80 3f 22 18 7d 3f 4e bc 77 3f d5 53 84 3f
       1.003316 0.9886495 0.96771705 1.0338084
000010 6a dc 8e 3f 09 2e 86 3f c6 38 80 3f dd 84 81 3f
       1.1161015 1.0482799 1.0017326 1.0118672
000020 28 34 7d 3f a6 d8 82 3f 1b ec 7a 3f 76 dd 83 3f
       0.9890771 1.0222366 0.9801652 1.030196
000030 c9 40 7c 3f be 19 7a 3f 7a e5 71 3f a7 bf 75 3f
       0.98536354 0.9769553 0.9449078 0.95995563
000040 53 23 70 3f 3a 94 6e 3f a6 a4 79 3f 45 55 83 3f
       0.938039 0.93194926 0.9751686 1.0260397
000050 90 7a 76 3f cf d1 79 3f e1 c5 80 3f fd 02 88 3f
       0.96280766 0.9758577 1.0060388 1.0625912
000060 f8 8c 89 3f 22 65 7c 3f b7 05 89 3f 44 81 7a 3f
       1.0746145 0.98591816 1.0704869 0.97853494
000070 2f 29 79 3f 6b 8d 6b 3f 46 5d 83 3f 54 b7 7a 3f
       0.97328466 0.9201266 1.026284 0.97935987
000080 90 ac 7c 3f 5b 3f 84 3f 46 75 70 3f 25 22 85 3f
       0.9870081 1.0331835 0.93928945 1.0401045
000090 75 fe 80 3f ce d4 71 3f a7 88 7d 3f cf 0c 67 3f
       1.0077654 0.9446534 0.9903664 0.9025392
0000a0 72 16 7f 3f fa 49 75 3f 82 24 76 3f c0 6a 76 3f
       0.99643624 0.95816004 0.96149457 0.9625664
0000b0 9b b0 80 3f 0f d9 7a 3f 3e fa 81 3f 57 6f 7a 3f
       1.0053896 0.97987455 1.0154493 0.9782614
0000c0 ef bb 80 3f 88 13 7c 3f f7 bd 79 3f a5 27 81 3f
       1.0057353 0.984673 0.9755549 1.0090224
0000d0 43 e8 71 3f de 51 83 3f 1d e1 6d 3f 87 83 81 3f
       0.9449503 1.0259359 0.9292162 1.0118264
0000e0 20 fe 6b 3f d5 07 82 3f ca 82 7c 3f 79 75 80 3f
       0.9218464 1.015864 0.9863707 1.003585
0000f0 5c e1 7f 3f 75 08 70 3f d9 35 7b 3f 85 a8 7c 3f
       0.99953246 0.93762904 0.9812904 0.9869464

layers.6.bias f4 [64]
000000 37 00 f9 3d e6 ea d2 bd 9d c1 b4 3d a4 69 51 bc
       0.12158244 -0.102987096 0.08825991 -0.012781534
000010 c3 95 03 be d6 ab 8f bd 46 0f e9 3c dc 06 05 be
       -0.12850098 -0.07015197 0.028449666 -0.12990898
000020 d0 e8 f3 3d e8 b1 bd 3b 39 37 a0 bd f6 08 ed bd
       0.1190964 0.0057890303 -0.07823033 -0.11573975
000030 0f 4c ba 3d 1c 22 e9 3d 08 f2 ef bc 8e 94 ba bd
       0.09096538 0.11383459 -0.029290214 -0.09110366
000040 54 c5 bd 3d c2 d9 cd bd 33 0e be bd 12 d1 41 bd
       0.09266153 -0.100513 -0.09280052 -0.047318526
000050 11 b4 66 3b ea aa d0 3d db 96 31 bd b9 fa a9 bd
       0.0035202543 0.10188849 -0.043356758 -0.08299775
000060 bc af f7 bd ff 28 9d 3d 5c a3 ee 3c 2c aa de bd
       -0.120940655 0.07673835 0.02913063 -0.108723015
000070 06 8e 8a bc 9d 9d c2 bd c8 88 00 be 12 e0 b0 bd
       -0.016913425 -0.095027186 -0.12552178 -0.08636488
000080 42 a2 e2 3c 94 70 a7 bd db cf af 3d d4 23 0b bd
       0.027665261 -0.081757694 0.08584567 -0.033969715
000090 7b 33 75 3d 9c 91 d1 3d 9c 80 df bd 27 3a c4 3c
       0.05986355 0.10232851 -0.10913202 0.02395351
0000a0 d2 9d 87 3d 79 36 ba 3d 9a 27 8d bd bf 3b d8 3d
       0.06621899 0.09092421 -0.06892319 0.10558271
0000b0 a7 58 38 3d 95 78 1a bd 23 f1 98 bd 53 71 c6 3d
       0.04500642 -0.037712652 -0.07467868 0.09689584
0000c0 68 72 f5 3b 6e 3d c9 3d 4d 25 c3 3d 34 f8 a0 3d
       0.007490445 0.0982617 0.09528599 0.07859841
0000d0 fb c3 9a bd 5b 4a f3 bd 13 18 9f bd 53 d2 43 3c
       -0.075569116 -0.118794166 -0.07768264 0.011952001
0000e0 4d a8 cc bd 78 07 06 bd a5 8c ca 3d a6 a8 b0 bc
       -0.09993038 -0.032721967 0.09890107 -0.021564793
0000f0 a0 70 f8 3d 6c 69 89 3d e7 c5 51 bd b6 ae 80 3d
       0.121308565 0.06709561 -0.051214125 0.062833235

layers.6.running_mean f4 [64]
000000 37 64 96 3e a7 c1 f0 3d 07 6d 96 3e e4 d4 dc 3c
       0.29373333 0.11755686 0.29380056 0.026956983
000010 db ee 48 3d 01 bb a1 3e 26 6c 08 3e 18 84 db 3d
       0.049055915 0.31587985 0.13322505 0.10718554
000020 27 46 a8 3e d3 6a 2f 3d 1c b8 0e 3e ae 52 44 3e
       0.32866022 0.042826485 0.1393742 0.19172165
000030 08 9c 09 3f b5 24 8a 3e b2 ea b6 3e f7 52 76 3e
       0.5375371 0.2698113 0.35725933 0.24055086
000040 fc 35 34 3f b8 16 9e 3e ef 35 06 3f d2 cc 4c 3c
       0.70394874 0.30876708 0.52426046 0.012500005
000050 b0 73 fb 3e 3f 10 62 3f c7 74 5b 3e fb 16 8e 3d
       0.491117 0.8830604 0.21431266 0.06937977
000060 54 6b 76 3d 44 d4 88 3d 93 ee 7e 3c 63 c9 77 3e
       0.06016095 0.066811115 0.01555981 0.24197917
000070 3f c7 36 3e fd d3 86 3e aa 97 a1 3d a3 66 ec 3d
       0.17849444 0.2633361 0.07890256 0.11543014
000080 41 af 25 3d bc d4 0d 3e e5 88 26 3e b3 83 41 3c
       0.04045034 0.13850683 0.16263159 0.011811185
000090 5d fb 21 3e 8d 60 71 3e f4 ff bf 3e 3c 67 16 3f
       0.15818544 0.23571987 0.37499964 0.58751273
0000a0 d1 73 89 3e f3 ce 02 3f 41 5c 01 3f ea be cc 3e
       0.26846173 0.5109703 0.50531393 0.39989406
0000b0 f5 08 2d 3e 9a 01 25 3e 72 96 fa 3d a0 92 af 3e
       0.16897948 0.16113892 0.122357264 0.34291553
0000c0 a4 cc 2d 3f d0 d0 20 3e e0 9c c9 3e cd f6 d1 3d
       0.6789038 0.15704656 0.393775 0.10252152
0000d0 12 31 fc 3e bd e9 e9 3e 04 65 12 3f c6 35 36 3d
       0.49256188 0.4568614 0.5718539 0.044484876
0000e0 38 47 2b 3f 67 ee fb 3d ba 1a 80 3c 5e 71 28 3e
       0.66905546 0.12301331 0.015637744 0.16449496
0000f0 cf e8 7f 3e 28 fe 0c 3f 54 07 ad 3e 42 a4 9d 3e
       0.24991153 0.5507531 0.33794653 0.3078938

layers.6.running_var f4 [64]
000000 d1 3d 6b 3e aa b2 b1 3c 05 d3 c8 3c 3f 6b 56 3c
       0.229728 0.021691639 0.024514684 0.013087093
000010 ab 7f d6 3d 13 71 92 3f dd e1 b3 3b a1 8e 6e 3e
       0.104735695 1.1440758 0.0054895715 0.23296596
000020 0e a4 5b 3f 78 a1 3b 3c e7 cf 99 3d 02 03 04 3f
       0.857972 0.011452071 0.07510357 0.5156709
000030 5d 06 fd 3f ba ad b3 3c b8 13 9c 3f 94 1d 5a 3f
       1.9767567 0.021933425 1.2193518 0.8520138
000040 d6 e8 64 40 a6 8f 9b 3f 52 cc 26 40 0c e3 1d 3b
       3.5767112 1.2153213 2.6062207 0.002409163
000050 6b d1 2b 40 6b f7 89 40 e0 aa 7f 3c 9a bf 3a 3d
       2.6846569 4.3114524 0.015604705 0.04559288
000060 57 af 00 3e 55 8f b8 3d bc 50 55 3c 75 e0 5b 3f
       0.12566887 0.090117134 0.013019737 0.8588937
000070 3f b2 0a 3e f6 b9 48 3f c3 6d ef 3d 7b 09 36 3e
       0.13544558 0.78408754 0.11690857 0.17777054
000080 c4 5d 15 3d bc 97 9a 3d 2a 03 0b 3c 03 f2 3e 3c
       0.036466375 0.07548472 0.008484641 0.01165438
000090 ba 19 19 3e ee 69 d1 3c 3b 75 e4 3f d1 2b 09 40
       0.1495122 0.025563207 1.7848276 2.1432993
0000a0 08 39 c7 3e 5d a9 08 40 b8 66 f8 3f 93 50 16 40
       0.389107 2.135337 1.9406347 2.3486679
0000b0 2f bc 9f 3c c7 b4 90 3e c8 c0 04 3e a6 f0 18 3f
       0.019498913 0.28262922 0.12964165 0.597422
0000c0 52 7d 32 40 99 39 40 3f 6b 71 e0 3e 27 d1 1a 3d
       2.788899 0.7508789 0.4383653 0.03779712
0000d0 1d c1 0d 40 f9 e2 c7 3f fd b9 4f 40 41 1e fc 3c
       2.2149117 1.5616142 3.2457268 0.030776145
0000e0 e2 32 58 40 be f9 4a 3e eb 44 90 3c 61 a4 85 3e
       3.3781056 0.19821832 0.017610988 0.26101974
0000f0 1c 33 43 3f 13 ea 06 40 43 89 82 3f 0f 06 ac 3f
       0.7624986 2.1080368 1.0198139 1.3439349

layers.8.weight f4 [64, 64, 2, 2]
000000 8d 10 a9 3c 12 e0 43 bd 7a de 92 3d 74 91 47 bc
       0.020637775 -0.047821112 0.0717134 -0.012180675
000010 dd 06 cc bc cb 31 02 be f6 31 06 bc 60 32 36 3d
       -0.024905616 -0.12714307 -0.008190623 0.044481635
000020 e7 5f 6f 3d e8 3f 22 bd cf 0d 48 3c 2b 90 81 ba
       0.05844107 -0.039611727 0.0122103235 -0.0009884884
000030 6d 82 6e bd 8e ca 80 bb c7 3e 88 bd e1 93 66 3d
       -0.058229852 -0.0039303964 -0.06652599 0.056293372
000040 ce fe b8 bb 8e 98 89 bb 7a 5e c1 bd 28 06 f8 bd
       -0.0056456095 -0.004199094 -0.09441848 -0.12110549
000050 18 32 ef 3c 8f d7 99 bd 55 60 a7 bb b5 ad f4 bb
       0.029198691 -0.07511818 -0.005107919 -0.0074669966
000060 6f 9c d3 3b e5 ce 03 bd 6a 21 0a 3d 5a 18 ea 3c
       0.0064578573 -0.032179732 0.033723272 0.028576065
000070 68 19 58 3b 24 5f 3c bd 26 58 0c bd 98 dc 90 3c
       0.0032974128 -0.04598917 -0.034263752 0.017683312
000080 a0 15 6d bd ac 8e 35 3c ae b5 0a 3c 3f 59 11 3d
       -0.05788195 0.011081379 0.008466167 0.035485502
000090 0a 4b f4 bb e3 42 eb 3c fa d3 db 3c 90 90 b1 bc
       -0.0074552344 0.028718418 0.026834477 -0.021675378
0000a0 8c 6a 06 3d 34 c9 0a be 55 42 3b bc 8e 12 49 3d
       0.032816455 -0.13553315 -0.011429389 0.04908996
0000b0 59 e8 6d bb 76 d9 c5 bb 65 33 6b bd 90 95 a1 bd
       -0.003630182 -0.0060378863 -0.05742206 -0.07889855
0000c0 d4 ce 45 3d 94 2e 9f 3c 72 dc 24 3d 65 27 ae 3b
       0.04829295 0.01943139 0.040249296 0.005314755
0000d0 28 0c 82 3d 3b 36 22 3d 2a 6e 39 3b ee cc c0 bc
       0.06349975 0.0396025 0.0028294423 -0.023535218
0000e0 fa 9c 28 3c c4 0b 36 bd 10 5a 7c 3d 1d f8 2f 3a
       0.010291332 -0.044444814 0.061609328 0.0006712692
0000f0 08 b0 88 3c 84 02 a0 bd d1 ef 1c bd e6 a8 09 3d
       0.0166855 -0.0781298 -0.038314644 0.03360834
000100 40 fb c0 3d 54 62 18 bd a1 ce de bc b7 5b 56 3d
       0.09422922 -0.037203148 -0.027198138 0.05233356
000110 5a 6b f7 bc 8a d7 83 bc c7 83 da bc 0a 87 bc bc
       -0.030202556 -0.016093988 -0.026674164 -0.02301361
000120 f1 f2 9b bc dd f4 7c bd f8 f7 9f bd b3 b4 ba 3c
       -0.019036742 -0.061756957 -0.07810968 0.022791242
000130 d0 61 df 3c 04 bb 80 bd 23 c8 af 3c 46 33 6d 3c
       0.02726832 -0.062856704 0.021457737 0.014477557
000140 3a 29 cb ba 68 dd bb 3c 27 eb ee 3c cc 27 d4 3c
       -0.0015499957 0.022932723 0.029164864 0.025897883
000150 70 da 1d 3d b3 52 51 3c 14 0d 0d bd 73 1c 07 bd
       0.038538396 0.012776065 -0.0344363 -0.032986116
000160 87 48 56 3d 49 c6 b5 bc ce d5 2a bd 74 1f 45 3a
       0.05231526 -0.022189276 -0.041707806 0.00075196405
000170 0e 6e cd 3c 15 5f b0 3b a1 f4 d9 bc 3c 29 85 bd
       0.025076892 0.0053824284 -0.026605906 -0.065020055
000180 59 31 57 bd 6e c1 56 bd e1 27 a1 bd 91 06 51 bd
       -0.052537296 -0.052430563 -0.078689344 -0.051031653
000190 5d fe a5 bc 27 14 12 bd ef ef b1 3c fc 1a 66 3d
       -0.020262891 -0.03566375 0.021720855 0.056178078
0001a0 f0 d4 ed bb 74 dc 26 bd 77 60 56 bd 8b 2a 4b 3d
       -0.00725805 -0.040737584 -0.05233809 0.04960112
0001b0 d2 5e e8 bb 3b 12 db bc a5 0f 2e bd 06 7f 20 3b
       -0.0070913816 -0.026742091 -0.04249539 0.0024489774
0001c0 51 08 4b 3d b7 4e 42 bd 8b 0d 80 bc db af d8 bd
       0.049568478 -0.04743835 -0.015631458 -0.10580417
0001d0 d3 62 15 bc be f4 79 bd 8d 5a 38 3c ce 9a 33 3d
       -0.0091178 -0.06102442 0.011252058 0.043848805
0001e0 16 3e 06 bd 2d e0 b6 3d 88 f4 81 3a bb cd b1 bd
       -0.032774054 0.08929477 0.0009914795 -0.08681818
0001f0 14 25 17 bd e6 2c 1b bd 1e 19 c8 bc 8a a1 4b 3c
       -0.036900595 -0.037884615 -0.02442604 0.012428651
000200 37 6d c5 bc 65 26 84 ba b0 43 bf 3b 86 3c 06 3d
       -0.02409993 -0.0010082243 0.0058369264 0.032772563
000210 6b 6d 94 bc dd 49 11 3d b0 c2 1a bd e3 c1 79 bd
       -0.01811858 0.035470832 -0.037783325 -0.06097592
000220 b2 d1 26 3d 2b e2 53 bd 8e d8 9c bc 0a 6b 2b 3d
       0.040727325 -0.051729362 -0.01914623 0.041850127
000230 e5 21 e6 3c 28 ba 0c bd cf b5 1b bd df 7d 44 3c
       0.028092334 -0.03435722 -0.038015183 0.011992901
000240 e0 4a 82 3c 27 5a 9d bd 81 e2 a4 3c 30 da 29 3d
       0.015904844 -0.07683211 0.020127537 0.041467845
000250 f6 33 07 3d bf 13 de 3c 59 a6 15 3c d7 01 02 3b
       0.03300854 0.027109025 0.009133899 0.0019837522
000260 5f 03 f5 bc d9 9c 53 bb c6 f0 d6 bc 70 28 72 bd
       -0.029908834 -0.0032289533 -0.026237857 -0.059120595
000270 18 72 c9 3c cc 15 21 3d 47 06 ce bc aa 2b ad bc
       0.024590537 0.039327428 -0.025149478 -0.021138985
000280 5f 84 38 3d 72 b0 4c bd 56 f1 a7 3c fe 63 25 3c
       0.045048114 -0.04997296 0.02050082 0.010094641
000290 17 39 14 3d ed 21 5e 3c 1b 0e df 3c 32 a5 5f bd
       0.036187258 0.013557893 0.027228406 -0.054600902
0002a0 aa 75 53 bd 43 98 c4 3c 8b f6 cd 3b 38 dd 86 3c
       -0.051625885 0.023998385 0.0062854937 0.016462907
0002b0 bc 9c f0 b9 e2 e9 b3 3c 74 52 0e 3d 4c 82 92 3c
       -0.00045893143 0.02196211 0.034746602 0.017884396
0002c0 48 7c 75 bc 5d 4d b0 3b 47 7e 70 3d 04 54 5d bd
       -0.014983244 0.005380316 0.058714177 -0.0540352
0002d0 f0 32 f1 bb 29 08 26 bd 44 12 31 3c 50 33 a9 3d
       -0.0073608086 -0.040535126 0.0108075775 0.0826174
0002e0 cd ff 62 3d da 5b 63 bd 8a 53 46 bd 74 15 53 bd
       0.055419732 -0.05550752 -0.048419513 -0.05153413
0002f0 a7 89 2c 3d 18 41 e0 3c 0f 5f 87 bb 79 b8 11 3d
       0.042123463 0.02737479 -0.004131205 0.035576317
000300 5a 5b 86 3b 06 f8 b3 bd a1 97 18 bb 68 b7 41 3d
       0.0041002454 -0.08787541 -0.0023283737 0.04729405
000310 c4 7b 12 3d f4 3c af 3d cb 7f 2a bc b6 f0 06 bc
       0.035762563 0.08556548 -0.010406445 -0.008236101
000320 f2 71 15 bd 91 42 7c 3d e0 fb 82 bc 02 2c 21 bd
       -0.03648562 0.06158692 -0.015989244 -0.03934861
000330 01 bf b3 3d dc ea ab bd 88 aa 22 bd 28 15 a3 3c
       0.087766655 -0.08394405 -0.039713413 0.019907549
000340 ea 3f f4 3a 0d 62 8f bc 8b 97 73 3c fc 2a 9d bc
       0.001863477 -0.017502809 0.014867674 -0.019185536
000350 1d e3 70 bd 39 84 3d bd 05 e7 f0 bb e5 2c 90 bd
       -0.058810342 -0.046268675 -0.0073517584 -0.07039813
000360 fc 90 f3 bb 96 b7 a3 bc 6b 80 b4 bc 6b 91 4b bd
       -0.007433055 -0.019985002 -0.02203389 -0.04969923
000370 dc 87 7b 3b 0d eb 89 bd 1a 21 34 bd bb 9d 89 3d
       0.003838054 -0.067342855 -0.04397688 0.06719538
000380 fd b7 68 bc d5 a5 6f 3c 33 01 4d 3c ca 90 3e bd
       -0.0142040225 0.01462694 0.012512493 -0.0465248
000390 29 97 39 3c 3f a9 a4 bd 13 d9 39 bd 3a 2f 30 3b
       0.011327543 -0.08040094 -0.045373034 0.0026883618
0003a0 52 3c f6 bc e5 bb 82 3c 2f 2d e4 bb 4a 31 55 3d
       -0.03005806 0.015958736 -0.006963394 0.05204896
0003b0 5a e7 7e bd 6e 91 d7 3c 2b df 70 3c 4b 4e c7 3d
       -0.062232353 0.026314463 0.014701645 0.0973173
0003c0 08 41 af bb 01 c5 87 3d 4d 1e c0 3c ee f7 6c bc
       -0.0053483285 0.066293724 0.023451949 -0.014463408
0003d0 dd 7f ba bc 5e 33 6e 3d 6e a2 bf bc fe 81 1e 3d
       -0.022766048 0.058154456 -0.023392882 0.03869819
0003e0 15 9d 27 3d 6e e9 20 bc 74 0a 73 3c 12 b4 40 bc
       0.04092129 -0.009821279 0.014834035 -0.011761682
0003f0 15 12 3e 3d 34 cc 90 3d 26 b4 19 3d de 3e 94 bc
       0.046403963 0.07070199 0.03752532 -0.018096384

layers.8.bias f4 [64]
000000 ec 76 ab 3d 96 ab b6 3d f2 a0 aa 3d 79 83 99 3d
       0.08372292 0.08919446 0.08331479 0.074957795
000010 ca 32 f4 3c 62 0a 75 3d 5a e9 03 3d fa 0d 9f 3d
       0.029809374 0.059824355 0.032204963 0.07766338
000020 74 67 41 3d fa 22 8f 3d 3a 40 d1 3d f4 49 c7 3d
       0.0472178 0.06989093 0.10217328 0.09730902
000030 a9 c3 99 3d 7b 2f c4 3d a0 cd 9d 3d 47 4a b7 3d
       0.07508022 0.09579369 0.077052355 0.08949714
000040 d2 96 94 3d aa a4 97 3d b5 69 0e 3e ec c3 6a 3d
       0.07255329 0.07404454 0.13907512 0.057315752
000050 7e 1c e3 3d 16 88 8d 3d 0f 5c cd 3d 1f bc 18 3d
       0.11089419 0.06910722 0.100273244 0.03728878
000060 e8 cd be 3d e2 37 a4 3d 2d 9b cb 3d 4b 03 f5 bb
       0.09316617 0.08018471 0.09941707 -0.007477199
000070 32 c8 ad 3d 1c 04 89 3d c7 fd 8c 3d 9b 92 9d 3d
       0.0848545 0.06690237 0.06884342 0.076939784
000080 14 bd f8 3c 46 51 d1 3d df 2a a4 3d 0a 35 a7 3d
       0.030363597 0.1022058 0.080159895 0.08164413
000090 ab 8b 4d 3d df 43 38 3c 65 aa a7 3d 61 f5 62 3d
       0.050182026 0.0112466505 0.08186797 0.055409793
0000a0 cf ca a1 3d 0c 56 ce 3d 12 8b e3 3d 68 26 5d 3d
       0.07900011 0.10075006 0.1111051 0.053991705
0000b0 b7 94 a8 3d 91 de d7 3d 56 d9 9e 3d a2 55 cf 3d
       0.0823149 0.10540498 0.07756297 0.10123755
0000c0 21 3a f6 3c f3 04 ce 3d 64 87 d2 3d b3 9b a0 3d
       0.030057015 0.10059538 0.1027973 0.07842197
0000d0 0c 65 86 3d ce 4f 47 3d 2c cd e6 3d 69 3f ad 3d
       0.06562242 0.048660092 0.11269602 0.0845936
0000e0 e3 e5 e3 3d 9e e5 1c 3d 58 79 8d 3d 2e 4a 6e 3d
       0.11127832 0.038304918 0.0690791 0.058176212
0000f0 b9 87 10 3e d9 ad c5 3c ed a0 93 3d 88 8d 12 3e
       0.14114274 0.024130749 0.072084285 0.14311802

layers.10.weight f4 [64]
000000 32 3d d2 3f 33 c6 d1 3f 1c 20 d1 3f bf d7 d1 3f
       1.6424925 1.6388611 1.6337924 1.6393965
000010 5b 77 d2 3f 21 bd d1 3f e2 4f d0 3f b5 a0 d1 3f
       1.6442674 1.6385843 1.6274378 1.6377169
000020 29 26 d1 3f ec a0 d1 3f 1a 46 d1 3f ad e6 d1 3f
       1.633977 1.6377234 1.6349518 1.6398522
000030 de 8b d1 3f fe 44 d1 3f 8d cc d1 3f 10 bc d1 3f
       1.6370809 1.634918 1.6390549 1.6385517
000040 02 d4 d1 3f db af d1 3f c1 d0 d0 3f 26 e5 d1 3f
       1.6392825 1.6381792 1.6313707 1.6398056
000050 b6 16 d1 3f 28 a2 d1 3f d3 7c d0 3f 0e a8 d1 3f
       1.6335056 1.6377611 1.6288093 1.6379411
000060 9e 5e d1 3f 73 62 d1 3f 99 6f d1 3f 3f 12 d0 3f
       1.6357 1.6358169 1.6362182 1.6255568
000070 4d 24 d1 3f c5 c3 d1 3f d1 5e d1 3f 62 70 d1 3f
       1.6339203 1.6387869 1.6357061 1.6362422
000080 05 83 cd 3f 77 e9 d1 3f f2 43 d1 3f 73 92 d2 3f
       1.6055609 1.6399373 1.634886 1.6450943
000090 22 3d d1 3f bb b0 d1 3f df a3 ce 3f 18 bb d1 3f
       1.6346781 1.6382059 1.614376 1.6385221
0000a0 17 27 cf 3f 33 4a d2 3f 45 bb d1 3f d0 41 d1 3f
       1.6183804 1.6428894 1.6385275 1.6348209
0000b0 f6 c4 d0 3f c4 17 d1 3f 99 28 d1 3f 44 30 d2 3f
       1.6310108 1.6335378 1.6340514 1.642098
0000c0 ae a5 d1 3f 72 45 ce 3f 78 44 d1 3f 8d 18 d2 3f
       1.6378686 1.6114943 1.634902 1.6413742
0000d0 ca b7 d1 3f 8a a6 ce 3f fe 58 d1 3f 00 df d0 3f
       1.6384213 1.6144574 1.6355283 1.6318054
0000e0 72 8f d1 3f 65 46 d1 3f 08 6d cd 3f 0c 31 d1 3f
       1.6371901 1.6349608 1.6048899 1.6343093
0000f0 e7 4e d2 3f ee 1f d2 3f 8d e2 d0 3f 62 0c d1 3f
       1.6430329 1.6415994 1.6319138 1.6331904

layers.10.bias f4 [64]
000000 27 e8 24 3f 76 ff 23 3f 35 7a 22 3f 19 58 24 3f
       0.64416736 0.6406168 0.63467723 0.64196926
000010 6e 42 24 3f f9 a2 23 3f 78 08 1f 3f 91 8a 22 3f
       0.64163864 0.6392055 0.621223 0.63492686
000020 f9 a2 21 3f 97 3e 23 3f 2f b7 22 3f 23 e4 24 3f
       0.631393 0.6376738 0.63560766 0.6441061
000030 f7 7d 23 3f 93 65 22 3f 92 ae 24 3f 6f 12 24 3f
       0.6386408 0.6343624 0.64328873 0.6409063
000040 69 bd 22 3f 66 00 23 3f 70 0c 22 3f 5e 5b 21 3f
       0.63570267 0.6367248 0.6330023 0.6303004
000050 f7 1f 25 3f 3d 32 23 3f 39 55 1f 3f 34 f7 22 3f
       0.645019 0.6374853 0.62239414 0.6365845
000060 e0 30 1f 3f 3c 29 22 3f 4c 52 24 3f 60 b8 1e 3f
       0.6218395 0.6334417 0.64188075 0.62000084
000070 d7 37 22 3f 9f 6d 20 3f 20 fb 23 3f 31 a5 23 3f
       0.63366455 0.6266727 0.6405506 0.6392394
000080 82 f9 1a 3f 5c a0 23 3f fe 23 22 3f 14 96 23 3f
       0.6053697 0.63916564 0.6333617 0.63900876
000090 f7 61 22 3f 21 a1 22 3f 7a fb 19 3f 11 48 23 3f
       0.6343073 0.63527113 0.6014935 0.6378184
0000a0 6f 8a 1d 3f 63 ab 24 3f cf a7 23 3f ae d0 22 3f
       0.6153936 0.64324015 0.6392793 0.6359967
0000b0 14 40 21 3f 9f 98 21 3f f5 63 1d 3f ca 91 24 3f
       0.629884 0.63123506 0.6148065 0.64284956
0000c0 6f 90 23 3f 5a dc 18 3f 69 a7 22 3f b4 5f 24 3f
       0.63892263 0.5971123 0.635367 0.6420853
0000d0 62 2c 22 3f b2 c5 1c 3f 7f 68 22 3f d7 63 20 3f
       0.6334897 0.6123916 0.634407 0.62652344
0000e0 65 b1 22 3f 68 62 22 3f 6c 1d 19 3f 03 61 22 3f
       0.6355193 0.63431406 0.5981052 0.6342928
0000f0 57 4e 25 3f fa c6 23 3f 41 82 21 3f 3c 86 22 3f
       0.6457266 0.6397549 0.63089377 0.63486075

layers.10.running_mean f4 [64]
000000 90 80 41 3f 81 c1 40 3f 58 e6 42 3f 84 a5 3c 3f
       0.75586796 0.75295264 0.76132727 0.73690057
000010 1b 9e 2b 3f 52 b1 44 3f f3 fe 1e 3f eb 60 42 3f
       0.67038125 0.7683307 0.6210777 0.75929135
000020 34 1f 46 3f 47 02 41 3f 2e 07 44 3f f2 ed 40 3f
       0.7739136 0.753941 0.76573455 0.75363076
000030 f0 c7 3e 3f 05 68 48 3f f5 7e 4e 3f c1 54 49 3f
       0.7452383 0.7828372 0.8066247 0.7864495
000040 eb d3 3c 3f fb 75 44 3f e3 2e 29 3f 1f 94 08 3f
       0.7376086 0.76742524 0.6608717 0.53351015
000050 73 c0 52 3f 80 ae 3b 3f 72 b6 32 3f 6f b5 2f 3f
       0.82324904 0.7331314 0.6980964 0.6863622
000060 8e 97 51 3f 9c 1c 49 3f cf bd 43 3f 4a d8 37 3f
       0.8187188 0.7855928 0.764615 0.71814406
000070 ed 8c 3e 3f 2d 09 4d 3f 0c d7 43 3f 5f 8d 38 3f
       0.74433786 0.80092126 0.7650001 0.72090715
000080 70 73 3d 3f f0 03 45 3f 49 9b 44 3f 32 ec 48 3f
       0.7400427 0.76959133 0.76799446 0.78485405
000090 5b d9 3c 3f b8 7a 35 3f 12 6a 37 3f 89 fb 39 3f
       0.7376916 0.7089038 0.71646225 0.7264944
0000a0 6b 7f 4f 3f 08 b5 43 3f 14 08 28 3f 78 af 36 3f
       0.810538 0.76448107 0.65637326 0.71361494
0000b0 25 15 45 3f 81 ae 3c 3f c6 29 3e 3f 4e 1e 47 3f
       0.7698539 0.7370377 0.7428249 0.77780616
0000c0 4f 18 4d 3f cd bf 3e 3f 4c d8 27 3f c3 80 3b 3f
       0.80115217 0.74511415 0.6556442 0.7324335
0000d0 45 4f 47 3f 33 79 40 3f 77 62 45 3f a9 8f 3b 3f
       0.7785533 0.75184935 0.7710337 0.73266083
0000e0 b2 12 3a 3f f2 fa 47 3f 31 b8 42 3f d9 66 47 3f
       0.72684777 0.7811729 0.76062304 0.7789131
0000f0 9f ab 40 3f af ff 42 3f 17 20 3c 3f 67 1d 3e 3f
       0.75261873 0.7617139 0.73486465 0.74263614

layers.10.running_var f4 [64]
000000 a9 eb 11 3f 23 78 08 3f fe 72 0e 3f 74 09 3b 3f
       0.57000214 0.53308314 0.55644214 0.730613
000010 97 88 71 3f 28 a9 3d 3f 27 a5 a1 3e 25 2c 41 3f
       0.94349045 0.74086237 0.31571314 0.75457984
000020 bf 2b 39 3f 89 29 39 3f 97 f3 11 3f b9 c1 05 3f
       0.72332376 0.72329 0.57012314 0.5224872
000030 9e 1f 2f 3f 97 79 3d 3f 9f eb 4b 3f fc 4f 42 3f
       0.6840762 0.74013656 0.79656404 0.75903296
000040 89 fa 08 3f 98 53 40 3f 58 e1 05 3f 2d 61 60 3e
       0.53507286 0.75127554 0.5229697 0.2191207
000050 2a f8 4b 3f 58 45 03 3f bd ef c9 3e 19 20 de 3e
       0.79675543 0.51277685 0.39440718 0.43383864
000060 22 fb 46 3f 79 3c 0b 3f a8 7b 34 3f 1b 79 42 3f
       0.7772695 0.5438915 0.70501184 0.7596604
000070 08 c5 03 3f eb 93 4e 3f de 9d 1a 3f 9a 71 04 3f
       0.5147252 0.80694455 0.60397136 0.5173584
000080 9c 72 0e 3f e6 c2 3a 3f c3 2a 0e 3f 6e a8 3c 3f
       0.5564363 0.7295364 0.55534 0.73694503
000090 45 b5 08 3f c0 43 fa 3e 31 4a f7 3e 75 f0 05 3f
       0.53401595 0.48879814 0.4829879 0.52320033
0000a0 b2 d1 3c 3f f1 96 04 3f c9 0d 16 3f e0 f3 4f 3f
       0.7375747 0.5179282 0.58614784 0.812315
0000b0 a5 3f 3c 3f d7 ff 04 3f c8 b6 02 3f 42 4b 09 3f
       0.73534614 0.5195288 0.5106015 0.5363046
0000c0 b4 5a 49 3f 66 8c 03 3f ac 4e d2 3e 5c ff 04 3f
       0.78654027 0.51386106 0.41075647 0.5195215
0000d0 d5 65 41 3f 61 fa 05 3f a9 1f 47 3f 4f af 00 3f
       0.7554601 0.5233517 0.77782685 0.502675
0000e0 62 af 00 3f e4 35 39 3f c0 52 45 3f 0b 32 3c 3f
       0.5026761 0.72347856 0.7707939 0.7351386
0000f0 6c e5 ff 3e 9f 9b 3f 3f fd d9 03 3f 7a 04 f2 3e
       0.49979722 0.74846834 0.515045 0.4726904

actor_classifier.weight f4 [15, 256]
000000 1f 7f c2 bb de 39 9b bd 33 10 84 3d 85 22 07 bc
       -0.005935564 -0.07579397 0.06448402 -0.008247976
000010 bf 4c ce bb ba d0 19 3c d1 b6 94 3c cc c3 08 bd
       -0.00629577 0.009388143 0.01815358 -0.03338985
000020 37 b5 1e bc ff 82 56 3b 98 df 55 bd 36 03 19 3d
       -0.00968676 0.0032731888 -0.05221519 0.037356578
000030 c4 df 28 bd 30 94 de 3b 54 86 8b bb d9 e9 a9 bc
       -0.041229025 0.0067925677 -0.0042579565 -0.02074139
000040 85 e7 7d 3c d7 d4 50 3d 83 05 3f bd 17 95 6b 3c
       0.015497093 0.05098423 -0.046636116 0.0143788075
000050 5a af c4 bb 76 1a e9 3c d8 97 19 3d d1 17 24 bd
       -0.006002349 0.028455 0.037498325 -0.040061776
000060 db 2d 0a 3d b6 73 67 bd 01 d1 f3 bc 52 24 57 3d
       0.033735137 -0.056506835 -0.029762747 0.052524872
000070 d1 ac df 3c 5e 88 20 3a 2d 64 b6 3c 1b 95 92 bc
       0.027304085 0.0006123836 0.022264564 -0.017893365
000080 45 62 34 bc f2 37 49 3d 4b 79 23 bd 1c 8c fc 3b
       -0.011009757 0.04912562 -0.039910596 0.007707132
000090 61 e7 58 3d 9e 87 5d 3d 47 18 80 3d da e7 7c 3c
       0.052955035 0.054084413 0.062546305 0.015436137
0000a0 f0 77 60 3d f6 0b 34 3d 6a bd 64 3c c3 31 2a bd
       0.05480188 0.04395672 0.013961175 -0.041551363
0000b0 af 4a 1a bc 01 0b c4 3c 84 90 cb 3b ab ac 21 3d
       -0.00941722 0.023931028 0.006212296 0.03947131
0000c0 cb 58 2b bd c0 f7 6d 3d b9 12 39 3b 18 45 01 bd
       -0.041832726 0.0580976 0.002823992 -0.031560034
0000d0 5e 29 5f bc 4f fc c0 3c 4b 0f fa 3b 1a 62 2f 3d
       -0.013620703 0.02355781 0.0076312176 0.042818166
0000e0 c2 60 87 3d 96 21 e4 3c da a4 7e 3a f4 f6 b3 bc
       0.06610252 0.027848046 0.0009713896 -0.021968342
0000f0 f7 26 0d 3c a8 63 9e bc dc 01 1d bc de db 5a 3d
       0.008615247 -0.01933463 -0.009582963 0.053432338
000100 6c 85 90 3c 75 f5 b4 3c 41 90 be bc 9a 95 6a bc
       0.017641746 0.0220897 -0.023262145 -0.014317894
000110 7d 06 20 bb e5 18 27 bd 33 4e 30 bd 9a 26 5f bc
       -0.002441793 -0.040795226 -0.043043327 -0.013620043
000120 e4 35 24 bd c9 7d ad 3b 6c f6 27 bd 57 0f d6 bc
       -0.040090457 0.005294536 -0.04100649 -0.026130361
000130 aa d7 f9 3c fe f2 9d 3c 42 e4 0d 3d 3a 3a 20 bd
       0.030498344 0.019280907 0.03464151 -0.03911803
000140 d6 37 09 3b 54 2b 25 3d 38 17 49 bd 0e 02 01 bb
       0.0020937822 0.040324524 -0.04909441 -0.0019685063
000150 c3 1a 76 bd 92 8b 05 3d b2 2a 1f 3d 01 38 5c 3d
       -0.060084116 0.032603808 0.038859077 0.053764347
000160 36 32 ed 3c dc c7 1b bd 17 71 20 3d 95 40 3d bd
       0.028954607 -0.038032398 0.03917035 -0.04620417
000170 28 3c fa 3c 6e 09 d8 3c d0 75 82 bb 4d 6a 65 bd
       0.030546263 0.026371684 -0.0039813295 -0.05600958
000180 49 6c 95 3b c2 3a f2 3b 3f 89 13 bd 10 16 96 3c
       0.0045600277 0.0073922584 -0.03601956 0.018321067
000190 f1 88 da bc 6f ed 39 3d df 53 5e 3c bb 59 e4 3c
       -0.026676627 0.04539245 0.013569801 0.027874818
0001a0 c6 a9 dd 3c ea d2 97 bc 6f f0 b1 3c 85 34 8f 3d
       0.027058493 -0.018533189 0.021721093 0.06992439
0001b0 1e 54 09 3d 9c 0d 33 3d bb c7 72 3d ae c3 b5 bc
       0.033527486 0.04371415 0.05927251 -0.022188034
0001c0 45 a8 36 3d 84 ca 02 ba e2 8c 9a 3c 95 5d 5e 3d
       0.044594068 -0.00049892836 0.018866006 0.054288466
0001d0 29 aa ea 3c 40 60 b3 bc 5a b8 01 bd bc 02 10 3d
       0.028645592 -0.021896482 -0.031669952 0.035158858
0001e0 4e 7e 09 3d 13 8d 9d bd ad bf 37 bd 52 a0 83 bc
       0.03356772 -0.076929234 -0.04486053 -0.016067658
0001f0 96 79 f0 bc f0 ac 09 bd 6e e3 5e 3d 4c 7f cb bb
       -0.029354852 -0.03361219 0.054416113 -0.0062102433
000200 a0 2b 5c 3c b0 86 4f bd c3 f1 2b 3c da f2 d1 bc
       0.013438135 -0.050665557 0.010494652 -0.025628496
000210 cb eb 28 bc e1 fa 0e 3c cd 04 cf bc 55 0f ef bc
       -0.010310124 0.008726806 -0.025270844 -0.029182116
000220 02 03 60 bc 6c df ce bc e7 97 3e 3d 69 70 b9 3c
       -0.013672592 -0.02525302 0.046531584 0.02263661
000230 2f 00 38 bd 5c 50 3f 3d 2e 87 3a 3d 8a 60 9e 3c
       -0.04492205 0.046707496 0.045539074 0.019333143
000240 8a dc 6a bd 73 fb 87 bd 45 41 c7 bc 80 b8 0b 3d
       -0.05733923 -0.06639757 -0.024323115 0.0341115
000250 75 b7 ae 3c 14 64 01 3d 16 e0 43 ba 89 8b 56 3c
       0.021327714 0.031589583 -0.0007472051 0.013094791
000260 1d 21 83 bd ee 42 0e 3c 39 3c 67 bc 1c 27 68 3c
       -0.064028 0.0086829495 -0.014113479 0.014169481
000270 1d e5 cc 3c 38 32 9a 3c ec 95 f1 3b 18 61 a9 bc
       0.025011593 0.018822774 0.0073726084 -0.02067618
000280 e1 fa 4a bc 8d 5a 37 3d e9 a0 ea 3b 5b 92 56 bd
       -0.012388916 0.04476409 0.0071602953 -0.05238567
000290 34 a2 92 3b d1 e1 43 bd ba 49 d5 3c ed a7 9d 3c
       0.0044749025 -0.047822777 0.026036132 0.019245112
0002a0 96 e1 13 3d b7 88 87 bc 59 e1 1f bd c7 46 18 bb
       0.036103807 -0.016544683 -0.039033268 -0.0023235546
0002b0 41 74 9f 3c 58 dc 5f bc b6 97 5e 3d cf 10 5a 3d
       0.019464614 -0.013663374 0.0543439 0.053238686
0002c0 8e 67 fb bc cd f2 eb bc 39 ee 2c bd 8b f7 17 bc
       -0.030689027 -0.0288023 -0.042219374 -0.009275327
0002d0 8d ae 47 3d 36 59 e2 3b f4 1d af bc 57 5a 26 3c
       0.04875045 0.0069076074 -0.021376587 0.010153375
0002e0 05 ee 93 3c 0b 37 39 3d 89 50 64 3d 14 f7 35 bd
       0.018057832 0.04521851 0.055740867 -0.044425085
0002f0 c8 fa 12 bc 7a 66 45 bc b0 e2 ea 3a b4 f1 97 3c
       -0.008970924 -0.012048358 0.0017920341 0.01854787
000300 32 ff d1 bb 78 e2 01 bd 2d 20 0c bd 08 12 1b bd
       -0.0064085955 -0.031710118 -0.034210373 -0.037858993
000310 b7 e2 09 bd 65 4f 05 bd 1c f1 15 bd 6f f5 9f 3c
       -0.033663478 -0.03254642 -0.036606893 0.019526212
000320 a9 d0 4b 3d 86 d0 41 bd 0e 92 b6 bb 63 9a 18 3d
       0.04975954 -0.047318004 -0.0055716103 0.03725661
000330 dc 9f 91 3c b3 af 16 3d 88 6c ea 3c 1f 65 05 bc
       0.017776422 0.036788654 0.028616205 -0.008141785
000340 54 21 22 bd 18 91 b9 bb 4f 69 ab 3c fc 7d 8b 3c
       -0.039582565 -0.0056630485 0.020924238 0.017027847
000350 59 c9 48 3c 11 9e a5 bc 80 b0 75 bb 4d f9 ff 39
       0.012255036 -0.020216973 -0.0037489235 0.00048823134
000360 52 8f 8f bb 99 e3 a1 3c 3d 82 d0 bc 72 c1 1f 3d
       -0.004381099 0.019761847 -0.025452727 0.039002843
000370 31 f9 05 3d a6 50 ef bc fd 08 34 bd 0b ce f7 3b
       0.03270835 -0.02921326 -0.043953884 0.007562404
000380 42 20 1a bc 70 85 08 bc b1 80 5c 3d 78 fa 3a 3d
       -0.009407105 -0.008332595 0.053833667 0.045649022
000390 4a 02 83 bc 19 52 22 bb 50 f4 85 bc 08 11 9a 3d
       -0.015992302 -0.0024768172 -0.016351849 0.0752278
0003a0 aa 95 46 bd 15 03 eb bc b4 23 65 3d 69 cf 60 3c
       -0.048482575 -0.028687993 0.055942252 0.013721325
0003b0 fd b2 7d 3d 56 68 24 bd 25 4b 80 3d 9e bb 3e 3d
       0.061938275 -0.040138565 0.06264333 0.046565644
0003c0 e7 03 84 3c 70 22 86 bc 8f 82 c2 3b 9e 5c 48 3d
       0.016115142 -0.016373843 0.005935974 0.04891645
0003d0 cc 8d 33 bd 56 77 ea 3c ca c2 56 39 87 c8 c9 bc
       -0.0438364 0.028621357 0.00020481195 -0.024631752
0003e0 1d 34 8c bb 70 82 4b bd db 5a 0d bc 04 59 5d bb
       -0.0042786733 -0.04968494 -0.008627619 -0.0033774981
0003f0 e6 d5 14 bd 26 da 86 bc fc 59 33 3d 14 ce 82 3d
       -0.036336802 -0.016461443 0.043786988 0.063869625
