Saved Models/model_checkpoint_bigfish_42_0.0001_1600_6_256_0.99_0.95_0.2_1024_0.5_end_1600.pth (torch, 154809 bytes, 21 tensors)

layers.0.weight f4 [32, 3, 8, 8]
000000 46 36 96 bd 5c 8f 93 bc 0b 44 84 bd f8 2a c7 3b
       -0.073345706 -0.018012695 -0.06458291 0.0060781203
000010 b7 a6 f5 bc f7 00 94 bd c7 c5 86 bd fd 42 0c bd
       -0.029986722 -0.072267465 -0.06580692 -0.034243573
000020 80 a5 1b 3d f1 e5 0a 3b 5b cf 1f bb 82 66 62 bd
       0.03799963 0.0021194185 -0.0024385068 -0.05527354
000030 77 48 98 bd 04 f3 92 bd e0 f5 08 bd 4f 3a 62 bd
       -0.074356966 -0.07175258 -0.03343761 -0.05523139
000040 d4 ba b4 bc 91 24 d7 3d 4c 9e 40 3d 99 a2 60 bc
       -0.022061743 0.10505021 0.047025964 -0.013710641
000050 55 5c cb 3d 6a 40 8a 3a cf 1c 93 bd 9f 79 c6 bd
       0.0992972 0.0010547761 -0.07183229 -0.09691166
000060 9a 7d 9f 3c aa 22 43 bd 58 bf 13 bc b8 4d 0b bc
       0.019469071 -0.04764048 -0.009017788 -0.008502416
000070 89 2b 54 3c b8 e0 d5 bc 3e 04 94 bd 5e 70 a5 bc
       0.012949833 -0.02610813 -0.07227372 -0.020195182
000080 dd c3 33 3d e6 f5 0c bd 16 87 22 bc 39 4f 1e 3d
       0.04388796 -0.034414195 -0.009919902 0.03864977
000090 ee 56 1b bc a3 9c ff bd cf a4 2b be dc fa 38 be
       -0.009481175 -0.12481048 -0.16762088 -0.18064445
0000a0 04 50 10 bd cd 62 67 3d 6a da 97 3c 31 cf 06 3d
       -0.03523256 0.05649071 0.018536765 0.032912437
0000b0 b0 b0 fb 3d 8b 8c b9 3d d4 02 33 be 05 16 94 bc
       0.1228956 0.090600096 -0.17481548 -0.018076906
0000c0 e6 ce aa 3d d0 aa 43 3d 6f 63 7d 3d 4a a4 2a 3d
       0.08340244 0.04777032 0.061862405 0.041660585
0000d0 8d 71 23 3d 77 11 fc 3c 3d 64 72 3b 41 46 66 bd
       0.039903212 0.030770047 0.0036986016 -0.056219343
0000e0 6c 9b d9 3c 7a e4 98 bd 5e ec 37 3d 57 6b 7a bd
       0.026563369 -0.074654534 0.04490315 -0.061137524
0000f0 7b 2c 24 bd f8 a7 08 3d bf 0e 41 bd 1c a1 b9 bd
       -0.040081482 0.033363312 -0.047133204 -0.09063932
000100 94 5a e4 3c 7b 57 2b 3d 4c 27 5c 3d 8d 47 92 bd
       0.027875222 0.041831475 0.053748414 -0.071425535
000110 e9 71 82 bd 3c 29 e4 bd ae 31 3a bd 0e 02 14 3d
       -0.06369383 -0.11140677 -0.045457534 0.036134772
000120 4e 62 43 3b e5 a2 ce 3d 87 be d9 bb 48 db 5c 3c
       0.0029813233 0.100896634 -0.006645027 0.013480015
000130 58 7b 44 3d 5a d8 ec bb f8 35 fd bd a4 13 ed bc
       0.047969192 -0.0072279396 -0.12363809 -0.02894003
000140 ae 8a c0 bc 23 5d b9 3d 54 73 8f 3c e0 5d 97 bc
       -0.023503628 0.090509675 0.017511047 -0.01847738
000150 cc 5e ab 3d ad b6 81 3b d7 b5 fa bb cc db 53 3d
       0.083676904 0.003958544 -0.0076510715 0.051723287
000160 62 6b d6 bc ca 59 42 3d e0 82 c4 3c 4a 94 45 3c
       -0.026174251 0.04744891 0.023988187 0.012059281
000170 28 7f ac 3d 15 1e 9e bd 1b 0b 78 bb 4f ea 7c bd
       0.08422691 -0.077205814 -0.0037848416 -0.06174689
000180 ae 29 e6 3c c9 13 1b 3a 77 e4 2a 3d 42 04 33 bc
       0.028096046 0.0005915729 0.041721787 -0.010926308
000190 49 95 55 3c 3c 7a 0c bd bf cf 08 be 57 45 10 be
       0.013036081 -0.03429626 -0.13360499 -0.14088951
0001a0 d4 33 09 3d 28 6b af bc e9 10 18 bd 73 a2 b4 3d
       0.033496693 -0.0214134 -0.0371255 0.08820047
0001b0 89 0f 83 3c eb f7 f5 3c 13 2d c9 bd 79 c9 dd bd
       0.015998619 0.030025443 -0.0982305 -0.108294435
0001c0 9b 5a d5 bc ee 12 7f 3c 61 6c e1 3c 95 8c e5 3d
       -0.02604418 0.015568478 0.0275175 0.112084545
0001d0 e2 bf 5f 3d cb 08 d7 3c e0 a7 e1 bd 9e 98 ee bc
       0.054626353 0.02624931 -0.11018348 -0.029125508
0001e0 a4 0a 35 bd fd 81 b7 3c c1 67 70 bc 40 ea 50 bd
       -0.0441996 0.02240085 -0.014673174 -0.05100465
0001f0 1a 1b 2b 3d 58 27 e4 bc 26 37 b7 bc 6f df 0c 3d
       0.041773893 -0.027850792 -0.022365164 0.03439277
000200 50 eb 25 3c c6 22 74 bc e3 28 5d 3d 9b 1d db bc
       0.010126904 -0.014900869 0.05399407 -0.026747515
000210 e1 d7 0a bd d6 b7 96 bd 47 da e0 bd ac 13 d3 3b
       -0.033897284 -0.07359283 -0.10979133 0.006441554
000220 18 eb 87 bc 4f a9 7f bb 62 b9 29 3d 80 51 1a bd
       -0.016591594 -0.0039010828 0.04143656 -0.03767538
000230 dd 5c d3 bc cc cc 06 3d cd 80 e4 bc 06 61 07 3d
       -0.025801117 0.032910153 -0.027893448 0.033051513
000240 8f 9c c6 3d 4e f0 4c bd a9 6b 6d 3c bc 49 95 bc
       0.0969783 -0.05003386 0.014491 -0.018223636
000250 62 15 66 3d 60 49 79 bd 04 cb 11 be 57 15 21 bd
       0.056172736 -0.06086099 -0.142376 -0.039326992
000260 27 11 23 3c ec 9f 70 bd 9d 64 3e 3c 26 8e e5 3c
       0.00995282 -0.058746263 0.011620668 0.028021883
000270 1d 03 5a 3d 93 a9 52 3d 90 1e 85 3c 62 df 2d 3d
       0.053225625 0.05143125 0.016249925 0.042449363
000280 76 a1 60 3d 9f df a8 bc 99 c4 a0 3d e1 97 a0 3b
       0.05484148 -0.020614443 0.07849998 0.004900918
000290 7b cf dd 3c 77 1f 97 3c 8c 49 bb bd f1 b7 a8 bd
       0.027076473 0.01844762 -0.09144887 -0.08238209
0002a0 94 18 94 3d a0 94 19 bd 48 80 4f bc 08 19 88 3d
       0.072312504 -0.037495255 -0.012664862 0.06645399
0002b0 73 27 81 3c a3 2e 0a bd 37 c6 c0 bd 91 d4 21 bd
       0.015765881 -0.033735882 -0.094128065 -0.03950936
0002c0 bd 17 d9 3c 64 6a ad 3c 93 88 85 3d fd d0 67 3d
       0.026500577 0.021168895 0.0652019 0.05659579
0002d0 4b 6f 91 bc 2f 17 97 bd 47 d2 ad bc dc 02 a6 bd
       -0.017753264 -0.07377469 -0.021218432 -0.08106014
0002e0 81 04 a2 bd 11 23 d9 bd 85 57 a3 bd 6a fd 2f bd
       -0.07911015 -0.106023915 -0.079756774 -0.042966284
0002f0 9d 68 ad bc 11 92 6d 3d 54 f9 99 bd bf dd 7b bc
       -0.021168048 0.058000628 -0.07518259 -0.015372693
000300 76 10 22 bc a5 ab 92 bd 21 4e c3 bd d8 0a 24 3c
       -0.00989162 -0.07161645 -0.09536386 0.010012351
000310 1c b3 37 3c 67 28 cd 3c fe 5c c0 3c 2d 0a e9 3c
       0.011212137 0.02504368 0.023481842 0.028447235
000320 e9 b4 cc 3d f0 f9 9f bd 1c ee d4 bc 94 24 dc bb
       0.099954434 -0.07811344 -0.025992446 -0.0067182276
000330 4d be 43 bd 30 7a 6b bd af 92 9a 3c d2 c1 9e bd
       -0.047788907 -0.057489574 0.018868772 -0.07751812
000340 2e 00 6b 3a 14 76 a8 bc 19 45 82 bd 84 3c ea bd
       0.00089645653 -0.020564117 -0.063608356 -0.11437324
000350 c4 4d b3 bd 35 40 e8 3c d0 0a 07 3d b9 05 24 bd
       -0.08755067 0.028350929 0.032969296 -0.04004452
000360 b1 fc 80 bc 24 98 4c 3c ab c7 60 bd f9 97 e0 bd
       -0.015745493 0.012487445 -0.05487792 -0.109664865
000370 60 7e 43 bd fd bc a0 3d 93 9d d2 bd 45 b2 a4 3d
       -0.047727942 0.07848547 -0.10283961 0.08041815
000380 01 72 47 3d 3b 99 a7 3c c9 d8 83 3d 71 03 46 3b
       0.048692707 0.020458808 0.06437833 0.0030214454
000390 48 eb fb 3d 3c 0a 65 bb 2f 52 e5 bd 91 51 5c bc
       0.12300736 -0.0034948727 -0.11197316 -0.013447181
0003a0 18 f1 d2 bc 37 5a cc bd 27 44 b2 bd 4d da c3 bc
       -0.025749728 -0.099781446 -0.08704405 -0.023907805
0003b0 48 a8 1c bd cc ff fa bc 06 7b b9 bd c5 4a 97 bc
       -0.038246423 -0.030639552 -0.09056668 -0.01846827
0003c0 93 03 8c 3d cb 82 7b bd df cb 70 bd b4 59 01 3e
       0.06836619 -0.06140403 -0.058788177 0.12631875
0003d0 52 90 ed bb ae 2c 9d 3d 0b 93 2e be a6 e6 04 bd
       -0.0072498703 0.076745376 -0.1704828 -0.032446526
0003e0 c4 07 8b 3d ff 57 19 3d 51 d2 28 bc 33 42 9d bc
       0.067885906 0.037437435 -0.01030405 -0.019196605
0003f0 1a fe 51 3c fc f9 e5 3b 02 ac a8 bd 1f e3 d2 bd
       0.01281693 0.007018326 -0.08235933 -0.10297226

layers.0.bias f4 [32]
000000 11 9a 7e bd cd 0d 97 3c fa 3a 22 3d b8 13 de 3b
       -0.062158648 0.018439198 0.039607026 0.006777253
000010 20 5c d6 ba b4 3e 6f bd e3 26 ee bb 5f de dd bb
       -0.001635436 -0.058409408 -0.0072678193 -0.0067708935
000020 8e 18 ba 3c 03 f5 12 3c 58 86 7f bd 06 e8 2d 3d
       0.022716787 0.008969548 -0.06238398 0.042457603
000030 03 e5 b0 bd 2b 0e 9c 3d 69 b8 39 bd 96 bf 6e 3c
       -0.086374305 0.0761989 -0.045341883 0.014572045
000040 6e 02 80 bd de da 7b 3d 45 c5 ee 3c 71 b1 20 3e
       -0.062504634 0.061488025 0.0291468 0.15692689
000050 0e de 89 bd 08 b1 8d bd 1f f4 23 3d 19 42 b5 3c
       -0.06731807 -0.06918532 0.040027734 0.022126244
000060 68 34 09 3c 92 00 a9 bd 4b a4 3c 3d ee 8f 93 3c
       0.008374311 -0.08252062 0.04605512 0.018012967
000070 f6 67 4f 3c 32 26 87 3b 95 65 a9 3c 40 6b 99 3c
       0.012659064 0.0041244263 0.02067832 0.018727899

layers.2.weight f4 [32]
000000 68 9c 7e 3f d0 a0 76 3f e7 47 85 3f b5 b1 85 3f
       0.99457407 0.9633913 1.0412568 1.0444857
000010 cb c8 79 3f 8c ad 80 3f e3 1d 6d 3f 3c 04 72 3f
       0.9757201 1.0052962 0.9262373 0.9453771
000020 6a 3a 76 3f ec 27 77 3f 02 de 81 3f 49 23 7d 3f
       0.9618288 0.9654529 1.0145876 0.98881966
000030 06 35 75 3f 81 25 82 3f a1 ab 73 3f 7d bf 89 3f
       0.9578403 1.0167695 0.9518376 1.0761563
000040 6f 19 80 3f e7 09 79 3f 9a 48 7d 3f 77 0b 77 3f
       1.0007762 0.97280735 0.98938906 0.9650187
000050 1b 3a 87 3f 96 1f 7e 3f 70 ce 88 3f 4c b7 81 3f
       1.0564607 0.99266946 1.0688 1.0134063
000060 d5 75 84 3f 92 23 80 3f 86 24 82 3f 0c 8f 84 3f
       1.034846 1.0010855 1.0167396 1.0356154
000070 b0 76 80 3f b5 fa 7b 3f 87 91 79 3f 39 f9 78 3f
       1.003622 0.98429424 0.9748768 0.97255284

layers.2.bias f4 [32]
000000 50 b9 03 3e 4a 87 62 bb 35 09 88 3d 02 43 e3 3d
       0.1286366 -0.0034565502 0.06642381 0.11096765
000010 ab 4b 9e 3d 5e df 2b 3e c8 bc d5 3d 2f 26 8d 3d
       0.07729276 0.16784427 0.10436398 0.068920486
000020 92 cf 43 3d 9f 29 4d 3d f5 69 05 3e 91 45 d3 3d
       0.047805376 0.05008852 0.130287 0.10316003
000030 a8 4e de 3d cc f9 9d 3d 31 b3 0d 3e eb a7 67 3d
       0.10854846 0.077136606 0.13837887 0.056556623
000040 54 c9 1a 3e 35 9d 83 ba 58 5f 6f 3d b6 ce be 3d
       0.15115863 -0.0010041358 0.058440536 0.09316771
000050 68 cf ae 3d 97 8b 93 3d bf 86 e0 3d e8 8c 5a 3d
       0.08535653 0.07204359 0.10963201 0.053357035
000060 a4 25 13 3d 85 8e b6 3d fb e1 1e 3e 29 61 d7 3d
       0.03592457 0.08913902 0.15515892 0.10516579
000070 8a 65 c8 3d 22 4c 8f 3d f5 c5 10 3e 05 e2 c5 3d
       0.09784992 0.06996943 0.14138015 0.096622504

layers.2.running_mean f4 [32]
000000 af 2a 66 3c 08 18 7c 3c 58 ec 14 3d c7 10 3d 3c
       0.0140482625 0.015386589 0.036358207 0.011539645
000010 81 a3 b2 3c 17 a0 6c 3c 3d 3b 98 3c fe f4 20 3d
       0.02180648 0.014442465 0.018582935 0.039296143
000020 be dd 14 3d ce f2 dd 3c 79 eb 58 3b 23 a0 1a 3d
       0.036344282 0.027093317 0.0033099337 0.037750375
000030 ae a4 19 3c 97 e1 a3 3d 35 3e f2 3c 50 53 d0 3c
       0.009377642 0.08002012 0.029570678 0.025430351
000040 2b 40 0e 3d 86 cf 69 3d 96 8d 28 3d 1e b6 58 3e
       0.034729164 0.057082675 0.041150652 0.21163222
000050 5d 34 44 3b af fd 63 3b 5e 10 2f 3d 1e 5e 99 3c
       0.0029938438 0.0034788658 0.04274022 0.018721636
000060 8d d5 16 3c 03 44 93 3c 38 ca 66 3d 16 27 a9 3c
       0.009206188 0.017976766 0.056345195 0.02064852
000070 01 11 d4 3c 65 ee e3 3b 9b 80 fc 3c 63 7f 2c 3d
       0.025887014 0.006955909 0.030823043 0.042113673

layers.2.running_var f4 [32]
000000 15 63 9c 3b 41 c5 66 39 9d a6 8b 3a a9 2c 72 3a
       0.0047725537 0.00022007992 0.0010654513 0.0009238222
000010 50 bb de 3b d3 d6 40 3b 61 b3 b4 3b 4e 1d 5c 3c
       0.0067972317 0.002942492 0.0055145477 0.013434721
000020 0c 47 85 3b 50 88 9d 3b af e1 11 3a bf 34 7a 3a
       0.0040673073 0.0048075095 0.00055649405 0.0009544603
000030 7b 45 05 3b b3 ca 02 3c 9c 4d 3b 3c b4 09 90 3b
       0.0020335603 0.007982898 0.011432078 0.004395688
000040 b6 31 39 3c 81 3a f1 3a 10 94 79 3b c5 83 17 3d
       0.011303356 0.0018404276 0.0038082637 0.0369909
000050 81 13 30 3a d0 f2 15 3a 95 7f 1e 3b c9 43 af 39
       0.00067167735 0.0005720081 0.0024184932 0.00033429105
000060 1b 4a e2 39 a4 42 83 3b 8c d2 9c 3b da 43 88 3a
       0.00043161292 0.004005747 0.0047858413 0.0010396198
000070 58 6d 72 3b a7 cb ed 39 e1 d6 8e 3b b8 96 43 3c
       0.0036991443 0.00045355895 0.0043591117 0.01193779

layers.4.weight f4 [64, 32, 2, 2]
000000 f1 18 cd 3c d6 1d 72 bd a8 3f 76 bb 21 51 8c bd
       0.025036307 -0.059110485 -0.0037574563 -0.068514116
000010 de 13 0f 3c e1 53 25 bd 0c e5 94 3c 3f 26 2b bd
       0.008732764 -0.040363196 0.018175624 -0.04178452
000020 f4 3c 39 bd 47 f8 97 bd 0e 73 56 bc 5d cc 3e 3d
       -0.045224145 -0.07420402 -0.013088955 0.046581615
000030 63 e0 4b 3d 18 b1 db bd 49 3d a8 bd 48 b8 1d bc
       0.04977454 -0.10727137 -0.08214814 -0.009626456
000040 2a 13 75 bd 51 65 3b 3d 08 be 73 bc f4 50 a0 bd
       -0.05983273 0.04575092 -0.01487685 -0.078279406
000050 eb 93 2f be 7a a2 9b bd aa 2a 0d 3d 09 68 67 bd
       -0.1714627 -0.07599349 0.034464516 -0.0564957
000060 c5 ea 7b bd 2e 61 a6 3d 06 ea 51 3d d1 97 ae bb
       -0.06150319 0.08124004 0.051248573 -0.0053281565
000070 92 77 c5 3c cb a7 39 bb d6 00 75 bd 39 76 c1 bc
       0.024104867 -0.0028328772 -0.05981525 -0.023615943
000080 f9 6b c2 bb 05 f5 b8 bc fe af 9e bd 21 1e 49 3d
       -0.0059332815 -0.022577772 -0.077484116 0.049101
000090 5d 3b 78 3d f5 55 be bc 28 cc 97 bc 4b 01 a4 3b
       0.06060349 -0.023234347 -0.018529966 0.005005037
0000a0 ae 6b b6 bd 47 41 ed bb 2e 16 46 bd 05 a4 31 3b
       -0.08907257 -0.0072404477 -0.048360996 0.002710582
0000b0 5c 08 93 3c 1a 7c 68 3a 67 6a fb bd b5 ec 9d 3c
       0.017948322 0.000886859 -0.12276154 0.01927791
0000c0 98 66 bd 3d 06 fa 45 3d eb 3c 11 3d 23 d4 8c 3c
       0.09248084 0.048334144 0.035458487 0.017190998
0000d0 5c 78 dd 3d 2b 36 76 bd 48 a1 1d bc 3b a0 2d bc
       0.10813972 -0.060110252 -0.009620972 -0.010597284
0000e0 82 8a 3e bd 05 98 99 3d b9 6f 99 bd 12 53 38 bd
       -0.04651881 0.074996985 -0.074920125 -0.045001097
0000f0 81 d3 c2 3d bd 14 83 bc 01 2c 89 bd b1 62 a8 bd
       0.095129974 -0.0160011 -0.06697846 -0.08221949
000100 65 f5 dd bd 5b e3 e8 bc a1 0b 9c bd 9c af 84 bd
       -0.10837821 -0.028428724 -0.076194055 -0.06478807
000110 66 b6 27 bd dc f1 4f 3d 6a 96 03 3c e6 c9 07 bd
       -0.040945433 0.050767764 0.008031467 -0.03315153
000120 bf 22 37 3d 5e 3c a6 bd 13 16 d6 bd 02 ff a7 bd
       0.04471087 -0.08116983 -0.10453429 -0.08202936
000130 26 3c 97 bc b5 77 d7 bd 3b 23 fa 3c 3a af ac bd
       -0.018461298 -0.10520879 0.030534377 -0.08431859
000140 2e d8 12 3e d3 ef 6a 3d b0 61 96 bc bf 35 85 3c
       0.14340279 0.05735762 -0.018357128 0.01626098
000150 e4 1e e5 bd c7 52 c7 bd d5 c8 1b 3d ef 29 28 bd
       -0.111875325 -0.097325854 0.038033325 -0.041055616
000160 7e 7d 88 3c 87 a0 1a 3d b1 fd cd bc 7e 98 76 bd
       0.016661402 0.037750747 -0.025145384 -0.06020402
000170 d2 97 94 3d a8 36 52 3c 85 64 66 bd 4c 52 0b bd
       0.0725552 0.012830414 -0.056248207 -0.03401403
000180 f0 5c 8e ba 33 be 20 be f9 e2 26 3c 9e b1 98 bd
       -0.0010861438 -0.15697555 0.01018595 -0.07455753
000190 c5 e0 c2 bd a3 10 3e bd bc 24 ce bd 3c 05 d7 bb
       -0.09515528 -0.046402585 -0.100656 -0.0065619033
0001a0 73 8c 06 be 84 48 1a bd a1 f5 f3 bc df 24 88 bd
       -0.13139515 -0.037666813 -0.02978021 -0.066476576
0001b0 6b 75 e5 bc de 31 08 bd 53 b3 50 3d 13 8f 3c bd
       -0.02801009 -0.033250682 0.050952267 -0.046034884
0001c0 52 56 c6 bb b5 4f 49 3d a3 47 00 3d 29 39 cd bc
       -0.0060527707 0.04914828 0.031318318 -0.02505167
0001d0 5f c0 39 bc b9 00 e9 3c 19 ff b7 bd 33 a0 b7 bd
       -0.011337369 0.028442727 -0.08984203 -0.089661025
0001e0 f1 c7 1b 3d 28 41 b6 bc cb 7a 15 be be f3 77 bd
       0.038032476 -0.022247866 -0.14597623 -0.060535185
0001f0 75 31 4b 3d 2c 24 d9 3d 19 3a 56 bd 67 df 7c bd
       0.049607713 0.10602602 -0.0523015 -0.06173649
000200 87 dd 0d bd 31 35 97 3d 50 1c 10 3d 74 0a c1 bd
       -0.034635093 0.07383192 0.03518325 -0.09425822
000210 8a d7 9f 3d 74 9b 0e 3d 2c a6 75 bc 3c 6a 86 3d
       0.07804783 0.03481622 -0.014993232 0.06563231
000220 25 4b e3 bd af a8 cc 3b 40 15 b0 bc 98 86 5b bd
       -0.11098317 0.0062456946 -0.021494508 -0.053595155
000230 74 54 13 3d aa 1a af bd 9a de 4e 3d 61 3a 8f 3d
       0.035969213 -0.08550008 0.05050526 0.06993557
000240 f2 32 82 3d 9b b4 a0 bd 2f b8 6b 3b 0e cb 84 bc
       0.06357373 -0.07846948 0.0035967936 -0.016210105
000250 0a d8 9e bd 2f b3 2d 3d 18 ba 2e 3b e3 14 43 bc
       -0.0775605 0.04240721 0.0026661213 -0.011906835
000260 6e cd 36 3d 25 38 07 bd 29 74 73 3d 0d 6f 8c bd
       0.044629507 -0.033012528 0.05943695 -0.06857119
000270 3a 4e 04 bd be 4a c0 bd 1a 0c d7 bc 7d f7 c7 3c
       -0.032301165 -0.09389256 -0.026250888 0.024410004
000280 7e 4a db 3d 1c 4a 6c bd 42 43 ed bb 9c 62 18 3d
       0.10707568 -0.057687864 -0.007240684 0.037203416
000290 61 d9 b6 bd 1e 7e 86 3d f8 ec c7 3c 9f fc 91 3c
       -0.089281805 0.06567024 0.024404988 0.017820654
0002a0 f9 42 96 3d 04 60 f7 3c e0 3d b7 3d ee a6 eb bd
       0.07336993 0.030197151 0.089473486 -0.11506449
0002b0 56 38 c6 3d 53 8c 5d 3d c2 85 81 3c 15 77 ca 3d
       0.09678714 0.0540889 0.015810851 0.09885994
0002c0 92 47 8a bd c4 9c 87 3c 42 38 82 3d ae 26 0e be
       -0.06751932 0.016554244 0.063583866 -0.13881943
0002d0 a1 98 cb bd 96 c3 21 3c b2 da 91 bd a4 bd d6 bc
       -0.09941221 0.0098732915 -0.07121791 -0.026213475
0002e0 1c a7 62 3d 54 74 39 b9 b1 88 b5 bc 68 27 9f bc
       0.05533515 -0.0001768631 -0.022159906 -0.01942797
0002f0 54 17 49 3d 32 f0 5d 3b 46 52 ef bc 35 7a ba bc
       0.049094513 0.0033865091 -0.029214036 -0.022763351
000300 60 8a 8c bd 9f 95 69 bb 40 ac a0 bb 36 44 00 bd
       -0.068623304 -0.003564216 -0.0049033463 -0.03131505
000310 30 13 c4 bd 5a a1 17 bd 01 ed 91 bd ad e2 c4 3c
       -0.09573972 -0.03701911 -0.07125283 0.024033869
000320 66 8a 0e bd e0 e1 cc bd 99 4b b3 3d 5b 3d ac bc
       -0.034799956 -0.1000402 0.087546535 -0.02102535
000330 42 32 0c bd 3c 59 39 3d 44 86 c8 bd d1 3f 67 bd
       -0.034227617 0.045251116 -0.09791234 -0.056457344
000340 32 f0 83 bd 42 06 8c 3d 2b 62 ad 3d c2 4d cd bc
       -0.06442298 0.06837131 0.0846599 -0.025061492
000350 a8 fc 9e 3d c6 eb df bd 52 1f c8 3d 1b 23 bd bd
       0.07763034 -0.10933642 0.09771599 -0.092352115
000360 64 10 06 bd f8 3c 1f bd f3 e0 92 bd 02 61 63 3d
       -0.032730475 -0.038876504 -0.07171812 0.055512436
000370 84 5f f5 3c 1c 63 cf 3d 47 3a 14 bd f9 eb 2b 3d
       0.029952772 0.101263255 -0.03618839 0.041973088
000380 ef 79 30 bd ad 5c 06 3e 21 6a 86 bd 2a 15 b2 3b
       -0.043085035 0.1312129 -0.06563211 0.005434652
000390 2b da c3 3c c0 9f 17 be e2 b2 a3 3d 9a e2 a5 3c
       0.023907742 -0.14807034 0.079931036 0.020249654
0003a0 59 bd a8 3d 2b 63 33 3d 39 e7 8c bc 04 8b da 3b
       0.0823924 0.043795746 -0.0172001 0.006669404
0003b0 1a d2 f8 bc d9 a8 26 3d 72 85 08 bc 6d 15 ce 3c
       -0.030373622 0.04068837 -0.008332597 0.025156701
0003c0 e0 d4 d5 3b 37 88 7f bc 5e 2e 9c bd c7 52 4b 3d
       0.006525621 -0.015596441 -0.07626031 0.04963949
0003d0 18 d8 0d 3d c2 5c b0 3c c9 b0 82 3d 73 56 40 bd
       0.03462991 0.021528605 0.06381375 -0.046957444
0003e0 e0 2c 49 3d 7d 97 66 3b 01 4e 47 3d a0 4e 58 bc
       0.04911506 0.003518551 0.048658375 -0.013202339
0003f0 85 39 2d 3d 62 cb cf 3d 67 8d 52 bd f6 52 5e bd
       0.042291183 0.10146214 -0.051404383 -0.054278336

layers.4.bias f4 [64]
000000 65 a3 52 be 13 5c af 3d 65 23 cd 3d 37 88 b0 3c
       -0.20570143 0.08562484 0.100165166 0.021549327
000010 15 50 1a bd 12 92 d8 bd 8b c1 89 3d 5f 55 46 bd
       -0.03767403 -0.10574736 0.067263685 -0.04842126
000020 3b 5b 9f bd 07 a9 65 3d 15 f5 39 bc 24 85 4e 3d
       -0.07781073 0.0560694 -0.011349936 0.05041994
000030 d1 17 eb 3d ab 55 e7 bd 7a 71 ec ba d2 54 c4 bd
       0.11479152 -0.11295637 -0.001803919 -0.09586491
000040 11 d7 58 bd 7e fb b2 3c e3 40 26 bd 10 d7 39 3c
       -0.05293948 0.021848436 -0.040589225 0.011342779
000050 ac 0b c2 bd 75 5e 03 3e 78 41 7d 3d 61 28 29 3d
       -0.094748825 0.12829001 0.061830014 0.041298274
000060 2c 04 ad bd 4a 86 30 3d 18 70 ac bc 34 7c 2b be
       -0.08448061 0.043096818 -0.021049544 -0.16746598
000070 de 39 19 3c 10 3f 46 3d e8 4b 9d 39 d9 d7 bc 3d
       0.0093521755 0.048399985 0.00030001928 0.09220857
000080 77 3d 11 bd 06 d2 ba bd a0 10 a9 bd e8 2a 08 3e
       -0.035459008 -0.0912209 -0.08255124 0.13297617
000090 72 b9 f7 b8 0f 59 d9 bd d1 4b e4 3d cd 73 28 3e
       -0.0001181242 -0.1061269 0.11147273 0.16450424
0000a0 b7 a9 e2 3c 5c f4 5e bd 85 ca 15 bd aa d2 34 3d
       0.027668817 -0.054432258 -0.03657009 0.044146217
0000b0 a1 a6 d7 3d f6 e1 03 3d 80 6a 85 3d f4 55 08 3c
       0.10529829 0.032197915 0.06514454 0.008321274
0000c0 d5 3d fa bc 76 a1 c7 3d d6 87 1f bd 4f c2 d1 3d
       -0.030547062 0.09747593 -0.038947903 0.102421395
0000d0 4d 11 ff 3d 60 d9 23 3d 40 76 d8 bc aa 4e 65 3d
       0.12454472 0.040002227 -0.026423573 0.055983223
0000e0 f3 ed 6d bc 28 57 5b bd 5e 85 15 bd db 44 85 bc
       -0.014522064 -0.053549916 -0.036504142 -0.016268184
0000f0 e7 91 03 3e 8a b4 03 3e 42 17 0c 3d 86 01 38 bd
       0.12848626 0.12861839 0.034201868 -0.044923328

layers.6.weight f4 [64]
000000 73 6f 72 3f 64 e6 73 3f 18 fd 6e 3f 36 66 7b 3f
       0.9470131 0.95273423 0.9335494 0.98202837
000010 74 21 79 3f 65 3d 6e 3f 17 a2 75 3f 01 d7 81 3f
       0.9731667 0.9306243 0.95950454 1.0143739
000020 46 c7 83 3f 38 7d 82 3f 68 b1 8c 3f ce 71 7b 3f
       1.0295188 1.0194464 1.099164 0.9822053
000030 3a bc 6a 3f 5a c8 85 3f b9 6e 83 3f da c3 86 3f
       0.9169346 1.0451767 1.0268165 1.0528519
000040 e5 df 78 3f 36 05 7e 3f 6f e2 81 3f 7a b2 6c 3f
       0.97216636 0.992267 1.0147227 0.92459834
000050 75 be 8b 3f b5 ca 7b 3f 25 9d 67 3f 20 9a 84 3f
       1.0917498 0.9835618 0.9047416 1.0359535
000060 5f 2e 83 3f c8 23 7d 3f 74 0d 7f 3f 95 24 7f 3f
       1.0248526 0.9888272 0.996299 0.99665195
000070 24 76 7e 3f 0a af 7b 3f e2 e7 85 3f 39 17 80 3f
       0.9939902 0.98313963 1.046139 1.0007087
000080 36 2f 8d 3f af 68 85 3f 87 9c 72 3f 7f bb 7b 3f
       1.1030033 1.0422572 0.9477009 0.9833297
000090 22 2e 81 3f 54 58 7d 3f 6f 80 7b 3f da f4 78 3f
       1.0092204 0.98962903 0.9824285 0.97248614
0000a0 82 c7 81 3f bb 40 7b 3f ee 82 58 3f 3f c6 73 3f
       1.013901 0.98145646 0.8457478 0.95224375
0000b0 21 e3 77 3f d9 b6 75 3f 36 58 82 3f c9 93 78 3f
       0.96830946 0.9598213 1.018317 0.971005
0000c0 5b 36 7a 3f 00 ef 6e 3f d5 38 83 3f 31 37 84 3f
       0.9773919 0.93333435 1.0251719 1.0329343
0000d0 eb 56 78 3f 46 b2 7d 3f c6 6d 7d 3f 0d 65 71 3f
       0.97007626 0.9910015 0.98995626 0.94294816
0000e0 fb 99 81 3f 41 f2 75 3f 2e 91 80 3f 47 ff 83 3f
       1.0125116 0.96072775 1.0044305 1.031228
0000f0 b6 e0 7a 3f dc bd 6e 3f fc 04 7c 3f d1 8a 77 3f
       0.9799913 0.9325845 0.98445106 0.9669619

layers.6.bias f4 [64]
000000 cc f5 d7 bd 55 0b 20 3e 30 29 35 3e 79 1f 2c 3e
       -0.10544929 0.15629323 0.17691493 0.16808881
000010 99 28 0f be ee b4 e3 bd a8 d5 81 bc 45 e8 b6 3d
       -0.1398033 -0.11118494 -0.01584895 0.08931021
000020 bc 84 6e 3d 45 c1 38 be 54 eb 86 bd b5 4e 20 be
       0.058232054 -0.18042476 -0.06587854 -0.15655024
000030 9f 4c 26 3e 31 01 aa 3d 05 df b0 3d 84 43 83 3d
       0.16240166 0.083010085 0.086362876 0.06409362
000040 81 91 46 3e 12 95 7e bc 23 12 f4 bd 03 51 3a be
       0.19391443 -0.015538471 -0.11917522 -0.18194966
000050 88 ac 3e be 89 70 09 3e f5 e9 a2 bd 10 56 8c 3d
       -0.18620503 0.13421835 -0.0795478 0.068523526
000060 6e 84 0b be e4 64 4e 3e e2 38 01 be 29 0f 21 be
       -0.13624737 0.20155674 -0.12619355 -0.1572844
000070 29 54 02 3e 43 f0 ce bd 40 fb 00 be 13 7c 86 3c
       0.12727417 -0.1010442 -0.12595844 0.016416585
000080 86 4a fe bc 13 e5 c8 bd fb 85 d5 bd 74 41 40 3e
       -0.031041395 -0.098093174 -0.10425945 0.18774968
000090 07 7d 6a 3d 5a 09 13 be 12 36 04 be 7a 15 a3 bd
       0.05724814 -0.14359036 -0.12911251 -0.07963081
0000a0 cf ae 26 be e5 05 0a be 07 a5 a1 3c 95 b5 64 3d
       -0.16277622 -0.13478811 0.019732011 0.055837233
0000b0 b4 0c 08 3e e3 80 20 be 5e 7f 56 3e 5d 72 36 3e
       0.13286096 -0.15674166 0.20947024 0.17817064
0000c0 28 36 07 be 2f 77 4c 3e a0 b3 f4 3d 24 9f b1 3c
       -0.13204253 0.1996734 0.11948323 0.02168233
0000d0 8b ef fb 3d 07 63 3e 3e 48 c7 42 3c 68 14 08 3e
       0.123015486 0.18592463 0.011888333 0.13289034
0000e0 39 f1 14 be 14 00 49 3e 74 7d 2a 3e 81 a6 fc bc
       -0.14545144 0.19628936 0.16649419 -0.030841114
0000f0 e7 7a 4a 3e 8e 3a 13 3e 95 f1 1e 3e c8 0b 26 be
       0.19773446 0.14377806 0.15521844 -0.16215432

layers.6.running_mean f4 [64]
000000 7a 5c 76 3a 83 9c b7 3e 6a 43 eb 3e 67 5a 07 3e
       0.00093979354 0.35861596 0.4594987 0.1321808
000010 ca a8 84 3e e2 1a b9 3e f8 c5 17 3f b8 f8 f2 3d
       0.25910026 0.36153322 0.5928645 0.118638456
000020 b9 dc fa 3d 7d af bc 3e b9 bc 16 3e 57 b2 34 3f
       0.12249131 0.36852637 0.1472043 0.70584625
000030 f4 ca 64 3f 32 6f 9e 3d c6 94 28 3d 8a 61 63 3d
       0.8937218 0.077360526 0.041157506 0.055512942
000040 48 65 7c 3e 6e df aa 3e 9a 43 bb 3e f0 6b c1 3e
       0.2464801 0.33373588 0.36575013 0.37777662
000050 75 c7 67 3d 3e f3 ed 3e 3e 04 52 3f 03 49 f1 3d
       0.0565867 0.46474642 0.82037723 0.11781504
000060 06 99 da 3d cc f0 1d 3e 23 31 29 3e 8a 36 e1 3c
       0.10673718 0.15423888 0.1652265 0.027491827
000070 7c b1 aa 3e 92 4b af 3e 6b 7b 91 3e 50 1b 64 3e
       0.33338535 0.34237343 0.28414473 0.22276044
000080 dd f9 63 3d 39 71 f2 3d 2a de 83 3e f4 bc be 3e
       0.05565821 0.11838002 0.25755435 0.37253535
000090 2b 78 81 3e ac 6f c1 3d 25 87 0d 3f 81 00 6b 3f
       0.25286993 0.09445128 0.5528434 0.91797644
0000a0 40 73 3f 3f 31 0c 33 3d 3e 6a f0 3e 41 a9 9d 3e
       0.7478523 0.0437128 0.46956056 0.30793193
0000b0 d7 23 19 3f 65 d2 0e 3f c1 67 bc 3e c6 85 05 3f
       0.5982031 0.55789787 0.36797908 0.5215725
0000c0 f3 e4 5d 3f 94 89 c6 3e ad e4 0a 3e 93 c9 ae 3e
       0.86677474 0.3877684 0.13563795 0.34138164
0000d0 e8 76 4a 3f 0a 51 d6 3e 32 f9 1f 3e 38 a1 5e 3f
       0.79087687 0.41858703 0.15622404 0.8696475
0000e0 69 9e 64 3e 11 74 17 3e c7 29 39 3e 5c 10 eb 3d
       0.22326054 0.1479037 0.18082343 0.1147773
0000f0 c0 f1 32 3f 31 39 88 3f 17 97 ee 3e 4f 2b b8 3e
       0.6990013 1.0642453 0.46599647 0.35970542

layers.6.running_var f4 [64]
000000 d8 6f 0d 39 23 05 ee 3e dd 9e af 3e ab 30 a2 3d
       0.00013488473 0.46488294 0.3430089 0.07919439
000010 29 5a 07 3f 3b f7 49 3f 33 1d 81 3f 0b 95 a4 3d
       0.5287195 0.7889287 1.0087036 0.0803624
000020 12 e6 55 3d 05 8c c5 3e 0b a9 cf 3d a7 8b df 3f
       0.052221365 0.3858339 0.10139664 1.7464494
000030 7e 4a 18 40 06 31 60 3d b0 e7 a7 3c e5 11 a6 3c
       2.3795466 0.054734252 0.02049622 0.020272205
000040 79 76 3c 3e 60 25 a2 3e 3b 63 ce 3e 2c bc 11 3f
       0.18404569 0.3166914 0.40310082 0.5692775
000050 5f fc 1e 3e fc dc 97 3f 65 01 26 40 9c 41 02 3e
       0.1552596 1.1864314 2.593835 0.1272034
000060 99 ff 18 3d 79 ff 93 3e 72 9c 82 3e 4f 90 52 3d
       0.037353132 0.28905848 0.25509983 0.051407155
000070 c4 88 2d 3f c0 a4 4a 3f b0 31 b9 3e a1 35 82 3e
       0.6778681 0.7915764 0.3617072 0.2543154
000080 84 90 55 3d d9 6f d4 3d de b1 10 3f 3d fc b2 3e
       0.052139774 0.10372896 0.56521404 0.34958068
000090 4b 87 c2 3e 35 5f 4a 3d 0f e0 87 3f ad 91 eb 3f
       0.37993845 0.049407203 1.0615252 1.8403832
0000a0 9d 4d 16 40 8c f4 ea 3c f1 dc 76 3f f2 82 12 3f
       2.3484871 0.028681062 0.9643088 0.57231057
0000b0 c8 f8 87 3f 5d 56 b4 3f 0b 6d 48 3f 30 94 8d 3f
       1.0622797 1.4088856 0.78291386 1.1060848
0000c0 59 d9 38 40 67 24 30 3f 6e 75 d6 3d 7c ec 1b 3e
       2.8882658 0.68805546 0.10471617 0.1522693
0000d0 5f 23 17 40 db 6d 6e 3f a0 b8 8d 3e c2 c8 1e 40
       2.3615339 0.93136376 0.2767992 2.4810033
0000e0 85 ae b0 3d 37 3d 1f 3e ba 00 87 3d 9e 99 c0 3d
       0.08627037 0.15550695 0.065919355 0.094043
0000f0 58 01 a8 3f 3d 8e 37 40 61 f4 3f 3f 47 bd 61 3f
       1.312541 2.8680565 0.7498227 0.8817944

layers.8.weight f4 [64, 64, 2, 2]
000000 08 9a 49 3d 0a 7b 21 bd 5d a4 89 bd 50 dc 1a 3d
       0.04921916 -0.03942398 -0.06720803 0.037807763
000010 d5 4d 7c bb 31 ca 45 3d 38 be 7e bd 11 b0 c2 3c
       -0.003849854 0.048288528 -0.062193125 0.023765596
000020 fa 13 21 3d 67 d2 0f 3d 00 da 3f bc 14 2a 01 3d
       0.03932569 0.035112765 -0.01170969 0.03153427
000030 ff 42 9b bd 8c 6a 85 3c fe ea 36 3d c0 0f 34 bb
       -0.07581138 0.016286157 0.0446577 -0.0027475208
000040 ec 18 59 3c ec e3 87 bd 08 42 65 bd 44 9a 6c bc
       0.013250571 -0.066352695 -0.055971175 -0.014441077
000050 83 c0 bc bc a0 d0 98 bb bb 4d aa bd f0 f7 a2 3d
       -0.023041015 -0.004663542 -0.08315607 0.079574466
000060 f2 d4 80 3c 86 38 38 3c 7f 2b 13 3c 0d e2 97 3b
       0.01572654 0.011243945 0.008982538 0.0046351016
000070 81 da 05 3d 25 c3 51 bc e4 32 9f 3d 11 bb ee bd
       0.032679085 -0.012802874 0.077733785 -0.11656774
000080 f4 80 16 3c b9 cf 6e bc 38 2d 64 3d 3e 2c 85 bc
       0.009186018 -0.014575892 0.055707186 -0.016256448
000090 40 3e 09 3d fc 17 91 bb e2 31 9b bd 4c c6 8b 3c
       0.03350663 -0.004427908 -0.07577874 0.017062329
0000a0 8b f5 56 bd 45 30 7d 3d 41 42 18 3b af e8 43 bd
       -0.05248026 0.06181361 0.002323285 -0.047829326
0000b0 eb 8f 2e bd 0d c6 61 bd 92 35 33 3c 6a fc 4c 3d
       -0.04261772 -0.055120517 0.010938065 0.05004541
0000c0 ab ed b5 3b 4b f1 59 3d ac 2b b6 3c 0e 49 4d bb
       0.005552014 0.05320863 0.022237621 -0.0031324062
0000d0 59 b5 6d bc 0b 56 9a bc 68 93 11 3d c2 ff 43 3d
       -0.014508569 -0.018839857 0.03554097 0.04785133
0000e0 d6 e7 33 3d 2a 99 9e bd 77 bc 8c bd 52 02 dd 3d
       0.043922268 -0.077440575 -0.06871884 0.10791458
0000f0 10 9a 3d bd 1b bd 83 bd d8 29 40 3d e1 20 28 3b
       -0.046289504 -0.064325534 0.046914905 0.0025654363
000100 1f 41 e9 bc f3 ae a9 bc a6 22 85 3d 29 42 1a b9
       -0.028473435 -0.020713305 0.06500749 -0.00014711231
000110 77 28 84 bd e2 06 af bb e4 82 09 3d 27 c9 57 3d
       -0.064530306 -0.0053413967 0.033572093 0.05268207
000120 33 48 9f bc 4b b3 81 bd e7 1c 38 3b 25 96 98 3d
       -0.019443607 -0.063330255 0.00280934 0.07450513
000130 76 78 22 3d 54 fb 8a bd 31 d9 10 3d a4 eb 00 3d
       0.03966566 -0.06786218 0.03536338 0.031474724
000140 1c 72 6d 3d bb 2b 32 bd 7d 3b fe bd 82 2d e9 bd
       0.05797015 -0.043498736 -0.1241369 -0.11385633
000150 39 0e 0f 3d d2 4a b2 3c e2 0d 0c 3d 8c fe a4 3c
       0.034925673 0.021764193 0.034192927 0.020140909
000160 b0 f8 33 3d 0c 9b 04 bd f8 95 95 bc af c6 90 bd
       0.04393834 -0.032374427 -0.018259987 -0.07069146
000170 aa 80 6b 3d fb 64 a9 bd ed 94 79 bb 4b 2f 1c bd
       0.05749575 -0.082712136 -0.0038083151 -0.03813104
000180 a4 86 82 3c dc 4d fd bd d3 b2 9c bd 4b b3 28 bd
       0.015933342 -0.12368366 -0.076512955 -0.041186612
000190 a4 65 6a 3d 84 4a a4 bc d4 ca 63 bd 36 27 0b bd
       0.05722584 -0.020055063 -0.055613354 -0.03397294
0001a0 e9 1b 3a bd 4c c3 5d 3c 89 73 2d bd b1 cb df bd
       -0.045436773 0.013535332 -0.04234651 -0.10927523
0001b0 51 7c 04 bd f0 43 b1 bc a0 ab e1 bd b9 85 f2 bc
       -0.03234512 -0.02163884 -0.11019063 -0.02960478
0001c0 97 a9 7e 3b 0f 44 bb 3d 0a 4a 79 bc 9e ff d3 bc
       0.0038858408 0.091438405 -0.015215406 -0.025878724
0001d0 21 27 41 3d 56 36 44 bd 2a f6 64 bd 7c c1 1f bd
       0.047156457 -0.04790338 -0.055898823 -0.03900288
0001e0 7d 02 d3 3c a3 57 04 be c7 13 da 3c 2e 23 c3 ba
       0.025758022 -0.12924056 0.026620759 -0.0014887804
0001f0 b5 7c 7c bd 98 08 67 3d 01 52 1b 3d ee 2a 21 3c
       -0.061642367 0.05640468 0.037920002 0.009836895
000200 11 a6 b0 bd 19 8e 3e bd 0d e1 81 bc f2 6c a0 3d
       -0.08625425 -0.046522234 -0.015854383 0.0783328
000210 2e d3 62 3d 5d 51 5f bc 39 00 c1 bd 91 1d a1 bc
       0.055377178 -0.013630238 -0.094238706 -0.019667419
000220 59 a7 23 bb d9 cb ab 3c 1e 1a 48 bd 9f 39 6c 3c
       -0.0024971573 0.020971226 -0.048853032 0.014418035
000230 e5 63 d2 bc 2e a7 78 3d 70 56 a0 3b 4a f0 24 3d
       -0.025682399 0.06070631 0.0048931167 0.04026822
000240 61 ae 08 3d 5a 6f 98 bd 2a f7 89 bb fb 35 3e 3d
       0.033369426 -0.074431136 -0.0042103725 0.0464382
000250 b9 59 18 bd a8 ae 6e ba 21 2e a7 3d cb 4d c4 bd
       -0.03719494 -0.00091050053 0.08163095 -0.0958515
000260 89 97 7e bd 6a ac fc bc 5b bf 1f 3c 94 81 f1 3c
       -0.062156234 -0.030843932 0.009750213 0.029480733
000270 c3 2b 3a bc 2b 5b 38 bd 47 d1 45 3c be 7a 0b 3d
       -0.011362973 -0.04500882 0.012073821 0.034052603
000280 f9 36 d1 bc eb 4f c3 bd 2e 83 2b 3d 3f ae 54 bd
       -0.025538908 -0.095367275 0.04187315 -0.051923987
000290 9d 0b ac bd d6 0a 4a bd 1d 32 32 3c 25 5f 47 bc
       -0.084006526 -0.04932674 0.010876206 -0.01216868
0002a0 80 46 5d bd 1d 85 84 3c 18 da ed 3c b7 04 40 bc
       -0.054022312 0.016176755 0.02903466 -0.011719874
0002b0 9e c2 1b 3d 4f a9 2f 3d 6b 20 35 bd 88 0e 23 bc
       0.0380274 0.042886075 -0.04422037 -0.009952195
0002c0 b7 c3 0e 3d 6d 6a ab bc b0 ee 4a 3d 1f 6f a9 bd
       0.034854617 -0.020924771 0.049544036 -0.08273148
0002d0 79 5c 73 bc 90 65 c2 bc f9 dd 54 3d 1d 8b 29 bd
       -0.01485359 -0.02373007 0.051969502 -0.041392434
0002e0 dc 86 80 3c 5f 02 6e 3d 67 07 5c bc e2 ce 84 bd
       0.015689306 0.05810773 -0.013429499 -0.06484772
0002f0 7c 8e 1a 3d f5 1e 91 3c 6e 05 e6 3b 72 d5 b3 bc
       0.03773354 0.017714957 0.0070196902 -0.021952365
000300 f9 99 99 bd d9 87 50 bd 9d e2 b9 3b 7b 79 98 3b
       -0.07500071 -0.050910804 0.0056727664 0.0046531535
000310 bb 3c 2e bd 66 77 c5 3c a1 c1 e7 bc 5e 14 35 bb
       -0.042538386 0.024104785 -0.028290572 -0.0027630548
000320 c8 bf d1 3d 51 49 c1 bc d3 0d 9c 3b 35 4b 1d bc
       0.102416575 -0.02359453 0.00476239 -0.00960045
000330 b4 62 f9 3c b1 9c bb bd f2 ec a8 bb d2 b8 9f 3c
       0.030442573 -0.09160746 -0.005155199 0.019497309
000340 70 49 55 3d 12 aa 70 3d ff 51 bb bc a0 2d 54 3c
       0.05207199 0.05875594 -0.022866247 0.012950331
000350 2a c3 21 bb 92 0c 66 3d 0c 92 45 3c d3 6b a7 bd
       -0.0024682977 0.05616433 0.012058746 -0.08174863
000360 91 23 6b bd a4 1e 82 3d 87 a0 75 bd 54 50 1d bd
       -0.057406966 0.063535005 -0.059967544 -0.038406685
000370 8f 3e e6 3d 48 a0 80 bd 23 3b a4 ba f8 c0 01 3d
       0.11242401 -0.06280571 -0.0012529831 0.03167817
000380 13 05 07 bd 0e dc 2b 3d 05 2e 97 3c e9 21 91 bd
       -0.032963824 0.041957907 0.018454561 -0.07086546
000390 e4 f8 dc bc a3 d1 19 3c d5 9f 49 bc 3d b2 2a 3d
       -0.026974149 0.00938836 -0.012306173 0.041673888
0003a0 46 9a 32 3b 90 e6 5d bd 88 3f 89 bc 0f e1 a8 3d
       0.0027252599 -0.05417496 -0.016753927 0.082460515
0003b0 c3 bc 84 3d 97 9b 90 3b fd 49 68 bd 66 69 5d bd
       0.06481316 0.004413079 -0.056711186 -0.054055594
0003c0 f2 35 5e 3d ab dd 75 3c 33 4f ee 3c d2 08 05 3b
       0.054250665 0.015006463 0.0290905 0.0020299447
0003d0 5c 78 b6 3b 44 41 26 3d d0 96 4f 3c 81 3e d9 3c
       0.005568547 0.040589586 0.012670234 0.026519062
0003e0 43 44 3d bd c4 73 8f bb b2 d6 a7 3d 94 0f a9 bc
       -0.046207678 -0.004377814 0.08195247 -0.020637311
0003f0 26 ca 34 bc 62 68 31 bd b5 87 ba bc 98 9f ec bb
       -0.011034524 -0.043312438 -0.022769788 -0.0072211735

layers.8.bias f4 [64]
000000 78 71 e5 3d c3 99 b2 3d de 79 5b 3e 45 03 1c 3e
       0.11203283 0.08720734 0.21433207 0.15235622
000010 1f 17 22 3e d2 84 01 3e 75 ff 60 3e 43 8d e7 3d
       0.15829132 0.12648323 0.21972449 0.113062404
000020 62 d0 13 3e c3 e9 cf 3d cf 30 f3 3d 75 b1 09 3e
       0.1443496 0.101520084 0.11874544 0.134466
000030 04 5c 12 3e f9 59 04 3e 3b d5 f1 3d 60 b4 0c 3e
       0.14292914 0.12924947 0.118082486 0.13740683
000040 62 4f 1f 3e 19 ac 1a 3e 5f 87 c7 3d 80 3f fc 3d
       0.15557626 0.15104713 0.09742617 0.12316799
000050 d6 63 f9 3d e5 4e b5 3d 05 0b 10 3e d3 cd 1b 3e
       0.12177245 0.088529386 0.14066704 0.15215234
000060 c7 b1 10 3e fd 0f ce 3d 29 e6 0f 3e ee 99 18 3e
       0.14130317 0.10061643 0.14052643 0.1490247
000070 01 89 0c 3e 57 20 0e 3e 1d 0b e9 3d 31 24 ed 3d
       0.13724138 0.13879524 0.11379073 0.115791686
000080 98 85 1d 3e 08 24 2c 3e 41 8e 07 3e 83 68 02 3e
       0.15382993 0.1681062 0.1323786 0.1273518
000090 da 3b 1e 3e fd 2d 14 3e 86 3d bf 3d 44 f3 ef 3d
       0.15452519 0.14470668 0.093379065 0.11716321
0000a0 ab 97 1b 3e 54 a8 22 3e fb d1 ee 3d 25 30 c7 3d
       0.15194575 0.15884525 0.11661144 0.0972598
0000b0 aa a1 21 3e 0d 4c c9 3d 9b bf fe 3d 89 65 d2 3d
       0.15784326 0.09828959 0.124388896 0.102732725
0000c0 af 68 3b 3e ed be 41 3e 75 66 0a 3e 40 90 ee 3d
       0.18301652 0.18920489 0.13515647 0.11648607
0000d0 f3 f4 e0 3d ce b1 41 3e d2 8e 07 3e 59 02 09 3e
       0.1098422 0.18915483 0.13238075 0.13379802
0000e0 9c de 1b 3e 90 3a 13 3e 98 32 1a 3e 35 1a 12 3e
       0.15221637 0.14377809 0.15058362 0.1426781
0000f0 c4 50 e0 3d a3 97 19 3e 22 21 17 3e f1 41 ec 3d
       0.10952905 0.14999251 0.14758733 0.11536015

layers.10.weight f4 [64]
000000 8c 1d fa 3f 5c bd f6 3f ba d3 f9 3f 3b 8e f8 3f
       1.9540267 1.9276538 1.9517739 1.9418405
000010 aa 7c f9 3f c5 a0 fa 3f 53 59 f8 3f c2 e6 f9 3f
       1.949117 1.9580313 1.940226 1.9523547
000020 02 14 f9 3f 66 a4 fa 3f b4 52 f8 3f 16 b1 fa 3f
       1.9459231 1.958142 1.9400239 1.9585292
000030 56 66 f9 3f 92 c5 f9 3f 14 0a f9 3f 39 61 f3 3f
       1.9484355 1.9513419 1.9456201 1.9014045
000040 ee d6 f8 3f 6c 14 fa 3f f2 89 f9 3f 1c 7a fa 3f
       1.9440591 1.9537482 1.9495223 1.9568515
000050 50 28 fa 3f 75 85 fa 3f a0 e6 fa 3f d7 c3 f8 3f
       1.9543552 1.9571978 1.9601631 1.9434766
000060 03 f0 f9 3f 72 61 fa 3f 97 58 f8 3f ea d9 fa 3f
       1.9526371 1.9560988 1.9402035 1.9597752
000070 fa 5f f9 3f ca fa f9 3f de 57 f9 3f bb 3e f6 3f
       1.9482415 1.952966 1.947994 1.9237894
000080 14 ca f9 3f 6d 1c fa 3f 2e 07 fa 3f 1c 26 f9 3f
       1.9514794 1.9539925 1.9533441 1.9464755
000090 0e 82 f9 3f b3 97 fa 3f ba ce f7 3f 94 f8 f8 3f
       1.9492815 1.9577545 1.9359963 1.945086
0000a0 de 70 f7 3f 60 e0 f9 3f e8 bc f9 3f 67 aa f8 3f
       1.9331319 1.9521599 1.9510775 1.9427003
0000b0 c3 f6 f9 3f d5 66 fa 3f 12 55 f9 3f 66 fa f9 3f
       1.9528431 1.9562632 1.9479086 1.952954
0000c0 67 0b f9 3f c0 ac f7 3f 1f 60 f9 3f b3 cb f9 3f
       1.9456605 1.9349594 1.9482459 1.9515289
0000d0 bd 89 f7 3f c0 3f fa 3f 8a ce f8 3f 3f c2 fa 3f
       1.9338909 1.9550705 1.9438031 1.9590529
0000e0 dd 3f fa 3f dd c5 f7 3f f0 31 fa 3f 69 b0 f9 3f
       1.955074 1.9357258 1.954649 1.9506961
0000f0 cb 23 fa 3f 24 5f f8 3f f1 92 fa 3f a0 85 fa 3f
       1.9542173 1.9404035 1.9576093 1.9572029

layers.10.bias f4 [64]
000000 c4 ee 73 3f bc 0b 6a 3f c4 f0 74 3f 14 ea 70 3f
       0.952862 0.91424155 0.9567988 0.94107175
000010 d1 66 73 3f c7 23 75 3f 57 ee 75 3f 68 69 75 3f
       0.9507876 0.95757717 0.960668 0.9586396
000020 a2 4b 71 3f d7 e1 72 3f 75 d5 6b 3f 64 ff 6e 3f
       0.9425603 0.94875854 0.92122585 0.93358445
000030 02 73 72 3f 7e 1b 73 3f 0e d6 71 3f 36 71 64 3f
       0.9470674 0.94963825 0.94467247 0.89235246
000040 fa a9 71 3f 45 64 74 3f 38 ea 74 3f e5 1d 70 3f
       0.9439999 0.954655 0.9566989 0.93795615
000050 fa 58 75 3f c0 b1 75 3f 57 0d 76 3f d6 f3 6c 3f
       0.9583889 0.9597435 0.96114105 0.92559564
000060 04 a9 73 3f 79 9a 75 3f fa 33 6f 3f 85 f6 74 3f
       0.9517977 0.9593883 0.93438685 0.9568866
000070 c9 80 74 3f e3 74 75 3f 28 0b 72 3f c6 5b 68 3f
       0.9550901 0.9588148 0.94548273 0.90765035
000080 a8 4a 75 3f 2a 89 73 3f 12 00 75 3f fb 2f 73 3f
       0.9581704 0.9513117 0.9570323 0.9499509
000090 75 31 76 3f 3f 45 73 3f fa 44 68 3f 23 fa 72 3f
       0.96169215 0.95027536 0.9073025 0.9491293
0000a0 82 66 6d 3f 38 8a 73 3f 83 62 73 3f b9 43 71 3f
       0.9273454 0.9513278 0.9507219 0.9424396
0000b0 fb 19 74 3f 31 f0 74 3f 60 92 72 3f de ff 75 3f
       0.95352143 0.95679003 0.947546 0.9609355
0000c0 18 dc 72 3f ec 35 67 3f c2 53 72 3f 92 73 72 3f
       0.94867086 0.90316653 0.94659054 0.94707596
0000d0 bb 96 6a 3f c3 87 75 3f f5 5b 71 3f ee cb 75 3f
       0.91636246 0.9591028 0.9428094 0.96014297
0000e0 df 4c 74 3f d9 15 6c 3f 89 a3 75 3f a3 5f 71 3f
       0.95429796 0.92220837 0.9595266 0.94286555
0000f0 d4 2a 73 3f 0a 7f 70 3f 2f 4d 70 3f e2 78 74 3f
       0.94987226 0.93943846 0.9386777 0.9549695

layers.10.running_mean f4 [64]
000000 0d a2 33 3f 44 5b 3e 3f 30 37 3b 3f b7 27 3c 3f
       0.70169145 0.7435801 0.73131084 0.734981
000010 ce e4 3f 3f d5 77 41 3f cd 4e 51 3f a1 58 3b 3f
       0.74958503 0.75573474 0.81760865 0.7318211
000020 ae e1 35 3f 50 a2 37 3f 42 78 3b 3f 21 72 3d 3f
       0.71047485 0.71732044 0.73230374 0.7400227
000030 f2 dd 37 3f 55 a4 42 3f 02 2a 42 3f 46 b3 3b 3f
       0.71823037 0.76032 0.7584535 0.73320425
000040 1b 54 3a 3f 8f 6e 40 3f fa 26 33 3f 4c dc 3d 3f
       0.72784585 0.751687 0.6998135 0.7416427
000050 6c 89 39 3f 4b 4b 3a 3f 9c da 40 3f 80 b5 41 3f
       0.72475314 0.7277114 0.7533357 0.7566757
000060 7f 9e 3c 3f c3 6c 32 3f 7c a8 3c 3f b4 02 3c 3f
       0.73679346 0.6969721 0.73694587 0.73441625
000070 44 96 34 3f 2e 20 2e 3f 54 9c 32 3f cb e8 19 3f
       0.7054179 0.6801785 0.6976979 0.6012084
000080 a4 8c 36 3f 74 7c 39 3f 0b 22 36 3f 27 e3 31 3f
       0.7130835 0.72455525 0.71145695 0.6948723
000090 01 d1 32 3f 76 7b 39 3f bd f2 38 3f 95 7c 43 3f
       0.69850165 0.7245401 0.7224539 0.7636197
0000a0 8d 06 38 3f f6 6a 41 3f 3f a3 44 3f bb 5d 34 3f
       0.71884996 0.75553834 0.76811594 0.7045552
0000b0 f1 bb 51 3f 5f 6c 37 3f 67 f7 39 3f 90 b7 32 3f
       0.819274 0.71649736 0.7264313 0.69811344
0000c0 b6 be 4c 3f 7b 69 30 3f 61 61 35 3f 55 d6 43 3f
       0.799785 0.6891095 0.70851713 0.7649892
0000d0 e4 07 24 3f 55 7c 4e 3f e3 c4 39 3f 02 b6 3d 3f
       0.6407454 0.80658466 0.7256605 0.74105847
0000e0 7c 3a 3e 3f 3b 1d 39 3f eb 8f 3a 3f bb 94 3a 3f
       0.7430799 0.7231023 0.7287585 0.72883195
0000f0 83 ea 37 3f 7a c7 26 3f 7c ed 40 3f 03 5e 3c 3f
       0.7184221 0.6514813 0.7536237 0.7358095

layers.10.running_var f4 [64]
000000 4f 93 bb 3f 53 4a e1 3f 01 aa a4 3f 9f 95 de 3f
       1.465433 1.7600807 1.2864381 1.7389411
000010 e4 7d e4 3f 9d 60 e9 3f 40 d2 c3 3f d9 e3 d9 3f
       1.7850919 1.8232609 1.5298538 1.7022659
000020 5d 5f bc 3f bd 66 bf 3f 22 b1 de 3f e1 a9 df 3f
       1.4716603 1.4953228 1.7397807 1.7473718
000030 f2 62 cd 3f 29 f1 eb 3f 0a c3 ce 3f f6 00 df 3f
       1.6045821 1.8432971 1.6153271 1.7422168
000040 a1 89 d9 3f 34 5f f2 3f cc 77 b8 3f 7a 60 e4 3f
       1.6995126 1.8935304 1.4411559 1.7841942
000050 25 13 d9 3f 1e 78 be 3f bc 9f eb 3f 36 f6 eb 3f
       1.6958967 1.4880407 1.8408122 1.8434513
000060 bb 5d de 3f 50 d8 b3 3f 82 5d de 3f 7d 97 dc 3f
       1.7372354 1.4050388 1.7372286 1.723373
000070 8d e9 cd 3f 7a 9e 87 3f 89 8b ca 3f e3 78 8a 3f
       1.6086899 1.0595238 1.5823833 1.0818142
000080 8e aa cc 3f aa f0 c2 3f 17 d8 bc 3f 6b 48 b4 3f
       1.5989549 1.5229695 1.4753445 1.40846
000090 38 6e bc 3f 4d 00 bf 3f a6 52 d4 3f 56 39 ee 3f
       1.4721136 1.4921967 1.6587722 1.8611248
0000a0 05 e1 d3 3f a2 dd e5 3f 07 eb ee 3f c9 7d b8 3f
       1.6553046 1.7958262 1.8665475 1.4413387
0000b0 29 45 fa 3f 25 36 c4 3f f3 2b c2 3f e2 4f b2 3f
       1.9552356 1.5329024 1.5169662 1.3930628
0000c0 2b 10 e7 3f 67 1c 97 3f fe 61 cd 3f 0f 83 ef 3f
       1.8051809 1.1805543 1.604553 1.8711871
0000d0 22 c7 72 3f dd 49 ed 3f f5 f0 d7 3f d1 4d e2 3f
       0.948351 1.8538166 1.6870409 1.7679998
0000e0 29 c9 e4 3f 5a da d7 3f af 0c de 3f 28 9a d8 3f
       1.7873889 1.6863511 1.7347621 1.6922045
0000f0 97 35 c1 3f c3 57 78 3f fe 67 e6 3f 6e 12 de 3f
       1.5094479 0.97008914 1.8000486 1.7349374

actor_classifier.weight f4 [15, 256]
000000 bb ee 36 3c 42 0c 27 bd 21 28 3e bd 8a a9 67 bd
       0.011165316 -0.040783174 -0.04642499 -0.05655817
000010 5a 62 64 bd b9 ab b5 bb 6c 33 6f bc 1b c7 87 bd
       -0.055757858 -0.0055441526 -0.014599662 -0.06629773
000020 d9 ac 45 bd 10 2a b0 bd 47 4e a7 3c d0 2e 33 bd
       -0.048260543 -0.08601773 0.020423068 -0.043745816
000030 8c 38 55 bd 9b 43 a0 bd ef 74 1f bd 5a 78 5e 3b
       -0.05205588 -0.07825395 -0.038929876 0.0033946247
000040 77 a3 a9 bd 08 0a 6b bd 64 d0 46 3b 1b d7 70 3c
       -0.082831316 -0.057382613 0.0030336613 0.014699723
000050 c2 3a 38 3c b6 22 9e bd b4 a9 50 bd 72 87 b6 bc
       0.011244478 -0.07721464 -0.05094309 -0.022281382
000060 a7 0d 1f bc 53 e5 c2 bd 32 74 a2 bd 5c 06 d8 bd
       -0.009707845 -0.095163964 -0.07932319 -0.10548088
000070 88 df 4f bc 96 b3 34 bd 63 8e 9c bd 18 27 8e bd
       -0.012687571 -0.04411658 -0.076443456 -0.0694105
000080 d3 4a 91 bd c8 db 89 bd b4 b0 95 bc c8 bb e9 3a
       -0.0709435 -0.06731373 -0.018272735 0.0017832452
000090 9a b4 39 bb 44 d0 a7 bd c9 eb 1c bd e4 cc e6 bc
       -0.0028336407 -0.081940204 -0.0383108 -0.028173871
0000a0 d2 70 11 3c 0d d5 4d bd 51 b2 a1 37 75 ca 8a bd
       0.008876996 -0.05025201 1.927573e-05 -0.06776897
0000b0 9d 9b 08 bd d2 26 b1 bc 86 4c b2 bd 10 a7 a0 bc
       -0.03335153 -0.021624956 -0.08706002 -0.019610912
0000c0 54 7a fa 3c 0f 6b f0 bc c9 20 ae 3c 9f ba bc bd
       0.030575909 -0.029347925 0.021255868 -0.09215283
0000d0 48 b7 62 bb 9c fe db bc 91 52 82 bc 0c 60 ab bd
       -0.0034594107 -0.026854806 -0.015908511 -0.08367929
0000e0 09 07 bf ba ba c2 d7 3c 4e dd 9f bc 64 a5 29 3c
       -0.001457424 0.02633797 -0.019514706 0.010354374
0000f0 81 87 5d 3c 04 36 87 3c d6 69 4e bd 5a 74 4e bd
       0.013521076 0.016505249 -0.0503939 -0.05040393
000100 19 b1 58 bb 3f 25 a5 3c 9f b4 a9 bd 21 0b 8a bd
       -0.0033064543 0.020159362 -0.08286404 -0.06740404
000110 06 18 7e bd bf 38 a2 bd 56 08 f6 ba 56 2b 6c 3c
       -0.06203463 -0.0792098 -0.0018770795 0.014414629
000120 39 61 24 bd de 10 14 bd ff f4 f2 bc 97 f7 64 bd
       -0.04013178 -0.0361489 -0.029657839 -0.055900183
000130 c9 03 f4 bc 7f 9a 08 bd 88 c2 17 bd 0a 00 28 3c
       -0.029786961 -0.033350464 -0.037050754 0.010253916
000140 7a 12 3f bd f7 48 91 3a 72 24 f2 bc f2 d3 25 bd
       -0.04664848 0.0011084367 -0.029558394 -0.04048533
000150 07 28 9c bd 69 d0 ab 3c 12 e9 9a bd fe 2d 91 bd
       -0.07624822 0.020973401 -0.07563986 -0.070888504
000160 6f a2 92 bd d6 c3 91 ba 23 9a 16 bd cf ff 7d 3c
       -0.07159888 -0.0011120986 -0.03676809 0.015502884
000170 f7 14 f7 bc 86 94 ba bb ea 53 bc bd de e9 98 bd
       -0.030161364 -0.005693975 -0.09195693 -0.074664816
000180 0e 9a b2 bc 39 2b 81 bd 00 9f 0c bd f4 37 d1 3b
       -0.021801975 -0.06307072 -0.03433132 0.006384844
000190 8b 28 14 bd 95 f3 2f bd 6b 05 98 bc 0b 02 5f 3c
       -0.036171477 -0.042956907 -0.018557271 0.013611327
0001a0 48 5c 9b bd c0 03 19 3d 25 ac f7 bc f4 0f 9f bd
       -0.075859606 0.037357092 -0.030233452 -0.07766715
0001b0 8c 82 a8 3c ac c8 ff bc ba 19 03 bd 81 08 74 bb
       0.020570062 -0.031223617 -0.032006957 -0.0037236514
0001c0 95 ad 8b bd 5c 0e 69 3c e7 f1 96 bd 14 e5 33 bc
       -0.068202175 0.014224615 -0.07370358 -0.010979909
0001d0 52 30 ac bd e3 1b 02 bd ec ac 9c bc b7 d5 de 3b
       -0.08407654 -0.031764876 -0.019125424 0.006800379
0001e0 43 db a2 3b cc 26 ca bd a8 4b 15 bb a0 a3 17 bc
       0.0049699857 -0.09870681 -0.002278069 -0.00925532
0001f0 ba 17 06 bc d2 24 6e bd ad 1f cf 3c b3 76 5a bd
       -0.008184368 -0.058140583 0.025283659 -0.053335857
000200 57 84 85 3c af 0a 3c bd 46 e3 2a bd 5e 4b 11 bd
       0.016298456 -0.045908626 -0.04172065 -0.035472266
000210 96 2c a8 bd 9a 5a 28 3c 10 43 ac bd a0 b3 eb bc
       -0.08211629 0.010275507 -0.08411229 -0.028772175
000220 4e df 96 bd f3 a8 08 bd 8c e9 76 bd 91 54 d4 bc
       -0.07366811 -0.033364248 -0.06028132 -0.02591923
000230 76 2f dc bc fd c8 1a bd 74 e6 9d bd 69 df 47 bd
       -0.0268781 -0.037789334 -0.07709971 -0.048797045
000240 02 33 39 bc d5 e8 a5 bc a7 2b 8a bd 4e e4 bf bc
       -0.011303665 -0.020252625 -0.06746607 -0.023424294
000250 34 26 61 3c 99 25 9d 3c f0 14 b0 3c 03 7e 49 bd
       0.0137420185 0.019182967 0.021494359 -0.04919244
000260 5c ad b0 ba e4 cd f3 3c d3 dc d3 bc 51 9a 25 bd
       -0.00134794 0.029761262 -0.025862133 -0.04043037
000270 f5 08 0c bd d4 17 91 bd a0 d1 b6 3b e1 fa 02 bd
       -0.03418823 -0.07084623 0.0055791885 -0.031977538
000280 da b2 ca 3a 66 c8 16 3c e8 2b 33 bd 56 ba 75 bd
       0.0015464679 0.009203052 -0.043743044 -0.059992157
000290 80 87 79 3b 4c 8d 99 3b e3 5e 14 bd 17 0d cd bd
       0.003807515 0.0046860334 -0.036223304 -0.10012262
0002a0 ee 52 b4 bd 8a 53 b3 bc 84 0f 1c 3c 01 b3 b2 bd
       -0.0880488 -0.02189042 0.009525184 -0.087255485
0002b0 89 83 51 3c ce 64 af bd 09 fc 38 bc 58 1a d1 bd
       0.012787708 -0.08564149 -0.011290559 -0.10210103
0002c0 ca bc 6d bd 1c 4f 31 bc ff 75 5a bd f0 b8 bd bd
       -0.05804137 -0.010822084 -0.053335186 -0.0926379
0002d0 7f 15 e5 3c 51 4c 01 bd 16 18 ba bd 3e 6c 82 bd
       0.027964352 -0.03156692 -0.09086625 -0.06368302
0002e0 91 aa 37 bd a3 25 49 bc 2e ef 2b 3b f7 9b a7 bd
       -0.0448404 -0.01227704 0.0026235091 -0.08184045
0002f0 17 97 f4 bc 5d 9f 97 bc 41 96 1b 39 c4 55 90 bb
       -0.029857202 -0.018508608 0.00014837926 -0.0044047553
000300 58 f6 b7 bd 44 44 e7 ba 6b 5c 57 bd 32 fe 6a bd
       -0.08982533 -0.0017644246 -0.05257837 -0.057371326
000310 89 51 65 3b 4e e5 00 bd d9 e8 7c bc d0 3e ef 3c
       0.0034991226 -0.031468682 -0.015436375 0.029204756
000320 e6 0f 37 3c 7c 6e ed bb e7 45 60 bb b8 b2 bc bd
       0.011173224 -0.007245837 -0.0034221353 -0.092137754
000330 fa 8b 99 bd 91 d0 91 bd 16 1b 93 bd 27 ab 33 bd
       -0.074974015 -0.07119859 -0.071829006 -0.043864395
000340 2e 1f a9 bc 53 e2 5f bd 88 11 43 bd ae aa a0 bd
       -0.02064475 -0.0546592 -0.04762414 -0.078450546
000350 7e 27 49 bd 4c 88 96 bc 03 a6 91 3c 68 11 5e bb
       -0.04910993 -0.018375538 0.017779356 -0.0033884887
000360 62 7b 1f bd ff 50 50 bd 2c e1 e5 bc 8b f3 01 bc
       -0.038936026 -0.050858494 -0.028061472 -0.0079316
000370 8b d4 04 bd 74 4d 45 bd 3f 93 b3 bd 3d 92 be bc
       -0.03242926 -0.04816957 -0.08768319 -0.023263091
000380 78 d2 14 bd 71 92 4e bd 02 1b a3 bc 4a 8d 35 bd
       -0.03633353 -0.050432626 -0.01991034 -0.044324197
000390 2b bc 18 bd b0 f2 22 bd ed e1 ba bb c9 32 9a bc
       -0.037288826 -0.039782226 -0.005703202 -0.018823044
0003a0 76 cf 39 bd 79 b5 f2 3b f1 62 f3 bc 8f 91 18 bd
       -0.045363866 0.007406887 -0.029710265 -0.03724819
0003b0 f0 ec a9 bc ea 48 94 3c c2 b9 9c 3c 05 11 c0 bd
       -0.020742863 0.018101174 0.019131545 -0.09378246
0003c0 95 63 01 bd a7 d0 da 3b 7f 34 8e bc 78 f3 52 3c
       -0.03158911 0.0066777053 -0.017359016 0.01287543
0003d0 b1 b1 4a ba 2f f8 cd bc ef 89 01 bd da b2 bd bb
       -0.00077321666 -0.025142757 -0.031625684 -0.005789143
0003e0 4f 36 8c bd 92 67 10 bd dd 3b 5c bd 60 15 4c bc
       -0.06846296 -0.035255022 -0.053768028 -0.012456268
0003f0 1e c3 22 bc 1e a0 28 3d 3e 48 71 bd aa d9 2e bd
       -0.009934215 0.041168325 -0.058906786 -0.04268805

actor_classifier.bias f4 [15]
000000 44 7c 3f be 35 0f 03 bd ac 89 9a 3d 34 cb 72 bd
       -0.18699747 -0.031996924 0.0754579 -0.05927582
000010 3e 50 9b bc a9 9e 9c 3d 0a e1 21 be f4 a3 a9 bd
       -0.01895916 0.076474495 -0.15808502 -0.08283225
000020 82 2f 67 be da d7 bc 3b 98 18 53 3e 40 53 f8 3b
       -0.22576717 0.005763036 0.2061485 0.0075782835
000030 ca 87 d9 bd 05 dc 16 be 97 a7 27 be
       -0.10621603 -0.14732368 -0.16372524
