Saved Models/model_checkpoint_coinrun_42_5e-05_400_6_256_0.6_0.6_0.25_1024_0.5_end_400.pth (torch, 154629 bytes, 21 tensors)

layers.0.weight f4 [32, 3, 8, 8]
0	0xbd41eb30	-0.047343433
1	0x3d044de9	0.032300863
2	0x3d0d2825	0.034462113
3	0x3d88e072	0.066834345
4	0x3b87a2b0	0.004139267
5	0xbcabf683	-0.02099157
6	0xbd42c431	-0.047550384
7	0x3d4c2b3b	0.049845915
8	0xbd70c580	-0.0587821
9	0xbc7c620b	-0.015404235
10	0x3bc14b38	0.0058988594
11	0xbd8a01b6	-0.067386076
12	0xbd92f166	-0.07174949
13	0x3cc34653	0.023837244
14	0x3d691f8d	0.056914855
15	0xbd1f7294	-0.03892763
16	0x3d77ddbb	0.060514193
17	0x3c1fe6f0	0.00975965
18	0x3d10bc72	0.035335965
19	0xbcf76817	-0.030201001
20	0xbcea05cb	-0.028567215
21	0x3cc0d095	0.02353696
22	0x3d5dca42	0.054147966
23	0x3d88c958	0.06679028
24	0x3d6d0787	0.057868507
25	0x3d4f49e4	0.050607577
26	0xbca520ea	-0.020157296
27	0xbd5b712f	-0.053574737
28	0x3d31c2c4	0.043398634
29	0xbd54f788	-0.051993877
30	0x3ba69cb0	0.0050845966
31	0xbd87121d	-0.06595252
32	0x3d0bf9ea	0.034173883
33	0xbd002d1b	-0.031293016
34	0x3d04e2dd	0.032442916
35	0x3d0ad6ca	0.033896245
36	0xbc1f2eb2	-0.009715723
37	0xbce6440c	-0.02810862
38	0x3d054e5e	0.03254544
39	0x3cf6ca78	0.030125841
40	0x3d4b566b	0.04964296
41	0x3d06899c	0.03284608
42	0x3d879422	0.06620051
43	0x3d94865f	0.07252192
44	0xbc8854dc	-0.016642027
45	0x3d404147	0.046937253
46	0xbb94d9db	-0.004542572
47	0xbd31e1b0	-0.043428123
48	0xbd91dfbb	-0.07122751
49	0xbd91619d	-0.070986964
50	0xbc4577f1	-0.012052522
51	0x3ce4fecc	0.027953528
52	0xbcf13189	-0.029442566
53	0x3cc0ef8c	0.023551725
54	0x3d150388	0.03638032
55	0x3d18be4d	0.03729086
56	0xbd49293a	-0.049111582
57	0xbd052d11	-0.03251368
58	0x3cbbf10b	0.022942087
59	0x3bc463e1	0.005993352
60	0xbc60beae	-0.013717337
61	0xbda08036	-0.07836954
62	0xbca21575	-0.019785622
63	0xbd5de155	-0.05416997
64	0x3db8056c	0.08985409
65	0xbd4f006d	-0.050537515
66	0xbd51fc73	-0.051266145
67	0x3d0e16d5	0.034689743
68	0x3d474986	0.0486541
69	0x3d499575	0.0492148
70	0x3d36ca81	0.044626717
71	0xbc9f5f5b	-0.019454649
72	0xbcc645f3	-0.024203276
73	0x3cb80b95	0.02246646
74	0xbd1482d2	-0.036257572
75	0xbcec2d96	-0.02883033
76	0x3d484002	0.048889168
77	0x3d395cb9	0.045254443
78	0x3d0ad8a0	0.033897996
79	0x3d0552a8	0.03254953
80	0x3cbf9786	0.023387682
81	0x3d927505	0.07151226
82	0xbc70d28b	-0.014698635
83	0xbcc521ea	-0.024064023
84	0xbb6946f9	-0.0035595282
85	0x3db495f1	0.088176616
86	0xbca11d55	-0.019667307
87	0x3b953efe	0.0045546284
88	0x3d47de3d	0.048795927
89	0xbd93a5f8	-0.072093904
90	0x3d61ae5a	0.055097915
91	0x3cc61768	0.024181083
92	0x3c975a64	0.018475719
93	0xbca9ea1d	-0.020741517
94	0xbd0485d3	-0.032354187
95	0xbd314841	-0.043281797
96	0xbd847b61	-0.06468845
97	0x3b6125bb	0.0034354765
98	0xbd8f5080	-0.06997776
99	0xbd9f737e	-0.077857
100	0x3d63be2f	0.055601295
101	0xbd8462e9	-0.06464178
102	0x3bcd74c8	0.006270025
103	0x3a4f530b	0.00079087977
104	0xbcb4e33b	-0.022081008
105	0x3d3a54bb	0.04549096
106	0x3d39b12e	0.045334987
107	0x3d59fb68	0.053218275
108	0xbd8584da	-0.0651948
109	0xbd463b03	-0.04839612
110	0x3d14db8b	0.036342185
111	0x3c69644c	0.014245104
112	0xbc8dd6bd	-0.01731431
113	0xbcfd2c18	-0.030904815
114	0xbc9ba6e4	-0.019000478
115	0xbd160ada	-0.036631443
116	0x3bcf9348	0.006334696
117	0x3d0dc95b	0.034615856
118	0xbd95a1f1	-0.073062785
119	0x3caa8de9	0.020819621
120	0x3c3996ad	0.011327428
121	0x3c54524c	0.012959074
122	0xbd7ee39f	-0.062228795
123	0xbd68e7d2	-0.056861706
124	0x3c99636e	0.01872417
125	0xbcf82bf4	-0.030294396
126	0x3cf83919	0.030300664
127	0xbce9931c	-0.02851253
128	0xbcdace29	-0.026709633
129	0x3d06d073	0.032913636
130	0x3c0c6770	0.008569583
131	0x3d158ebf	0.036513086
132	0x3c6f4c05	0.014605527
133	0x3cf4b18c	0.029869817
134	0xbd59d3e3	-0.053180587
135	0xbbedb470	-0.007254176
136	0xbca2146d	-0.01978513
137	0x3b92dd1f	0.004481926
138	0xbd864afc	-0.06557271
139	0x3d296fac	0.041366264
140	0xbda05084	-0.07827857
141	0xbd8a10b5	-0.06741468
142	0x3c919aaf	0.017773954
143	0x3d039a50	0.032129586
144	0x3c6ad060	0.014331907
145	0xbd31a75c	-0.043372497
146	0xbb29e9b6	-0.0025926656
147	0x3d8ef1a4	0.06979683
148	0x3d5b2a70	0.05350727
149	0xbc48ec71	-0.012263403
150	0xbd1e167d	-0.038595665
151	0x3d20543d	0.039142836
152	0x3d86834e	0.06568013
153	0x3d5b5709	0.0535498
154	0x3c9ece58	0.019385502
155	0x3cb8a51a	0.022539664
156	0xbd2182ce	-0.039431386
157	0x3db236b5	0.08701841
158	0x3d6c5aae	0.057703666
159	0x3d06afe0	0.03288257
160	0xbaf0d77d	-0.0018374767
161	0xbcfea835	-0.031086067
162	0xbd827d3f	-0.06371545
163	0x3bd57705	0.0065144324
164	0x3d5e1ccd	0.054226685
165	0x3cb646a4	0.022250481
166	0xbd819461	-0.06327129
167	0xbd1c5235	-0.038164336
168	0xbc136ba4	-0.0089978315
169	0xbc4f26a7	-0.012643493
170	0x3da5d19f	0.08096623
171	0xbd109360	-0.035296798
172	0x3af8cd89	0.0018982153
173	0x3b07b849	0.0020709208
174	0x3d93bb23	0.07213428
175	0x3ca30d71	0.01990387
176	0xbd2f7630	-0.04283732
177	0x3ccf66df	0.025317607
178	0xbcb234c8	-0.021753684
179	0xbd458847	-0.048225667
180	0xbd8b13d6	-0.06790893
181	0xbd7a542f	-0.06111544
182	0xbdaf5efd	-0.085630395
183	0xbd8afe9d	-0.06786845
184	0x3c6657be	0.014059005
185	0x3bd7df2e	0.0065878844
186	0x3ce058c8	0.027386084
187	0xbcf9463b	-0.030428996
188	0x3d55db71	0.05221123
189	0x3cbebb07	0.023282541
190	0x3d1c57d4	0.038169697
191	0x3cec38f9	0.02883576
192	0xbc97db13	-0.01853708
193	0xbd399dbb	-0.04531644
194	0x3d57e98a	0.052712955
195	0x3c900656	0.017581146
196	0xbcd597aa	-0.026073296
197	0x3a8243da	0.0009938434
198	0xbdaca420	-0.08429742
199	0x3d3c3c3f	0.045955893
200	0x3c1d16a5	0.009587918
201	0xbd1febe8	-0.039043337
202	0x3cd5e8cc	0.026111983
203	0x3cecdabf	0.0289129
204	0x3c81847a	0.01581024
205	0x3c8fa91b	0.01753669
206	0x3d89c44d	0.067268945
207	0xbcf6bd69	-0.030119615
208	0xbd3ba064	-0.045807257
209	0xbcca9fae	-0.024734344
210	0xbb18e5d3	-0.0023330345
211	0x3bf25f98	0.0073966496
212	0x3d2a0afb	0.041514378
213	0xbce69362	-0.02814645
214	0x3d524b44	0.05134131
215	0x3c3646fd	0.011125323
216	0x3cb1d25f	0.021706758
217	0x3cd340fa	0.02578782
218	0x3d5499e6	0.05190458
219	0xbcd08767	-0.02545519
220	0x3d8a2386	0.06745057
221	0xbcf36fc0	-0.029716372
222	0xbd11dd05	-0.03561117
223	0xbd63093d	-0.055428732
224	0xbb3937f8	-0.002826212
225	0x3d7d7413	0.061878275
226	0xbbb73492	-0.0055909837
227	0xbcafc591	-0.021456512
228	0xbd763891	-0.06011254
229	0xbd81fe08	-0.06347281
230	0x3c07663e	0.0082641225
231	0x3cb37258	0.02190511
232	0xbc988e53	-0.018622553
233	0x3d023062	0.031784423
234	0xbd72daf9	-0.05929086
235	0xbd5f8c2f	-0.05457705
236	0x3d1c8c7a	0.038219906
237	0x3d2e2447	0.042515066
238	0x3d528f4d	0.051406194
239	0xbd2f9771	-0.042869035
240	0xbd83cac0	-0.06435156
241	0xbd9df736	-0.07713167
242	0x3d14d59b	0.036336523
243	0x3cc62678	0.024188265
244	0xbda7be80	-0.08190632
245	0x3b9b42eb	0.004738202
246	0x3d447c1b	0.04796992
247	0x3d0b06d9	0.033942077
248	0x3d79da99	0.060999487
249	0xbd78b612	-0.06072051
250	0x3c7e09fc	0.01550531
251	0xbcc56466	-0.024095725
252	0xbcbff43a	-0.023431886
253	0xbd0fb871	-0.035088006
254	0xbd8b0604	-0.06788257
255	0xbd374eef	-0.04475301

layers.0.bias f4 [32]
0	0xbd8174b9	-0.06321091
1	0xba784cbb	-0.0009471883
2	0x3c7fabfe	0.015604971
3	0x3de31c4b	0.11089381
4	0x3bd5419b	0.006508065
5	0x392ddaed	0.00016580122
6	0xbcf96eb3	-0.030448293
7	0x3d7d0755	0.06177457
8	0xbd9f30b1	-0.07772959
9	0xbe1d75ff	-0.15377043
10	0xbd93e5db	-0.07221576
11	0xbc927c1e	-0.01788145
12	0xbd57a80f	-0.052650508
13	0xbd4a8747	-0.049445417
14	0xb516012f	-5.5881077e-07
15	0x3cbef7b7	0.023311479
16	0xbd5d3746	-0.05400779
17	0xbb9ad177	-0.004724677
18	0x3d039e04	0.032133117
19	0x3c6a95b0	0.014317915
20	0x3cf356ab	0.029704412
21	0xbc2ba03f	-0.010475217
22	0xbc00834f	-0.007843806
23	0x3c959f1c	0.018264346
24	0xbd40b40e	-0.047046714
25	0xbc71b097	-0.014751575
26	0xbdb4a7f0	-0.08821094
27	0x3d6f662c	0.058447048
28	0xbddcc318	-0.10779399
29	0x3cee057f	0.029055355
30	0x3cd49544	0.025950082
31	0xb9ec1f47	-0.0004503673

layers.2.weight f4 [32]
0	0x3f83d577	1.0299519
1	0x3f8076cf	1.0036258
2	0x3f80483b	1.0022043
3	0x3f7354be	0.9505118
4	0x3f7d4935	0.9893983
5	0x3f7b1d5c	0.98091674
6	0x3f81185e	1.0085561
7	0x3f797455	0.97443134
8	0x3f7e8021	0.9941426
9	0x3f8d0a2e	1.1018732
10	0x3f80d593	1.0065178
11	0x3f7e8baf	0.9943189
12	0x3f80afe7	1.0053681
13	0x3f817c64	1.0116086
14	0x3f74f2b2	0.95682824
15	0x3f7a8947	0.9786572
16	0x3f70ff58	0.94139624
17	0x3f8114a3	1.0084423
18	0x3f6e21fc	0.93020606
19	0x3f7ffecd	0.9999817
20	0x3f7d8bad	0.99041253
21	0x3f820a55	1.0159403
22	0x3f7d378c	0.9891288
23	0x3f7b2ce9	0.981154
24	0x3f809124	1.0044293
25	0x3f7fe0d0	0.9995241
26	0x3f81fbac	1.0154929
27	0x3f709213	0.9397289
28	0x3f7f3634	0.9969208
29	0x3f82f4e2	1.0230982
30	0x3f80ec0b	1.0072035
31	0x3f7a4c4c	0.9777267

layers.2.bias f4 [32]
0	0x3d28d11f	0.04121506
1	0x3c0f159f	0.008733182
2	0x3d615542	0.05501295
3	0x3d036678	0.032080144
4	0x3b9d1930	0.0047942623
5	0x3dbcadc2	0.09212829
6	0x3c308cc3	0.010775748
7	0xbd928d82	-0.07155897
8	0x3d39b0d7	0.045334663
9	0xbd7aef5d	-0.06126343
10	0xbd03aecc	-0.03214912
11	0xbcbde85c	-0.023182087
12	0xbcca6fe8	-0.024711564
13	0xbdb67da7	-0.08910685
14	0x3d1d332a	0.038378872
15	0x3bc0d8f5	0.0058852383
16	0xbc66f54b	-0.014096568
17	0xbb34c938	-0.0027585756
18	0xbdc7e947	-0.09761291
19	0x3c13a157	0.009010634
20	0x3b665752	0.0035147262
21	0xbdadaf82	-0.08480741
22	0xbd4b172e	-0.049582653
23	0x3d453e1f	0.048154946
24	0xbca3a9df	-0.019978462
25	0xbd8ade33	-0.067806624
26	0x3d5dd5de	0.054159038
27	0x3d267b97	0.04064521
28	0xbd958b29	-0.07301933
29	0xbc01b502	-0.007916691
30	0x3d695dcb	0.056974214
31	0x3c262765	0.010141228

layers.2.running_mean f4 [32]
0	0x3c97d8ff	0.018536089
1	0x3d458047	0.048218038
2	0x3c08f37f	0.008358835
3	0x3d9d6db1	0.076869376
4	0x3b4b2bfc	0.0031001559
5	0x3be7814e	0.007064975
6	0x3de7af71	0.1131276
7	0x3d02c2a8	0.03192392
8	0x3d4842ad	0.048891712
9	0x39d46496	0.00040510733
10	0x3e605836	0.2190865
11	0x3ee41ba1	0.4455233
12	0x3e90b510	0.2826314
13	0x3d9d7cc9	0.076898165
14	0x3cae3679	0.021266209
15	0x3c1d9867	0.009618855
16	0x3aa6678e	0.0012695657
17	0x3d5b122a	0.05348412
18	0x3c846816	0.016162913
19	0x3bd7c576	0.0065848185
20	0x3c51f6bb	0.012815173
21	0x3d921543	0.071329616
22	0x3e09149e	0.13386771
23	0x3da81264	0.08206633
24	0x3a76ba62	0.00094119285
25	0x3e28e61e	0.16494033
26	0x3d94c7c0	0.07264662
27	0x3d53f859	0.051750515
28	0x3a0ee123	0.0005450418
29	0x3e09d967	0.13461839
30	0x3c262e64	0.010142896
31	0x3a276a79	0.000638641

layers.2.running_var f4 [32]
0	0x3a582157	0.0008244714
1	0x3c7c7af4	0.015410174
2	0x39deb1ab	0.00042475513
3	0x3bad5dae	0.0052907085
4	0x392c1f61	0.00016414888
5	0x3abd83ce	0.0014458837
6	0x3c1fb147	0.009746856
7	0x3b192da2	0.0023373147
8	0x3c3f7bea	0.011687258
9	0x38d777e8	0.00010274333
10	0x3d19a3b7	0.037509646
11	0x3e113399	0.14179839
12	0x3d5fb1b6	0.054612838
13	0x3bc573a9	0.0060257507
14	0x3a714739	0.00092040334
15	0x39d719f5	0.00041027335
16	0x3923ed43	0.00015633278
17	0x3b459f70	0.0030154847
18	0x3a227478	0.0006197165
19	0x39962075	0.00028634412
20	0x3a1500bb	0.0005684008
21	0x3bbf0e27	0.0058305445
22	0x3c6b9b57	0.014380298
23	0x3bb31a9f	0.00546582
24	0x393e9435	0.00018175023
25	0x3cb0fcec	0.021604978
26	0x3bb2f14f	0.005460895
27	0x3bae5226	0.0053198515
28	0x388dfd90	6.7706336e-05
29	0x3c21d8b8	0.00987833
30	0x39a40d7d	0.00031290567
31	0x3907a7bf	0.00012937094

layers.4.weight f4 [64, 32, 2, 2]
0	0x3d25afd8	0.0404509
1	0x3cde66ae	0.02714857
2	0xbd4c3fee	-0.049865656
3	0x3bf88297	0.007583927
4	0xbd5e0f19	-0.054213617
5	0xbc799ada	-0.015234673
6	0x3d9970af	0.07492196
7	0xbd535b25	-0.051600594
8	0x3d1bd11c	0.03804122
9	0xbd31ebcd	-0.043437768
10	0x3d2980ca	0.04138259
11	0xbdc57e0a	-0.09643181
12	0x3d1f9487	0.038960006
13	0xbca3c891	-0.019993098
14	0x3d3ae267	0.04562607
15	0xbd4593d2	-0.048236676
16	0xbd08a488	-0.033360034
17	0xbcd4f6e3	-0.025996631
18	0x3d6e669b	0.05820332
19	0xbd97d3e7	-0.07413464
20	0x3c11f779	0.0089091
21	0xbcd573ed	-0.026056254
22	0xbca41ed1	-0.020034226
23	0x3d72cea2	0.05927909
24	0xbcb47201	-0.022027018
25	0xbccce128	-0.025009707
26	0x3dadfac9	0.08495099
27	0x3de07771	0.10960282
28	0x3d805d34	0.06267777
29	0xbd75f527	-0.06004825
30	0xbdbce00a	-0.092224196
31	0xbda8c8f8	-0.08241457
32	0xbc9f0160	-0.019409835
33	0xba9ef209	-0.0012126575
34	0x3ad031e1	0.0015884006
35	0xbd04aa73	-0.032389116
36	0xbd6ef926	-0.058343075
37	0xbd154ef1	-0.036452238
38	0x3da56dcc	0.08077583
39	0x3ce8c123	0.028412407
40	0xbd947e01	-0.07250596
41	0xbcb8359d	-0.022486502
42	0xbbba6415	-0.0056882002
43	0xbd81e2bb	-0.063420735
44	0xbda0840c	-0.07837686
45	0xbc606639	-0.013696247
46	0xbd09d0c0	-0.033646345
47	0xbcebebfd	-0.028799051
48	0xbd71c8fa	-0.059029557
49	0x3c503c90	0.012709752
50	0x3daf614d	0.085634805
51	0x3d5a3af8	0.053278893
52	0x3d997093	0.07492175
53	0x3ce07031	0.027397247
54	0x3c4241c4	0.0118565
55	0xbd4cfb74	-0.050044492
56	0xbcd94cab	-0.026525816
57	0xbcf254b7	-0.02958141
58	0x3ce3ac44	0.027792104
59	0xbd0c4005	-0.03424074
60	0xba9ac374	-0.0011807517
61	0x3c9dadd4	0.019247927
62	0xbd4424cf	-0.047886666
63	0xbcf55e42	-0.029952172
64	0x3d146fc3	0.036239397
65	0x3d6f0537	0.058354583
66	0x3d2b4e4e	0.041822724
67	0x3c9df3ca	0.019281287
68	0x3cd88672	0.026431296
69	0xbd9376c2	-0.07200386
70	0xbd6ac7fb	-0.057319622
71	0x3d80173a	0.0625443
72	0x3ca55e12	0.020186458
73	0xbc347463	-0.011014077
74	0x3d75be3e	0.059995882
75	0xbd39dad1	-0.045374695
76	0x3d07ab5a	0.033122398
77	0x3b174ca6	0.0023086458
78	0xbc68cfa5	-0.014209663
79	0xbd4602ae	-0.0483424
80	0xbc04a02e	-0.00809483
81	0xbaeed422	-0.001822118
82	0x3d94af5c	0.0726001
83	0x3cb398f2	0.021923516
84	0xbd65d8e0	-0.05611503
85	0xbc80abfa	-0.015707005
86	0xbbd684c7	-0.00654659
87	0xbd7d0f28	-0.061782032
88	0xbd96bf18	-0.07360667
89	0xbd04cbee	-0.032421045
90	0x3bedb4f9	0.0072542396
91	0x3c9bd727	0.019023491
92	0xbd849d02	-0.06475259
93	0x3c9f9380	0.019479513
94	0x3dc99e9a	0.09844704
95	0xbd417d01	-0.047238354
96	0x3d8bb1e7	0.068210416
97	0xbcbb0b54	-0.02283255
98	0x3e12f855	0.14352544
99	0xbd7dca95	-0.061960775
100	0x3d5e4744	0.054267183
101	0xbc7f61ef	-0.015587314
102	0x3c6ceee2	0.014461251
103	0xbd02190b	-0.031762164
104	0xbcb34c9f	-0.021887122
105	0x3dc3f41c	0.095680445
106	0x3df2e51e	0.11860107
107	0x3d71ac65	0.0590023
108	0x3d82bb0e	0.06383334
109	0x3d918e34	0.07107201
110	0x3d31112b	0.043229263
111	0xbd6c5406	-0.05769732
112	0x3da09e36	0.07842676
113	0x3c70103d	0.014652309
114	0x3c5ba6b3	0.013406443
115	0xbc360065	-0.0111084925
116	0xbd296c96	-0.04136332
117	0xbd1441d1	-0.03619558
118	0xbdb7ed7e	-0.08980845
119	0x3d9231a4	0.071383744
120	0x3db99f50	0.090635896
121	0x3d1ef9a1	0.038812283
122	0xbc94493b	-0.018101325
123	0x3bc14df1	0.005899184
124	0x3d28562a	0.041097797
125	0x3d4d4524	0.050114766
126	0xbdaac52b	-0.08338388
127	0x3d417c89	0.047237907
128	0xbd549410	-0.051899016
129	0xba8b1d86	-0.0010613657
130	0x3b95c3ce	0.004570461
131	0x3d6b4619	0.057439897
132	0xbd1458a0	-0.036217332
133	0xbd7cd43a	-0.061725833
134	0x3ca32975	0.01991723
135	0x3d140c5d	0.036144603
136	0xbcd986bd	-0.026553506
137	0x3bbcfb72	0.0057672793
138	0x3d5531c3	0.05204941
139	0xbc62fe44	-0.013854567
140	0xbd9a1f01	-0.07525445
141	0xbd5befbf	-0.053695437
142	0x3d466374	0.04843469
143	0xbd275a82	-0.0408578
144	0xbd06f828	-0.032951504
145	0xbd3b2cc0	-0.045696974
146	0x3dc279d8	0.09495896
147	0x3c7b47d0	0.015336946
148	0x3d7d9d99	0.061917875
149	0xbd84bc8a	-0.064812735
150	0x3cd73bb0	0.026273578
151	0x3d6275c1	0.05528808
152	0x3d793c44	0.06084849
153	0xbd29a337	-0.04141542
154	0xbca4f55b	-0.020136526
155	0xbd1c7d6f	-0.03820556
156	0xbd9d8f75	-0.07693378
157	0xbb79278c	-0.0038017957
158	0xbcd1c3d2	-0.02560607
159	0x3b1a8283	0.0023576326
160	0xbd7615d2	-0.060079403
161	0xbbe1f7f8	-0.0068960153
162	0xbdaaf41a	-0.0834734
163	0xbd1d804d	-0.038452435
164	0xbdd10204	-0.102054626
165	0xbd6b114a	-0.057389535
166	0xbd8db976	-0.069201395
167	0xbc496e79	-0.012294405
168	0x3d7e465f	0.06207883
169	0xbd8e6d85	-0.06954483
170	0x3dbb28f4	0.091386706
171	0x3a37a828	0.0007005953
172	0x3d52908c	0.051407382
173	0xb8fe0a19	-0.00012113545
174	0x3d31bdc5	0.04339387
175	0x3d47dc2c	0.048793957
176	0x3cc9a38c	0.024614118
177	0x3d8ae0c4	0.06781152
178	0xbcc003dc	-0.02343934
179	0x3d1a0aa5	0.037607808
180	0x3db7c4ee	0.08973108
181	0x3c0269d5	0.007959803
182	0x3c5e80df	0.01358053
183	0x3a85d607	0.001021088
184	0xbd001e81	-0.03127909
185	0x3c8f5d84	0.017500646
186	0xbdde8465	-0.10865096
187	0xba389d19	-0.00070424523
188	0x3d8653e1	0.065589674
189	0xbbd31d65	-0.006442713
190	0xbd4cd721	-0.05000985
191	0xbd9ef435	-0.077614225
192	0x392ffb0b	0.00016782821
193	0x3c85fb8a	0.016355295
194	0xbb2a6aea	-0.0026003667
195	0xbcbda857	-0.02315156
196	0xbd3bd68c	-0.045858905
197	0x3d0f211f	0.034943696
198	0x3d33113d	0.04371761
199	0x3a76e1da	0.000941781
200	0xbc85503c	-0.01627361
201	0xba6b6913	-0.0008980196
202	0x3cf8b0e2	0.030357782
203	0x3c8eb7ac	0.017421566
204	0xbd14cb1e	-0.03632652
205	0x3bec042d	0.007202646
206	0x3ba4c95c	0.0050288867
207	0xbdaf51ce	-0.08560525
208	0xbd96c847	-0.073624186
209	0xbd3e2b9f	-0.04642832
210	0xbdb77574	-0.08957949
211	0xbd30b4bb	-0.043141108
212	0x3d85b3c5	0.06528429
213	0x3c74f0d3	0.014949995
214	0xbdb1c5f5	-0.086803354
215	0xbd2aa493	-0.041660856
216	0xbd76100b	-0.060073894
217	0x3d1faf20	0.03898537
218	0x3d61ee8b	0.055159133
219	0xbd1273d6	-0.035755
220	0x3d3e3930	0.046441257
221	0x3d68a951	0.056802098
222	0xbc93c0ee	-0.018036332
223	0xbb3d0726	-0.0028843372
224	0xbbd787fe	-0.006577491
225	0xbd99510a	-0.0748616
226	0xbda1b69b	-0.07896157
227	0xbdac414b	-0.08410891
228	0x3d9846ea	0.07435401
229	0x3ca2d10b	0.01987507
230	0x3d75904d	0.05995207
231	0xbcc928e7	-0.024555637
232	0xbce46b6b	-0.027883252
233	0xbd830d32	-0.06399001
234	0xbd804351	-0.062628396
235	0x3cea91c6	0.028633963
236	0xbce64a2a	-0.028111536
237	0xbd095a53	-0.033533406
238	0xbdde08ac	-0.10841498
239	0x3d2db79b	0.042411428
240	0xbc4f62b7	-0.012657813
241	0xbd4b91b1	-0.04969949
242	0x3da0b589	0.07847125
243	0x3d76ffcf	0.06030255
244	0x3d99d662	0.075115934
245	0x3c2a3994	0.010389704
246	0xbdae30db	-0.08505412
247	0xbdad6c8f	-0.084679715
248	0xbcdd5c2b	-0.027021488
249	0xbcf25d14	-0.029585399
250	0x3d9259db	0.07146045
251	0x3d9f6b7b	0.07784172
252	0xbc399ceb	-0.011328916
253	0xbba5ca3a	-0.0050595077
254	0x3d018664	0.031622306
255	0xbd3ba39c	-0.045810327

layers.4.bias f4 [64]
0	0xbd07e731	-0.033179466
1	0x3de667c2	0.11250259
2	0xbdae0c59	-0.08498449
3	0xbcb50155	-0.022095362
4	0xbdbbf590	-0.09177697
5	0x3da45b4f	0.08025228
6	0xbde99db4	-0.114070326
7	0x3cf6fe0c	0.030150436
8	0xbc3de167	-0.011589385
9	0xbd64bd16	-0.05584439
10	0xbc5b93d6	-0.013401946
11	0xbc7373f7	-0.014859191
12	0xbdd25821	-0.102707155
13	0x3cc76568	0.024340346
14	0xbe163627	-0.14669095
15	0xbe126412	-0.14295986
16	0x3d0c26fc	0.034216866
17	0xbcae3039	-0.021263229
18	0x3d8d9aaf	0.06914269
19	0x3c632e3b	0.013866003
20	0x3c0e89eb	0.008699874
21	0x3ddd63fe	0.108100876
22	0x3dbfdb14	0.09367958
23	0xbd03cd8e	-0.032178454
24	0xbdb3951c	-0.08768675
25	0x3da5a126	0.08087377
26	0xbda3ec7c	-0.0800409
27	0x3d4d8b20	0.050181508
28	0xbc6f04ab	-0.014588515
29	0x3d5fe6bb	0.0546634
30	0xbd9f1925	-0.07768468
31	0x3de3de37	0.111263685
32	0xbe04b29a	-0.12958756
33	0xbcea86f1	-0.028628798
34	0xbc61fe24	-0.013793502
35	0x3ba5b17f	0.0050565596
36	0xbd1e3a14	-0.038629606
37	0xbcadd25c	-0.021218471
38	0xbd4095e4	-0.047017947
39	0xbc50bd41	-0.012740434
40	0xbd33fe3c	-0.04394363
41	0x3da8538e	0.08219062
42	0x3d1c8cd6	0.03822025
43	0x3d21507c	0.039383397
44	0x3d932711	0.07185186
45	0xbe1b28c1	-0.15152265
46	0x3cba39ed	0.0227327
47	0x3d6bd41a	0.057575323
48	0x3e084dd9	0.13310947
49	0xbd9dbcff	-0.07702064
50	0xbdab2d96	-0.08358304
51	0x3cf854db	0.0303139
52	0xbd6d0221	-0.05786336
53	0x3da8787c	0.082261056
54	0xbdb767d4	-0.089553505
55	0xbd485f8c	-0.048919246
56	0x3d64fdfe	0.05590629
57	0x3d9b869d	0.07594035
58	0xbd004a6c	-0.031320974
59	0x3da6cc4a	0.08144434
60	0xbd57c442	-0.0526774
61	0xbd6aa1b7	-0.05728313
62	0xbd0592ff	-0.03261089
63	0x3cd45e34	0.025923826

layers.6.weight f4 [64]
0	0x3f7b3007	0.9812016
1	0x3f78017a	0.96877253
2	0x3f7e85ca	0.99422896
3	0x3f7ad1f8	0.97976637
4	0x3f7d230f	0.9888162
5	0x3f7a5039	0.9777866
6	0x3f86080a	1.0471203
7	0x3f7bdf3b	0.983875
8	0x3f738d3b	0.95137376
9	0x3f859448	1.0435877
10	0x3f7485db	0.9551675
11	0x3f7818b1	0.96912676
12	0x3f85d6a3	1.0456127
13	0x3f7e3512	0.9929973
14	0x3f855a7f	1.0418242
15	0x3f850dbb	1.0394815
16	0x3f7a8068	0.9785218
17	0x3f881608	1.0631723
18	0x3f778b7c	0.9669721
19	0x3f824c6d	1.0179573
20	0x3f796516	0.9741987
21	0x3f751113	0.9572918
22	0x3f7ab1d9	0.97927624
23	0x3f84b070	1.0366344
24	0x3f7d1e53	0.98874396
25	0x3f79b199	0.9753662
26	0x3f768ade	0.96305645
27	0x3f73f306	0.952927
28	0x3f761834	0.9613068
29	0x3f768d82	0.96309674
30	0x3f839b95	1.0281855
31	0x3f7489a5	0.9552253
32	0x3f819710	1.0124226
33	0x3f870543	1.0548481
34	0x3f77b01d	0.967531
35	0x3f8393b7	1.0279454
36	0x3f7fd4a1	0.9993382
37	0x3f71e083	0.944832
38	0x3f791041	0.97290426
39	0x3f7ab1e4	0.9792769
40	0x3f7843cc	0.9697845
41	0x3f7a8a01	0.9786683
42	0x3f820e6c	1.0160651
43	0x3f825e6e	1.0185068
44	0x3f84c97f	1.0373992
45	0x3f870bf1	1.0550519
46	0x3f845506	1.0338447
47	0x3f77fef0	0.9687338
48	0x3f7a0a85	0.976723
49	0x3f8011b6	1.0005405
50	0x3f7dca5a	0.9913689
51	0x3f7bd11d	0.98365957
52	0x3f72609f	0.9467868
53	0x3f75ea40	0.9606056
54	0x3f894a8b	1.0725874
55	0x3f7055ef	0.93881124
56	0x3f78a5c7	0.97127956
57	0x3f815925	1.010533
58	0x3f755a57	0.9584097
59	0x3f7e1c3b	0.99261826
60	0x3f840ed9	1.0317031
61	0x3f767832	0.96277153
62	0x3f83c2e5	1.0293852
63	0x3f758c5d	0.959173

layers.6.bias f4 [64]
0	0xbc2e76cc	-0.010648441
1	0x3d6200f5	0.055176694
2	0x3d589b6b	0.052882593
3	0x3def9618	0.1169855
4	0xbcd732f8	-0.026269421
5	0x3dc27c78	0.09496397
6	0xbcaac4d6	-0.020845812
7	0xbda6bb9e	-0.08141254
8	0x3d2d858a	0.04236368
9	0x3dbac831	0.09120215
10	0x3dc0ebc8	0.09419972
11	0x3d870e99	0.06594581
12	0x3c60cc9d	0.013720659
13	0x3c711dba	0.01471656
14	0x3d89e585	0.067332305
15	0xbd0758c6	-0.033043645
16	0x3bc1c122	0.005912916
17	0xbd22008f	-0.039551314
18	0x3dfa852c	0.12232432
19	0x3d15fe23	0.036619317
20	0x3b928051	0.004470863
21	0x3dbe911d	0.09305022
22	0x3dfa8d14	0.1223394
23	0xbd8ab57c	-0.06772897
24	0xbddc3531	-0.10752333
25	0xbcb0f708	-0.021602169
26	0x3d73ab39	0.059489463
27	0x3d1b67cc	0.037940785
28	0x3d36e325	0.044650216
29	0x3c4b7598	0.012418173
30	0x3d148d6c	0.036267683
31	0x3b914267	0.0044329646
32	0xbd9c90c6	-0.07644801
33	0x3b33e80a	0.0027451538
34	0xbd1e5045	-0.03865077
35	0x3da4f73b	0.08054968
36	0x3dda5317	0.106603794
37	0xbd0b2091	-0.033966605
38	0x3c278896	0.010225436
39	0xbda2d9ce	-0.07951699
40	0x3da53136	0.08066027
41	0x3d541abd	0.051783312
42	0x3df4a7a7	0.1194604
43	0xbc8eff4d	-0.017455721
44	0x3ce20c20	0.027593672
45	0xbd90d75c	-0.070723265
46	0xbd934714	-0.071912915
47	0xbdbd27f3	-0.09236135
48	0x3df8a786	0.121413276
49	0x3d7a1e3e	0.061063997
50	0xbd0631f6	-0.03276249
51	0x3cf3a6c0	0.029742599
52	0x3c2e1b8b	0.010626684
53	0x3d5711dd	0.05250727
54	0x3cea5249	0.02860369
55	0xbad4bc85	-0.00162305
56	0x3d36e802	0.044654854
57	0x3c47628b	0.012169491
58	0xbbc04a47	-0.0058682295
59	0xbc2c27b4	-0.010507513
60	0xbcf46725	-0.02983434
61	0x3de98321	0.11401964
62	0x3c968645	0.018374572
63	0xbd1d38e3	-0.03838433

layers.6.running_mean f4 [64]
0	0x3e8b8592	0.27250344
1	0x3e84c8a9	0.25934342
2	0x3ecddb83	0.40206537
3	0x3ec078ff	0.37592313
4	0x3da76fd7	0.08175629
5	0x3f0394f7	0.5139918
6	0x3e0c0e91	0.13677432
7	0x3edb61ca	0.42848045
8	0x3e827ba3	0.25484952
9	0x3d340271	0.04394764
10	0x3f07d90d	0.5306557
11	0x3f0c710a	0.54859984
12	0x3d23cf46	0.039992593
13	0x3dde18f1	0.10844601
14	0x3e114354	0.1418584
15	0x3d4de0fc	0.05026339
16	0x3e85e75a	0.2615307
17	0x3db3ff9f	0.0878899
18	0x3ec75463	0.3893157
19	0x3e4597cb	0.19296186
20	0x3e29bf0b	0.16576783
21	0x3eaed2d8	0.34145236
22	0x3f00de6b	0.5033938
23	0x3e421cc6	0.18956289
24	0x3e434d00	0.19072342
25	0x3f04dee1	0.51902586
26	0x3e7898b4	0.24277002
27	0x3f4cf5c5	0.80062515
28	0x3eb75922	0.3581019
29	0x3ef01fff	0.4689941
30	0x3d6a5406	0.057209037
31	0x3ed94d0f	0.42441604
32	0x3e621a09	0.22080244
33	0x3e3b9c3d	0.18321319
34	0x3f225931	0.63417345
35	0x3e8f1def	0.27952525
36	0x3e3af9d9	0.18259372
37	0x3eaf0e17	0.34190437
38	0x3ea6d29a	0.3258255
39	0x3ead6dea	0.3387292
40	0x3e967410	0.29385424
41	0x3ed2b084	0.41150296
42	0x3e02a391	0.12757708
43	0x3e770bdf	0.24125622
44	0x3e4cfbc0	0.2001791
45	0x3da883af	0.08228242
46	0x3e4e4450	0.20143247
47	0x3ebe5018	0.37170482
48	0x3f49bccd	0.7880371
49	0x3dc2ddad	0.095149375
50	0x3e47b70b	0.19503419
51	0x3ee566be	0.4480495
52	0x3eb8f507	0.3612444
53	0x3ea6a379	0.32546595
54	0x3d412468	0.04715386
55	0x3e8f3940	0.27973366
56	0x3ee6410f	0.4497151
57	0x3eb23cac	0.34811914
58	0x3f0e9262	0.5569211
59	0x3edc6cdf	0.43051812
60	0x3e2c3230	0.1681602
61	0x3e8b9686	0.27263278
62	0x3dfa15c9	0.122111864
63	0x3f6e3302	0.9304658

layers.6.running_var f4 [64]
0	0x3eeb4b13	0.45955715
1	0x3e0d766b	0.13814704
2	0x3ee9cd3f	0.45664403
3	0x3e8ddb34	0.277063
4	0x3dc45acc	0.09587631
5	0x3edae22e	0.42750686
6	0x3e0c924e	0.13727686
7	0x3fbf7368	1.4957094
8	0x3eec473b	0.46148095
9	0x3d468f2f	0.048476394
10	0x3f1ee2ca	0.620648
11	0x3f0b0389	0.5430227
12	0x3d4bc737	0.049750533
13	0x3e8d56e7	0.27605364
14	0x3df8e3bd	0.12152813
15	0x3e16b047	0.14715682
16	0x3f2245b0	0.63387585
17	0x3e724a31	0.23661114
18	0x3ee1bf48	0.4409125
19	0x3e82f5c7	0.25578138
20	0x3ef48a3d	0.47761717
21	0x3f14d212	0.5813304
22	0x3eeca119	0.46216658
23	0x3eb30fbd	0.34972945
24	0x3efc99eb	0.4933618
25	0x3f08978f	0.5335626
26	0x3ec03168	0.37537694
27	0x3f8138aa	1.0095417
28	0x3e60287b	0.21890442
29	0x3ead9ed9	0.33910254
30	0x3de9f632	0.11423911
31	0x3f357006	0.7087406
32	0x3ee5703e	0.44812196
33	0x3eb4f05f	0.3533964
34	0x3f20ce5f	0.628149
35	0x3ed8a4ed	0.42313328
36	0x3e87f26a	0.26552135
37	0x3efd1345	0.49428764
38	0x3eac3141	0.33631328
39	0x3ef9b5bd	0.48771468
40	0x3e5beb43	0.21476464
41	0x3ed24444	0.41067708
42	0x3e066c31	0.13127209
43	0x3eb029af	0.34406802
44	0x3ec93654	0.39299262
45	0x3e971019	0.2950447
46	0x3ee7ba2e	0.4525923
47	0x3f25bff4	0.6474602
48	0x3f6ba4ac	0.92048144
49	0x3d9f49ad	0.077777244
50	0x3e9ea793	0.30987224
51	0x3ebf12f1	0.3731914
52	0x3f4a7a00	0.7909241
53	0x3e65ca2b	0.22440402
54	0x3d9ff5cd	0.07810555
55	0x3eb475bf	0.35246083
56	0x3ea52d47	0.32261106
57	0x3f009493	0.50226706
58	0x3f31e6e1	0.6949292
59	0x3f453a91	0.7704249
60	0x3edcba50	0.43110895
61	0x3e14661a	0.14492074
62	0x3e0c4e6d	0.13701792
63	0x3fe0859b	1.7540773

layers.8.weight f4 [64, 64, 2, 2]
0	0xbd5b5e9d	-0.053557027
1	0x3c684885	0.014177446
2	0x3a3fee01	0.0007321537
3	0xbdb7e465	-0.0897911
4	0x3c825cba	0.015913356
5	0xbd8d58ff	-0.0690174
6	0x3ca7a422	0.020464007
7	0xbd5f8554	-0.05457051
8	0xbd0b7325	-0.034045357
9	0xbcd8d72c	-0.02646979
10	0xbc65ba11	-0.0140214125
11	0x3bd03523	0.0063539906
12	0xbd2302c5	-0.039797563
13	0x3d67049b	0.056400876
14	0xbd8dab66	-0.06917457
15	0x3c988928	0.018620089
16	0x3c0a3fb0	0.008438036
17	0x3b24afca	0.0025129193
18	0x3bf59594	0.0074946377
19	0x3cd42929	0.025898533
20	0xbc8a6358	-0.016893074
21	0xbd80711f	-0.06271576
22	0xbcb1adff	-0.021689413
23	0xbb57cbb4	-0.0032927813
24	0x3d11920d	0.035539676
25	0xbcf1c7ab	-0.029514154
26	0xbd47a56c	-0.048741743
27	0xbb26237b	-0.0025350738
28	0xbd0b588f	-0.034020003
29	0x3d5fbbf6	0.054622613
30	0x3caa2eb4	0.020774223
31	0xbc88e4a4	-0.016710587
32	0x3c8062c4	0.015672095
33	0xbd168af6	-0.036753617
34	0xbd569fdd	-0.05239855
35	0xbb34c1ea	-0.0027581402
36	0x3d008e5c	0.031385764
37	0x3c37e049	0.011222907
38	0xbd5ba717	-0.053626146
39	0xbd96bde7	-0.0736044
40	0xbba567c1	-0.005047769
41	0xbd384a43	-0.044992696
42	0xbbd93e72	-0.0066297585
43	0xba99ea07	-0.0011742719
44	0xbd2407f7	-0.04004666
45	0x3d525ff9	0.051361058
46	0xbcd11b0b	-0.02552559
47	0x3d6c7d22	0.057736523
48	0xbd208af2	-0.03919501
49	0xbd028aac	-0.03187053
50	0xbc1d381a	-0.009595895
51	0xbd6f860e	-0.058477454
52	0x3cd2d331	0.02573547
53	0x3cf94740	0.030429482
54	0x3d559815	0.05214699
55	0x3cc79245	0.024361739
56	0xba8fe834	-0.0010979236
57	0x3d49b014	0.049240187
58	0x3d713ef1	0.058897916
59	0xbc74d31f	-0.014942913
60	0x3c873954	0.016506828
61	0xbcc2789a	-0.023739148
62	0x3d07f8e4	0.033196345
63	0xbd564c1d	-0.05231868
64	0xbd3d410b	-0.046204608
65	0x3cc8da8f	0.02451828
66	0xbd87abb6	-0.06624548
67	0x3d3f5146	0.046708368
68	0xbd010227	-0.031496193
69	0xbd8d0d63	-0.06887319
70	0xbbad6567	-0.005291629
71	0xbb2114da	-0.002457908
72	0x3d131663	0.03591002
73	0xbd0fb32d	-0.035082985
74	0xbc6c573d	-0.014425096
75	0x3c9657cf	0.018352417
76	0xbc3832b8	-0.011242561
77	0xbc842da2	-0.01613504
78	0xbd5f9c60	-0.05459249
79	0x3c73b5e8	0.014874913
80	0xbbe86682	-0.007092298
81	0xbcade342	-0.021226529
82	0x3d205aed	0.039149214
83	0x3d60ff9c	0.054931268
84	0xbd2c0a70	-0.04200214
85	0x3c158156	0.009125074
86	0xb9601cec	-0.00021373079
87	0xbc0fa216	-0.008766672
88	0xbd6e0cb2	-0.058117576
89	0x3c6a9db6	0.014319828
90	0xbd0fa67d	-0.035070885
91	0x3d67e2de	0.05661284
92	0x3d94717f	0.0724821
93	0x3d361f08	0.044463187
94	0xbd10ce03	-0.035352718
95	0xbd9b38b5	-0.075791754
96	0x3cf8d3df	0.030374466
97	0xbcdb8abb	-0.02679955
98	0xbd4932c7	-0.04912069
99	0xbcf5b324	-0.029992647
100	0xbca2a823	-0.019855564
101	0xbd0be010	-0.03414923
102	0x3d3c428e	0.04596191
103	0xbd38b71f	-0.045096513
104	0xbd20c7a2	-0.039252885
105	0x3b056419	0.0020353852
106	0x3b9ed85b	0.004847569
107	0x3d33658b	0.04379801
108	0xbd20bd15	-0.039242823
109	0xbd978865	-0.07399062
110	0xbcab5158	-0.020912811
111	0x3bbaff11	0.005706676
112	0x3cae29ba	0.021260131
113	0x3d0015fc	0.031270966
114	0xbc42beac	-0.01188628
115	0x3d161c84	0.03664829
116	0xb9b626b7	-0.0003474259
117	0x3c8b87de	0.01703256
118	0x3d285f5d	0.04110657
119	0x3d5825df	0.05277049
120	0xbd8ee490	-0.069771886
121	0x3d7ccae5	0.061716933
122	0xbd3def70	-0.046370924
123	0x3d5ffdd8	0.054685444
124	0xbcec3e32	-0.02883825
125	0x3b6d4ed9	0.0036210327
126	0xbd9cd33d	-0.07657478
127	0xbd506b86	-0.050883792
128	0xbd526f71	-0.05137581
129	0x3d8c2db0	0.06844652
130	0xbd2cc25d	-0.042177547
131	0xbce241d9	-0.02761929
132	0xbc95b3a3	-0.018274134
133	0xbd6f4d30	-0.05842322
134	0xbcdcca8a	-0.026952047
135	0xbd3b8c9b	-0.04578839
136	0xbc25e13e	-0.010124503
137	0x3d4d343c	0.050098643
138	0xbd4ee9d2	-0.050515957
139	0x3d08dc67	0.033413317
140	0x3d0984c3	0.033573877
141	0xbd128f3d	-0.035781134
142	0x3d4f9dc1	0.050687555
143	0x3ba817d0	0.005129792
144	0xbbbf757a	-0.0058428617
145	0xbd09cede	-0.03364455
146	0x3ae28769	0.0017282787
147	0x3a8d4895	0.0010779077
148	0x3d2108b0	0.039314926
149	0x3ced4bb8	0.02896677
150	0x3c06fd35	0.00823908
151	0xbd0be92a	-0.03415791
152	0xbd07d16e	-0.033158712
153	0x3cbc96c0	0.023021102
154	0xbcc163ef	-0.023607222
155	0xbc535aa6	-0.01290003
156	0x3cd43e30	0.02590856
157	0xbd343112	-0.04399211
158	0x3cbe0980	0.02319789
159	0x3d64c544	0.05585219
160	0xbd594505	-0.053044338
161	0x3c09f434	0.008420039
162	0xbd4e4ef4	-0.050368264
163	0xbc288d37	-0.0102875745
164	0x3ce38b75	0.02777646
165	0xbbe87315	-0.007093797
166	0xbc90b9f7	-0.0176668
167	0xbd194f83	-0.037429344
168	0xbd6d23ec	-0.057895586
169	0xbc0111dd	-0.007877794
170	0x3a7ffd39	0.0009765211
171	0x3d1bc013	0.038024973
172	0x3cd065f6	0.025439244
173	0xbdaae9bb	-0.08345362
174	0x3c14dd8f	0.009086027
175	0xbcbba9b1	-0.022908064
176	0xbd69cfde	-0.057083003
177	0x3d3529e5	0.044229407
178	0x3b94f8a0	0.00454624
179	0xbd22f64d	-0.039785672
180	0xbbbcc1cc	-0.005760407
181	0xbd67c706	-0.056586288
182	0xbd8faffb	-0.070159875
183	0xb9e883fe	-0.0004434883
184	0xbbcdcb54	-0.006280342
185	0xbcf6a3cc	-0.030107401
186	0x3c9b1f81	0.01893592
187	0xba972f29	-0.001153444
188	0xbd72102b	-0.05909745
189	0x3d123d57	0.03570303
190	0x3d17ab89	0.037028823
191	0xbd51a024	-0.051178113
192	0xbc0f3a90	-0.00874199
193	0x3cabc13d	0.020966167
194	0x3cbb5f32	0.022872541
195	0x3c64efa2	0.013973149
196	0x3d0bb3ba	0.034106947
197	0xbc9cc5fa	-0.019137371
198	0xbd2ab6c6	-0.041678213
199	0x3bf93855	0.0076055923
200	0x3d2ffe3c	0.042967066
201	0xbce77d81	-0.028258087
202	0xbcc069f7	-0.023488028
203	0x3c9ca2b8	0.01912056
204	0x3d18299b	0.037149053
205	0x3d7b7604	0.061391845
206	0xbb9d3579	-0.004797634
207	0x3d426df1	0.04746813
208	0xbbc74b78	-0.0060819946
209	0xbc76c447	-0.015061445
210	0x3c831b7c	0.016004317
211	0xbba41e9e	-0.0050085327
212	0xbc8034f1	-0.015650244
213	0xbd3a6561	-0.04550684
214	0xbd0fa083	-0.035065185
215	0x3d3bf8b1	0.045891467
216	0xbcdf2b2e	-0.02724227
217	0xbc92fc6c	-0.01794263
218	0xbdc15321	-0.09439684
219	0xbc9dc095	-0.01925687
220	0xbcfec1ea	-0.031098325
221	0x3d4491b0	0.0479905
222	0x3d1c3307	0.0381346
223	0x3ce8d989	0.028424041
224	0xbd29c9b6	-0.041452132
225	0xbd1fd924	-0.03902544
226	0x3d58b02b	0.052902382
227	0xbc77a960	-0.015116066
228	0xbd38045c	-0.044926032
229	0x3cef03f2	0.029176686
230	0xbcad7142	-0.02117217
231	0xbc92c53b	-0.017916312
232	0x3d00c8b7	0.031441417
233	0x3afa0844	0.001907595
234	0xbd8261b0	-0.06366289
235	0xbb0ac59e	-0.0021174918
236	0xbbd9bc4e	-0.006644762
237	0xbcb7499b	-0.022373965
238	0x3d54ce6c	0.05195467
239	0x3d931446	0.07181601
240	0x3c1ddb04	0.009634737
241	0x3cbdb1b1	0.023156019
242	0xbc333644	-0.010938231
243	0xbc30a4a6	-0.010781443
244	0xbc2feff4	-0.010738362
245	0x3c8981dc	0.016785555
246	0xbd03109d	-0.031998266
247	0x3d198973	0.037484597
248	0xbd6071f6	-0.05479618
249	0x3c1836b3	0.009290385
250	0x3d2cb761	0.04216707
251	0x3d822363	0.06354406
252	0x3d7a0984	0.06104423
253	0xbd47a09a	-0.048737146
254	0x3b40d839	0.0029425754
255	0xbc9676b9	-0.018367158

layers.8.bias f4 [64]
0	0x3b4db756	0.0031389794
1	0x3d1032d9	0.035204742
2	0xbda35025	-0.07974271
3	0x3ce0b9b1	0.027432295
4	0x3e1e6c92	0.15471104
5	0x3c918e6b	0.017768105
6	0xbd0a9366	-0.033831976
7	0x3cb43b8a	0.022001047
8	0x3d2a8d60	0.041638732
9	0xbae43f52	-0.001741389
10	0xbc99ffe1	-0.01879877
11	0x3c94b3a8	0.018152073
12	0xbcca3670	-0.024684161
13	0x3cb9e0f7	0.02269028
14	0x3d93453c	0.0719094
15	0x3da4a0ff	0.0803852
16	0xbd808492	-0.06275286
17	0xbc09dc09	-0.008414277
18	0x3dd433bc	0.1036143
19	0xbd68bdd9	-0.056821678
20	0xbd5aca01	-0.053415302
21	0xbd9e483c	-0.07728621
22	0x3d2aca25	0.041696686
23	0xbd199956	-0.03749975
24	0x3a4849f1	0.00076404127
25	0x3c46f5cf	0.012143566
26	0x3c5bed42	0.013423266
27	0x3d4627ff	0.048377987
28	0xbc823ec8	-0.015899077
29	0x3cc51a00	0.02406025
30	0xbca6327a	-0.020287741
31	0xba4667d3	-0.00075685716
32	0x3bcf1ac6	0.0063203303
33	0x3c0d8378	0.008637302
34	0x3d21e776	0.03952738
35	0x3caa2f1b	0.020774415
36	0x3c87173f	0.016490577
37	0x3e19c642	0.15017036
38	0x3c679eea	0.014137009
39	0xba13268c	-0.0005613349
40	0xbd3e47e5	-0.046455283
41	0x3c46a355	0.012123902
42	0x3d28cc95	0.04121073
43	0x3dc290e8	0.09500295
44	0x3b60d19a	0.003430462
45	0x3ca21426	0.019784998
46	0xbd0e2285	-0.03470089
47	0x3cf985bc	0.030459277
48	0x3d2c2bd8	0.042034
49	0x3e541d0e	0.20714208
50	0x3c0d4968	0.008623458
51	0x3d5fe1eb	0.05465881
52	0x3d0d0900	0.03443241
53	0xbbfd521a	-0.0077307345
54	0xbd78cdf6	-0.060743295
55	0x3c0f0f2c	0.008731645
56	0xbd8f017b	-0.06982704
57	0xbdf7127f	-0.12064075
58	0x3d82ced9	0.06387109
59	0xbc0657eb	-0.008199672
60	0x3cec7a95	0.028867045
61	0x394ea641	0.00019707625
62	0x3cc770bf	0.024345754
63	0x3cc5159b	0.024058154

layers.10.weight f4 [64]
0	0x3f9ec6b6	1.2404392
1	0x3f9efdf8	1.2421255
2	0x3f9f09f7	1.2424916
3	0x3f9ed29b	1.2408022
4	0x3f9e96b2	1.2389739
5	0x3f9f076f	1.2424144
6	0x3f9f5bc9	1.2449886
7	0x3f9e4d89	1.2367412
8	0x3f9ec541	1.2403947
9	0x3f9e33a9	1.2359515
10	0x3f9e9492	1.238909
11	0x3f9f0ff6	1.2426746
12	0x3f9ef9d4	1.2419991
13	0x3f9eb1a9	1.2397968
14	0x3f9eba55	1.2400614
15	0x3f9f52e2	1.2447169
16	0x3f9ea2e6	1.2393463
17	0x3f9df0f7	1.2339162
18	0x3f9ea3f5	1.2393786
19	0x3f9e524d	1.2368866
20	0x3f9e49e7	1.2366303
21	0x3f9d490b	1.2287916
22	0x3f9eae1d	1.2396885
23	0x3f9fa43c	1.2471995
24	0x3f9e7b61	1.2381402
25	0x3f9ef1a7	1.2417496
26	0x3f9f4947	1.2444237
27	0x3f9ee9a3	1.241505
28	0x3f9e9955	1.2390543
29	0x3f9e3425	1.2359663
30	0x3f9e8674	1.2384782
31	0x3f9ed4b1	1.2408658
32	0x3f9ec0f3	1.2402633
33	0x3f9efb30	1.2420406
34	0x3f9f48de	1.2444112
35	0x3f9e76f0	1.2380047
36	0x3f9ea3e6	1.2393768
37	0x3f9ea0c7	1.2392815
38	0x3f9e9a64	1.2390866
39	0x3f9f60a6	1.245137
40	0x3f9eb9f6	1.2400501
41	0x3f9d0ed4	1.227015
42	0x3f9e7249	1.2378627
43	0x3f9f2d3f	1.2435683
44	0x3f9dc801	1.2326661
45	0x3f9f5107	1.2446603
46	0x3f9c9755	1.2233683
47	0x3f9f7eb4	1.2460542
48	0x3f9e827b	1.238357
49	0x3fa00c17	1.250369
50	0x3f9ed1a3	1.2407726
51	0x3f9f6d29	1.2455188
52	0x3f9eb945	1.240029
53	0x3f9e472f	1.2365474
54	0x3f9f3099	1.2436706
55	0x3f9ddf62	1.2333796
56	0x3f9e75ad	1.2379662
57	0x3f9f4193	1.2441887
58	0x3f9f21e4	1.2432218
59	0x3f9ed14f	1.2407626
60	0x3f9e9f3a	1.2392342
61	0x3f9e7ecb	1.2382444
62	0x3f9ebd25	1.2401472
63	0x3fa08831	1.2541562

layers.10.bias f4 [64]
0	0x3e7afe55	0.24511082
1	0xbe3cc778	-0.18435466
2	0x3e748e6f	0.23882459
3	0xbe7c25bb	-0.24623768
4	0x3e6e4a95	0.23270638
5	0x3e4dfbbc	0.2011556
6	0x3e7c2cd7	0.2462648
7	0xbe804222	-0.25050455
8	0x3e73bd6d	0.23802729
9	0x3e4d8970	0.2007196
10	0x3e53f3f6	0.20698532
11	0x3e74c937	0.23904882
12	0x3e76be6c	0.24096078
13	0x3e48039b	0.19532625
14	0x3e793106	0.24335107
15	0x3e74d1ba	0.2390813
16	0x3e56e096	0.2098411
17	0xbe704d1d	-0.23466916
18	0x3e788577	0.24269663
19	0xbe68901c	-0.22711223
20	0x3e74310e	0.23846838
21	0x3e653c6c	0.2238633
22	0x3e4fbc16	0.20286593
23	0x3e762af6	0.24039826
24	0x3e6ca344	0.23109156
25	0x3e51c1b5	0.2048405
26	0x3e795031	0.24346997
27	0x3e2a6b75	0.16642554
28	0xbe70ae93	-0.23504095
29	0x3e52f2f7	0.20600496
30	0x3e6ecd00	0.23320389
31	0x3e6eb9ba	0.23313037
32	0xbe7e1a94	-0.24814826
33	0x3e4e1d98	0.20128477
34	0x3e792a78	0.24332607
35	0xbe7a6177	-0.24451242
36	0x3e221316	0.15827593
37	0x3e48e530	0.19618678
38	0xbe556a1a	-0.20841256
39	0x3e732a67	0.23746644
40	0x3e429720	0.19002962
41	0xbe7b8b5b	-0.24564879
42	0x3e579b71	0.2105539
43	0xbe582d64	-0.21111065
44	0xbe48a6d2	-0.19594887
45	0x3e75ed23	0.24016242
46	0xbe6ae874	-0.22940236
47	0xbe581359	-0.2110113
48	0x3e6d6b64	0.23185498
49	0xbe5602e6	-0.20899543
50	0x3e4c5b5a	0.19956723
51	0xbe1e1cd8	-0.1544069
52	0x3e4ede5a	0.20202008
53	0x3e4d8885	0.2007161
54	0x3e34a18b	0.17639749
55	0xbe813cd6	-0.25241727
56	0x3e4e331d	0.20136686
57	0x3e72e4b7	0.2372006
58	0x3e73f999	0.23825683
59	0x3e7284ee	0.23683521
60	0xbe582e49	-0.21111406
61	0xbe6d80bc	-0.2319364
62	0x3e4c6bfd	0.1996307
63	0xbe5547a1	-0.20828106

layers.10.running_mean f4 [64]
0	0x3d9d2174	0.07672396
1	0x3f93073d	1.1486584
2	0x3f1ad9f9	0.6048885
3	0x3f8419d0	1.0320377
4	0x3f9ca633	1.223822
5	0x3f763f1a	0.96190035
6	0x3d3adbe2	0.045619853
7	0x3f3aba2b	0.7294032
8	0x3f87630f	1.0577105
9	0x3f8fcf66	1.1235168
10	0x3f61f366	0.8826202
11	0x3f6966b6	0.9117235
12	0x3f178b06	0.5919651
13	0x3f92ffdc	1.1484332
14	0x3f992ac0	1.1966171
15	0x3f9275b4	1.144217
16	0x3ef860ef	0.48511454
17	0x3f559768	0.8343415
18	0x3fb067c2	1.3781664
19	0x3f7a04a2	0.9766332
20	0x3de2455d	0.11048386
21	0x3d6a64dd	0.057225097
22	0x3f9265b8	1.1437292
23	0x3f70c1e1	0.94045836
24	0x3d3e0c12	0.04639823
25	0x3f44f0b3	0.7692978
26	0x3fd7c4e5	1.6856962
27	0x3f687c8e	0.90815055
28	0x3f60ebb4	0.87859654
29	0x3f63822a	0.8887049
30	0x3efc8846	0.49322718
31	0x3f29cb4b	0.66325825
32	0x3f4be79f	0.796503
33	0x3f8eeb09	1.1165477
34	0x3fabbf1e	1.3417699
35	0x3f486186	0.7827381
36	0x3f9044f1	1.1271039
37	0x3f9f3709	1.243867
38	0x3f8590d7	1.0434827
39	0x3f6a1821	0.9144307
40	0x3f5fcdf9	0.87423664
41	0x3f4080b1	0.7519637
42	0x3f3b4aa5	0.73160774
43	0x3f7c7608	0.986176
44	0x3f8a6a5c	1.0813708
45	0x3f479e84	0.7797625
46	0x3f57cbe5	0.84295493
47	0x3f835943	1.0261616
48	0x3f2c47bb	0.6729695
49	0x3f9feb3b	1.2493662
50	0x3f84be31	1.0370542
51	0x3f2f17e8	0.68395853
52	0x3f9d967c	1.2311549
53	0x3f9d8701	1.2306825
54	0x3f4f357b	0.8094098
55	0x3f249d51	0.64302546
56	0x3f2d405b	0.67676324
57	0x3ed816da	0.42204934
58	0x3dca2f94	0.09872356
59	0x3efb8f88	0.49132943
60	0x3f71aef8	0.94407606
61	0x3f6005aa	0.8750864
62	0x3fa708b9	1.3049537
63	0x3f3534d0	0.7078371

layers.10.running_var f4 [64]
0	0x3ced9750	0.029002815
1	0x404cb5ac	3.1985884
2	0x402106ad	2.5160325
3	0x403bae46	2.9325118
4	0x40140384	2.3127146
5	0x403bf07b	2.9365528
6	0x3c18a339	0.009316259
7	0x3fdb14bb	1.7115701
8	0x408a4694	4.3211155
9	0x4085b2fd	4.178099
10	0x401966f3	2.3969085
11	0x406a6e82	3.6629949
12	0x3ff1ce77	1.8891133
13	0x408c8b26	4.391986
14	0x402a064a	2.6566339
15	0x402b7930	2.6792717
16	0x3fc9e6bc	1.577354
17	0x3fdb75ed	1.7145363
18	0x400a0cc2	2.1570287
19	0x40461a41	3.0953524
20	0x3d6a7086	0.057236217
21	0x3d2d3ffa	0.04229734
22	0x40891e80	4.284973
23	0x40506190	3.2559547
24	0x3c8efa51	0.017453345
25	0x401b8432	2.4299436
26	0x4104e847	8.306708
27	0x401bf925	2.4370816
28	0x40014709	2.0199606
29	0x405ff1a8	3.4991245
30	0x3fce5549	1.6119777
31	0x40340e87	2.8133867
32	0x4014956f	2.3216207
33	0x407191c3	3.7745216
34	0x40d8b4c2	6.772065
35	0x400e7c34	2.2263308
36	0x4081dc63	4.0581527
37	0x402588b8	2.5864697
38	0x402feab9	2.7487013
39	0x40746a11	3.8189738
40	0x404d8635	3.2113163
41	0x4015d3b0	2.3410454
42	0x3fbf6f95	1.4955927
43	0x3fb5ca00	1.420227
44	0x405d3e22	3.4569173
45	0x401d6d6b	2.4598033
46	0x3fb70dd1	1.4301091
47	0x402c0b87	2.6882036
48	0x4020edae	2.5145068
49	0x3ff78d1a	1.9339936
50	0x405bceb6	3.4344916
51	0x4003d2b7	2.059736
52	0x40a2dd7e	5.0895376
53	0x40b048d4	5.50889
54	0x400e1c93	2.220494
55	0x3fd39cf9	1.6532279
56	0x400396d9	2.056082
57	0x3fad5a4b	1.354318
58	0x3d3b12d0	0.045672238
59	0x3fe37801	1.7770997
60	0x40413b5b	3.0192478
61	0x40343567	2.8157594
62	0x40ae4fcf	5.4472423
63	0x3fae9c93	1.3641533

actor_classifier.weight f4 [15, 256]
0	0x3ba8708a	0.005140369
1	0xbc7b3770	-0.015333042
2	0xbb71029d	-0.003677524
3	0xbd130412	-0.035892554
4	0x3d5ef0e2	0.054428943
5	0xbd726f42	-0.059188135
6	0x3b78cd8e	0.0037964317
7	0xbc94b1c1	-0.018151166
8	0x3d378c40	0.044811487
9	0x3b2605c1	0.002533302
10	0x3d59f7d2	0.053214855
11	0xbceef8d8	-0.029171392
12	0xbbc4b9ea	-0.006003608
13	0xbd2a4793	-0.041572165
14	0x3d29cbd4	0.04145415
15	0x3d87b7aa	0.06626828
16	0x3c3bd2b0	0.011463806
17	0x3c916a43	0.017750865
18	0xbce0a1e9	-0.027420955
19	0xbd40fff1	-0.047119085
20	0x3d305367	0.04304829
21	0x3cc00add	0.02344268
22	0x3d73851a	0.059453107
23	0x3d2b995c	0.0418943
24	0x3c16946a	0.009190658
25	0x3cabc180	0.020966291
26	0xbd4aeb24	-0.049540654
27	0x3d0b60a3	0.034027707
28	0xbcbaa56d	-0.02278396
29	0xbd3bd0d6	-0.04585346
30	0xbd264018	-0.04058847
31	0xbd4ee0a1	-0.05050719
32	0x3d7492ec	0.059710428
33	0x3d704e6f	0.05866855
34	0x3b2afa58	0.0026089158
35	0x3b85a397	0.0040783393
36	0xbcb024e8	-0.021501973
37	0xbd5cef4b	-0.053939145
38	0xbba35ec5	-0.0049856626
39	0xbd373bb4	-0.04473467
40	0xbc37924a	-0.011204312
41	0x3d62d9ec	0.055383608
42	0x3c22502b	0.009906809
43	0x3bc5ea95	0.0060399272
44	0xbd817f45	-0.06323103
45	0xbcb78c7b	-0.022405853
46	0xbd311a3f	-0.04323792
47	0x3ca1d808	0.019756332
48	0xbd869f6b	-0.06573375
49	0x3c3d2060	0.011543363
50	0xbd441dc0	-0.047879934
51	0x3d3b1d3f	0.045682188
52	0x3c62ec08	0.01385022
53	0xbc599bf5	-0.013281812
54	0x3d3ec4f5	0.04657455
55	0x3d22344c	0.039600655
56	0xbd369f1b	-0.04458533
57	0xbbdb072d	-0.006684205
58	0xbb63d036	-0.0034761555
59	0xbca112a7	-0.019662214
60	0x3d8ac886	0.06776528
61	0xbcbec876	-0.023288947
62	0x3d1054e8	0.035237223
63	0xbb7c167e	-0.0038465555
64	0x3b115eaf	0.002218168
65	0xbd302089	-0.042999778
66	0xbcee30e0	-0.02907604
67	0xbcd570f5	-0.026054839
68	0x3cd29a09	0.025708215
69	0xbd84e28a	-0.064885214
70	0x3d2f989f	0.04287016
71	0x3d0e30a1	0.034714345
72	0xbd215543	-0.039387953
73	0x3c5f7437	0.013638548
74	0xbcb09140	-0.021553636
75	0x3bb5c4a6	0.005547124
76	0xbd7f9125	-0.06239428
77	0xbd0980c0	-0.03357005
78	0xbcc97d53	-0.024595892
79	0xbd500113	-0.050782274
80	0x3d3cf030	0.0461275
81	0x3c3d2aa1	0.011545808
82	0xbbef7468	-0.007307578
83	0xbd805692	-0.06266512
84	0x3c9c1ae4	0.019055791
85	0x3c890896	0.016727727
86	0xbc44c909	-0.012010821
87	0xbd6b8b40	-0.057505846
88	0xbd1cdda5	-0.038297314
89	0x3b4da9c3	0.0031381703
90	0xbd3281f5	-0.043580968
91	0x3d6bae24	0.05753912
92	0x3d3429eb	0.04398529
93	0x3c8972ad	0.016778314
94	0xbd45f44f	-0.048328694
95	0x3d1478f7	0.036248174
96	0x3d121e16	0.035673223
97	0x3d24fa44	0.040277734
98	0x3d28f038	0.041244715
99	0xbcf21991	-0.029553207
100	0xbd598163	-0.05310191
101	0x3c8fa227	0.017533375
102	0xbb26686f	-0.0025391837
103	0x3cd49f70	0.025954932
104	0x3cedf537	0.029047592
105	0x3bd99dcf	0.0066411267
106	0x3d7e7930	0.062127292
107	0xbd3343bf	-0.04376578
108	0xbd63b8ac	-0.05559604
109	0x3d0ba2a9	0.03409067
110	0xbd72fe73	-0.059324693
111	0xbd1316cb	-0.03591041
112	0xbd276074	-0.04086347
113	0x3c6b617d	0.014366505
114	0xbcfce79c	-0.030872159
115	0xbcb410d6	-0.021980684
116	0xbcbb57f5	-0.02286909
117	0x3d6877e8	0.056754977
118	0x3d5c9977	0.053857293
119	0x3d3f9c17	0.04677972
120	0xbd4266e4	-0.047461405
121	0x3d6257c9	0.0552595
122	0x3c28917d	0.010288593
123	0x3d297b93	0.041377615
124	0x3c89d98d	0.01682737
125	0xbcbafac8	-0.02282466
126	0xbaed9694	-0.0018126541
127	0xbceea06f	-0.029129235
128	0xbcf75f27	-0.03019674
129	0xbd782dde	-0.060590617
130	0x3d1daa6c	0.038492605
131	0x3d636723	0.05551828
132	0x3d5f6f9e	0.054549806
133	0xbd0fbc53	-0.03509171
134	0x3c879da7	0.016554667
135	0x3cd66af5	0.026174048
136	0x3c445866	0.011983966
137	0x3c9beb03	0.01903296
138	0xbd1f62cf	-0.03891259
139	0xbac97d89	-0.0015372495
140	0x3cba72ae	0.022759762
141	0x3ced2eda	0.028953005
142	0x3d1a2e91	0.037642065
143	0xbaee93d6	-0.0018202018
144	0xbc77429b	-0.015091564
145	0x3d272786	0.040809177
146	0x3c051146	0.008121794
147	0x3d7bb451	0.06145126
148	0x3cfb5ec2	0.030684832
149	0xbd3a9ad2	-0.045557804
150	0x3d8bcb17	0.06825846
151	0x3cf87aa0	0.03033191
152	0xbd475c86	-0.04867222
153	0xbc2b5e42	-0.0104594845
154	0xbcbdabe4	-0.023153253
155	0xbd28f281	-0.041246895
156	0xbd50ddc6	-0.05099275
157	0xbd2583f1	-0.040409032
158	0x3d6ffd35	0.058591086
159	0xbd1d8fb6	-0.03846713
160	0xbd0114dc	-0.031514034
161	0x3ca64f83	0.020301586
162	0xbbb5e3e6	-0.0055508493
163	0xbd17af4e	-0.037032418
164	0xbd350ba8	-0.04420057
165	0xbb84598f	-0.0040389965
166	0x3d8950c7	0.0670486
167	0xbbf7bbb1	-0.0075602164
168	0xbd6b437f	-0.057437416
169	0xbc492ec4	-0.012279216
170	0xbb10a229	-0.0022069311
171	0x3d201cc4	0.039089933
172	0x3c3c36b0	0.011487648
173	0x3ca39fad	0.0199736
174	0x3d35807e	0.044311993
175	0x3cac143c	0.021005742
176	0x3d69d5be	0.057088606
177	0x3c9e0006	0.01928712
178	0xbd67d276	-0.056597196
179	0x3d7c5cf2	0.061612077
180	0x3c8e9f6e	0.017410006
181	0x3d1f715f	0.03892648
182	0x3d090833	0.033455085
183	0xbd5167aa	-0.051124252
184	0xbce30f4d	-0.027717257
185	0x3bc41f9d	0.005985214
186	0xbcc1d0b8	-0.023659095
187	0x3d4d8af7	0.050181355
188	0xbc45e3ef	-0.012078269
189	0x3c028d76	0.007968297
190	0xbce1ae2e	-0.027548876
191	0xbd108c94	-0.035290316
192	0x3d248749	0.04016808
193	0x3d01ef19	0.031722162
194	0xbd47094e	-0.048592858
195	0xbd2a2c9a	-0.04154644
196	0xbd7ec868	-0.06220284
197	0x3d33decf	0.04391366
198	0x3d7708b4	0.060311034
199	0x39a3ea13	0.00031264182
200	0xbd101762	-0.03517855
201	0x3c675e6a	0.014121631
202	0x3cb8366a	0.022486884
203	0xbd5cd7e8	-0.05391684
204	0xbd4ef585	-0.050527114
205	0x3cea673e	0.028613683
206	0xbc6ba13f	-0.014381706
207	0xba3bd68c	-0.0007165454
208	0xbd383bb8	-0.044978827
209	0xbba60281	-0.0050662165
210	0xbd42feaa	-0.047606148
211	0x3ca1969d	0.019725138
212	0x3cc11b5e	0.02357262
213	0xbcb00baa	-0.021489937
214	0x3cdf43b7	0.027253969
215	0x3d8b40b8	0.067994535
216	0xbd32cbfa	-0.04365156
217	0xbd6f690d	-0.058449794
218	0x3c6b7a65	0.014372443
219	0xbcead2b4	-0.028664924
220	0x3d029340	0.03187871
221	0x3c3a3735	0.011365701
222	0x3d61186b	0.054954927
223	0xbd62ac73	-0.05534024
224	0xbc97aa91	-0.01851395
225	0x3d1c802e	0.03820818
226	0xbd42c0f7	-0.047547307
227	0xbd06983a	-0.03286002
228	0xbd6b4826	-0.057441853
229	0xbc135e9e	-0.008994726
230	0xbd8697ac	-0.06571898
231	0x3d038438	0.032108516
232	0x3ca40d61	0.02002591
233	0x3ce00d19	0.027349995
234	0xbc664acb	-0.014055918
235	0xbd4adf62	-0.04952944
236	0xbbd01a1c	-0.0063507687
237	0x3d4c5a70	0.049890935
238	0x3d0b8f7d	0.034072388
239	0x3c769f96	0.015052697
240	0xbce37c07	-0.027769102
241	0x3d5a64ec	0.053318903
242	0xbd37c117	-0.04486188
243	0x3d25002e	0.040283374
244	0x3ba202ae	0.004944167
245	0xbd5bf560	-0.053700805
246	0xbd484067	-0.048889544
247	0xbc7f6100	-0.015587091
248	0xbd86ec4b	-0.06588038
249	0x3b98ae03	0.0046594157
250	0xbd2a973b	-0.04164813
251	0x3c849472	0.016184065
252	0xbc1d723f	-0.009609758
253	0x3af3e792	0.0018608442
254	0xbccab6e9	-0.024745421
255	0x3c739fce	0.014869643

actor_classifier.bias f4 [15]
0	0xbc0be014	-0.008537311
1	0xbd128113	-0.035767626
2	0xbd860e00	-0.06545639
3	0xbbd0980b	-0.006365781
4	0x3c1379ce	0.0090012085
5	0xbd2bc961	-0.041940097
6	0x3ce9f204	0.028557785
7	0x3aaa204a	0.0012979594
8	0xbd4ba40e	-0.049717
9	0x3d8b6af3	0.06807508
10	0x3d401209	0.0468922
11	0xbca64b97	-0.020299716
12	0x3d65dc8f	0.056118544
13	0x3c100e49	0.008792468
14	0xbb68d1ae	-0.003552537
