Saved Models/model_checkpoint_coinrun_42_5e-05_400_3_256_0.99_0.95_0.2_1024_0.5.pth (torch, 153018 bytes, 21 tensors)

layers.0.weight f4 [32, 3, 8, 8]
00000000: 4b2a 11bc 4899 3a3b c514 883d 6293 34bd
00000010: 85e2 48bc 3cd0 14bd b3b8 30bd 3e55 b93c
00000020: 6a19 c53c d0a4 023c cca2 81bd 5410 fbbb
00000030: b96a 2cbc 2810 813d ca7e 29bd 208c 1f3d
00000040: 3711 3b3c 4326 1dbd 3f80 143d 45de 51bd
00000050: b049 06bd 3219 7cbd ae0d c5b8 d685 c33c
00000060: 2149 28bd f15d e73c e474 953b d7d6 93bd
00000070: 9003 273d 3f81 3bbd 3dec 23bd 28ff ccbc
00000080: 3452 c83c b77e 6fbc c815 d0bb 6984 a7bc
00000090: 4ded ca3c 6644 853c 32ec 373d 5cf1 323d
000000a0: affd 0939 8c3f b73c a366 7f3d 2a2e e3bc
000000b0: 7e06 6ebd 78c1 6abd f61a 72bd 8d36 723b
000000c0: 09dc 42bd 107d 9abd 122f bbbc 1511 f23c
000000d0: 2df6 4d3c edaf 45bd 7f39 283c a4f3 86bb
000000e0: 8974 903d 0e7f c5bc 6534 603d 9220 8fbb
000000f0: 1aeb c33c 0191 853d 56fc 9a3c 9495 6bbc
00000100: 2224 8f3c 9b71 673d 0c27 0abd 5fde 1abd
00000110: 100a 83bd 19d5 cfbb 4763 463c 9e8f e7bb
00000120: e24e bebc b3b7 72bc 56e9 67bd 8693 3b3d
00000130: 7dab 98bd c329 efbb 2165 3e3b c7ab 84bd
00000140: 93a9 b3bc 2aed 94bd e39e 873c 70e8 77bb
00000150: 9669 09bc 45f1 653c 201b 073d 492c 0f3a
00000160: 1a79 a2bc aafd 613d 8cf8 29bc 221f 8bbd
00000170: 215f f8bb 3598 0f3c cd09 ba3c 941c c73c
00000180: b1d8 2dbd 7d33 b6bc 70c4 2d3b 4885 723d
00000190: 09b5 89bd b4c0 573d e671 ea3c db0f fb3c
000001a0: de13 333c d13c 093d bb2a a8bc 4481 79bb
000001b0: ad10 08bd 6315 523d 663a ffbc 90a4 343d
000001c0: 88e6 0e3d 57fe 7abd a35d 053d aec4 e53a
000001d0: 6147 9ebc 4562 44bc 698e 4dbd 822b 78bd
000001e0: 4c82 1abd 3012 55bd 9c6f d93c 8f82 20bd
000001f0: 98c9 a5bc 2607 cabb 0f5a 95bd 43f1 25bd
00000200: 0fc4 e9bb 8a9c ee3c 566c d1bb 17dd 46bd
00000210: d023 d4bb 9820 503d 94aa 8bbc d995 0dbd
00000220: 623f 683d a3d8 debc 742b 86bd f1e0 583d
00000230: 6023 733d 32d0 7c3d 6913 393b eb75 90bd
00000240: fd9d 583b f5f0 6c3d 8f22 84bc dc70 de3c
00000250: f4e6 cbbc c920 9b3d 5fd1 06bd 44d0 b2bc
00000260: 97ab e4bb da0b e839 537b 5a3d f556 8abc
00000270: fdd7 8d3d a9e2 10bd eb20 ddbc a770 ca3b
00000280: 935d 843d 8ad8 e13c 110c 91bd c118 70bd
00000290: b12a a63c b455 4dbd 0d24 173c 0217 6a3d
000002a0: b4a3 d1bc 3f93 0a3d 1bd9 55bc fb2d 76bd
000002b0: 5e7a 183d 6ef3 4e3b 20ab a33c 75b3 5a3d
000002c0: 3f31 84bd c3de 073d d3fd 173d 37bf 98bc
000002d0: 7913 b53c 9ed8 1fbc 7119 aa3d 50fb 1b3d
000002e0: 86cd e73b 49c1 123c a435 e3bc 45b1 5cbd
000002f0: 6bd4 3b3b 0c5c 4abd dbef 24bd b0a0 ce3c
00000300: 8c54 13bd 7eef d5bc 041a d5bc d90b dbbb
00000310: 42c5 873d fdb6 2ebd 3435 113c 7767 7cbb
00000320: 79a7 d6bc a7a0 803d 589f 173d 9406 533d
00000330: 7f78 143c ec3f cdbc 164b ec3c 45b4 5f3d
00000340: fdec 06bd 3238 6dbd 4abd e0bb fd8b 2a3d
00000350: 8d78 5dbd a7f6 5bbd 080b 5ebc 4f5c 703d
00000360: 5ea6 d83c 83fc 99bb 9176 19bd 616e 3b3d
00000370: 40fd 0cbd 5e2c 3c3d 9ff9 95b9 4f1d 273c
00000380: 6597 8cbc 7ca9 af3d 55bf 743d 0176 f8bc
00000390: c160 8c3a 1576 2fbd a3e8 03bd 8881 35bc
000003a0: 05cc 043d 78c4 86bd ff3f 073d 8904 273d
000003b0: c938 e9bc aceb 3b3c aa5c da3c 695c 453d
000003c0: 4f10 46bc 4efc 13bd 88bd 8a3d fdf0 9ebc
000003d0: 5b24 65bd 0270 923c 0b0b c93c 215f 82bd
000003e0: ffb7 10bc a872 41bd f58f 9dbd f2e6 86bd
000003f0: 2cd6 83bc 6378 9c3d 96ed a3bc 96c2 cdba
-0.008860181 0.002847271 0.066445865 -0.044085868 -0.012261038 -0.0363314 -0.043144893 0.022623654
0.02405997 0.007973865 -0.06329879 -0.0076618586 -0.010523492 0.0630191 -0.04138068 0.038951993
0.011417679 -0.038366567 0.036255118 -0.051237363 -0.032785118 -0.061547466 -9.39624e-05 0.023867529
-0.041085366 0.028243037 0.0045610536 -0.07218712 0.04077488 -0.045777556 -0.040020216 -0.025024012
0.02445326 -0.0146176135 -0.006350253 -0.02044888 0.024771357 0.016267966 0.044902988 0.04368721
0.00013159843 0.022369169 0.06235374 -0.027731974 -0.05811166 -0.057313412 -0.059107743 0.0036958784
-0.047573123 -0.07543385 -0.022849593 0.029549161 0.0125709 -0.04826348 0.010267614 -0.0041183997
0.07053477 -0.024108436 0.054737467 -0.0043678964 0.023915816 0.06521798 0.018919151 -0.014378924
0.017473284 0.056504827 -0.033728644 -0.037809726 -0.06398404 -0.006342542 0.0121086305 -0.007066681
-0.023230974 -0.014814305 -0.05661901 0.045794986 -0.07454584 -0.0072986796 0.0029051977 -0.064780764
-0.021931445 -0.07271798 0.016555255 -0.0037827753 -0.00838699 0.014034574 0.032984853 0.0005461616
-0.019833136 0.055173554 -0.0103742 -0.067930475 -0.0075796996 0.008764316 0.022709752 0.02430562
-0.04244298 -0.022241348 0.002651479 0.05920914 -0.06723983 0.05267401 0.028618764 0.030647209
0.01093003 0.033505265 -0.020528188 -0.0038071433 -0.03321903 0.051289927 -0.031155776 0.04410225
0.03488782 -0.061277714 0.032560002 0.0017529929 -0.019321145 -0.01198632 -0.05018464 -0.060588367
-0.037721917 -0.052019298 0.026542477 -0.03918701 -0.020237729 -0.006165403 -0.07292568 -0.04051329
-0.0071339677 0.029127378 -0.0063910885 -0.04855069 -0.0064739957 0.050812334 -0.017049111 -0.034566734
0.05670107 -0.02720291 -0.06551257 0.052948896 0.059359908 0.061721988 0.002824033 -0.07053741
0.0033053153 0.057846982 -0.01612976 0.027153425 -0.0248904 0.07574613 -0.032914516 -0.021827824
-0.006978463 0.00044259318 0.053340267 -0.016887167 0.06925962 -0.03537241 -0.026993236 0.00617798
0.0646316 0.027569074 -0.070823796 -0.058617357 0.020284029 -0.05013056 0.009224904 0.05715085
-0.025590755 0.03383183 -0.01305225 -0.060102444 0.037226073 0.00315782 0.01997906 0.0533938
-0.064547054 0.033171427 0.0371073 -0.018645866 0.022104012 -0.009756235 0.08305634 0.038081467
0.007074061 0.008957216 -0.027735539 -0.053879995 0.0028660547 -0.04940419 -0.040267807 0.025223106
-0.035969302 -0.026115175 -0.026013382 -0.006684762 0.06629421 -0.04265498 0.008862782 -0.0038513818
-0.026202904 0.06280642 0.037017196 0.051519945 0.009061932 -0.025054894 0.028844398 0.054615278
-0.032940853 -0.05791492 -0.0068585025 0.04163741 -0.054070044 -0.053702023 -0.013552435 0.058681782
0.026446518 -0.004699291 -0.03746659 0.045759562 -0.034421206 0.04594075 -0.00028605477 0.010199859
-0.017162034 0.085772485 0.05975278 -0.030329706 0.0010709987 -0.04283722 -0.03220428 -0.011078246
0.03242113 -0.06580442 0.033020016 0.04077581 -0.02846946 0.011469763 0.026655514 0.048183832
-0.012088849 -0.03612929 0.067744315 -0.019402022 -0.055942874 0.017875675 0.024541399 -0.06365801
-0.008832931 -0.047228485 -0.07693473 -0.06587018 -0.016093336 0.076401494 -0.02001075 -0.001569825

layers.0.bias f4 [32]
00000000: 456d f4bc f396 02bd 35d0 a83b ab90 5c3d
00000010: 14b4 413d 0053 c6bc 1108 663d 84b8 b13c
00000020: ba77 8cbd 3ef3 573d d3e6 483d a4c5 8bbd
00000030: d746 19bd c663 a53d 9065 a9bc 8e56 c7bc
00000040: 87c6 a5bd 134b bebc a015 48bc 2c9a 983d
00000050: fe5e 53bd 7645 333d 89fa b8bc 84df 413d
00000060: 8baf 8fbd 72ff 283d c40a a9bd 68ed c538
00000070: 6a27 ecbb faae 913c 62ee 98bd 628b 84bd
-0.02983726 -0.031882238 0.0051517733 0.053848904 0.047290877 -0.0242095 0.056160036 0.02169443
-0.068587735 0.05272221 0.049048256 -0.06824806 -0.037421074 0.08075671 -0.020678312 -0.024333265
-0.08094507 -0.023229158 -0.012212187 0.07451281 -0.051604263 0.043767415 -0.022580402 0.0473323
-0.07015904 0.041259237 -0.082540065 9.4379124e-05 -0.007206847 0.01778363 -0.07467343 -0.06471898

layers.2.weight f4 [32]
00000000: 77ef 803f c167 7a3f f866 7f3f 6970 7f3f
00000010: fdce 803f c976 7f3f 25a7 803f 282a 813f
00000020: 34f0 7f3f 2db4 7f3f 78fa 803f 48f3 7c3f
00000030: 210b 7d3f 70dc 803f 7b81 7e3f 8969 7e3f
00000040: d5d5 813f 334e 803f d8b0 803f 66ca 7d3f
00000050: 1390 7c3f 4a1d 803f 6d80 803f 4c5e 803f
00000060: 5336 803f 5e4a 7f3f 505f 7f3f 4736 813f
00000070: f945 813f a4e3 7f3f 7e9e 813f 0280 7d3f
1.0073079 0.97814566 0.9976649 0.997809 1.0063168 0.99790627 1.0051008 1.009099
0.99975896 0.998843 1.0076437 0.9880872 0.98845106 1.0067272 0.9941632 0.99379784
1.0143381 1.0023865 1.0053968 0.9913696 0.9865734 1.0008938 1.0039192 1.0028777
1.0016578 0.9972285 0.9975481 1.0094689 1.0099479 0.9995673 1.0126493 0.9902345

layers.2.bias f4 [32]
00000000: a17f 56bc 3728 a0ba c1d4 b63b 9cc3 23bc
00000010: 6340 e83b d0f6 26bc e815 9a3c a253 5b3b
00000020: 1fa8 cebb b7f7 9c3b 8471 01bc db30 7d3c
00000030: 3f13 c93b 4d17 fcbb 8d6a 7cbc 19bc 28bc
00000040: c8eb 40bb dba3 213c 238a 95bb a270 cc3b
00000050: 0008 87bb 5159 61bc 14ec 673b 9fe8 80bc
00000060: 6a6c 30bc 6579 c13b 12a9 a93b 4aae 71bc
00000070: 5dff 8ebc e637 c5bb 0311 4dbb ef5c adbb
-0.013091953 -0.0012219016 0.0055795615 -0.009995367 0.0070877536 -0.010190681 0.018809274 0.0033466597
-0.0063066627 0.004790272 -0.007900599 0.015453543 0.0061363275 -0.0076932074 -0.015406263 -0.010298752
-0.0029437412 0.009865726 -0.0045635863 0.006239013 -0.0041208267 -0.013754205 0.0035388516 -0.015735922
-0.010768035 0.005904364 0.0051776255 -0.014751026 -0.017455751 -0.0060186265 -0.0031290657 -0.0052906196

layers.2.running_mean f4 [32]
00000000: dd72 933e c144 883e 33e1 0541 df76 3a40
00000010: 15ee c242 c626 db42 2e90 ea42 3c9f 2e3f
00000020: 5a8d 1e42 8bb9 8641 205e 9d41 6ffc 853f
00000030: 95e1 163f b2f6 0942 4b36 5a42 74dc 9e3e
00000040: 6950 703e c142 b141 2284 cb3f 4743 c63f
00000050: 1e48 0541 6974 c142 aaa8 b142 4f7a 2b42
00000060: a06d ac42 97bc 1441 e51a 8d40 2fe0 343e
00000070: 2341 6642 dc6d e541 1311 bb3e fc80 7640
0.2879857 0.26614955 8.36748 2.9135053 97.465004 109.57573 117.2816 0.6821172
39.63804 16.840597 19.67096 1.0467662 0.5893796 34.490913 54.55302 0.31027567
0.23468174 22.157595 1.5899699 1.5489281 8.330107 96.72736 88.82942 42.869442
86.21411 9.296042 4.409533 0.17663644 57.56361 28.678642 0.36536464 3.8516226

layers.2.running_var f4 [32]
00000000: a6a9 d040 8318 e140 a958 7943 c7e6 b942
00000010: 8984 ae45 fa2b f545 1f05 0946 81fb a241
00000020: addc 7244 4d04 aa43 65e5 9543 e798 a941
00000030: 4281 8341 f683 7844 a6be 0c45 ecfe e640
00000040: 5c46 c740 3756 d143 164c 5242 d2ea cc41
00000050: 2ae9 1843 bc3c ad45 7790 aa45 8ad9 a544
00000060: 5f2b 8e45 ab46 ef42 48af 9342 6131 9140
00000070: 5251 0f45 23bd 2744 54e3 6f41 4134 f042
6.520709 7.034242 249.34633 92.95074 5584.567 7845.497 8769.28 20.372805
971.44806 340.0336 299.79214 21.19966 16.438114 994.0619 2251.9155 7.2186184
6.227339 418.67355 52.574303 25.614658 152.9108 5543.592 5458.058 1326.7981
4549.4214 119.63802 73.84235 4.5372777 2293.0825 670.95526 14.993 120.10206

layers.4.weight f4 [64, 32, 2, 2]
00000000: e4e1 e23b c174 8abc fcb4 143d e819 57bc
00000010: 4682 22bd e3c6 333d a2ee 2fbd c521 19bb
00000020: d94a 2e3d ea79 843c 98ed 793d b0c5 a13d
00000030: 53e6 cfbb a5ac 833d 77b5 97bd 3366 3d3d
00000040: bf9d 223d 4d15 413d b4ca 453d bb5a 05bd
00000050: 32fd 423b e1c3 8a3d bd5f 14bd b40b 88bd
00000060: 6fbb 9a3d 2c75 48bb 0de4 1a3d 674e 623d
00000070: 1de4 c43c fabf c63a 70c2 ab3d 2aa6 863d
00000080: a692 8bbd d9c1 923c b249 663c 9b6e 5ebc
00000090: 8a7d 1c3d 2855 04bb 2bce 7dbd 2e70 b03c
000000a0: 08ca 0fbd ca85 3cbd 37b0 abbd fb4f 77bd
000000b0: 50d7 8c3d a872 aebd b003 b13d f4dc 70bd
000000c0: 12e5 8a3d 1767 85bd fdc5 c63c 2da9 813d
000000d0: 4cc3 10bd bb38 52bd 56e9 ff3c 2e1c 423d
000000e0: a1ac 283d 7817 3939 0ffd b4bd 0e02 a6bd
000000f0: 6a15 613d 2971 d3bc 9480 843d 78be f3bc
00000100: 919d c43d 86ed d93c 1184 20bd c9b0 db3b
00000110: 88c4 8c3d 1bdd 923d c30b 293d 2191 933d
00000120: 291b af3d fac2 e0bc 407d 333d 0a7f 3dbd
00000130: 4fca 963c 6e64 8ebd 993b 5f3d b1e3 c2bc
00000140: 0e82 0dbd 8e4d 4d3b 892a 8f3d 630a 243d
00000150: b0fd 073b db29 82bd eec2 563d ac95 96bd
00000160: a2f3 10bd d69f c9bc 0716 893d c488 b6bd
00000170: d73f 223d d5ec 243d 002f adbd abee 983d
00000180: 54b5 8c3c afac 93ba bf82 c83c 69fd 853d
00000190: 0f65 553d b659 e43c 54ea 33bd 5235 efbb
000001a0: 81ad 46bd e193 babd dac3 b63d 83c1 89bb
000001b0: fd1a 8c3d 34cb edbc 7c9a 713c abee 01bd
000001c0: 37ac 2c3c 7116 8cbd d990 353d 83da eebc
000001d0: 2a72 3ebd b25e 7f3d 0d49 87bc 6dc5 b93d
000001e0: 15f0 a13d dcf6 9bbc 1198 033d 4215 72bc
000001f0: 2bbb 223d e0d3 c4bb 4ccf e0bb 5187 bfbc
00000200: 097b 67bd 8c44 a6bd d3f7 833c d70e 0dbd
00000210: 511b 0cbd 5619 3abd a06e 123c 3eea 54bd
00000220: d8c3 fb3c 267b eabc b55c 3cbc 3a1a 8abd
00000230: cced 883b 261b 543d e6ef efbb 08e0 74bd
00000240: b2e3 76bc 6398 5b3d 430a 793d 80b7 323b
00000250: 2ae6 eebc 0363 3d3d 6380 39bd 84c3 66bd
00000260: 9b84 5dbd b5ae 1bbd 1787 1dbd 8db7 4c3b
00000270: 08df 2f3c 56b8 8c3c a042 823c 159a b6bc
00000280: 2458 4ebd ff05 3a3d 970b 76bd 0e0f 0ebd
00000290: c866 ad3d 5a1c 963d aab1 8dbc faae 703c
000002a0: d151 75bb a306 293d 657e 2b3d d315 2cbd
000002b0: 709f 853d 9094 7bbd 211f 70bd a7c1 b43c
000002c0: 1f87 0fbd bf5a 0e3d 9fc3 98bc 927c 8c3d
000002d0: ba6b 573d cc31 80bd 9073 a13d 2421 c0bd
000002e0: f2e6 a2bc cbc2 aabd c7fd a73d c6b6 2dbd
000002f0: 3688 a83d c9f7 0cbc ac2e 983d b843 ca3c
00000300: 1687 8a3d 8aef 883d 48f1 843d 786e 8fbd
00000310: e30b 21bd 0ba8 363c 8d14 813d a02a 7bbc
00000320: f361 adbb 86a1 68bc 29c0 793c 2e52 26bd
00000330: 4d88 0f3d 01ff 313c bf75 543b d5ff 9cbd
00000340: 280e 903b 995d 4e3d 4670 a83d e749 e93c
00000350: 23f1 42bc 6dbe 44bd dada 97bd 645c 1ebd
00000360: 36f4 a0bc fddb eabc d735 463d c3b5 24bb
00000370: f45f a23d 63c1 8cbd 77a7 42bd 8f8d 8b3d
00000380: c623 713d dab4 3dbc f4f4 89bc c8cd 41bd
00000390: 03db 2b3d 2a2c 8b3d bec9 50bd 41e0 0a3d
000003a0: 6ace 8ebd d56f 593d 5bca b9bd 5e5c 95bd
000003b0: 7347 f2bc f715 6a3d b1ae 663d f3f7 653c
000003c0: be76 7abd f725 00ba 9f74 8bbd ff37 b6bd
000003d0: 1775 883d 4cde 023d 827a ec3b 21aa 8e3d
000003e0: 72d4 a83d 16a4 bf3a fd36 233d 0ef4 bdbb
000003f0: 38e6 403d 51a9 a83d 39c8 1fbc d196 2d3d
0.006923901 -0.016901376 0.036305413 -0.013128735 -0.03967502 0.043890845 -0.042952187 -0.0023366075
0.04255185 0.016171414 0.061017603 0.07899034 -0.0063445955 0.06429414 -0.074076585 0.046240043
0.03970122 0.047139455 0.048289016 -0.03255723 0.0029752967 0.06775642 -0.036224116 -0.06642857
0.07555281 -0.0030587418 0.037815142 0.05525055 0.024034554 0.0015163415 0.083866954 0.06574662
-0.0681508 0.0179147 0.014055656 -0.013576175 0.03820566 -0.0020192359 -0.061964195 0.021537866
-0.03510478 -0.04602603 -0.0838322 -0.06037901 0.06877005 -0.08517963 0.086432815 -0.058804467
0.06781973 -0.065138035 0.02426433 0.06331096 -0.0353425 -0.051323634 0.031239193 0.047390155
0.041180257 0.00017651718 -0.088373296 -0.08105861 0.054952063 -0.025810795 0.06469837 -0.029753909
0.09600366 0.026602518 -0.03918845 0.006704424 0.06873423 0.07171079 0.041270982 0.072054155
0.08550102 -0.027436722 0.04382062 -0.046263732 0.018407015 -0.06952749 0.054500196 -0.023790212
-0.034547858 0.0031326744 0.06990535 0.040048968 0.0020750575 -0.063556395 0.052431993 -0.073527664
-0.035388596 -0.024612349 0.066936545 -0.08912805 0.039611664 0.040264923 -0.0845623 0.07467397
0.017176308 -0.0011266674 0.024476407 0.06542475 0.05209833 0.027874809 -0.043924645 -0.0073000574
-0.04850531 -0.09110237 0.089240745 -0.0042039766 0.06841085 -0.029027559 0.014746305 -0.031721752
0.010539106 -0.06840218 0.04432759 -0.029156929 -0.046495594 0.062346168 -0.016514326 0.09070859
0.0790712 -0.01903861 0.032127444 -0.014775576 0.03972928 -0.006006703 -0.006860649 -0.023379954
-0.05651382 -0.08118543 0.016109383 -0.03443798 -0.03420574 -0.04543432 0.008937508 -0.051981203
0.030733034 -0.028623175 -0.011496712 -0.067432836 0.004178738 0.051783703 -0.0073222993 -0.059783965
-0.015068935 0.053612124 0.060800802 0.002727002 -0.029162485 0.046237003 -0.045288455 -0.056338802
-0.05408154 -0.03800841 -0.03845891 0.0031237334 0.010734327 0.017177742 0.01590091 -0.022290269
-0.050377026 0.045415875 -0.060069647 -0.034682326 0.084668696 0.073296264 -0.01729663 0.014690155
-0.00374328 0.041266095 0.041868586 -0.042013 0.06524551 -0.061420977 -0.058623437 0.022064997
-0.03504097 0.03475451 -0.018647967 0.068596974 0.05259297 -0.06259498 0.0788337 -0.09381321
-0.019885514 -0.08337935 0.08202701 -0.042410634 0.08229105 -0.008603998 0.07430777 0.024690494
0.06764047 0.066863135 0.06491333 -0.07003492 -0.039317977 0.011148463 0.06302748 -0.015329987
-0.0052912175 -0.014198666 0.015243568 -0.040605716 0.035042096 0.01086402 0.0032418815 -0.076659836
0.004396219 0.05038223 0.082245395 0.028477622 -0.011898312 -0.048033167 -0.074147895 -0.03866233
-0.019647699 -0.028669352 0.04839119 -0.0025132752 0.07928458 -0.06872823 -0.04752299 0.068141095
0.058872007 -0.011578763 -0.016840436 -0.04731539 0.041956913 0.06795533 -0.050973646 0.03390527
-0.06972964 0.053085167 -0.09071799 -0.07293008 -0.029575085 0.057149854 0.056318942 0.0140361665
-0.061148398 -0.00048884697 -0.06809353 -0.08897399 0.06662958 0.03195028 0.0072167525 0.06966043
0.08243646 0.0014621045 0.039847363 -0.005796916 0.047094554 0.082354195 -0.009752327 0.042380158

layers.4.bias f4 [64]
00000000: 6f10 90bd fd3c 95bc 9586 3cbc 0f17 c83d
00000010: 6213 42bd 06d4 193d b7e1 0dbc 1d48 bfbc
00000020: 541f bbbb 01ea 923c e1e2 b8bd 5b08 41bd
00000030: 7116 bbbc 0aec 163d cccc ae3a 5b78 a03c
00000040: 7b88 8e3d bb30 263d 7ce4 c93d 84e2 b93b
00000050: 8e71 30bd 6e0f 6abd 1fa3 81bd fa0e 743d
00000060: 426e 583d 6ff2 60bd 2347 483d 54e0 adbd
00000070: c70a 3dbd 6dc8 80bd 8b66 8cbb fdb4 c43a
00000080: 3c8d 003d dd0b cdbc 9b28 febc a6d5 4f3d
00000090: f8f2 a63d 0a22 08bd 600a 823d 446a 8fbd
000000a0: 2c58 b63d f42f e93b 2638 6bbd 9ea8 9ebd
000000b0: a1d3 adbc 0d06 213d 7967 a0bc 001f b8ba
000000c0: 7f7d 7dbd 5fea b33c 2b1b ae3c e0b9 9cbc
000000d0: 5238 843d 89ff e93c fdf6 35bd f80b 4bbd
000000e0: d613 233d e0d9 983c 4913 69bc 690e 27bb
000000f0: 9de7 55bd 8342 9bbc e9b0 06bd 20a1 87bc
-0.070343845 -0.018217558 -0.011506696 0.09770023 -0.047381766 0.037555717 -0.008659772 -0.023349816
-0.0057105217 0.017933847 -0.09027649 -0.04712711 -0.02283785 0.0368462 0.0013336181 0.01958864
0.06959625 0.040573817 0.09858033 0.0056727547 -0.043077044 -0.05714362 -0.06329941 0.059584595
0.052839525 -0.054918703 0.048895966 -0.08490053 -0.046152856 -0.06288228 -0.004284685 0.0015007552
0.03138469 -0.02503007 -0.031025222 0.05074086 0.08151811 -0.033235587 0.06349635 -0.070026904
0.08903536 0.007116312 -0.057426594 -0.07747005 -0.021219077 0.03931241 -0.01958059 -0.0014047325
-0.06188726 0.021962343 0.02125319 -0.0191316 0.06456055 0.028564231 -0.044425 -0.04957196
0.03981384 0.018658578 -0.014225789 -0.0025490767 -0.052222837 -0.018952614 -0.03288356 -0.016556323

layers.6.weight f4 [64]
00000000: 078b 813f f0c5 7c3f c8cc 813f 8557 7e3f
00000010: 61a1 7d3f 1348 813f 15e4 803f 3cc0 7c3f
00000020: 5d0c 813f 015c 813f e57f 7f3f 4a93 803f
00000030: ee1f 7c3f 1a57 813f 642e 7d3f fb46 803f
00000040: c319 813f f4f8 813f d281 7b3f 5772 813f
00000050: 3df9 7b3f 4ae9 813f 0c79 7e3f 6735 7d3f
00000060: 22c0 813f f6f4 7d3f 6178 7e3f e197 803f
00000070: 796d 803f 94d2 7b3f b7d7 7d3f 989b 803f
00000080: 9884 7d3f 9c8e 803f 00ae 7e3f 4e78 7d3f
00000090: 80fb 7c3f 2c34 7e3f da8c 7f3f 948b 803f
000000a0: dcc5 7c3f 86a3 7d3f b212 813f c2f4 803f
000000b0: 3325 823f 4b83 803f 6113 7c3f fce8 7c3f
000000c0: a0a0 803f 1a3d 7c3f 9c0c 7d3f 1a0c 813f
000000d0: 2c26 7d3f 6297 803f f061 7e3f e895 803f
000000e0: 74ca 813f 220d 7f3f e27e 813f f155 7d3f
000000f0: 6439 7c3f 70eb 813f 120a 803f 138b 813f
1.0120553 0.9873953 1.0140619 0.99352294 0.9907437 1.010012 1.0069605 0.98730826
1.0081898 1.0106202 0.99804527 1.0044949 0.9848622 1.0104706 0.9889891 1.0021662
1.0085987 1.01541 0.98244965 1.0113019 0.9842718 1.0149319 0.9940345 0.9890961
1.0136759 0.99201906 0.99402434 1.004635 1.0033408 0.9836819 0.9915728 1.0047483
0.99030447 1.0043521 0.9948425 0.99011695 0.9882126 0.9929836 0.998243 1.0042596
0.9873941 0.9907764 1.008383 1.0074694 1.0167602 1.0040067 0.9846707 0.98793006
1.0049019 0.98530734 0.98847365 1.0081818 0.9888637 1.0046198 0.9936819 1.0045748
1.0139909 0.99629414 1.0116847 0.9895926 0.9852507 1.0149975 1.0003073 1.0120567

layers.6.bias f4 [64]
00000000: 757c a5bb cbcc 3c3c 07ec a83c 144d 7bbb
00000010: 0047 b33c 4850 69bc 4249 803c 9b51 8c3c
00000020: ad80 1abc b4f2 8b3c 385d 883b f4df 97bc
00000030: 0cb7 a23b b1ff 123c abb1 44bc 427c 893c
00000040: 510c 0a3a bcd5 bfbb 5b4e 903c bcb8 53bc
00000050: 1940 9c3c 1bcf 7cbc 0c9c 553c c1f9 9e3b
00000060: da25 98bb 3ec9 713b 4f53 933c 9463 8a3c
00000070: 9333 b83b 3f7f bb3c 2638 a23c cf5f c63b
00000080: d3fd 8cbc 7b16 0c3c 7254 653c d50a a6bc
00000090: 3710 f0bb 3a78 a33c 7f68 6bbc 015a 87bc
000000a0: 4e5f b83a 3e6d ae3c be54 203b 532d 94ba
000000b0: f6d1 8ebc 67aa d9bb 6bc1 30bb bd7a 86bc
000000c0: 84b2 b0bc 6fbd c63b 6247 d53b 3fa7 cbbb
000000d0: 1197 9bba 7a77 a7bc d834 403c 53a1 8e3c
000000e0: 4487 1f3c f713 9a3c cd82 6d3c f267 8e3b
000000f0: e1b7 a2bb f209 98bc bcc2 983c 5de9 8abc
-0.005050237 0.011523436 0.02062036 -0.0038345503 0.021884441 -0.014240332 0.015659932 0.017128756
-0.009430093 0.017083503 0.004161503 -0.018539406 0.0049656685 0.008972094 -0.01200525 0.016782884
0.00052661175 -0.0058543365 0.017615488 -0.012922462 0.019073533 -0.015430237 0.013037693 0.0048515503
-0.004643184 0.0036893631 0.01798406 0.016893186 0.0056213825 0.022887824 0.019802164 0.0060539017
-0.017210877 0.008550282 0.013997184 -0.020268837 -0.0073261517 0.01995479 -0.0143681755 -0.01652241
0.0014066489 0.021292325 0.0024464573 -0.0011305012 -0.017434102 -0.006642628 -0.0026970755 -0.016415948
-0.021569498 0.0060650627 0.0065087536 -0.0062150056 -0.0011870583 -0.020442713 0.011731349 0.01741091
0.00973684 0.018808348 0.014496517 0.0043458873 -0.0049657677 -0.01855943 0.018647544 -0.01695698

layers.6.running_mean f4 [64]
00000000: 6b35 ee3e 3202 963e b2ab 713e 5bba 233f
00000010: bd7c f43e 14ce 793e d234 403e 6d38 ba3e
00000020: 2e5a 023f 247f 0b3e 6e4c ca3e b00d 833e
00000030: 8756 c13e 40a1 9f3e 5559 fa3e e469 903e
00000040: b7dc a33e 627d e53e 3dda 6e3e 7ef4 a13e
00000050: fcf6 a93e 0c2c 993e 4488 e53e eb01 c93e
00000060: 28bb d63e b143 9d3e a017 ae3e 38a7 643e
00000070: a76d a73e fdbb c73e a773 d93e 31c1 9e3e
00000080: e601 913e e383 363f 1697 193e f762 1c3f
00000090: 9067 9b3e c54b b43e dd66 023f e914 b53e
000000a0: 950f dd3e 5c42 b23e c140 843e faae 8e3e
000000b0: 9e69 323e 4877 d73e 9f1d 0d3f a841 a33e
000000c0: 05cf ba3e 887e 083f 2083 6f3e 74ee d73d
000000d0: 6690 023f 8c3b ce3e b757 a83e 0433 2e3e
000000e0: 81d3 913e 9daf 8f3e f42b 003e f49e 683e
000000f0: 4a07 ab3e 3a8a 9e3e 8a3d a53e 45cb 6d3e
0.4652513 0.2929855 0.23600653 0.6395623 0.47751418 0.24395019 0.1877015 0.36371174
0.50918853 0.13622719 0.39511436 0.2559638 0.37761328 0.3117771 0.4889628 0.28205788
0.3200433 0.44822222 0.23325439 0.31631845 0.33196247 0.29916418 0.44830525 0.39259276
0.41939664 0.30715707 0.340024 0.22329414 0.32700846 0.3901061 0.42471048 0.31006768
0.2832176 0.71294993 0.14999041 0.6108851 0.3035245 0.35214058 0.50938207 0.35367516
0.4317595 0.34816253 0.25830653 0.27867872 0.17423102 0.42083192 0.55123323 0.3188603
0.36486068 0.5331807 0.23389864 0.10543528 0.51001585 0.40279806 0.3287942 0.17011648
0.28481677 0.2806367 0.12516767 0.22716886 0.33404 0.30964833 0.32273513 0.23222072

layers.6.running_var f4 [64]
00000000: b909 6c3f 2254 983e 1f3b a53e ec1c 063f
00000010: 9145 203f ac19 b03e a4f4 3c3e 18f6 fb3e
00000020: 2f80 873f f2ed d13d e70a 7f3e 85de 893e
00000030: 128d f83e 09a9 103f ff99 c23e 9f04 c83e
00000040: fa3e dd3e 305d eb3e 43a6 7a3e c937 153f
00000050: 0d92 3c3e d35f 473e dc44 4a3f 5c85 083f
00000060: 4861 ee3e 5151 733e f72d a83e b619 873e
00000070: 2991 f73e acc8 ed3e 7185 f13e 8104 253f
00000080: 59a6 7d3e 4e07 4b3f b111 d13d cf2c 6f3f
00000090: 654c 7e3e ddfa e33e 9146 f53e ff0a 183f
000000a0: 829a 9d3e 64b7 b73e 42d2 543e fe07 023f
000000b0: baaf 803e 6bcb bf3e 9380 1e3f f942 623e
000000c0: 6643 b33e b75d 4b3f 41a8 933e 503c f53d
000000d0: 85a2 133f cc5b 2f3f f3a2 123f 5470 2b3e
000000e0: d9ed a13e 0783 793e b18a d73d 610e 133e
000000f0: 3500 8d3e 5f35 193f 6fd2 8d3e f85a 8a3e
0.92202336 0.29751688 0.32271668 0.5238788 0.6260615 0.34394586 0.18452698 0.49211192
1.0585994 0.102504626 0.24906503 0.2692758 0.48545128 0.5650793 0.38008115 0.39066026
0.4321211 0.45969534 0.24477486 0.58288246 0.18415089 0.19470148 0.7901132 0.5332849
0.46558595 0.23761488 0.32847568 0.26386803 0.48352936 0.46442163 0.4717212 0.6446
0.24770488 0.7930802 0.102084525 0.9342775 0.2483383 0.4452733 0.479054 0.5939178
0.30781943 0.35882103 0.20783332 0.50793445 0.2513407 0.37459883 0.6191494 0.2209586
0.35012358 0.7943987 0.28839305 0.11974394 0.5766986 0.68499446 0.5727989 0.16742069
0.31626776 0.24366389 0.105245 0.14360954 0.2753922 0.5984706 0.2769961 0.2702253

layers.8.weight f4 [64, 64, 2, 2]
00000000: db2c c43c 0465 07bd e4c6 d13b 5cae e9bc
00000010: 3dc3 0d3d f48d e53c 8e88 413d 51d3 d33c
00000020: b1db ab3c 3de0 25bd ed8a a1bb cf8f c2bb
00000030: 4d99 013d 7ef2 17bd cdf2 aabc 08b7 05bd
00000040: 101b 45bd 934c f1bc 6fc9 8abd d0ec 5bbd
00000050: 47b3 74bd 3cc8 943b 5cf9 0fbc aa78 3bbd
00000060: a3d9 e3bc c4e8 593d 4145 9ebb 6186 66bd
00000070: ea79 893b cfd9 663d 7993 5cbd e899 f23c
00000080: 53c1 323d 013e 323d fd3c 7abd f1a9 5e3d
00000090: ab70 33bc 0940 3c3b f3ca 843c 2fdd d2ba
000000a0: f35b 9abc 4db7 aa3c a329 1fbd 2dfd 193d
000000b0: 2a35 6d3c 2de9 b63c 43d1 333d f8f2 73bd
000000c0: 2659 08bc 3c82 2cbd 815c 8a3c b903 213b
000000d0: 54a5 c13c 28a4 973a 9038 29bd 3a12 5dbd
000000e0: 44b9 533c 43e6 d4bb 8134 da3c bd0f 603a
000000f0: 2309 313d 006c 00bd b1ca 8dbb d548 66bd
00000100: 4085 2e3c dd52 d73c 08f9 56bd 39aa 35bd
00000110: 1a50 aa3c 67c1 47bc 305c b53c 95e3 09bd
00000120: 92c2 c33b fbe7 263d ee92 913b 9d70 8d3d
00000130: 9e24 4e3d 5c25 7f3d b40e e4bc a80c 30bd
00000140: 3bf7 ffbc b5d9 403d 2da2 17bd 7490 09bb
00000150: 3a89 933c 4db1 223d 93c7 1d3c 06b9 4dbd
00000160: 7699 373b 85be 703d df38 e33c b6c7 943c
00000170: 395d f53c 8e60 603c 22b2 103d 16ec 433d
00000180: c538 86bd 428b 5c3c 7dcc 89bc a650 87bd
00000190: 0e6b 43bd e4d5 973d 1840 2c3c de25 09bd
000001a0: 319d 8abc 172a fd3c 2430 98bc 3b40 3fbd
000001b0: 6505 f03c e63d 703c 6dce fdbc 241e 013d
000001c0: d7c6 493d a421 203d 341b 35bd e8cf 9dbc
000001d0: 432f 7bbd 8f6b 903c ad78 0ebc d922 b1bc
000001e0: e7fe 9c39 4214 503d 44f8 36bd 3f2e 3d3d
000001f0: 8238 0bbc 0cdf 8f3d 0583 af3c 86dc 5dbb
00000200: 2095 0cbc d469 c8bb cbdd 23bc c1ec 383d
00000210: 276d 61bd 6d6a 2e3c 7f8a cd3c 875d 5a3d
00000220: 2ef1 4bbc 781d 0a3d 4320 0cbc b990 a73b
00000230: 7f7a 48bd 0bc6 52bd 7ec6 803c 749d c23c
00000240: ee90 583d 8f34 2fbd 2b12 37bd 4b89 2bbd
00000250: 71e2 8fbd b8c3 bf3b 996d 19bd b81d 2dbb
00000260: 431c 04bd 09b6 033d 2fa7 073d ad5a a73c
00000270: 357d 49bc db95 a13c 069a 14bd fe60 50bd
00000280: 1491 213d 19c4 7d3c 0676 00bd 422b 41bc
00000290: e72d 283c 319f 11bd 11e0 3fbd febc 90bb
000002a0: 6bb0 47bd 7da7 b0bc d045 8fbd 9080 1fbd
000002b0: e060 063c 6f69 e7bb ad1b 293c 9dd9 6cbd
000002c0: 4342 2a3d d578 b73c b322 853c bf0b cfb9
000002d0: 1a6c 5c3d 1fca 36bd 0c8a 4c3d 1cf4 57bd
000002e0: acc8 f0bc b0fb 17bd 26ea 3a3d 0903 ccbb
000002f0: 0a2b 3e3d f441 563c c83a 393d 310b 04bb
00000300: 21ec 133d 7cbf d43c fc7b 4ebd ce43 a13a
00000310: abe5 423d d3ab a53b 258d 87b9 8350 6f3d
00000320: a6c6 35bd a620 1abd f9e1 c6bc a75a 713c
00000330: 7d40 193d ba9a 933c fbb7 01bc a46e 713c
00000340: 97e0 b13a 167a 9b3d 05ed 2b3b 913a 37bc
00000350: 4adb 85bc dee9 74bc edb3 363d 8493 86bd
00000360: 1332 2fbd a34e 463d fad7 b1bb 550e 813d
00000370: c603 bd3b e0d2 2bbd c689 ab3c 7f54 4f3d
00000380: 8a2d 303d 51a0 9e3d a5a9 1fbc b2cb 32bd
00000390: be63 013b af63 6ebc 80bc d939 78d7 1b3d
000003a0: b74c 6cbc 4d35 03bd dcca 523b 32b8 4fbd
000003b0: aea6 23bd 97a3 303d d2b7 5cbd 0bab 41bd
000003c0: 5ff2 42bb f008 2c3c 91e2 8fbd 10cd 0c3d
000003d0: 5d31 853c 4857 dabc 37b4 0cbd 0b6c 0e3d
000003e0: 127f 8e3b bb6d 293d 0f8f 34bc 74e7 c63c
000003f0: 407c 583d a609 1d3d fe2c ff3c 9d16 e93c
0.02394717 -0.03305532 0.0064018834 -0.028525524 0.03461002 0.02802179 0.04724937 0.0258576
0.02097878 -0.040497053 -0.0049298913 -0.0059375535 0.03164034 -0.037096493 -0.02086773 -0.032645255
-0.048121512 -0.029455459 -0.06776702 -0.05369264 -0.059741285 0.0045404714 -0.008787479 -0.04576937
-0.027813738 0.0532005 -0.004830033 -0.056280497 0.0041954415 0.056360062 -0.05385158 0.029614404
0.0436414 0.043516163 -0.06109332 0.054361288 -0.010952155 0.0028724691 0.016210055 -0.0016087646
-0.018842673 0.020839358 -0.038858067 0.037594963 0.014478007 0.022327984 0.04390074 -0.059557885
-0.008322036 -0.04211639 0.016889812 0.002456887 0.023638405 0.0011569308 -0.041313708 -0.05397246
0.012922589 -0.006497176 0.026636364 0.0008547267 0.043221604 -0.031352997 -0.004327141 -0.0562218
0.010651886 0.02628463 -0.05248359 -0.04435179 0.020790149 -0.012192107 0.022138685 -0.033664305
0.0059741223 0.040748578 0.004442564 0.06906245 0.05032789 0.062291488 -0.027839042 -0.04298082
-0.031245818 0.04708262 -0.037019897 -0.0020990642 0.01800977 0.03971987 0.009630102 -0.05022528
0.0028015054 0.058775444 0.02773708 0.018161636 0.029951679 0.013694895 0.03532613 0.04783257
-0.06553797 0.013460936 -0.01682114 -0.06607179 -0.047709517 0.07413843 0.010513328 -0.03348338
-0.016920658 0.030903859 -0.018577643 -0.046692114 0.029299447 0.014663195 -0.03098222 0.031522885
0.049261894 0.039094582 -0.044215396 -0.019264176 -0.06132437 0.017629413 -0.008695764 -0.021623062
0.00029944556 0.05080057 -0.04467036 0.04618668 -0.008497359 0.07024965 0.02142478 -0.0033853366
-0.008580476 -0.0061161313 -0.01000161 0.04514766 -0.055035736 0.010645491 0.025090454 0.05331185
-0.012447638 0.03371951 -0.008552614 0.005113688 -0.048944946 -0.0514584 0.015719648 0.02375672
0.05287259 -0.042774733 -0.04469506 -0.04187898 -0.07025612 0.005852189 -0.037458036 -0.0026415419
-0.032253515 0.032156024 0.033118423 0.02042898 -0.012297918 0.019724777 -0.0362797 -0.05087375
0.039444998 0.015488648 -0.031362556 -0.011790099 0.01026485 -0.035552207 -0.046844546 -0.004417061
-0.04875223 -0.02156424 -0.069957376 -0.038940966 0.008201808 -0.007062129 0.01032154 -0.05782472
0.0415671 0.022396484 0.016251897 -0.00039490868 0.05381403 -0.04462635 0.04993634 -0.052723035
-0.029392563 -0.037105262 0.045633458 -0.0062259478 0.046427764 0.013077248 0.045222074 -0.0020148272
0.036113862 0.025970213 -0.05041121 0.0012303533 0.04758231 0.0050558834 -0.00025854367 0.05842639
-0.0443789 -0.037628792 -0.024277674 0.014731086 0.037415016 0.018018115 -0.0079173995 0.014735851
0.0013570961 0.075916454 0.0026233804 -0.011183397 -0.016339917 -0.014948336 0.044605184 -0.06571105
-0.042772364 0.048414838 -0.0054273577 0.06301562 0.005768272 -0.041949153 0.020939719 0.05061769
0.04301218 0.07745422 -0.009745036 -0.04365129 0.001974329 -0.014550134 0.0004152991 0.038047284
-0.014422587 -0.032033253 0.003216437 -0.05071277 -0.03995388 0.04312476 -0.053886242 -0.04728226
-0.0029746515 0.010500178 -0.07025636 0.03437525 0.01625889 -0.026652947 -0.034351554 0.034771007
0.004348644 0.041364413 -0.011020436 0.024280287 0.05285287 0.03833928 0.031149384 0.028453166

layers.8.bias f4 [64]
00000000: f222 babb 9c5a 09bd f1ff ff3a 66d6 04bc
00000010: 0353 ea3c c5bd 06bd 41f7 893d 04cb 43bd
00000020: b1fa a93b 3db6 f6bc cf26 84bd 93e0 6dbc
00000030: 0d73 dc3b 69f4 c03c 0eb8 1a3d 1362 1d3d
00000040: 3570 83bd 6e23 ffbc b1ec 13bd 5886 abbc
00000050: 926b 593b d97d 9dbd 4d68 133d 566c 473c
00000060: fb06 02bd cc69 e33b 7065 5ebd 72aa 04bd
00000070: 3f6a 9f3c 0994 963c 210e d63c 2466 adbc
00000080: 307e 56bd e3c9 05bd 884e 6e3c 6570 853c
00000090: 4404 35bd a58e ebbc 9e07 093b 7d5f 253c
000000a0: c35c cfbc d222 c1bc bc2f febb 1bb0 66bd
000000b0: d502 b03b ee45 fdba 2ac5 c4bb 3b83 86bd
000000c0: 74ff 7abd 754e abbc 9171 ff3c c60d 0abd
000000d0: 6cc3 eebc 21ef 093d 118a 6c3d b987 973c
000000e0: 2709 523c cc46 81bd 63e0 1cbd a40e 353c
000000f0: 4e33 113c a44f cfbc c649 41bd c9ca abbb
-0.0056804353 -0.033533677 0.0019531233 -0.008107757 0.028604036 -0.032895822 0.06736613 -0.047801033
0.0051873554 -0.030116195 -0.06452715 -0.014518875 0.0067275823 0.023554044 0.037773184 0.03842361
-0.06417886 -0.031144824 -0.0361144 -0.020938084 0.003317569 -0.07690019 0.03598814 0.012171825
-0.03174494 0.006940102 -0.054295957 -0.03238911 0.019459842 0.018381136 0.026129784 -0.021166869
-0.052366436 -0.032663237 0.0145450905 0.016288945 -0.04419352 -0.028754542 0.0020909081 0.010093567
-0.025312787 -0.023576174 -0.007757155 -0.05632029 0.0053714314 -0.0019323209 -0.006004949 -0.06567999
-0.061278775 -0.020911435 0.031182082 -0.03370454 -0.029145919 0.033675317 0.057748858 0.018497335
0.012819565 -0.063123316 -0.03829993 0.011050854 0.00886233 -0.02530653 -0.047189496 -0.0052426797

layers.10.weight f4 [64]
00000000: 43a7 833f e15a 833f cc68 833f 5d71 833f
00000010: cb73 833f e707 833f e843 7e3f bd8d 833f
00000020: 797c 833f 10d0 823f a788 833f 06fc 823f
00000030: f786 833f 4775 833f 8d94 833f cf96 833f
00000040: 7a6b 833f 8a5c 813f 4b82 833f d683 833f
00000050: d235 833f 3b88 833f ff72 833f ef05 833f
00000060: ff8b 833f 6fca 833f 2884 833f 5e7b 833f
00000070: 3595 833f 0491 833f 6d83 833f 1e19 813f
00000080: f6bf 823f c793 833f 3b80 823f 8c8c 833f
00000090: 6189 833f 819a 833f b279 833f 7b37 833f
000000a0: dd9b 833f 3eb0 833f fe0f 833f ee25 833f
000000b0: 2e2b 833f 2379 833f a173 833f c322 833f
000000c0: 046d 833f acb6 833f 3764 833f 8b9d 833f
000000d0: bc7b 833f fc8e 833f 9054 813f f97a 833f
000000e0: e16d 833f 41c2 823f 7bea 833f d492 833f
000000f0: 5da2 833f 8523 833f 5f8b 833f 3aa9 833f
1.0285419 1.0262109 1.0266356 1.0268971 1.0269712 1.0236787 0.99322367 1.027763
1.0272361 1.0219746 1.0276078 1.0233161 1.0275563 1.0270165 1.0279709 1.0280398
1.0267174 1.0106366 1.0274137 1.0274608 1.02508 1.0275949 1.0269469 1.0236186
1.0277098 1.0296153 1.0274706 1.0272024 1.0279909 1.027863 1.0274483 1.008579
1.0214832 1.0279473 1.0195383 1.0277267 1.02763 1.0281526 1.0271513 1.0251306
1.0281941 1.028816 1.0239255 1.024595 1.0247552 1.0271343 1.0269662 1.0244983
1.0267644 1.0290122 1.0264958 1.0282453 1.0272136 1.027801 1.0103931 1.0271903
1.0267907 1.0215532 1.0305933 1.0279183 1.0283924 1.0245215 1.0276908 1.0286019

layers.10.bias f4 [64]
00000000: 8616 923c ec33 c0bc 9d45 dc3c f725 cf3c
00000010: 1849 6dbc 5591 c6bc 7d45 cdbc 7629 d53c
00000020: a835 cc3c 5382 e83c c303 d13c c2c8 e53c
00000030: 64ab d73c a4f2 d33c 595a d83c aaf2 d63c
00000040: 4c70 d43c 3e24 ccbc b21e c23c d28a d43c
00000050: 15bb db3c 8abb db3c 4f17 d33c 672c d33c
00000060: f472 cd3c f8e4 bbbc ef28 d33c 003d d53c
00000070: d3e7 e03c 96d1 b2bc b2b4 d53c d890 cbbc
00000080: 9100 d2bc fb7b d73c 1245 cebc c6d6 d43c
00000090: faa3 d03c a1a4 dc3c 9146 d73c 760f d63c
000000a0: 9220 dd3c 3429 de3c a237 a5bc 8224 05bc
000000b0: 11e7 e23c 3fe0 fc3b 7cf8 da3c e174 d3bc
000000c0: ba50 d73c 2ddb d83c 7b69 a5bc 3c33 d33c
000000d0: b542 d33c 3ddf d03c 7aba 89bc f274 d53c
000000e0: 54f5 d03c a4bd ef3c 843e d73c cec4 ce3c
000000f0: bb80 70bc ebb4 bdbc f1c8 d6bc 01bd dc3c
0.017833006 -0.023462258 0.026888663 0.025286658 -0.014482759 -0.024239222 -0.025057549 0.026020747
0.024927929 0.028382456 0.025514489 0.02804983 0.026326843 0.025872536 0.026410269 0.026238758
0.025932454 -0.024919625 0.023696277 0.025945101 0.026822606 0.026822824 0.02576795 0.025778009
0.025079228 -0.02293633 0.025776355 0.026030064 0.027454292 -0.021828454 0.026087139 -0.02484934
-0.025635036 0.026304236 -0.02517942 0.025981318 0.025468815 0.02693397 0.026278766 0.02613042
0.02699307 0.027119257 -0.02016813 -0.00812638 0.027698072 0.007717162 0.026729815 -0.025812568
0.02628361 0.026471699 -0.020191899 0.025781266 0.025788644 0.025497073 -0.016812552 0.02605674
0.025507607 0.029265232 0.026274927 0.025240328 -0.014679129 -0.023157557 -0.026218863 0.026945593

layers.10.running_mean f4 [64]
00000000: 3d61 d23e 1aa4 443e d525 a83e 07f2 7e3e
00000010: b36c 883e e11e ae3d 5640 8a3e 48ab 923e
00000020: b59d 8f3e 7aee 9b3e 12b9 823e 6954 8a3e
00000030: 76ad 8a3e 31f5 e03e b821 143f 99cf 933e
00000040: 0131 383e d5f0 0a3e 6c64 133e e2f5 953e
00000050: 1262 c13e 05b1 aa3e 6577 b13e 7215 9b3d
00000060: f354 0b3e 5700 493e 8c8c 623e c60c 9d3e
00000070: 2b3a ad3e e09c e43d 4514 bc3e 79ba 253f
00000080: a00d 133f 9e80 d03e acfb 8d3e 3e01 013e
00000090: 8ec4 af3e b5b9 ad3e 84d5 ed3e e694 983e
000000a0: cd75 893e 1186 9b3e 4587 243e 86d6 583e
000000b0: d0ec 553e 28d7 d33e 69e7 833e f08d 7a3e
000000c0: a21d 883e 3026 893e 550e af3d 5c97 5e3e
000000d0: 26aa 063e 9510 223e 5437 443e 21c8 403e
000000e0: ce41 623e 1add ad3e 48aa 953e 66eb a43e
000000f0: 3528 e03e ea14 143f 2363 d83e 8f37 6f3e
0.41089812 0.19203225 0.32841364 0.24897014 0.2664543 0.085019834 0.2700221 0.28646302
0.28050008 0.3045538 0.25531822 0.27017525 0.27085465 0.43937066 0.5786395 0.28869322
0.17987444 0.13568433 0.14393777 0.29289156 0.37770134 0.3333818 0.34661403 0.0757245
0.13606624 0.19629036 0.22123927 0.30673808 0.3383344 0.11162734 0.36734214 0.6473766
0.57442665 0.40723127 0.27731073 0.1259813 0.34329647 0.33930746 0.46451962 0.298011
0.26847687 0.30375722 0.16067226 0.21175584 0.20891118 0.4137509 0.2576249 0.24468207
0.26585108 0.26786947 0.085476555 0.21737427 0.13150844 0.15826638 0.19161731 0.18826343
0.22095415 0.3395775 0.29231477 0.32210845 0.43780676 0.5784441 0.42263135 0.23361038

layers.10.running_var f4 [64]
00000000: 7aaf 563f 8f58 1a3e d399 1b3f ef69 e93e
00000010: cdd0 cd3e 30de 063e 38e0 a03e ee21 ed3e
00000020: 259b 173f 6ce3 f23e 09bb f33e 90a2 ed3e
00000030: 3bc7 0a3f 4b1b 8f3f d4a4 883f 6184 d63e
00000040: aac0 ab3e 1aef bf3d 15c8 553e e598 263f
00000050: 4917 e83e 261d 043f 88f8 0c3f a7a3 e43c
00000060: 32f1 633e 35cf 883e 1be9 de3e cf7c 0e3f
00000070: 87e7 613f 8a31 1d3e e0ee 0f3f 5e54 4c3f
00000080: e64f ac3f f872 0c3f 3608 253f a045 063e
00000090: ad3b 2a3f bf58 1d3f 7171 583f bd38 e63e
000000a0: 46d7 d43e 263a 1b3f 130e 693e 76c6 fb3e
000000b0: ffaf b73e 640f 333f 9d43 013f 8ab2 0b3f
000000c0: 058f 0a3f 7b2b 163f a2ab 1e3d 08fb 833e
000000d0: 6689 7e3e 2263 d83e eef8 073e 40a7 233e
000000e0: 3cbf cf3e 5ec7 af3e 6517 123f ba9e 2f3f
000000f0: 2306 493f e723 463f 3a9a 2b3f dca4 b53e
0.83861506 0.15072845 0.6078159 0.45588633 0.40198365 0.13170695 0.31421065 0.4631495
0.59221107 0.47439134 0.47603634 0.46413088 0.5421025 1.1180204 1.0675302 0.41897872
0.3354543 0.09371777 0.20877106 0.6507705 0.45330265 0.51606977 0.5506673 0.027910067
0.22259977 0.26720586 0.4353722 0.5565919 0.8824391 0.15350929 0.5622387 0.79816234
1.3461883 0.5486293 0.64465654 0.13112497 0.6649731 0.6146354 0.845481 0.44965163
0.4157049 0.606356 0.22759275 0.4917485 0.35876462 0.6994536 0.50493795 0.54569304
0.5412448 0.58660096 0.0387379 0.2577746 0.24857101 0.42263132 0.13278553 0.1598177
0.40575588 0.34331793 0.5706695 0.6860157 0.7852499 0.7739853 0.67032206 0.3547734

actor_classifier.weight f4 [15, 256]
00000000: d90a 863c 950b 39ba f745 85bc e65c ccbc
00000010: eed7 81bc 08e0 60bd c417 243b 1699 dbbc
00000020: 8703 b3bc 1f8e 583c 4d6f eabc 4b76 b4b8
00000030: 74fa 5fbd 036b babb 0a8a 513c ed29 f3bc
00000040: c458 883c e8dd 34bd 060e 843c abe1 623d
00000050: 5f78 5dbd 9206 f53c 84ef ca3c 4049 8cbc
00000060: 8c75 07bd 9cfa 03bd c3ed 50bd 80d1 5cbd
00000070: 6e7d 013d fd4b 99bc 38f8 6abd 0f98 9d3b
00000080: 4cc8 4a3c 63a9 d73c d1b5 f63c 3e78 54bd
00000090: 784d 0b3d f001 34bb 1d75 133d 2afa fbbc
000000a0: a3e6 e5bc 42c6 1dbd 6dbb b1ba e38a 393d
000000b0: 00ba 11bd 1713 29bd 7021 e8bc b53c f9bb
000000c0: 9694 5d3d db4d 34bd 5db4 603d 4d0f 4fbd
000000d0: 06a7 5c3d 701e 4cbd 431e 1f3d ec36 0cbd
000000e0: ab84 5b3c 8d8e f4bc 963e b13a 2947 503c
000000f0: 3354 2abd 98e3 9a3c a5a1 383c 1906 c43c
00000100: ecb3 b63b d863 503d 9a96 1dbd b151 bb3b
00000110: 840c 38bd 5512 723d dd82 183d 4c5d 7bbd
00000120: af20 fbbc 370b 81bd e4f8 843c 0f1c c7bc
00000130: f27b 7e3d 2dd8 c1bc 39d6 753d 7e55 183d
00000140: d58c 70bd 89a1 20bc 7258 303d ee64 6cbd
00000150: 6cc9 30bd b8a8 6e3d f02f 87bd a33c 993b
00000160: da83 38bd 73e5 0e3d 03a7 5dbd 1bb3 0bbd
00000170: 134c 96bb 3b66 8ebd a6f2 b3bc 0988 b03c
00000180: b330 71bc c6b3 253c fa36 083d 78ce cfbc
00000190: 0931 403d 283f 22bc cee8 833c 067a b2bc
000001a0: 3a2a dc3b ebfd 47bd bac5 d13c b979 653d
000001b0: 6ffe 21bd 75bb 003d f07c 613d 16fc 3fbd
000001c0: 9e2d 633d 3f24 893c 3ae3 5abd e962 83bd
000001d0: 217a d93c 8e68 1ebd a1d6 07bd 644f 04bd
000001e0: 254f 75bd 79be 99bc 7cbb 9fbc 963f e2bb
000001f0: adc7 3e3d 0731 d0bc f994 c7bc 8382 c5bc
00000200: 6c2f 3cbd ef22 d4bb 3b90 19bd 00d3 82bc
00000210: 62ff 483d b3ae a93b 9a80 723d 1411 5abd
00000220: c7a8 0d3c 5608 cebc 65a6 18bd c3ba d93c
00000230: 90f1 5cbd 39e6 1d3d b529 d83c a942 30bd
00000240: 6777 37bc 0e15 87bc acb3 633d 9846 3b3d
00000250: be2d 4a3b cab1 c3bc 0888 0abd 3e15 7f3d
00000260: 59e8 0fbd b892 3e3d 3118 b5bc 7d35 d03c
00000270: 0df1 38bd 14e0 a63c 3352 4abd f329 d1bc
00000280: 9e02 67bd bc4d 303d f4ab 6a3d 293b 803c
00000290: ac68 c0bc 750f 2a3d 3369 ac3c da4c 73bc
000002a0: a103 893a 07f1 b3bc 7daf c4bc 99b3 4e3d
000002b0: 085a a53c 8b4a 803d ff89 52bd f88d 433d
000002c0: baa4 64bd eade 27bd 0a69 69bb 9f8c f8bc
000002d0: b745 bf3c 0090 313b a9ec f53b 06c5 203d
000002e0: 6326 cb3a e1df 33bb 1771 6bbb df68 49bc
000002f0: 191e 243d 8961 4cbd f265 30bd e367 443d
00000300: 7060 c1bc 0fd3 723c 0017 783b 7b32 50bd
00000310: 2b6f 5f3c 2f5c d6bb 783e 183d 59b4 63bb
00000320: 635f bebc e07d 373d f1dc 90bc 90f1 163d
00000330: a5db 10bd e364 b2bc 67b9 c73c 8102 923c
00000340: 7b8d 1dbd 9ee5 ed3c f142 303d 59e9 09bd
00000350: 2bdd 043d 36c3 543c 63fb 683c 213e 32bd
00000360: 8ebf 4cbd ae0f 03bd 38c1 033d cf47 d83c
00000370: 8782 163d e47c 06bd e979 e23c 580b 0e3d
00000380: bdc3 6bbd 7e96 01bd 25fe 59bc c249 773c
00000390: 1a3d 203d 43f3 ab3c 3cef 63bd 94d6 ed3c
000003a0: 4f71 3f3d 591b 993c 29bc 68bb e7b2 c3bb
000003b0: 5eb4 ebbc 2e10 f2bb e57d a83c 523a 07bd
000003c0: f086 823b 81dd 9b3c 98e4 223d 7bf6 b2bc
000003d0: 5684 59bd bff3 c4bb 7cab e2bc 9b85 393c
000003e0: bb23 75bc 0bd9 daba c2fc fdbb 9428 ce3b
000003f0: 49c0 2ebd f6ee e5bb 4d84 403d 5169 97bc
0.016362594 -0.0007058916 -0.016268713 -0.024946641 -0.015850034 -0.054901153 0.002503858 -0.026806396
-0.021852268 0.013217478 -0.028617525 -8.6051026e-05 -0.05468221 -0.0056890263 0.012789259 -0.029683078
0.01664389 -0.04415694 0.016119968 0.055390995 -0.054069873 0.02991036 0.024772413 -0.017124772
-0.033071086 -0.03222142 -0.051007997 -0.053910732 0.03161376 -0.018712992 -0.057365626 0.0048093866
0.012376856 0.026325887 0.030115994 -0.051872484 0.034009427 -0.0027466975 0.03600036 -0.030758936
-0.028064078 -0.03851915 -0.0013559886 0.04529847 -0.035577774 -0.04127797 -0.028336257 -0.007606114
0.05409678 -0.04401956 0.054859508 -0.0505517 0.053870223 -0.049833715 0.03884722 -0.034232065
0.01339833 -0.02985313 0.001352268 0.012712278 -0.041584205 0.018907353 0.011269008 0.023928689
0.0055756476 0.05087647 -0.038473703 0.0057165255 -0.04493381 0.059099514 0.037234176 -0.06136827
-0.030655233 -0.06300967 0.016231962 -0.024305372 0.062129922 -0.023662651 0.06001875 0.037190907
-0.058728058 -0.009804138 0.043053098 -0.05771344 -0.04316084 0.05826637 -0.0660094 0.004676418
-0.04504762 0.03488679 -0.054114353 -0.034106355 -0.0045867055 -0.06953093 -0.02196629 0.021549242
-0.014721083 0.010113662 0.033255555 -0.025367007 0.046921764 -0.009902753 0.01610222 -0.021786701
0.006718901 -0.04882614 0.025606979 0.056024287 -0.039549287 0.031428773 0.05505079 -0.046871267
0.055463426 0.016740916 -0.053439356 -0.0641535 0.026547493 -0.03867393 -0.03316367 -0.032302275
-0.05988993 -0.018767582 -0.01949858 -0.0069045527 0.046577144 -0.025414003 -0.024363028 -0.024110084
-0.045943663 -0.006473891 -0.037491065 -0.015969753 0.049071677 0.0051782965 0.059204675 -0.053238943
0.008646197 -0.02515046 -0.03726806 0.026578313 -0.05394131 0.038549636 0.026387075 -0.043032322
-0.011197901 -0.016489532 0.05559127 0.04572162 0.0030850018 -0.023888487 -0.033821136 0.062276118
-0.035133693 0.04652664 -0.022106262 0.02541613 -0.04515176 0.02037052 -0.049394798 -0.025532698
-0.05639898 0.043042883 0.057292894 0.01565321 -0.023487411 0.041518647 0.021046257 -0.014849866
0.0010453352 -0.021965517 -0.02400946 0.050464246 0.020184532 0.06264218 -0.051401135 0.047742814
-0.055821158 -0.04098407 -0.0035615587 -0.03034049 0.023348672 0.0027093887 0.0075050187 0.039250396
0.0015499111 -0.0027446675 -0.003592556 -0.01229307 0.040067766 -0.049897704 -0.043065973 0.047950637
-0.023605555 0.014820828 0.0037855506 -0.050829392 0.013637344 -0.006541751 0.03716895 -0.0034744947
-0.023238843 0.044797778 -0.017683478 0.036851466 -0.03536572 -0.021776622 0.024380399 0.01782346
-0.038465004 0.029040154 0.04303259 -0.033669803 0.032437485 0.012985995 0.0142200915 -0.043516282
-0.04998737 -0.031997375 0.03216669 0.026401429 0.036745574 -0.03283395 0.027646022 0.034678787
-0.057559717 -0.03163766 -0.013305222 0.015093269 0.03912077 0.02099002 -0.055648074 0.029032983
0.04673892 0.018689798 -0.0035512543 -0.0059722546 -0.02877253 -0.0073871827 0.020567844 -0.033014603
0.003983371 0.01902652 0.039768785 -0.021846047 -0.05310472 -0.006010502 -0.02766966 0.011323358
-0.014962132 -0.0016696764 -0.0077510783 0.0062914584 -0.042663846 -0.0070170118 0.04700117 -0.018482836

actor_classifier.bias f4 [15]
00000000: 7089 31bd 103e 4a3d d076 88bd ff8e 523d
00000010: 943d a6bc 9c68 5f3d 8b07 01bc 2a2c 51bc
00000020: 872a 883c 5dca 7ebc 34ca d8bb d803 51bd
00000030: 62a4 7dbd 4cf7 30ba 8edc 123d
-0.04334396 0.049375594 -0.06663287 0.051405903 -0.020293035 0.054543123 -0.007875334 -0.012766877
0.016621841 -0.015551177 -0.0066159014 -0.051029056 -0.061924346 -0.00067507173 0.03585487
