Saved Models/model_checkpoint_coinrun_42_5e-05_400_3_256_0.99_0.95_0.2_1024_0.5_end_400.pth (torch, 154658 bytes, 21 tensors)

layers.0.weight f4 [32, 3, 8, 8]
-0.011669386 0.0010319878 0.06846588 -0.04548318 -0.011595908 -0.043150645 -0.049688518 0.011059498
0.021097925 0.007980973 -0.0614827 -0.019671548 -0.016987626 0.06054128 -0.03650021 0.037081763
0.00953705 -0.04122866 0.03344895 -0.060591944 -0.03919586 -0.061422497 -0.01745122 0.01089493
-0.04374867 0.022697553 -0.0003851491 -0.08307911 0.04456328 -0.0450297 -0.04533711 -0.042150952
0.020749813 -0.009261151 -0.0007275025 -0.012970171 0.032429095 0.020823713 0.039248973 0.04230372
-0.004006878 0.025548225 0.06619479 -0.019613968 -0.05136483 -0.054348722 -0.042305734 -0.009017578
-0.05259874 -0.07077644 -0.01992329 0.033303764 0.012077315 -0.04891575 0.028202765 -0.0008160294
0.062334884 -0.022741996 0.055683143 -0.002545604 0.028051443 0.06478379 0.0020350795 -0.014346937
0.0143946055 0.05532712 -0.03187363 -0.039200075 -0.06340882 -0.013618441 0.0041737114 -0.018190954
-0.026487445 -0.014282035 -0.055166807 0.033726137 -0.08082226 -0.009514418 0.008372337 -0.0657586
-0.024398245 -0.07489896 0.013989177 -0.01370478 -0.013484449 0.014366105 0.019544644 -0.0075788023
-0.022698302 0.05076402 -0.014880225 -0.079349115 -0.004212791 0.0077209384 0.016989075 0.01232599
-0.046411242 -0.01705012 0.007232517 0.065444514 -0.061020855 0.05446314 0.024155218 0.03406273
0.006669647 0.035966925 -0.018480118 0.0026027355 -0.028843772 0.049505863 -0.015940998 0.03357773
0.02974797 -0.057337508 0.033552166 0.0030427305 -0.023481037 -0.017251663 -0.035697784 -0.057336356
-0.047905248 -0.051299367 0.026205804 -0.038445093 -0.018220488 -0.010512766 -0.0914673 -0.04188874
-0.01065309 0.028507056 -0.0048257275 -0.049895953 -0.00602147 0.042970594 -0.026943676 -0.044973217
0.053074557 -0.026443953 -0.06443157 0.040778242 0.053355545 0.060218304 0.009126912 -0.06964635
-2.8031438e-05 0.056228824 -0.018461745 0.016643144 -0.027835257 0.07604633 -0.039902154 -0.025020722
-0.010181377 -0.0029335194 0.049765773 -0.028704666 0.07366054 -0.03791853 -0.031277552 0.01253188
0.06019685 0.032559905 -0.06711945 -0.054182105 0.024275055 -0.052503735 0.013187682 0.070613556
-0.029715301 0.035673894 -0.012684151 -0.05476716 0.038342357 -0.0038592003 0.034879908 0.054801602
-0.06942165 0.036176663 0.035908636 -0.02042913 0.014934848 -0.019786373 0.0904453 0.04150737
-0.0049091247 0.008371632 -0.030177636 -0.05412381 0.001966188 -0.057450097 -0.060094975 0.021288507
-0.038799707 -0.0308588 -0.026821759 -0.0045314413 0.065593146 -0.04128706 0.019794319 -0.0039766263
-0.030344997 0.05719052 0.034901608 0.050969686 0.0070318705 -0.024371635 0.016581507 0.048068408
-0.037705187 -0.062874585 -0.009947702 0.040326584 -0.05264477 -0.059258536 -8.206933e-05 0.050748665
0.024698064 -0.00750243 -0.038207036 0.04555419 -0.035407797 0.043220993 -0.0038187122 0.0045954105
-0.021825746 0.0806943 0.054767605 -0.03419063 -0.0027800854 -0.04816673 -0.032840848 -0.01305165
0.032063205 -0.0692055 0.0312722 0.039569676 -0.041651286 -0.0016143427 0.025276776 0.040309463
-0.0060547567 -0.029011346 0.073636465 -0.015681185 -0.06389388 0.022885716 0.036932535 -0.07473484
-0.0070243175 -0.046470806 -0.071985476 -0.06606217 -0.015208779 0.083807044 -0.008239639 -0.0030823413
00000000: f430 3fbc c443 873a d737 8c3d 924c 3abd
00000010: c3fc 3dbc bbbe 30bd 3086 4bbd e632 353c
00000020: 8ed5 ac3c a1c2 023c 49d5 7bbd 3a26 a1bc
00000030: a229 8bbc 22fa 773d 3f81 15bd 0ce3 173d
00000040: 4941 1c3c 62df 28bd c401 093d 422f 78bd
00000050: d78b 20bd 2896 7bbd dcf5 8ebc a680 323c
00000060: ce31 33bd 38f0 b93c d6ed c9b9 6125 aabd
00000070: fc87 363d 1071 38bd 68b3 39bd 7aa6 2cbd
00000080: 83fb a93c 15bc 17bc deb5 3eba d780 54bc
00000090: 5fd4 043d 7e96 aa3c 88c3 203d aa46 2d3d
000000a0: 214c 83bb 834a d13c 2291 873d 79ad a0bc
000000b0: ee63 52bd c49c 5ebd c748 2dbd 77be 13bc
000000c0: c771 57bd 3df3 90bd 2b36 a3bc 8769 083d
000000d0: eedf 453c e25b 48bd 7c09 e73c ceea 55ba
000000e0: dd52 7f3d 6c4d babc 0214 643d 26d4 26bb
000000f0: 24cc e53c 5dad 843d f85e 053b 6a0f 6bbc
00000100: 5ad7 6b3c b19e 623d ec8d 02bd 4290 20bd
00000110: 7cdc 81bd e21f 5fbc a1c3 883b 3205 95bc
00000120: 33fc d8bc 32ff 69bc 97f6 61bd 6b24 0a3d
00000130: 2486 a5bd 5de2 1bbc 202c 093c 72ac 86bd
00000140: d4de c7bc a064 99bd dc32 653c 038a 60bc
00000150: e1ed 5cbc d05f 6b3c 171c a03c 9a57 f8bb
00000160: caf1 b9bc efed 4f3d 30cc 73bc ca81 a2bd
00000170: 740b 8abb edff fc3b ac2c 8b3c f3f2 493c
00000180: b719 3ebd b1ac 8bbc c0fe ec3b c607 863d
00000190: 01f1 79bd be14 5f3d 2ae1 c53c 5c85 0b3d
000001a0: 0e8d da3b 0e52 133d 9e63 97bc a892 2a3b
000001b0: c649 ecbc a9c6 4a3d b296 82bc cd88 093d
000001c0: 04b2 f33c bcda 6abd ff6d 093d 8c68 473b
000001d0: 4e5b c0bc 5c53 8dbc d737 12bd 87d9 6abd
000001e0: 4b38 44bd 491f 52bd 8ead d63c 9a78 1dbd
000001f0: 2243 95bc bd3d 2cbc 3553 bbbd 8793 2bbd
00000200: 4c8a 2ebc a187 e93c 2321 9ebb b35f 4cbd
00000210: c04f c5bb ef01 303d fcb8 dcbc d635 38bd
00000220: b564 593d fda0 d8bc b3f4 83bd 1607 273d
00000230: 588b 5a3d 78a7 763d 0b89 153c bfa2 8ebd
00000240: 0e25 ebb7 3250 663d 163d 97bc 3457 883c
00000250: c406 e4bc 2ebe 9b3d 7170 23bd 42f8 ccbc
00000260: cacf 26bc 4a40 40bb 32d7 4b3d 0c26 ebbc
00000270: 56db 963d 7650 1bbd e41c 00bd 8452 4d3c
00000280: f990 763d 895d 053d ec75 89bd 0eee 5dbd
00000290: 7bdc c63c 280e 57bd 2611 583c d79d 903d
000002a0: 816d f3bc ca1e 123d 2fd1 4fbc 8853 60bd
000002b0: e00c 1d3d a3ea 7cbb 3cde 0e3d a577 603d
000002c0: f02c 8ebd fb2d 143d ef14 133d fe5a a7bc
000002d0: 4bb1 743c 0817 a2bc 633b b93d a203 2a3d
000002e0: b9dc a0bb 2b29 093c 1737 f7bc eeb0 5dbd
000002f0: 29db 003b cb50 6bbd 2626 76bd 3c65 ae3c
00000300: 71ec 1ebd 98cb fcbc 4eb9 dbbc 7c7c 94bb
00000310: b355 863d 9f1c 29bd b227 a23c 5c4e 82bb
00000320: 1296 f8bc 9b40 6a3d fdf4 0e3d 97c5 503d
00000330: 9b6b e63b 06a7 c7bc f1d5 873c 61e3 443d
00000340: c170 1abd 64c4 80bd b0fb 22bc 7d2d 253d
00000350: 0ba2 57bd 14b9 72bd a31c acb8 d5dd 4f3d
00000360: 9853 ca3c f2d6 f5bb fb7e 1cbd 0897 3a3d
00000370: c407 11bd 7f08 313d 5c43 7abb 1995 963b
00000380: e8cb b2bc 0e43 a53d ff53 603d 790b 0cbd
00000390: 1832 36bb 7a4a 45bd 2084 06bd 96d6 55bc
000003a0: b554 033d 9dbb 8dbd 4717 003d d013 223d
000003b0: 8a9a 2abd 5a98 d3ba 3e11 cf3c 891b 253d
000003c0: fb66 c6bb 34a9 edbc b7ce 963d d475 80bc
000003d0: cbda 82bd d37a bb3c 9246 173d 940e 99bd
000003e0: 3f2c e6bb 2c58 3ebd 1f6d 93bd 9a4b 87bd
000003f0: 3e2e 79bc 07a3 ab3d 8dff 06bc 1b01 4abb

layers.0.bias f4 [32]
-0.049451787 -0.04050217 0.022271004 0.05581902 0.06672996 -0.018684953 0.07085242 0.012061334
-0.08013923 0.06720177 0.038883895 -0.063105315 -0.014783277 0.08665115 -0.002806247 -0.058690727
-0.09337848 -0.017316595 -0.02665027 0.08473117 -0.06296598 0.040996026 -0.005540954 0.047904223
-0.05884316 0.05511315 -0.10740676 -0.02120205 -0.04083187 0.023590071 -0.09987521 -0.05878602
00000000: f58d 4abd 9ae5 25bd ae71 b63c 7ca2 643d
00000010: b8a9 883d 3011 99bc 131b 913d e79c 453c
00000020: 0920 a4bd 15a1 893d b844 1f3d 5c3d 81bd
00000030: 8f35 72bc 2876 b13d 03e9 37bb b065 70bd
00000040: 373d bfbd 88db 8dbc ab51 dabc 8987 ad3d
00000050: 4ff4 80bd 73eb 273d e490 b5bb 3837 443d
00000060: 8605 71bd 54be 613d 13f8 dbbd ecaf adbc
00000070: 523f 27bd f73f c13c 608b ccbd 9cc9 70bd

layers.2.weight f4 [32]
0.97812295 0.94711924 0.99830425 0.9993466 1.0120387 1.0192518 1.0000365 0.9899482
1.0120629 0.9910631 1.0137867 0.96583676 0.9683742 1.0086398 0.99677086 0.9900708
1.025385 1.0386002 0.97225404 1.0126998 0.9927627 1.0150064 1.0103233 0.9973137
1.007889 1.012817 1.0221274 1.0158998 1.0204021 0.99764496 1.0355875 0.99625
00000000: 4466 7a3f 6876 723f de90 7f3f 2ed5 7f3f
00000010: 7c8a 813f d876 823f 3201 803f 3f6d 7d3f
00000020: 478b 813f 50b6 7d3f c3c3 813f 1441 773f
00000030: 5fe7 773f 1c1b 813f 602c 7f3f 4875 7d3f
00000040: d13f 833f daf0 843f a4e5 783f 26a0 813f
00000050: b225 7e3f bbeb 813f 4652 813f f34f 7f3f
00000060: 8202 813f fda3 813f 12d5 823f 0109 823f
00000070: 899c 823f a965 7f3f 228e 843f 3d0a 7f3f

layers.2.bias f4 [32]
-0.020484686 0.009956319 0.0152044045 -0.010686775 0.025043653 -0.025815029 0.0329953 0.010711824
-0.017960045 0.01495801 -0.015826067 0.014903052 0.02626211 -0.015444652 -0.015439769 -0.022675497
-0.0023968953 0.036724698 0.00194096 0.04699568 -0.046757884 -0.026658228 0.0059460565 0.0019351571
0.00024854834 0.017968988 -0.0039592357 -0.052108224 -0.0066695167 -0.014214123 -0.044085257 -0.0119160125
00000000: 80cf a7bc d41f 233c e51b 793c 9517 2fbc
00000010: 5928 cd3c 0a7a d3bc 1426 073d a580 2f3c
00000020: f220 93bc 7112 753c aba5 81bc ee2b 743c
00000030: a323 d73c 910b 7dbc 16f7 7cbc f7c1 b9bc
00000040: 3b15 1dbb a36c 163d cf67 fe3a 8b7e 403d
00000050: 3285 3fbd 5b62 dabc 23d7 c23b 19a5 fd3a
00000060: 984f 8239 b333 933c 7abc 81bb 6f6f 55bd
00000070: f68b dabb 5ae2 68bc be92 34bd 613b 43bc

layers.2.running_mean f4 [32]
0.108145885 0.32672852 41.692146 1.9156523 93.50864 122.26414 157.87657 0.13969809
30.055832 31.534164 27.71655 0.57348835 0.587299 47.756622 144.99765 0.123961434
0.26718235 9.102643 1.0792223 3.1655016 4.4376445 123.09095 80.69271 62.67775
48.802444 4.3569107 3.4391165 0.24977252 39.093544 103.993 0.5721243 8.183362
00000000: 977b dd3d f648 a73e c2c4 2642 1834 f53f
00000010: 6c04 bb42 3d87 f442 67e0 1d43 040d 0f3e
00000020: 5872 f041 f845 fc41 7fbb dd41 22d0 123f
00000030: 3a59 163f c806 3f42 66ff 1043 7edf fd3d
00000040: 20cc 883e 6da4 1141 f523 8a3f 9497 4a40
00000050: 2f01 8e40 912e f642 ab62 a142 04b6 7a42
00000060: b435 4342 d06b 8b40 7c1a 5c40 5ec4 7f3e
00000070: ca5f 1c42 6afc cf42 bd76 123f 0def 0241

layers.2.running_var f4 [32]
3.2322304 9.385859 798.3369 63.98091 3152.9478 5246.138 9219.399 10.797998
398.3767 610.90173 391.21524 27.906595 16.196335 957.3169 7181.7773 5.307386
5.72888 246.38667 35.72003 27.376303 99.147835 5056.046 2356.0054 1741.3658
875.0014 45.143288 67.63017 4.48769 861.558 4776.543 18.456179 186.11336
00000000: dddc 4e40 7a2c 1641 9095 4744 74ec 7f42
00000010: 2a0f 4545 1bf1 a345 990d 1046 9ac4 2c41
00000020: 3830 c743 b6b9 1844 8d9b c343 b540 df41
00000030: 1892 8141 4854 6f44 386e e045 1bd6 a940
00000040: fc52 b740 fd62 7643 50e1 0e42 ab02 db41
00000050: b14b c642 5e00 9e45 1640 1345 b5ab d944
00000060: 17c0 5a44 ba92 3442 a642 8742 289b 8f40
00000070: b663 5744 5844 9545 41a6 9341 051d 3a43

layers.4.weight f4 [64, 32, 2, 2]
0.0045326604 -0.004583008 0.028335705 -0.013042007 -0.05460547 0.052811418 -0.046407707 -0.01881216
0.0375803 0.0034358879 0.07353458 0.07660416 -0.022209862 0.04110786 -0.09061639 0.046050686
0.04297814 0.048794776 0.052653514 -0.033343937 0.0155287795 0.07800474 -0.022468848 -0.059080783
0.08370198 0.0047889836 0.06494051 0.06676377 0.021852998 -0.0033569664 0.070816204 0.056998055
-0.06257402 0.022953337 0.045996368 -0.020068655 0.040486593 -0.009684754 -0.06124414 0.017733773
-0.034566905 -0.057199903 -0.08576378 -0.047807977 0.0704334 -0.10852735 0.07810887 -0.060053628
0.058750197 -0.058700494 0.0265633 0.045034204 -0.033809986 -0.06119706 0.04269859 0.03965377
0.050705254 0.004125389 -0.06877828 -0.07020557 0.054882247 -0.01696931 0.06708883 -0.018375555
0.07828473 0.026762145 -0.052998092 0.0028637839 0.05738969 0.058205985 0.05645325 0.059093934
0.08298463 -0.020289194 0.047863454 -0.028397435 0.023394687 -0.07465392 0.07063621 -0.03335509
-0.047031205 -0.023520535 0.064663306 0.050955925 0.012346633 -0.062458448 0.06040578 -0.07989167
-0.019358907 -0.013676486 0.079827674 -0.07211313 0.042329736 0.038534805 -0.06755687 0.08954068
0.027621217 -0.005473477 0.048004594 0.07600174 0.0817413 0.0550644 -0.06748841 -0.032877717
-0.040849246 -0.09913259 0.09393457 -0.016531575 0.05332897 -0.041776877 0.019221103 -0.04554085
0.031733524 -0.05570232 0.055895012 -0.033305995 -0.03327727 0.06099409 -0.0027065515 0.09328128
0.05426673 -0.010145862 0.03295977 -0.010980893 0.031540893 -0.004490575 -0.018008992 -0.040625006
-0.042218238 -0.06546251 0.030153861 -0.033931278 -0.029303664 -0.035177365 0.0244852 -0.061391868
0.022040179 -0.015452755 -0.01110061 -0.06384463 0.006701134 0.06707084 -0.0161037 -0.06721176
0.00057638215 0.061190035 0.05312945 -0.01645122 -0.02595062 0.047205217 -0.045849945 -0.070310876
-0.05790739 -0.033974938 -0.040158648 0.0056580543 0.028654817 0.022341197 0.025671957 -0.0034827564
-0.04077117 0.059038553 -0.0628897 -0.03338951 0.081614226 0.08614125 -0.021472048 0.006665235
0.0018507001 0.0355083 0.04670492 -0.046871804 0.07352646 -0.023666728 -0.041651066 0.025358463
-0.017557997 0.041020237 -0.0050204396 0.041165825 0.05610497 -0.05299616 0.073564276 -0.09888759
-0.018657835 -0.078170106 0.088030435 -0.039733037 0.09372337 -0.011480152 0.072190456 0.016910385
0.080523774 0.06456778 0.07814579 -0.058390375 -0.035614423 0.017662836 0.057909224 -0.018877886
-0.01169299 -0.005305074 0.01846905 -0.04163322 0.037880946 0.0039862795 -0.013506812 -0.08098663
0.0074191024 0.04116985 0.06764461 0.00854336 -0.008921595 -0.039188106 -0.0803365 -0.050509825
-0.012961056 -0.028651586 0.051140025 -0.01739651 0.08487576 -0.049702816 -0.05037401 0.07572083
0.055852927 -0.009306539 -0.024589231 -0.051238757 0.03786014 0.076608 -0.023924455 0.059155226
-0.06351333 0.07248317 -0.098815255 -0.075520754 -0.01804228 0.034255173 0.0694235 0.013632714
-0.053947564 0.010913249 -0.0509875 -0.07326094 0.07198914 0.05073796 0.015733533 0.08386325
0.113465205 -0.015265582 0.033681594 -0.01971236 0.04362875 0.078580596 -0.011321325 0.032761313
00000000: b686 943b 0f2d 96bb 4820 e83c 24ae 55bc
00000010: fca9 5fbd c950 583d 0216 3ebd f51b 9abc
00000020: cded 193d a22c 613b 4c99 963d a4e2 9c3d
00000030: 75f1 b5bc b760 283d 1695 b9bd a59f 3c3d
00000040: d909 303d 08dd 473d 36ab 573d a793 08bd
00000050: 6c6c 7e3c f3c0 9f3d 9710 b8bc b1fe 71bd
00000060: f26b ab3d e8ec 9c3b 88ff 843d 72bb 883d
00000070: 0f05 b33c 8d00 5cbb 1608 913d cb76 693d
00000080: cf26 80bd a308 bc3c b066 3c3d 0567 a4bc
00000090: 45d5 253d cdac 1ebc 23db 7abd 6b46 913c
000000a0: 0796 0dbd 724a 6abd eca4 afbd 4cd2 43bd
000000b0: 633f 903d 9643 debd 8bf7 9f3d cbfa 75bd
000000c0: 0ca4 703d ee6f 70bd 479b d93c c975 383d
000000d0: 577c 0abd c5a9 7abd b7e4 2e3d fe6b 223d
000000e0: 50b0 4f3d 452e 873b a0db 8cbd f0c7 8fbd
000000f0: 35cc 603d 3903 8bbc de65 893d 5588 96bc
00000100: bf53 a03d 493c db3c 8714 59bd 52ae 3b3b
00000110: 7411 6b3d 6669 6e3d 863b 673d 7b0c 723d
00000120: d8f3 a93d 8635 a6bc 780c 443d bda1 e8bc
00000130: 37a6 bf3c 28e4 98bd b8a9 903d 599f 08bd
00000140: cba3 40bd 23ae c0bc 326e 843d 29b7 503d
00000150: 8849 4a3c 6ed4 7fbd 0d6c 773d 3e9e a3bd
00000160: 9296 9ebc 5713 60bc b17c a33d 0cb0 93bd
00000170: f261 2d3d acd6 1d3d 425b 8abd 1b61 b73d
00000180: e445 e23c da5a b3bb 77a0 443d cda6 9b3d
00000190: fc67 a73d 358b 613d 5d37 8abd c9aa 06bd
000001a0: 8a51 27bd 0706 cbbd c560 c03d 3a6d 87bc
000001b0: 7a6f 5a3d 3b1e 2bbd 9375 9d3c 0b89 3abd
000001c0: 03fb 013d 1e28 64bd 2bf2 643d de6b 08bd
000001d0: bf4d 08bd f0d4 793d 6660 31bb 410a bf3d
000001e0: ca46 5e3d d43a 26bc d300 073d 34e9 33bc
000001f0: 0631 013d ac25 93bb 9887 93bc 6866 26bd
00000200: 08ed 2cbd 3511 86bd 3b05 f73c 86fb 0abd
00000210: 3d0e f0bc 2416 10bd 3095 c83c 0a76 7bbd
00000220: 9b8d b43c 8d2d 7dbc 55df 35bc f9c0 82bd
00000230: 3095 db3b 705c 893d e8eb 83bc 52a6 89bd
00000240: 5a18 173a 67a2 7a3d 449e 593d b5c4 86bc
00000250: 6596 d4bc 425a 413d 27cd 3bbd 26ff 8fbd
00000260: 4d30 6dbd 4e29 0bbd 657d 24bd 3367 b93b
00000270: 82bd ea3c e304 b73c ff4d d23c f53e 64bb
00000280: acff 26bd 69d2 713d 51cc 80bd 70c3 08bd
00000290: 5c25 a73d d36a b03d 26e6 afbc 0b68 da3b
000002a0: 3193 f23a 2771 113d a84d 3f3d a6fc 3fbd
000002b0: 0a95 963d bae0 c1bc 4f9a 2abd 8dbc cf3c
000002c0: cad5 8fbc d604 283d 8082 a4bb 7f9d 283d
000002d0: 53ce 653d 8012 59bd dea8 963d 9485 cabd
000002e0: 51d8 98bc a617 a0bd 4d49 b43d 1cbf 22bd
000002f0: 0af2 bf3d 3f17 3cbc 97d8 933d a687 8a3c
00000300: a6e9 a43d 1d3c 843d e60a a03d bf2a 6fbd
00000310: 6ee0 11bd a7b1 903c 3932 6d3d cca5 9abc
00000320: f493 3fbc 30d6 adbb 684c 973c 9887 2abd
00000330: 0d29 1b3d 569f 823b ad4b 5dbc 51dc a5bd
00000340: f11b f33b b7a1 283d 4289 8a3d 73f9 0b3c
00000350: e22b 12bc b583 20bd 7787 a4bd 64e3 4ebd
00000360: 9c5a 54bc bbb6 eabc 3478 513d 2083 8ebc
00000370: 58d3 ad3d 2e95 4bbd fa54 4ebd 8613 9b3d
00000380: 0ac6 643d 747a 18bc 5b6f c9bc bbdf 51bd
00000390: 3c13 1b3d a8e4 9c3d 38fd c3bc c04c 723d
000003a0: 4713 82bd 0e72 943d a75f cabd a0aa 9abd
000003b0: 67cd 93bc 274f 0c3d e82d 8e3d bf5b 5f3c
000003c0: 1ff8 5cbd 7ccd 323c 45d8 50bd d509 96bd
000003d0: 0b6f 933d 9bd2 4f3d 9ce3 803c 7fc0 ab3d
000003e0: 7260 e83d 7e1c 7abc b6f5 093d d17b a1bc
000003f0: 0fb4 323d ddee a03d 147d 39bc ba30 063d

layers.4.bias f4 [64]
-0.05345929 -0.01632526 -0.061002348 0.12682077 -0.039453484 0.059471387 -0.0017273094 -0.012826291
-0.021711897 0.018181723 -0.09384811 -0.06711724 -0.027711589 0.017636787 -0.029968414 -0.02089227
0.072061 0.050662324 0.1519543 -0.03590938 -0.015697515 -0.046682943 -0.054036498 0.07705838
0.06931319 -0.023135094 0.070188195 -0.10314835 -0.048141215 -0.06692962 0.013568961 -0.032724213
0.03282502 -0.021463884 -0.053631626 0.067020245 0.1356416 -0.05023534 0.061320156 -0.07235412
0.101674125 0.012108282 -0.07443478 -0.10870407 -0.014217462 0.04369987 -0.0038135173 0.015846305
-0.07566593 0.01185064 0.041710623 -0.007919335 0.057494003 0.019161468 -0.04277758 -0.06565271
0.038363058 0.02015635 -0.008057943 -0.016087621 -0.042855956 -0.027716126 -0.05002641 -0.03274807
00000000: 21f8 5abd 8dbc 85bc 99dd 79bd 4edd 013e
00000010: fa99 21bd 4598 733d e366 e2ba 5d25 52bc
00000020: 26dd b1bc d6f1 943c 7033 c0bd c374 89bd
00000030: 6a03 e3bc 067b 903c 5280 f5bc 4426 abbc
00000040: b894 933d 4c83 4f3d e899 1b3e b715 13bd
00000050: 1398 80bc 9d36 3fbd 6055 5dbd c9d0 9d3d
00000060: 13f4 8d3d cf85 bdbc d4be 8f3d 713f d3bd
00000070: b92f 45bd 6612 89bd 5950 5e3c d309 06bd
00000080: 8773 063d 07d5 afbc d6ac 5bbd e941 893d
00000090: a2e5 0a3e 92c3 4dbd d82a 7b3d 662e 94bd
000000a0: 863a d03d d161 463c 4371 98bd 3da0 debd
000000b0: 5cf0 68bc a3fe 323d 34ec 79bb 1cd0 813c
000000c0: bdf6 9abd 3029 423c c2d8 2a3d 19c0 01bc
000000d0: d57e 6b3d 83f8 9c3c 8b37 2fbd ee74 86bd
000000e0: 9522 1d3d ee1e a53c 7605 04bc 30ca 83bc
000000f0: ba89 2fbd ee0c e3bc 7ee8 4cbd d722 06bd

layers.6.weight f4 [64]
1.0061342 0.9808727 1.0162764 0.96031517 0.98703563 1.0161755 1.0170681 0.9631558
1.0072265 1.0234078 1.0060658 1.0097016 0.9614019 1.0225589 1.0291702 1.015973
1.0113325 1.0134039 0.9933955 1.0211896 1.008461 1.0221974 0.97430533 0.9848421
0.9979149 0.96828437 0.9593595 1.0033255 1.0131617 0.9872818 0.9596178 1.0178479
1.006938 0.998842 0.9847946 0.99491847 0.96143585 0.9774664 0.9939914 0.9808671
0.9716482 0.9863768 1.0097576 1.0231715 1.0163115 1.0141646 0.9833618 0.9752357
1.0075492 0.97023624 0.97549015 1.0277872 0.9857259 1.0039241 0.9871321 0.9997438
1.0064611 0.9947761 1.0204189 0.9875712 0.9818119 1.0115173 1.0012033 1.0132965
00000000: 01c9 803f 791a 7b3f 5815 823f 37d7 753f
00000010: 5eae 7c3f 0a12 823f 4a2f 823f 6191 763f
00000020: ccec 803f 07ff 823f c4c6 803f e73d 813f
00000030: 6f1e 763f 36e3 823f d9bb 833f 670b 823f
00000040: 5873 813f 38b7 813f 2b4f 7e3f 57b6 823f
00000050: 4015 813f 5dd7 823f 136c 793f 9d1e 7c3f
00000060: 5a77 7f3f 7ce1 773f 9698 753f f86c 803f
00000070: 48af 813f 80be 7c3f 83a9 753f d748 823f
00000080: 58e3 803f 1cb4 7f3f 801b 7c3f fab2 7e3f
00000090: a920 763f 3d3b 7a3f 3876 7e3f 1b1a 7b3f
000000a0: f0bd 783f 3183 7c3f bd3f 813f 49f7 823f
000000b0: 7f16 823f 25d0 813f 99bd 7b3f 0ca9 793f
000000c0: 5ff7 803f 6761 783f b9b9 793f 888e 833f
000000d0: 8858 7c3f 9680 803f b0b4 7c3f 36ef 7f3f
000000e0: b8d3 803f a6a9 7e3f 169d 823f 77d1 7c3f
000000f0: 0658 7b3f 6679 813f 6e27 803f b3b3 813f

layers.6.bias f4 [64]
0.053465012 -0.04378058 -0.043665804 0.02808513 -0.007225775 0.02553797 0.039333772 0.031618398
-0.026798218 -0.015836833 0.084615484 -0.0010289979 -0.027309079 -0.008921336 0.08193619 -0.0682384
0.06535892 0.040333517 0.06958598 -0.080659896 0.109909356 0.07071795 0.07159539 0.0062011695
9.999679e-05 0.06389708 -0.015889572 0.017419258 0.05371337 -0.002939883 0.018999256 -0.017561924
0.012512276 0.048935108 -0.034317784 0.0005961053 0.045658547 -0.03045054 0.021772176 0.046028495
0.051486105 0.037325695 0.018619146 -0.07380714 0.058520507 0.017986158 0.017630193 0.022571187
-0.029277721 0.028465156 0.058016066 0.043447178 0.008300383 0.002341124 0.026327252 -0.0032262432
-0.017514244 0.029540317 0.08280128 0.05094638 -0.0106493775 -0.021897256 -0.022180868 0.023476657
00000000: 21fe 5a3d 4453 33bd eada 32bd c912 e63c
00000010: 32c6 ecbb 0135 d13c 731c 213d 4b82 013d
00000020: f087 dbbc 3fbc 81bc e24a ad3d 71df 86ba
00000030: 4ab7 dfbc cc2a 12bc 29ce a73d 93c0 8bbd
00000040: e6da 853d c234 253d 1883 8e3d 0431 a5bd
00000050: 2818 e13d 93d4 903d 9ba0 923d 2e33 cb3b
00000060: 5eb5 d138 79dc 823d d92a 82bc d5b2 8e3c
00000070: 8d02 5c3d 0dab 40bb 54a4 9b3c 06de 8fbc
00000080: 4a00 4d3c 2e70 483d ce90 0cbd f343 1c3a
00000090: 7504 3b3d 6973 f9bc 905b b23c 6088 3c3d
000000a0: 18e3 523d d4e2 183d 2e87 983c 3328 97bd
000000b0: 33b3 6f3d b557 933c 326d 903c 36e7 b83c
000000c0: d5d7 efbc c22f e93c 41a2 6d3d abf5 313d
000000d0: 54fe 073c 8b6d 193b 40ac d73c 616f 53bb
000000e0: 087a 8fbc 89fe f13c b893 a93d 27ad 503d
000000f0: ba7a 2ebc e061 b3bc a7b4 b5bc 1e52 c03c

layers.6.running_mean f4 [64]
0.49707752 0.28706715 0.24012777 0.9250052 0.49851853 0.28955337 0.24234338 0.31177562
0.62580985 0.16053492 0.296737 0.19798578 0.44353598 0.2112875 0.15445012 0.29234973
0.3173423 0.29524922 0.31182683 0.24378936 0.15780813 0.28979588 0.37675065 0.31210163
0.643206 0.42586043 0.40323254 0.17789276 0.2604463 0.39911613 0.6904335 0.36495194
0.32861343 0.8197924 0.1315063 0.57543856 0.4221101 0.4140844 0.4904441 0.508655
0.37081426 0.28733906 0.32832554 0.18040699 0.3197263 0.49977463 0.41545865 0.32438794
0.44776258 0.6221683 0.30325302 0.11270827 0.55287015 0.52812845 0.36422125 0.09042135
0.19090912 0.3303142 0.098887704 0.16656943 0.24913028 0.31928632 0.18284564 0.28060752
00000000: f280 fe3e 77fa 923e 0ee4 753e 24cd 6c3f
00000010: d23d ff3e 5740 943e dd28 783e 0ea1 9f3e
00000020: 1335 203f 4463 243e e9ed 973e c9bc 4a3e
00000030: 2617 e33e c05b 583e 2c28 1e3e ddae 953e
00000040: b17a a23e e82a 973e c4a7 9f3e eba3 793e
00000050: 7498 213e 2060 943e 76e5 c03e c9cb 9f3e
00000060: 26a9 243f 610a da3e 7f74 ce3e 8529 363e
00000070: 3859 853e f358 cc3e 40c0 303f fbda ba3e
00000080: 0540 a83e eadd 513f 96a9 063e f14f 133f
00000090: d11e d83e df02 d43e 7d1b fb3e 3737 023f
000000a0: 5edb bd3e 1b1e 933e 491a a83e 9cbc 383e
000000b0: 2ab3 a33e 76e2 ff3e ffb6 d43e 2d16 a63e
000000c0: 2341 e53e 6c46 1f3f fb43 9b3e 98d3 e63d
000000d0: e688 0d3f 6d33 073f 357b ba3e d42e b93d
000000e0: ae7d 433e f11e a93e a385 ca3d 2d91 2a3e
000000f0: 021c 7f3e 7f79 a33e e33b 3b3e caab 8f3e

layers.6.running_var f4 [64]
0.8604928 0.6995471 0.55872905 0.6019537 1.1030393 0.5244748 0.3963485 0.4971586
1.4317088 0.17753094 0.1243944 0.3381212 0.8743657 0.7058209 0.055870503 1.0544984
0.4674065 0.62829214 0.17870627 0.9817757 0.04658376 0.21677369 0.810612 0.48942062
0.95356596 0.6412276 0.5335923 0.43412337 0.8002214 0.976069 1.6092172 1.1839068
0.61523265 0.7326656 0.4866802 0.9594693 0.3334636 1.0501612 0.32247615 0.7564987
0.3152211 0.45007586 0.7070842 0.83778036 0.440417 0.32761127 0.74901175 0.40343404
0.5404548 0.59512925 0.48879677 0.2812211 0.66963315 1.0384136 0.80279964 0.23707771
0.53548163 0.58898145 0.20514387 0.15880579 0.2536843 1.0882767 0.29834744 0.46760282
00000000: 4249 5c3f 8515 333f de08 0f3f a319 1a3f
00000010: 6430 8d3f fb43 063f 31ee ca3e 928b fe3e
00000020: 3c42 b73f acca 353e 7ec2 fe3d 391e ad3e
00000030: 6ed6 5f3f aeb0 343f 78d8 643d cef9 863f
00000040: e84f ef3e c1d7 203f c7fe 363e a755 7b3f
00000050: 9dce 3e3d ecf9 5d3e 4584 4f3f 5795 fa3e
00000060: e61c 743f 7e27 243f 8199 083f 6b45 de3e
00000070: 4fdb 4c3f a8df 793f d4fa cd3f 428a 973f
00000080: e37f 1d3f f98f 3b3f 262e f93e c89f 753f
00000090: bebb aa3e af6b 863f 981b a53e e6a9 413f
000000a0: a964 a13e 5870 e63e 7803 353f c678 563f
000000b0: 567e e13e aabc a73e 3cbf 3f3f e88e ce3e
000000c0: 3f5b 0a3f 645a 183f 9243 fa3e 36fc 8f3e
000000d0: 146d 2b3f bdea 843f 4784 4d3f 80c4 723e
000000e0: 5315 093f 7dc7 163f 3c11 523e fc9d 223e
000000f0: e9e2 813e a74c 8b3f ffc0 983e a369 ef3e

layers.8.weight f4 [64, 64, 2, 2]
0.033729646 -0.034958024 0.0167401 -0.021411642 0.03385164 0.022405665 0.05223474 0.00524126
0.017263044 -0.02790487 -0.00504068 -0.015272369 0.029684803 -0.040517256 0.002477311 -0.025220035
-0.042607274 -0.04901283 -0.06184263 -0.043918755 -0.049727317 0.0005540943 0.0054173423 -0.023239762
-0.024587797 0.070301786 -0.014520654 -0.049822863 0.01009065 0.05246941 -0.03638785 0.027447565
0.04202175 0.032476865 -0.045854326 0.043877874 0.018771498 0.01206283 0.026378151 0.029184597
-0.014811808 0.033662707 -0.014164315 0.06923768 0.0025439668 0.019644834 0.06394642 -0.062344644
-0.010848574 -0.043061674 0.013074403 0.00083007145 0.012285722 0.0012759692 -0.039673395 -0.04819365
0.020096442 0.036151286 0.055660676 0.024847247 0.034541134 -0.025435675 -0.0001435696 -0.056535047
0.016290778 0.024352811 -0.057316456 -0.017036157 0.023530096 -0.010507489 0.020003054 -0.048290525
0.032335043 0.0453124 0.047590334 0.08919217 0.027329376 0.07208772 -0.02698761 -0.050540373
0.0035918797 0.049211588 0.009634441 0.005365036 0.037707683 0.033476647 0.0139403045 -0.0026077265
0.027169462 0.06878953 0.03759315 0.0030849914 0.026667517 0.012440258 0.03762189 0.060164515
-0.0425922 0.011877907 -0.007986533 -0.060101617 -0.04635615 0.061275173 0.02109715 -0.015216366
-0.01967142 0.018853009 -0.016907671 -0.03814919 0.016552702 0.009999925 -0.041316114 0.04701779
0.050495937 0.041135736 -0.04842936 -0.016497226 -0.056386486 -0.004806344 -0.018756956 -0.01257077
0.0006881863 0.032548804 -0.030236844 0.051365435 0.0034234321 0.05721352 0.008107723 -0.005066802
-0.009773814 0.024547603 -0.029663181 0.042316955 -0.029315608 -0.00037203025 0.0405312 0.06526739
-0.031456035 0.024363462 -0.010565621 0.0034649998 -0.04892015 -0.054734584 0.019155473 0.03819342
0.059383515 -0.030029608 -0.032048628 -0.013187843 -0.06306376 0.0055976612 -0.023143904 0.010118198
-0.0051729656 0.020314822 0.051116403 0.017734896 -0.0002654104 0.021868885 -0.03506507 -0.054887824
0.02478908 0.039287347 -0.022445628 0.009389675 0.013239197 -0.01842397 -0.06325017 -0.006336464
-0.042920273 -0.035773013 -0.076961875 -0.038118806 -0.013669977 -0.005617211 0.00804555 -0.068011895
0.027467865 0.020346396 0.034701556 0.027638715 0.05768219 -0.049730215 0.06506935 -0.015783599
-0.036439624 -0.036180995 0.033987384 -0.016808301 0.045619253 0.020411097 0.038526047 0.0030198277
0.032614652 0.047525365 -0.042262815 0.00884287 0.07308889 -0.012474218 0.009875562 0.06788696
-0.020646835 -0.037875623 -0.017530166 0.005064957 0.024109649 -0.005428175 -0.0065890765 0.03528099
0.015917676 0.07530323 0.019253 -0.018555839 -0.017349068 -0.007992608 0.043359198 -0.07567121
-0.04167719 0.038282994 0.0077588633 0.062177498 0.0021907405 -0.057280965 0.0031778347 0.055529978
0.050469454 0.087888665 0.007821179 -0.03832791 -0.004443176 -0.0017794587 -0.017216848 0.036501456
-0.015822621 -0.04325063 0.029973643 -0.043655366 -0.0027035736 0.061160374 -0.05118128 -0.03154228
-0.01341123 0.030752517 -0.10341426 0.008275332 0.025719764 -0.02564013 -0.03108565 0.045575943
0.00058926374 0.036799163 -0.010017286 0.032515712 0.061154366 0.036725204 0.032008592 0.020599134
00000000: 1928 0a3d 2530 0fbd 8922 893c 7867 afbc
00000010: 04a8 0a3d 168c b73c 18f4 553d e0be ab3b
00000020: 3a6b 8d3c c198 e4bc 4a2c a5bb f538 7abc
00000030: 8b2d f33c 6cf5 25bd 625a 223b 3f9a cebc
00000040: f784 2ebd adc1 48bd b34e 7dbd 27e4 33bd
00000050: dfae 4bbd a440 113a f683 b13b 5061 bebc
00000060: 596c c9bc 62fa 8f3d 0ae8 6dbc 0f13 4cbd
00000070: 4153 253c 2aea 563d 6d0b 15bd b7d9 e03c
00000080: 001f 2c3d 7606 053d bfd1 3bbd 49b9 333d
00000090: afc6 993c 2da3 453c fe16 d83c 8914 ef3c
000000a0: 3aad 72bc e8e1 093d 7111 68bc 7ccc 8d3d
000000b0: aeb8 263b 34ee a03c 57f6 823d 195d 7fbd
000000c0: 38be 31bc 7061 30bd 0536 563c 2799 593a
000000d0: 0e4a 493c 6c3e a73a 9280 22bd b466 45bd
000000e0: 4ba1 a43c 5f13 143d 73fc 633d 748c cb3c
000000f0: 017b 0d3d 7a5e d0bc 2c8b 16b9 4b91 67bd
00000100: 3d74 853c 8c7f c73c a9c4 6abd 698f 8bbc
00000110: 30c2 c03c 9a27 2cbc 72dd a33c 49cc 45bd
00000120: c071 043d 7f99 393d 15ee 423d 62aa b63d
00000130: dbe1 df3c baa2 933d 1f15 ddbc 6c03 4fbd
00000140: be65 6b3b 1792 493d c6d9 1d3c 2fcd af3b
00000150: 5f73 1a3d cf1e 093d e065 643c 64e6 2abb
00000160: 7e92 de3c 86e1 8c3d 46fb 193d 912d 4a3b
00000170: d675 da3c 39d2 4b3c 6919 1a3d 116f 763d
00000180: 2975 2ebd 8e9b 423c f3d9 02bc 1d2d 76bd
00000190: f2df 3dbd adfb 7a3d eed3 ac3c 114e 79bc
000001a0: f525 a1bc a071 9a3c f581 8abc 5342 1cbd
000001b0: 8899 873c bad6 233c 163b 29bd ba95 403d
000001c0: d4d4 4e3d f27d 283d dd5d 46bd 3125 87bc
000001d0: 84f5 66bd 897e 9dbb 30a8 99bc a2f5 4dbc
000001e0: 6767 343a e551 053d 42b3 f7bc 9064 523d
000001f0: a95b 603b b958 6a3d 41d6 043c 6a07 a6bb
00000200: 5922 20bc 0e18 c93c 3300 f3bc 8b54 2d3d
00000210: 4927 f0bc 0e0d c3b9 0b04 263d e9aa 853d
00000220: 0bd8 00bd e295 c73c 6d1b 2dbc 0d15 633b
00000230: 7f60 48bd 5f31 60bd f0eb 9c3c b470 1c3d
00000240: 213c 733d a700 f6bc 6c45 03bd d311 58bc
00000250: 9327 81bd 966c b73b 4998 bdbc ccc6 253c
00000260: fb81 a9bb 456b a63c 6f5f 513d c648 913c
00000270: c826 8bb9 6026 b33c 64a0 0fbd 0ed2 60bd
00000280: 7812 cb3c c5eb 203d e5df b7bc 27d7 193c
00000290: 38e9 583c deed 96bc 4e89 81bd 1da2 cfbb
000002a0: 2bcd 2fbd b986 12bd 309e 9dbd 7722 1cbd
000002b0: 0af8 5fbc 9510 b8bb 7cd1 033c d249 8bbd
000002c0: 4a04 e13c 7cad a63c 3823 0e3d 966a e23c
000002d0: 2944 6c3d e9b1 4bbd 1443 853d 9b4c 81bc
000002e0: b741 15bd 8632 14bd 5b36 0b3d 90b1 89bc
000002f0: 41db 3a3d 2c35 a73c 7dcd 1d3d 4de8 453b
00000300: f196 053d f5a9 423d c61b 2dbd afe1 103c
00000310: a1af 953d aa60 4cbc 1ccd 213c 5208 8b3d
00000320: 8d23 a9bc 7823 1bbd 6c9b 8fbc f0f7 a53b
00000330: 9981 c53c d5de b1bb 2ee9 d7bb cd82 103d
00000340: c965 823c 9438 9a3d 78b8 9d3c 6a02 98bc
00000350: a21f 8ebc 6df3 02bc 6a99 313d 82f9 9abd
00000360: b4b5 2abd a1ce 1c3d 103e fe3b d5ad 7e3d
00000370: 8792 0f3b 729f 6abd 3843 503b 6773 633d
00000380: 0fb9 4e3d f9fe b33d 6724 003c bafd 1cbd
00000390: 1098 91bb ba3c e9ba 590a 8dbc 8d82 153d
000003a0: 719e 81bc 9327 31bd 498b f53c f8cf 32bd
000003b0: 702e 31bb 4d83 7a3d 76a3 51bd 7a32 01bd
000003c0: c7ba 5bbc b4ec fb3c dbca d3bd 4295 073c
000003d0: 41b2 d23c 400b d2bc 55a7 febc d7ad 3a3d
000003e0: d278 1a3a b8ba 163d 8b1f 24bc 322f 053d
000003f0: 007d 7a3d 2b6d 163d 711b 033d 84bf a83c

layers.8.bias f4 [64]
0.018698592 -0.041887213 0.08258577 0.033633348 0.060418323 0.003633579 0.11513406 -0.014926036
0.045265216 0.063755624 -0.07313294 0.029136933 0.059219163 0.07349101 0.089546174 0.0011535367
-0.014757912 0.01095432 0.040505655 -0.0072676204 0.0093543995 -0.09186045 0.020536786 0.016420089
0.012545802 0.06258931 -0.03833804 0.009334837 0.080340505 0.07075634 0.051813256 0.003799916
-0.017991181 -0.06056724 0.04351453 0.06834778 0.008725118 0.026569072 -0.034165278 -0.008910785
0.028871808 0.02636662 0.0009953949 -0.032877468 0.082381606 0.031333186 0.07038054 -0.050788958
0.0012387813 0.05178875 0.032649674 0.009896672 -0.0028864434 0.021425147 0.04364101 0.04823354
0.03243791 0.021024961 -0.026810694 0.03653362 0.07531331 -0.008355002 -0.013299401 0.008342928
00000000: ca2d 993c ed91 2bbd ba22 a93d 1fc3 093d
00000010: 3479 773d 5721 6e3b 68cb eb3d 558c 74bc
00000020: 0568 393d 4f92 823d b9c6 95bd 94b0 ee3c
00000030: cb8f 723d 7482 963d fc63 b73d 4532 973a
00000040: 2bcb 71bc c079 333c 42e9 253d 3825 eebb
00000050: 3243 193c 5521 bcbd c33c a83c 6c83 863c
00000060: e88c 4d3c d32e 803d 5908 1dbd 25f1 183c
00000070: 9089 a43d b3e8 903d 233a 543d 0308 793b
00000080: 3e62 93bc 5b15 78bd 4b3c 323d ecf9 8b3d
00000090: ccf3 0e3c 62a7 d93c e4f0 0bbd 8bfe 11bc
000000a0: 9284 ec3c cffe d73c e977 823a 86aa 06bd
000000b0: b0b7 a83d 3a57 003d ac23 903d 1508 50bd
000000c0: 9a5e a23a 7120 543d aabb 053d a725 223c
000000d0: 7c2a 3dbb ca83 af3c eac0 323d 8890 453d
000000e0: 9ddd 043d 8a3c ac3c 1aa2 dbbc 47a4 153d
000000f0: dd3d 9a3d 6be3 08bc bbe5 59bc c7b0 083c

layers.10.weight f4 [64]
1.1653205 1.167718 1.1633999 1.1604844 1.1689823 1.1585742 1.1450158 1.1649799
1.1622856 1.1627564 1.1655531 1.1635349 1.163319 1.1605383 1.1631111 1.1629528
1.1658125 1.1634822 1.1659392 1.1619167 1.1619546 1.1660885 1.1616443 1.1662396
1.1623591 1.1728053 1.1633543 1.160501 1.16668 1.166275 1.1636441 1.1618161
1.1679001 1.1635829 1.161584 1.163705 1.1628895 1.1639382 1.1619058 1.162871
1.171575 1.1648209 1.1653463 1.1588786 1.1626188 1.1605688 1.1633033 1.1644499
1.1617584 1.168562 1.1732079 1.1625569 1.163315 1.1708504 1.1549559 1.1640012
1.1627223 1.1624163 1.1723342 1.1645757 1.163875 1.1710727 1.1698701 1.165801
00000000: 3929 953f c977 953f 4aea 943f c18a 943f
00000010: 36a1 953f 294c 943f e18f 923f 101e 953f
00000020: c6c5 943f 34d5 943f d830 953f b6ee 943f
00000030: a3e7 943f 858c 943f d3e0 943f a3db 943f
00000040: 5839 953f fcec 943f 7f3d 953f b0b9 943f
00000050: eeba 943f 6342 953f c3b0 943f 5747 953f
00000060: 2fc8 943f 7c1e 963f cbe8 943f 4c8b 943f
00000070: c555 953f 8048 953f 4af2 943f 64b6 943f
00000080: c07d 953f 49f0 943f c9ae 943f 49f4 943f
00000090: 90d9 943f edfb 943f 54b9 943f f5d8 943f
000000a0: 2bf6 953f da18 953f 112a 953f 2256 943f
000000b0: b1d0 943f 858d 943f 1fe7 943f b20c 953f
000000c0: 80b4 943f 7193 953f ad2b 963f aace 943f
000000d0: 82e7 943f 6dde 953f 98d5 933f fefd 943f
000000e0: 16d4 943f 0fca 943f 0c0f 963f d110 953f
000000f0: dbf9 943f b6e5 953f 4ebe 953f f838 953f

layers.10.bias f4 [64]
0.03279298 -0.15942767 0.16262057 0.10124185 -0.14828242 -0.16990185 -0.16381523 0.15902182
0.12068446 0.16849358 0.15862024 0.17275521 0.15810639 0.15659884 0.16106169 0.16044948
0.12229543 -0.15635264 0.090034366 0.13509196 0.16638102 0.16349967 0.1581766 0.15554328
0.13779415 -0.14359969 0.13575074 0.15825623 0.16729514 -0.15530601 0.15863352 -0.13793342
-0.15753174 0.16141604 -0.16099098 0.13922235 0.12619756 0.13135616 0.16128919 0.16418765
0.17367613 0.16173191 0.05316775 -0.16432512 0.11724907 -0.13233292 0.17063582 -0.17534912
0.1594589 0.13757923 0.08353541 0.15668479 0.13950275 0.16703662 -0.15690628 0.1589085
0.13461636 0.16950125 0.13504957 0.124172255 -0.16272983 -0.14502037 -0.16288365 0.16356982
00000000: ef51 063d 0241 23be 0286 263e e357 cf3d
00000010: 59d7 17be c0fa 2dbe 2ebf 27be 9ed6 223e
00000020: 6a29 f73d 9589 2c3e 586d 223e bee6 303e
00000030: a4e6 213e 725b 203e 5bed 243e de4c 243e
00000040: 0776 fa3d e81a 20be f063 b83d 8c55 0a3e
00000050: c95f 2a3e 756c 273e 0cf9 213e bd46 1f3e
00000060: e919 0d3e cc0b 13be 3e02 0b3e ec0d 223e
00000070: 6b4f 2b3e 8a08 1fbe d370 223e 6b3e 0dbe
00000080: 0050 21be 3f4a 253e d2da 24be 4e90 0e3e
00000090: ef39 013e 3b82 063e fe28 253e cf20 283e
000000a0: 28d8 313e 0d9d 253e 6dc6 593d d844 28be
000000b0: 4820 f03d 4882 07be 28bb 2e3e b88e 33be
000000c0: 3249 233e 92e1 0c3e 9d14 ab3d fa71 203e
000000d0: cfd9 0e3e a60b 2b3e 0aac 20be e9b8 223e
000000e0: dfd8 093e bc91 2d3e 6f4a 0a3e 064e fe3d
000000f0: a6a2 26be 3880 14be f9ca 26be d97e 273e

layers.10.running_mean f4 [64]
1.329122 0.03721414 1.4280077 1.3845472 0.9274809 0.57541203 0.8853521 1.2063471
1.3909612 1.5298325 0.19487147 0.5128472 1.358252 1.6164532 1.6458251 0.56061214
1.0580282 0.964754 0.5888054 1.0362517 0.28541955 0.46627 0.26073718 0.05912749
0.8821037 1.2139066 1.2066902 1.2259396 1.7163095 0.56174177 1.3217568 1.523613
1.0012927 0.59277457 0.90426916 0.42077643 1.0580422 1.157399 0.6270937 0.20273049
0.5679564 1.2050892 0.24153027 0.8887047 1.1783277 1.4167616 1.4133137 0.90942466
1.6377242 1.1873969 0.10062177 1.2413048 0.7730732 0.12371725 0.28645888 0.37050974
0.9878725 1.5164789 1.230559 1.1962883 1.2726346 1.4089813 0.9390356 1.0789824
00000000: ab20 aa3f db6d 183d f5c8 b63f d838 b13f
00000010: 636f 6d3f 344e 133f 6fa6 623f 9569 9a3f
00000020: 040b b23f 8dd1 c33f 638c 473e f449 033f
00000030: 34db ad3f f0e7 ce3f 66aa d23f 4784 0f3f
00000040: 786d 873f 1efa 763f f3bb 163f e5a3 843f
00000050: 8322 923e f1ba ee3e 587f 853e ab2f 723d
00000060: 8cd1 613f 4b61 9b3f d374 9a3f 97eb 9c3f
00000070: 08b0 db3f 4fce 0f3f 542f a93f c005 c33f
00000080: 5c2a 803f 13c0 173f 2f7e 673f 0270 d73e
00000090: ed6d 873f a725 943f 3689 203f 9598 4f3e
000000a0: 9765 113f 5d40 9a3f b653 773e 2782 633f
000000b0: 71d3 963f 7258 b53f 77e7 b43f 0ed0 683f
000000c0: f2a0 d13f 9ffc 973f c912 ce3d 13e3 9e3f
000000d0: 20e8 453f 785f fd3d bdaa 923e 74b3 bd3e
000000e0: 36e5 7c3f fb1b c23f f582 9d3f fa1f 993f
000000f0: b1e5 a23f 8059 b43f a364 703f 181c 8a3f

layers.10.running_var f4 [64]
3.1310575 0.02177119 2.3492744 3.6957042 1.7449901 0.9314355 1.8095742 3.3806748
3.4391057 2.9964037 0.2749419 0.71760577 3.3003144 4.0431156 2.8788207 1.730578
2.923783 1.8201647 0.71924293 3.2941325 0.35810181 1.5080374 0.37127683 0.04235133
1.9413402 2.085799 3.988859 2.8756368 3.5629447 0.80423915 3.0896876 2.581189
1.8059419 1.9309819 1.7023696 0.5787724 2.2779331 2.423502 2.1797066 0.23153634
1.1888133 4.0330434 0.22854386 2.2388167 2.4191556 3.1290765 1.9221321 2.1837757
3.5131936 2.8501115 0.09414738 2.847548 1.8540344 0.1171567 0.3752767 0.68368775
2.2131023 2.634417 3.1505516 2.5741372 2.5496917 2.88659 1.8511539 2.7287104
00000000: 3f63 4840 7f59 b23c 835a 1640 6b86 6c40
00000010: d65b df3f 8f72 6e3f 21a0 e73f fa5c 5840
00000020: 4f1a 5c40 14c5 3f40 2fc5 8c3e 03b5 373f
00000030: 5a38 5340 3461 8140 993e 3840 9483 dd3f
00000040: 431f 3b40 28fb e83f 4e20 383f 11d3 5240
00000050: 1f59 b73e 5f07 c13f ff17 be3e 9778 2d3d
00000060: d67d f83f bb7d 0540 7749 7f40 6f0a 3840
00000070: 4907 6440 9ee2 4d3f 71bd 4540 3332 2540
00000080: 1b29 e73f 6a2a f73f 3fe7 d93f 6e2a 143f
00000090: a8c9 1140 a81a 1b40 5080 0b40 dd17 6d3e
000000a0: 092b 983f b10e 8140 6707 6a3e c648 0f40
000000b0: 72d3 1a40 ca42 4840 6d08 f63f fbc2 0b40
000000c0: 2ad8 6040 3a68 3640 57d0 c03d 3a3e 3640
000000d0: 0051 ed3f daef ef3d 4524 c03e 2906 2f3f
000000e0: 78a3 0d40 4a9a 2840 a3a2 4940 aabe 2440
000000f0: 262e 2340 e4bd 3840 9cf2 ec3f 31a3 2e40

actor_classifier.weight f4 [15, 256]
0.019054292 0.0019151837 -0.018238375 -0.026244037 -0.018061213 -0.05870254 0.00088935666 -0.025095973
-0.022476105 0.01145787 -0.030463077 0.0012848028 -0.05265827 -0.003590183 0.011543416 -0.031262457
0.01524921 -0.04160827 0.017321376 0.05411445 -0.054806907 0.031662308 0.025119277 -0.015970187
-0.032345068 -0.035329558 -0.050692666 -0.053566355 0.03388366 -0.02041345 -0.058361664 0.0029419763
0.015111423 0.028082475 0.028925506 -0.05365111 0.03287257 -0.003584952 0.03524972 -0.029736476
-0.028293785 -0.03737972 -0.003276804 0.04364914 -0.036650423 -0.042653058 -0.03086504 -0.0061663603
0.053558942 -0.042062223 0.052946012 -0.051970195 0.05287602 -0.050975293 0.040146027 -0.0357627
0.015986495 -0.03299787 0.00029573523 0.011488724 -0.04214141 0.016704123 0.010577139 0.022287354
0.007921604 0.049557105 -0.038098883 0.004241271 -0.045369964 0.062274955 0.03500668 -0.06092789
-0.033214103 -0.0644358 0.017329553 -0.02300304 0.06410133 -0.021210471 0.058360312 0.035477962
-0.06181122 -0.01424881 0.042042155 -0.05549764 -0.040951807 0.05434221 -0.068126455 0.003478458
-0.045016516 0.033979278 -0.05568337 -0.03542102 -0.0072576697 -0.071592726 -0.02282912 0.02277419
-0.015462649 0.008961065 0.03511987 -0.023319438 0.048022293 -0.012179713 0.014840633 -0.019521872
0.008586652 -0.04714105 0.024552481 0.053617403 -0.036967672 0.029519428 0.053953856 -0.04830376
0.05510276 0.01904968 -0.05438445 -0.06542589 0.023556372 -0.039916556 -0.032056537 -0.030565485
-0.06118665 -0.023254676 -0.018947413 -0.007828787 0.04970867 -0.02250645 -0.026137754 -0.026035946
-0.04332484 -0.003660272 -0.03661563 -0.017790029 0.048052393 0.0040437696 0.058446474 -0.054424446
0.011515169 -0.023566397 -0.036542244 0.024955273 -0.056027092 0.037027933 0.02723991 -0.041542143
-0.009347829 -0.018582854 0.056581307 0.044156373 0.0053011277 -0.026377011 -0.0345476 0.06417768
-0.036509395 0.045277916 -0.023280254 0.023912651 -0.045717362 0.021610279 -0.05120681 -0.026216116
-0.05881499 0.04112607 0.058323186 0.014249995 -0.02460836 0.040139254 0.022112824 -0.015994396
-0.0006481391 -0.019801479 -0.025156833 0.05084301 0.022900637 0.06557537 -0.049877685 0.046195354
-0.054670382 -0.043057222 -0.0043573277 -0.028693222 0.026805047 0.005904632 0.0063014966 0.037863474
0.0003080433 -0.0075342604 -0.0044724536 -0.009800468 0.042714994 -0.04824402 -0.042211134 0.046126574
-0.024498774 0.017244404 0.0024605861 -0.05233674 0.015088034 -0.008461838 0.036147185 -0.0026929474
-0.025868487 0.04321915 -0.018793857 0.03840447 -0.036063954 -0.019590532 0.023037331 0.016766837
-0.039251614 0.030577611 0.043304686 -0.037885718 0.030128352 0.014191478 0.011133228 -0.044345394
-0.04947092 -0.030227672 0.02955964 0.026819762 0.03406968 -0.033954065 0.027176188 0.036148284
-0.058241162 -0.029588917 -0.011237844 0.013412776 0.03772088 0.019671537 -0.056537446 0.030363511
0.048738044 0.021277044 -0.004909154 -0.0075621223 -0.026115863 -0.0046511292 0.019310072 -0.03595615
0.0064049186 0.017787369 0.04108598 -0.023407554 -0.0502832 -0.0036235123 -0.029360654 0.010256688
-0.012150752 0.0013564624 -0.0064757955 0.0044294884 -0.043271262 -0.0045070644 0.045123726 -0.019847177
00000000: bf17 9c3c e706 fb3a a568 95bc bcfd d6bc
00000010: 1cf5 93bc 1372 70bd b723 693a 1296 cdbc
00000020: cf1f b8bc cab9 3b3c b48d f9bc d466 a83a
00000030: 33b0 57bd 4749 6bbb 9920 3d3c 100d 00bd
00000040: d3d7 793c 6f6d 2abd 8fe5 8d3c 1da7 5d3d
00000050: 357d 60bd 56b0 013d f1c6 cd3c e9d3 82bc
00000060: 437c 04bd bab5 10bd 1da3 4fbd 6568 5bbd
00000070: 98c9 0a3d 1c3a a7bc a40c 6fbd 2cce 403b
00000080: e795 773c 380d e63c 2ff5 ec3c 44c1 5bbd
00000090: 63a5 063d 84f1 6abb 0362 103d e999 f3bc
000000a0: 5ec8 e7bc 7a1b 19bd a6bf 56bb 71c9 323d
000000b0: c11e 16bd f9b4 2ebd aed8 fcbc 2e0f cabb
000000c0: 9f60 5b3d 7049 2cbd ebdd 583d b3de 54bd
000000d0: 8794 583d 78cb 50bd 2970 243d e97b 12bd
000000e0: 1cf6 823c c628 07bd e90c 9b39 333b 3c3c
000000f0: 799c 2cbd 16d7 883c bd4b 2d3c f893 b63c
00000100: 9ec9 013c 64fc 4a3d 930d 1cbd 5cfa 8a3b
00000110: dbd5 39bd 0614 7f3d 2a63 0f3d 868f 79bd
00000120: 830b 08bd ebf6 83bd b5f6 8d3c df70 bcbc
00000130: 8f47 833d 95c1 adbc 390b 6f3d 5751 113d
00000140: c32d 7dbd d773 69bc 6534 2c3d 7e51 63bd
00000150: 15bd 27bd f095 5e3d e285 8bbd d7f6 633b
00000160: 3d63 38bd db2d 0b3d 3f14 64bd a215 11bd
00000170: bfd1 edbb 359f 92bd 2204 bbbc f090 ba3c
00000180: 0d57 7dbc 6ed1 123c dad9 0f3d 6808 bfbc
00000190: 06b3 443d 6b8d 47bc 2026 733c 55ec 9fbc
000001a0: 07af 0c3c f916 41bd 4922 c93c ec9d 5b3d
000001b0: 6a6b 17bd bad2 f13c b8fe 5c3d 2ada 45bd
000001c0: 6fb3 613d 130e 9c3c 3bc2 5ebd 02fe 85bd
000001d0: 4bf9 c03c 8b7f 23bd b74d 03bd 7864 fabc
000001e0: da9e 7abd 9780 bebc 9b37 9bbc 5044 00bc
000001f0: 519b 4b3d 725f b8bc d81e d6bc 5649 d5bc
00000200: 6375 31bd 2de1 6fbb 45fa 15bd 65bc 91bc
00000210: 96d2 443d 9981 843b 9265 6f3d 2bec 5ebd
00000220: 1faa 3c3c 510e c1bc 52ad 15bd 006f cc3c
00000230: aa7c 65bd 9aaa 173d 3b26 df3c 1828 2abd
00000240: a327 19bc 123b 98bc cdc1 673d 50dd 343d
00000250: 15b5 ad3b 9a14 d8bc c981 0dbd 966f 833d
00000260: e08a 15bd 5675 393d 3bb6 bebc 77e4 c33c
00000270: 2142 3bbd 0a08 b13c 3bbe 51bd 2ec3 d6bc
00000280: fde7 70bd cf73 283d 4be4 6e3d d078 693c
00000290: 7997 c9bc 0f69 243d f425 b53c ae06 83bc
000002a0: e1e7 29ba b636 a2bc b415 cebc c340 503d
000002b0: 1e9a bb3c 614c 863d 8b4c 4cbd 5737 3d3d
000002c0: 0dee 5fbd c55c 30bd eac7 8ebb 0c0e ebbc
000002d0: 4296 db3c a57b c13b c97c ce3b bb16 1b3d
000002e0: df80 a139 f5e1 f6bb a98d 92bb 2492 20bc
000002f0: ebf5 2e3d 869b 45bd 95e5 2cbd 38ef 3c3d
00000300: a7b1 c8bc 2344 8d3c c941 213b 0d5f 56bd
00000310: cd33 773c 85a3 0abc 120f 143d 297c 30bb
00000320: 26ea d3bc 9006 313d 93f5 99bc 014e 1d3d
00000330: ccb7 13bd 537c a0bc c9b8 bc3c 9b5a 893c
00000340: 4dc6 20bd e67d fa3c 4160 313d 0e2e 1bbd
00000350: bccf f63c 5f83 683c 2568 363c 84a3 35bd
00000360: 05a2 4abd 06a0 f7bc 0f27 f23c 1eb5 db3c
00000370: a68c 0b3d 6b13 0bbd 99a0 de3c 3910 143d
00000380: 498e 6ebd 7564 f2bc ef1e 38bc 43c1 5b3c
00000390: 3681 1a3d 3426 a13c cf93 67bd e6bc f83c
000003a0: 8ba1 473d 324d ae3c f8dc a0bb aecb f7bb
000003b0: eff0 d5bc 8068 98bb 2830 9e3c c246 13bd
000003c0: 5ae0 d13b d1b6 913c c649 283d 33c1 bfbc
000003d0: c2f5 4dbd 7378 6dbb c185 f0bc ab0b 283c
000003e0: f313 47bc 53cb b13a e932 d4bb 3e25 913b
000003f0: 353d 31bd ffaf 93bb a8d3 383d 8c96 a2bc

actor_classifier.bias f4 [15]
-0.04561404 0.04426879 -0.06920615 0.047825668 -0.022765987 0.05110127 -0.009429969 -0.0046443394
0.014517129 -0.018329423 -0.009656622 -0.05311635 -0.067513496 -0.0034878093 0.03383227
00000000: cad5 3abd 3153 353d f4bb 8dbd d9e4 433d
00000010: bc7f babc 914f 513d 2880 1abc 8b2f 98bb
00000020: 41d9 6d3c 9627 96bc cf36 1ebc 8890 59bd
00000030: 8444 8abd bb93 64bb b593 0a3d
