Saved Models/model_checkpoint_bigfish_42_0.0001_1600_6_256_0.99_0.95_0.2_1024_0.5_end_1600_background.pth (torch, 154809 bytes, 21 tensors)

layers.0.weight f4 [32, 3, 8, 8]
000000 00 72 8a bc 1b e2 df 3c 19 58 a5 3d 49 93 4b bd
       -0.016900063 0.027329495 0.08073444 -0.04970101
000010 e9 29 5b 3d fe 53 8d 3d 6d ce 1f bc 2b 1d 8d 3d
       0.053506766 0.06900786 -0.009753806 0.06890329
000020 cd 72 57 3d 01 52 d3 bb 90 d3 9d bd 4a df ce bd
       0.052599717 -0.0064489846 -0.07706368 -0.10101183
000030 5f 6b f2 bc 43 4d 18 3c ca 5b 90 3b bc 8f 83 bd
       -0.029592214 0.009295764 0.0044054734 -0.064238995
000040 4e 18 85 bd 04 f2 09 bd 8e ed 16 bd 60 f0 93 3c
       -0.064987764 -0.03367807 -0.036847644 0.018058956
000050 2a 98 db 3c 83 97 57 3c 08 f6 7c 3d 46 6c 44 3d
       0.026805956 0.013158682 0.06175807 0.04795482
000060 2a 34 f6 ba bc bf 14 3c 8f 03 14 bc 94 ef 33 3d
       -0.0018783857 0.009078916 -0.009034052 0.04392965
000070 5d 97 19 bd 59 58 3a 3c 09 e8 84 bc a6 4a 6a bc
       -0.037497867 0.011373603 -0.016223924 -0.014300024
000080 53 2c 27 bd 39 d8 c4 bc de 82 66 3c c1 21 da bd
       -0.040813755 -0.024028884 0.014069287 -0.10650969
000090 d5 29 a1 3c f3 7a 01 3d 65 5d 51 3d f5 c2 3f bc
       0.019673267 0.031611394 0.05111446 -0.011704196
0000a0 74 ea 41 3b 12 55 48 bd a8 60 bf bd c0 42 d1 bd
       0.0029589208 -0.048909254 -0.093446076 -0.1021781
0000b0 c5 99 93 bc 78 d1 a5 bd 28 6d 56 3b 83 bd 26 bd
       -0.018017659 -0.080965936 0.003271887 -0.040708076
0000c0 cc 88 57 bd c0 db 87 bd cf c2 29 bd 27 4d 01 3d
       -0.052620694 -0.06633711 -0.04144555 0.03156772
0000d0 93 a7 ee 3c 7e 50 f2 bb a6 6c 93 3d e1 63 2e bc
       0.02913264 -0.0073948493 0.071984574 -0.01064393
0000e0 81 bf 09 3d 57 b8 03 bd 56 5d b6 bd 31 29 30 bc
       0.033629898 -0.032158222 -0.08904521 -0.010752008
0000f0 9d 57 30 3d 99 d4 64 bd 9c b2 66 3d f6 6a 84 3d
       0.043052305 -0.05586681 0.05632268 0.06465714
000100 11 e5 4b 3d 5b 1f 90 b7 af 50 88 3d 5b 05 34 3d
       0.049779 -1.7180739e-05 0.06656014 0.04395042
000110 78 1d 84 3d 0e 23 4a 3c 2b 19 cc 3d 4e 29 05 3d
       0.06450933 0.012337459 0.09965738 0.032510094
000120 aa fc 28 3c f7 c4 15 3c ef 6f a2 bd 50 5a cb 3b
       0.010314146 0.009141198 -0.07931506 0.0062058344
000130 88 14 89 bd 02 75 50 3d 48 59 56 3d bb db ee bc
       -0.06693369 0.050892837 0.05233124 -0.02915751
000140 15 fc 3a 3d 39 c5 5a 3d c5 b9 a7 3d 5c 4e 97 3b
       0.04565056 0.053410742 0.081897296 0.0046174955
000150 58 9a d3 bc f4 cf a5 3d eb f4 96 3d 81 66 d8 3c
       -0.025830433 0.080963045 0.07370933 0.026416065
000160 3b f1 98 bd d3 47 90 bd 5e 4a 97 3c 9c 7b c4 bc
       -0.07467886 -0.070449494 0.018468078 -0.023984723
000170 76 54 de 3c ab ab 12 3d f5 84 81 3d dc 32 9a 3c
       0.027139883 0.035808247 0.06324188 0.01882308
000180 2c 53 e7 3c 19 f2 98 3a 15 28 bf 3c ef 10 a7 bd
       0.028237902 0.001166883 0.023334542 -0.08157527
000190 80 92 8c 3c c0 d5 7b 3c 60 63 12 3c cf 5d 9f 3d
       0.0171597 0.015370786 0.008934826 0.077815644
0001a0 ef 17 78 b5 4b 85 73 bd c3 24 ba bd fc be 59 bd
       -9.242203e-07 -0.05945329 -0.09089043 -0.053160653
0001b0 71 e7 fd 3b 50 99 df 3b 4b bf 97 bb 61 76 08 bd
       0.007748537 0.006823696 -0.004630958 -0.03331602
0001c0 28 04 1d 3b c0 60 96 3c 31 c0 49 bd de ee 48 3d
       0.0023958776 0.01835668 -0.049255554 0.049055927
0001d0 99 b2 8f 3d 3f b3 54 bd ea b0 36 3b 35 bf 99 3b
       0.07016487 -0.051928755 0.0027876445 0.004691983
0001e0 f7 a5 85 3d db 5a c9 3b 15 62 b8 bd 24 2d 93 3d
       0.06525796 0.006144864 -0.09003083 0.07186344
0001f0 db a7 83 3b d3 2f d2 bc 5a 19 0a 3d 2f 6d e2 3c
       0.0040178127 -0.02565757 0.033715583 0.027639953
000200 75 04 22 3d 97 81 3b bd 7b 85 63 bc 8a 13 ff 3c
       0.03955503 -0.045777883 -0.013886805 0.031137247
000210 8c ca 35 3d 68 76 8e 3c b3 ee 92 bc 52 50 03 bc
       0.044382617 0.017390445 -0.017936086 -0.008014755
000220 70 53 c6 bb e2 39 00 3d 1e 27 75 bd 45 86 c8 bb
       -0.006052427 0.0313052 -0.05985176 -0.006119522
000230 94 50 1f bd a7 97 3a 3d f2 6d 09 bb 78 57 3a bd
       -0.038895205 0.045554783 -0.0020970074 -0.045493573
000240 98 43 10 bd fa 90 81 3d 7e 84 18 bb 20 ea da bc
       -0.035220712 0.0632648 -0.002327233 -0.026722968
000250 ea 7a 98 3d a8 2e 9e 3c 16 80 3a bc 86 5a 1f 3d
       0.07445319 0.019309357 -0.011383077 0.03890469
000260 24 c5 e4 3c a0 76 07 bd 6e 40 6c bb 4d e9 0d 3d
       0.027926035 -0.033072114 -0.0036049145 0.03464632
000270 30 a8 41 bd 97 e9 bb bc 41 b8 f8 3c 15 c1 64 3d
       -0.047279537 -0.022938533 0.030361297 0.0558482
000280 1b fc 30 3d dc 34 de 3c 1e e4 54 3d 7a b7 d4 bc
       0.043209177 0.027124815 0.051975362 -0.025966395
000290 93 71 5a bc 32 f6 11 bd 03 ae 06 bd d0 06 2f 3d
       -0.013332742 -0.03563518 -0.032880794 0.042731106
0002a0 00 f2 61 bd 24 5e 72 bd 17 07 96 bc f5 14 f6 bc
       -0.05516243 -0.05917181 -0.018313928 -0.03003929
0002b0 89 32 22 bd 9d 91 53 3d dc 23 5c bd 8c 5d e1 bc
       -0.039598975 0.05165254 -0.053745136 -0.027510427
0002c0 b0 14 84 bd ce 6c ad bc b9 86 06 bd 5b f6 74 bc
       -0.06449258 -0.021170046 -0.032843325 -0.014951314
0002d0 10 e8 46 bd 74 cf 98 bc 98 e1 5f 3d 7c a5 0d 3d
       -0.048561156 -0.018653609 0.054658502 0.034581646
0002e0 89 09 6b bd 30 a2 c9 bc 9c 00 9f bb cf ee 82 bc
       -0.05738214 -0.02461347 -0.0048523676 -0.015983013
0002f0 ad 67 04 bd 90 0c 7a bc ea 04 8b 3b b8 4a 03 3d
       -0.032325435 -0.015261784 0.004242529 0.03205368
000300 8c 6c d4 bd c9 76 a5 bd c9 3e 10 3d b9 cf 4e 3d
       -0.10372266 -0.08079297 0.035216127 0.05049107
000310 4a 61 8e 3c d5 01 fb bc c4 1d 00 3d b8 80 f5 3c
       0.017380375 -0.030640522 0.031278387 0.029968604
000320 5a 61 5f 3c c6 ec 1a 3d 4c d7 b5 bc 6d d8 19 3a
       0.01363405 0.03782346 -0.022197388 0.0005868737
000330 c8 67 3f 3c ae b3 83 3c d4 7a 12 3c b1 90 57 3d
       0.011682458 0.016076889 0.008940417 0.052628223
000340 be ee 99 bd 16 51 93 bd 22 dc 9e 3c 41 31 27 bd
       -0.075162396 -0.071932 0.019392077 -0.040818457
000350 08 06 18 3d 2f 2d ee 3c 0e 5e 2f bd a7 ed 10 3d
       0.037115127 0.02907428 -0.042814307 0.035382893
000360 78 ad cd 3d a4 9e 91 3d 46 02 4c 3d 8b 72 7b 3d
       0.10042852 0.071103364 0.049806856 0.061388534
000370 55 df 3f bd 27 12 f6 bc e7 9b 14 bd 80 46 f8 3a
       -0.046843845 -0.030037953 -0.036281493 0.0018941909
000380 2e fe 38 bd 90 1e 73 3d 70 52 d8 b9 7f 8e 57 bc
       -0.04516428 0.05935532 -0.0004126015 -0.013156532
000390 6e 61 06 3d 2f 4d 65 3d 7c 87 94 3d a4 c5 19 3d
       0.03280776 0.05598181 0.07252404 0.037542
0003a0 54 3d 16 bd af dd 59 bd 29 63 c8 bc 0f cf 41 bc
       -0.03667958 -0.05318993 -0.024461346 -0.011829152
0003b0 3b e8 50 3d 75 c9 40 3c 25 a0 67 bd 5b 83 74 3d
       0.051002722 0.011766781 -0.05654921 0.059695583
0003c0 15 e0 a8 bb e9 73 0a bd 6d c0 b6 bc a3 ca 18 3c
       -0.005153666 -0.033801947 -0.022308553 0.009325656
0003d0 da 8b e6 bc 36 24 47 3c 4d dd ea 3b b5 4a 3f 3d
       -0.028142858 0.012154629 0.0071674944 0.046702106
0003e0 44 bf 07 3d a2 7f 00 bd ee b4 93 3c 46 22 95 3d
       0.03314139 -0.03137172 0.01803061 0.07281928
0003f0 06 ab e0 bc 38 da 65 3d 1c c9 23 3d 27 95 3b bd
       -0.0274253 0.056116313 0.039986715 -0.04579654

layers.0.bias f4 [32]
000000 d2 91 54 3d ce cf fa bb ec 7e c1 bc 4e fb 1c 3d
       0.051896878 -0.007654167 -0.023620091 0.0383256
000010 8b 27 86 ba 3d a9 6c bc 04 57 08 3d 1a 77 5f bd
       -0.0010235173 -0.014444646 0.03328611 -0.054556943
000020 a0 1c 5b bd 40 83 6a bc 3d 84 1c bc 21 64 d8 3c
       -0.053494096 -0.014313519 -0.009553012 0.026414933
000030 45 07 87 3c ac e6 dc bd cb 6a 94 3d e5 2b ab bc
       0.016482959 -0.10786185 0.07246932 -0.020894954
000040 d4 74 61 3d 61 17 74 bd 25 2c 65 bd c6 06 08 3d
       0.055043057 -0.05959261 -0.055950303 0.033209585
000050 74 fc 22 bc 7e da bc bd 39 46 fd 3c 1e c0 86 bd
       -0.009947885 -0.092213616 0.030917274 -0.06579612
000060 a2 72 0b 3e 9f d1 20 bd 53 19 7a bd c6 32 89 3d
       0.13617948 -0.03926241 -0.061059307 0.066991374
000070 e6 d1 73 bb bc c5 a0 bb 76 7e 26 bd 14 c7 6f bc
       -0.0037203967 -0.0049063843 -0.040647946 -0.014634866

layers.2.weight f4 [32]
000000 42 ac 8a 3f 61 2d 83 3f d0 d5 7a 3f 57 90 6c 3f
       1.0833819 1.0248224 0.979825 0.92407745
000010 78 8a 6f 3f 65 06 83 3f 9b 63 83 3f bd f7 79 3f
       0.9357066 1.0236326 1.0264772 0.97643644
000020 9f 22 81 3f c3 f0 81 3f f5 3e 75 3f 14 22 6e 3f
       1.008869 1.01516 0.9579919 0.9302075
000030 e7 1c 86 3f f4 d3 7c 3f 7e 88 84 3f 49 54 75 3f
       1.047757 0.98760915 1.0354154 0.95831734
000040 61 44 78 3f e0 77 7f 3f cc ae 81 3f 68 48 85 3f
       0.9697934 0.9979229 1.0131469 1.0412722
000050 73 ea 78 3f ae 99 85 3f d7 21 81 3f 9e 33 7d 3f
       0.9723274 1.0437524 1.0088452 0.98906887
000060 21 c9 69 3f b4 27 7c 3f 43 1f 78 3f 21 c8 7c 3f
       0.91322523 0.9849808 0.969227 0.9874287
000070 b0 9f 84 3f 98 c9 7a 3f f2 50 83 3f 1a 16 7a 3f
       1.0361233 0.9796386 1.0259078 0.97689974

layers.2.bias f4 [32]
000000 25 e5 07 3e 1a 68 ea bd 14 d6 31 3d a6 aa 3b bc
       0.13271005 -0.11445637 0.04341705 -0.01145426
000010 01 af 2d 3d c3 9d 8f bc 2a fd 05 bd 3e 27 fe bd
       0.042403225 -0.017531281 -0.03271214 -0.124098286
000020 9b 9c 05 bc f4 56 f6 3c 11 c7 45 b8 b0 32 b8 3d
       -0.008155013 0.03007076 -4.7153855e-05 0.08994043
000030 9f 3e be 3b ca b8 a1 bd 22 99 a4 bd ba d4 a6 3a
       0.005805805 -0.07896574 -0.0803702 0.0012728192
000040 ab 0a a2 bd 4e 99 10 be 83 05 e4 3c 92 d5 91 3d
       -0.07912191 -0.14120981 0.02783466 0.071208134
000050 78 a7 02 3e 87 91 04 be 2c 43 9d 3d b2 78 13 3e
       0.12759197 -0.1294614 0.07678828 0.1440151
000060 ce 55 ad 3d 1a b3 03 be 81 a6 a5 3d bd 67 fa bb
       0.084636316 -0.1286129 0.08088399 -0.007641761
000070 cf f9 ea bd 32 22 95 bb c9 b1 e0 bd 3f 7d 92 bd
       -0.114734285 -0.0045511955 -0.1097141 -0.07152795

layers.2.running_mean f4 [32]
000000 21 04 0c 3e ea 63 a3 3f e1 69 ce 3c 78 75 10 3b
       0.1367345 1.2764866 0.025196971 0.0022042673
000010 e8 79 6f 3e 9c 3c d7 3b 5a bc 4b 3e 04 00 00 00
       0.23386347 0.0065685045 0.19896069 6e-45
000020 df c5 57 34 1c a2 ff 3d ce b1 63 32 1c 28 36 3e
       2.009542e-07 0.12482092 1.3253567e-08 0.17788738
000030 b9 80 2c 32 61 7b b5 3e 53 93 4f 33 5c 0c 61 3e
       1.0040986e-08 0.35445693 4.8329934e-08 0.21977371
000040 81 f3 90 3f b3 92 98 2f 4b be 8f 3d f9 14 8d 3c
       1.1324311 2.7752875e-10 0.070187174 0.017221915
000050 86 57 29 2e 87 61 35 3f 08 32 e5 3d 04 00 00 00
       3.8503888e-11 0.7085194 0.11191183 6e-45
000060 c9 fb 60 3e c1 47 47 3e 04 00 00 00 b9 97 8b 3c
       0.21971048 0.19460966 6e-45 0.01704012
000070 5a 48 28 40 a0 3a 70 3e 76 6f a6 3f 91 6c 2d 2f
       2.629416 0.23459864 1.3002765 1.5772829e-10

layers.2.running_var f4 [32]
000000 88 15 d2 3b 95 51 73 3d ff 25 34 3b 63 04 93 39
       0.006411258 0.059403975 0.0027488468 0.00028041293
000010 fa 48 d0 3b 79 e5 01 3a 03 d8 a7 3b 04 00 00 00
       0.0063563557 0.00049551536 0.005122186 6e-45
000020 be 18 e2 32 65 dd bc 3b 55 96 b5 30 e3 c7 6a 3b
       2.6321114e-08 0.005763697 1.321221e-09 0.0035824708
000030 2c 34 a7 30 77 fa 52 3c 94 77 93 31 f8 b0 00 3d
       1.2165677e-09 0.012877098 4.2918575e-09 0.03141877
000040 62 67 37 3d 1f 33 01 2d af 1c 00 3b 9a d0 9b 3a
       0.044776328 7.344152e-12 0.0019548347 0.001188773
000050 5d 2a 92 2b 32 d4 7b 3c 9a 02 1f 3b 04 00 00 00
       1.0385682e-12 0.0153704155 0.0024263025 6e-45
000060 a8 61 66 3b c9 53 52 3c 04 00 00 00 1a f3 b9 3a
       0.0035153423 0.012837359 6e-45 0.001418683
000070 b7 09 20 3e 2a 62 ad 3b b7 4d 48 3d eb c3 60 2d
       0.15628706 0.005291243 0.04890224 1.2776428e-11

layers.4.weight f4 [64, 32, 2, 2]
000000 ab 7f 17 3d 3f 0c 8b bd 8f 34 07 bd 2b 85 2f bc
       0.036986988 -0.06789445 -0.03300911 -0.010712902
000010 f5 8e 8b bc 52 c3 cc bd 2f 1b fc 3c 4b b0 92 bd
       -0.01703594 -0.09998192 0.03077468 -0.071625315
000020 5b cf 48 3d 08 2a 35 bd 3b ea a7 3c 1a 7b 40 bd
       0.049025875 -0.044229537 0.020497432 -0.0469924
000030 81 65 ba bd 6e 5f 23 bd cb 96 31 bd 9c c0 fa 3c
       -0.091013916 -0.03988593 -0.043356698 0.030609421
000040 2a 1c c6 3b 77 fc 3f bc 93 e9 2c bd 2a e8 23 bd
       0.006045838 -0.011717907 -0.04221494 -0.04001633
000050 c2 b6 d4 3c 67 b0 b7 bc 79 cb ac 3d e8 40 1d bc
       0.025966052 -0.022422982 0.08437247 -0.009597994
000060 8d 76 33 3b b5 3d 83 bc c8 28 ec 3d 23 b9 30 3c
       0.0027383894 -0.016020635 0.11531216 0.0107863275
000070 eb ff 38 bd d8 0e d5 bd f2 f8 a5 bd 43 6d de bd
       -0.045165937 -0.10403222 -0.08104123 -0.10860684
000080 82 25 08 bd 3a 99 76 3d 10 fe ef bd 12 d0 29 bd
       -0.033238895 0.060204722 -0.117183805 -0.041458197
000090 e3 50 6d 3c 9c 5d 66 bd ea 0b 73 3d d7 12 d4 3d
       0.014484617 -0.056241617 0.059337534 0.10355156
0000a0 01 01 96 3c 99 7f c4 bc d3 de 04 3d d8 57 a5 bd
       0.018311026 -0.023986625 0.032439064 -0.080733955
0000b0 d4 46 c6 3d ae 9f 1f bd 31 4f 97 3b 22 35 70 3c
       0.09681478 -0.03897064 0.0046175946 0.014661105
0000c0 b7 47 e5 bb f1 0f 07 3d e4 df eb bd 3a c2 98 bd
       -0.0069970745 0.032974187 -0.11517313 -0.07458921
0000d0 9b 84 66 3c d7 32 3f 3d 32 6d bd bb 19 5c aa bd
       0.014069702 0.046679344 -0.0057808394 -0.083183475
0000e0 9b 0f 24 bc 32 47 68 bd c5 8b 8d bc d5 b3 26 3d
       -0.010013486 -0.056708522 -0.017278561 0.040698845
0000f0 72 7c 66 bd 79 39 ff bd c8 4f b6 bd 61 51 b5 3b
       -0.056271024 -0.12462134 -0.08901936 0.0055333828
000100 1c 74 4b bc c7 e4 86 3d 2c ed de 3b 4d 63 22 3d
       -0.012417819 0.065866046 0.0068031754 0.03964548
000110 6c 95 57 3d 34 e6 94 bd 4c 50 34 3d 5f bd 88 bd
       0.052632734 -0.0727047 0.04402189 -0.06676745
000120 2a 4a dd bc 9a 1e da 3d 7a 09 8c 3c e6 24 07 bc
       -0.027012903 0.10650368 0.017094363 -0.008248543
000130 0b 38 a8 3c 68 e5 78 3d c1 39 76 3d ac 33 8b 3d
       0.020534536 0.060765654 0.060113672 0.06796965
000140 82 6e 12 3d be b4 d4 3d 47 2c 11 bd 85 58 61 bc
       0.03574992 0.10386036 -0.035442617 -0.013754015
000150 24 7d e1 3b bb c6 ef 3c 72 4e 97 bd b5 7d 96 3d
       0.006881373 0.029269567 -0.07388009 0.073481955
000160 34 96 96 3d 13 37 90 bb 60 ed bb bd 4e 5b 21 bd
       0.07352868 -0.0044010966 -0.09176135 -0.039393716
000170 4e 89 be 3d 89 de 73 3d 66 90 d8 3d b9 4f ab 3d
       0.093035325 0.059538398 0.10574417 0.08364815
000180 05 de 12 bc 5b 5e e9 3c d5 11 b0 bd c3 5d 6d 3c
       -0.008964066 0.028487375 -0.08597151 0.014487687
000190 c7 c9 a7 bc 3c ee df bd 64 15 9d bd e7 ee 0e 3d
       -0.020481957 -0.109341115 -0.076700956 0.034895804
0001a0 48 f1 38 bd 5e 95 34 3d 7e 05 64 3c ca 46 63 bd
       -0.04515198 0.04408776 0.013917325 -0.05548743
0001b0 d0 49 e3 bd d9 2b 05 be 50 4c e2 bc 24 a9 c5 3c
       -0.11098063 -0.13005008 -0.02762428 0.024128504
0001c0 4e 41 34 bd 44 0d 40 3d 45 03 42 3d 5b 46 cb bd
       -0.044007592 0.04688765 0.0473664 -0.099255286
0001d0 cc 8c ed bd aa 32 f6 3c 08 47 37 3b dd 07 08 3c
       -0.115991205 0.030053455 0.0027965922 0.008302656
0001e0 ed 47 0f 3b 4f 77 b1 bd 1f 02 0c bd 0d 0a c0 3d
       0.002186294 -0.086653344 -0.03418171 0.09376917
0001f0 d9 74 15 bd 93 66 08 3d fa 41 87 3d ec de 86 bc
       -0.036488388 0.033300947 0.06604381 -0.01646372
000200 7b ab 34 3d 96 aa 23 bd b4 14 f5 bd f7 c5 96 bc
       0.04410885 -0.039957605 -0.119668394 -0.018404944
000210 e8 64 8a bd 44 09 52 3b 6e 56 e9 bc f7 c4 90 3d
       -0.067575276 0.003204898 -0.028483596 0.07068818
000220 dc f5 89 3d 7e ad 59 bd af fb c5 bd ae 6d 70 bc
       0.06736347 -0.05314397 -0.096671455 -0.014674587
000230 1b 28 15 3c dd 66 09 bd 4d 71 37 bd 5f f7 6c 3a
       0.0091038 -0.033545364 -0.044785786 0.0009039547
000240 27 8c f9 bc 56 3e bf 3c c2 41 99 3d da ff 17 bc
       -0.030462338 0.023345154 0.074832454 -0.009277308
000250 5a 24 cf bd bb 89 7f bd d3 86 a7 bd 3c aa 3c bd
       -0.101143554 -0.06238721 -0.081800126 -0.046060786
000260 c5 bc d6 3d a1 c3 c3 bb c8 c8 7e bc 05 10 86 3d
       0.10485224 -0.0059742485 -0.0155508 0.06546024
000270 8b 41 a1 3c 1f 2c 5c bd 74 c9 cc 3c 20 c4 49 bd
       0.019684574 -0.053753015 0.024998404 -0.049259305
000280 db e9 8e bc e3 b9 52 3d 43 71 49 ba 5a b1 78 bd
       -0.017445495 0.051446807 -0.0007684419 -0.06071601
000290 4f 46 8d bc 04 89 35 bd 26 6a a4 bc 54 f1 55 3d
       -0.01724544 -0.04432012 -0.020070147 0.0522321
0002a0 e6 e9 2a bd 0a 2a 6a ba 32 57 9a bd aa e4 bd bd
       -0.04172697 -0.0008932656 -0.075361624 -0.0927213
0002b0 02 a5 f2 3b c5 bb 4b bd 1c c2 66 3c 98 29 81 bc
       0.0074049244 -0.049739618 0.014084365 -0.015766904
0002c0 70 4a 62 bd 11 54 4e 3d e0 81 32 bc 99 33 83 bd
       -0.05524677 0.05037314 -0.010895222 -0.06406326
0002d0 b3 a7 0b 3d aa 2e 79 bd 9f a2 67 3d 5b 50 26 bc
       0.034095477 -0.060835518 0.056551572 -0.010150994
0002e0 01 3c 91 bd 9c 66 02 3d 7a 7a 34 bd 67 16 d3 bd
       -0.07091523 0.031836137 -0.044062115 -0.10307007
0002f0 94 6c 8e bc a0 28 00 3d 2f fa 61 bd a3 7f 38 3d
       -0.017385758 0.031288743 -0.055170234 0.0450436
000300 53 31 32 bd 65 16 80 3b 60 c0 dd bd 22 5a 9f bd
       -0.04350407 0.0039089196 -0.10827708 -0.07780863
000310 05 48 9d 3c f0 e2 35 3d 0c 8d 53 bd 80 08 2b 3d
       0.01919938 0.044405878 -0.051648185 0.041756153
000320 3e 36 99 3d e6 1c d1 3c aa 86 e4 bd 69 2f 2c 3c
       0.07481049 0.025526475 -0.11158498 0.01050935
000330 df 63 1e 3e c0 40 2c 3e 4d 0a 95 bc f0 e8 ab bd
       0.15467785 0.16821575 -0.018193388 -0.08394039
000340 23 36 ea bb fd 9f c0 3d 0d 50 1e 3d c8 1c 38 3d
       -0.007147567 0.09405515 0.03865056 0.044949323
000350 1e c1 ec 3c cb 4b 5d 3d ca ba d1 3c 16 d8 5e 3b
       0.02890068 0.05402736 0.025601763 0.003400331
000360 6d 90 e1 3d a0 e8 59 3c 76 40 a3 3b 6f f0 2c 3d
       0.11013875 0.013300091 0.0049820496 0.042221483
000370 9c 3c 0c bd 73 d6 84 3d 54 a8 8d bc 33 cb 40 bd
       -0.03423749 0.064862154 -0.01729218 -0.047068786
000380 bd a5 7a bd 7a eb 96 3d 6c 53 4f 3c 58 ff 01 bd
       -0.061193217 0.07369132 0.012654167 -0.031737655
000390 09 40 63 bd 52 69 23 3d a7 fe 22 bd 6c 88 b5 bc
       -0.05548099 0.039895363 -0.039793637 -0.022159778
0003a0 f0 7b 6d bd d6 a8 18 3d df e0 de bb 96 16 a2 3d
       -0.057979524 0.03727039 -0.006801709 0.07914464
0003b0 72 38 23 bd 0f 18 08 bd 89 61 bd 3d b5 e4 df 3d
       -0.039848752 -0.03322607 0.09247119 0.10932294
0003c0 43 66 0e bb 23 06 3f bd 18 7f 30 bd 0f 8e 94 3c
       -0.0021728433 -0.04663671 -0.043089956 0.018134145
0003d0 db 42 0f 3d d8 83 b6 39 a0 01 06 3d 88 7c b1 bd
       0.034975868 0.00034811976 0.032716393 -0.086663306
0003e0 e5 5e 6b 3d c2 8d 39 bd e9 53 c0 bb cc c0 8f 3d
       0.057463545 -0.045301206 -0.005869378 0.07019195
0003f0 a4 f2 93 bd ca 90 c5 bc 61 e4 4d bd 79 fe 64 3d
       -0.072240144 -0.024116892 -0.050266627 0.055906747

layers.4.bias f4 [64]
000000 ec f7 ac 3d f2 b5 96 3c 5b 58 82 3d e4 bc e4 3d
       0.08445725 0.018397305 0.06364509 0.111688405
000010 54 a1 7c bd 7b 75 09 3e 6e 3c d9 3b 53 da ae 3d
       -0.061677292 0.13423721 0.0066295182 0.08537736
000020 79 80 0a 3e 6a da 5f bd f3 bf 51 3d 3c 63 c1 bd
       0.13525571 -0.054651655 0.051208448 -0.094427556
000030 39 03 ef bc 1f 44 9a bd 8e 87 0e 3d d1 e8 b5 3d
       -0.029176341 -0.07532524 0.034797244 0.08882297
000040 96 44 8f 3d 18 9b c9 bd 79 45 9b bc e9 90 60 3d
       0.069955036 -0.09844035 -0.018954026 0.054825697
000050 7a fc 99 3d 0f a7 83 3d 88 83 29 3d 33 da 16 be
       0.07518859 0.06428348 0.041385204 -0.14731674
000060 59 82 96 3d 52 a7 86 bb 21 e6 8d 3a 41 d3 05 3c
       0.073490806 -0.0041093016 0.001082603 0.008168043
000070 b5 2a a9 3d d0 db fa 3b 66 4c c4 3d e4 75 c1 bd
       0.08260099 0.007655598 0.09584884 -0.09446314
000080 8e 12 08 bd 9f 22 d7 bd f5 d2 87 bd 5b 8c c4 3d
       -0.03322082 -0.1050465 -0.06632034 0.09597083
000090 f9 63 aa 3c 32 a1 33 3d bc c7 57 bd c2 31 27 3d
       0.020799624 0.0438549 -0.052680716 0.040818937
0000a0 3c 84 71 bd 85 40 bc 3b 40 13 21 bd e4 c3 94 3d
       -0.058964 0.005744996 -0.039325 0.07263926
0000b0 44 d7 e6 bd 72 17 d8 bd c0 bd b1 bd 83 3c 13 be
       -0.112715274 -0.10551347 -0.0867877 -0.14378552
0000c0 85 58 17 3e 61 71 18 bd 2b a0 f3 bc 17 65 9a 3c
       0.14779861 -0.0372175 -0.02973946 0.018847032
0000d0 c4 20 b6 3d 2e 89 53 bc ca 48 a6 bc 4a 05 20 bd
       0.08892968 -0.012911124 -0.02029838 -0.039067544
0000e0 7b 38 82 bd 2b f1 87 3b 71 5e d2 3c 33 2f b2 bc
       -0.06358429 0.0041486225 0.025679799 -0.021751022
0000f0 bd c3 d6 bd 43 ba 82 bd b1 f6 05 be de 8e de bd
       -0.10486553 -0.06383183 -0.13082387 -0.108670935

layers.6.weight f4 [64]
000000 cf 57 7d 3f 20 52 7e 3f 46 7a 64 3f fc b1 72 3f
       0.9896211 0.9934406 0.89249074 0.9480283
000010 8e 9c 84 3f b7 03 6f 3f cc 6b 6c 3f 03 c7 74 3f
       1.0360277 0.93365043 0.92351985 0.9561617
000020 2d 2d 63 3f e0 bb 82 3f 57 d7 71 3f 94 6f 74 3f
       0.8874081 1.0213585 0.9446921 0.95482755
000030 ff 4c 8d 3f 66 ce 83 3f 67 c4 75 3f e3 61 6f 3f
       1.1039122 1.0297363 0.9600281 0.9350874
000040 06 36 80 3f f7 b4 84 3f 9c f2 7b 3f 92 3e 80 3f
       1.0016487 1.0367726 0.9841707 1.0019095
000050 68 08 76 3f 75 00 70 3f 05 9a 84 3f d0 69 86 3f
       0.96106577 0.937507 1.0359503 1.0501041
000060 98 bb 73 3f 93 91 6f 3f 0f aa 77 3f 46 cd 85 3f
       0.9520812 0.93581504 0.96743864 1.045327
000070 f9 50 8a 3f c1 c1 78 3f c5 a7 7d 3f 28 a5 74 3f
       1.0805961 0.97170645 0.9908412 0.9556451
000080 2a a4 89 3f 31 87 86 3f 99 cb 75 3f 66 2b 68 3f
       1.0753224 1.0510007 0.9601379 0.9069122
000090 2d 10 82 3f c1 67 6e 3f 4b 37 8a 3f 09 bb 8e 3f
       1.0161186 0.93127066 1.0798124 1.1150829
0000a0 3c ac 7a 3f 4b 78 8c 3f f9 0d 88 3f b7 4f 6b 3f
       0.9791906 1.097421 1.0629264 0.9191851
0000b0 5e 4e 96 3f c7 13 7e 3f fd f4 7e 3f f1 a7 74 3f
       1.1742666 0.9924893 0.9959257 0.9556876
0000c0 9f f7 68 3f ff 62 86 3f a6 ee 7f 3f c9 d6 76 3f
       0.9100284 1.0498961 0.99973524 0.96421486
0000d0 e5 cb 82 3f 00 e7 77 3f cc c0 8b 3f 95 19 6d 3f
       1.0218474 0.96836853 1.0918212 0.9261716
0000e0 57 4e 85 3f 77 f6 77 3f d6 d6 8e 3f ec a1 7c 3f
       1.0414532 0.9686045 1.1159313 0.98684573
0000f0 f7 5a 7f 3f 4f b8 8b 3f bd f2 84 3f c0 6d 77 3f
       0.99748176 1.0915622 1.0386578 0.9665184

layers.6.bias f4 [64]
000000 39 8f 91 3d 8f d6 ab 3c 62 f6 69 3d 6d a6 9c 3d
       0.07107396 0.020976333 0.057119735 0.07648931
000010 1a 22 a4 bb 22 f4 87 bc 57 f1 ac 3c f6 0c 9e bc
       -0.005008948 -0.016595904 0.021111174 -0.01929329
000020 34 41 fa 3d 7d 3e ff 3d 36 e2 29 3d 5b 65 c8 3c
       0.12219468 0.124630906 0.041475497 0.024462393
000030 d3 f8 fd 3b 7b 20 3c bb f6 b1 d6 3d 79 9d 84 3d
       0.0077506094 -0.0028705883 0.10483162 0.06475348
000040 17 47 82 3c b7 ce f2 3c 1c 4a 16 3d 57 76 c8 3d
       0.015903039 0.029639585 0.03669177 0.097881965
000050 8e 1c a4 3d 16 f5 92 3d de 63 25 bd d2 12 6f bc
       0.08013259 0.07175653 -0.040378444 -0.014591889
000060 e4 ab 37 3d 7e 74 01 3e f4 44 45 bc 58 a0 9b 3c
       0.044841662 0.12642094 -0.0120403655 0.018997356
000070 e6 5e 90 3d 5c 41 30 3d c0 97 5b 3d 9c ca ef bb
       0.070493504 0.04303108 0.053611517 -0.007317854
000080 5f 9f 9f bc 2a 30 9a bc 40 4d 97 3d e1 6f f3 bc
       -0.019485174 -0.018821795 0.07387781 -0.029716434
000090 72 e0 8d 3d a7 da 18 3d 15 58 ac 3d e3 16 d0 3c
       0.06927575 0.037317898 0.08415238 0.025401538
0000a0 9f 87 97 3c f0 87 df bc 18 0c 0a 3e c0 4a aa bc
       0.018497286 -0.0272865 0.13481176 -0.020787597
0000b0 01 56 08 3d 01 94 98 3d d4 95 15 3e 09 8c 89 3c
       0.033285145 0.074501045 0.14607936 0.016790407
0000c0 73 df 8f 3d d0 67 2a bd ec f4 71 3d 08 6a c8 3d
       0.070250414 -0.04160291 0.059071466 0.09785849
0000d0 5b 68 3a bd 02 33 f7 3d e5 71 e0 3d f1 b1 ed 3d
       -0.045509677 0.12070276 0.10959224 0.11606205
0000e0 c7 de 4b 3d f8 59 aa 3d 2f 8b 9a 3d bd 0f 30 3d
       0.049773004 0.083179414 0.075460784 0.04298376
0000f0 06 9d 15 3c 74 6c 9a 3d 89 60 90 3d 8c 80 c8 bd
       0.009131676 0.07540217 0.070496626 -0.09790143

layers.6.running_mean f4 [64]
000000 ed 9d 95 3e 95 e6 86 3e cd 64 84 3e 84 d8 dd 3d
       0.2922205 0.26347795 0.25858155 0.10832313
000010 7a a9 e0 3d bb 45 d2 3e 16 50 02 3e dd 68 bb 3e
       0.10969825 0.41068825 0.12725863 0.36603442
000020 00 41 d8 3e 7f d5 7b 3c a4 de 43 3e 7e 98 3e 3c
       0.4223709 0.015370726 0.191279 0.011633037
000030 48 24 6f 3d 33 de ca 3c ce fb c2 3d eb 8b 8e 3e
       0.05838421 0.024764156 0.09520684 0.27841124
000040 32 38 1f 3e 94 bf 18 3e 2b 92 71 34 11 d8 b7 3e
       0.1554878 0.14916831 2.249805e-07 0.35907033
000050 48 1b 4d 3e da 8e 0e 3e e9 b0 e1 3d 28 cb 11 3d
       0.20029938 0.13921681 0.11020071 0.035594136
000060 14 d0 02 3f 3e 22 9d 3e 4c c4 33 3e 96 5e 2d 3d
       0.5109875 0.30690187 0.1755535 0.042326532
000070 38 5c fa 3d 9f c8 94 3d dc 3e ec 3e bd 59 7c 3e
       0.122246206 0.07264828 0.46141708 0.24643607
000080 1c 4f 9b 3a 82 cf 4c 3e 87 0b 0f 3d 5f d4 ec 3e
       0.0011849138 0.20001033 0.034923103 0.46255776
000090 c8 1c 5f 3d 41 66 ce 3e d3 ed 14 3d d4 4a 83 3d
       0.054470807 0.4031239 0.03635962 0.06410757
0000a0 2a fc 75 3e e0 81 3e 3d d5 35 d8 3c 09 b4 10 3e
       0.24021974 0.046510577 0.026392857 0.14131178
0000b0 ca 58 d6 3c 42 84 8d 3d e1 3c dc 3d fd 88 30 3b
       0.026165385 0.06909992 0.10753799 0.002693712
0000c0 83 53 e5 3e 07 d9 6c 3c 93 1d 1f 3e af 4d 78 3a
       0.44790277 0.01445604 0.15538625 0.0009472025
0000d0 d7 9e f6 3e 7d 9e 81 3e ba 01 d1 3c 54 42 fc 3e
       0.4816806 0.2531623 0.025513519 0.49269354
0000e0 4b 55 70 3b c0 f8 dd 3d af 1c 0c 3c a1 8d 6d 3c
       0.0036671932 0.10838461 0.008551761 0.014499099
0000f0 d4 d3 66 3e b6 c8 f1 3c 1a ef 15 3e c6 b0 e9 3e
       0.22541744 0.029514652 0.14641991 0.4564268

layers.6.running_var f4 [64]
000000 9a c0 d2 3d f1 d5 32 3e c0 bd 9c 3d bd da 24 3d
       0.10290642 0.17464425 0.076533794 0.040247668
000010 8c cb c5 3d da 53 73 3e cf 88 54 3d 19 49 be 3d
       0.09657964 0.23762456 0.051888283 0.09291286
000020 44 4a d5 3d 8f a3 e7 3b 2e 48 d3 3d e6 9d 93 3b
       0.10414556 0.0070690583 0.103165016 0.004504907
000030 c7 a1 60 3d 05 98 eb 3b c4 dd c6 3c a4 3e f1 3d
       0.054841783 0.007189753 0.024275668 0.11779526
000040 9d 26 e1 3d 25 f9 03 3e c3 a0 83 34 a9 93 e7 3d
       0.10993693 0.1288801 2.451762e-07 0.11307461
000050 77 5f c3 3d 76 8c 6f 3d 6a f5 d8 3d bb 18 55 3c
       0.09539693 0.058483563 0.10593684 0.0130063845
000060 1d de 1c 3e 94 81 31 3e c7 46 04 3e 50 bb b4 3c
       0.15319104 0.17334586 0.12917624 0.022061974
000070 5e 6e e4 3d ba c7 f1 3c 09 35 33 3e b8 17 ac 3d
       0.11153863 0.029514182 0.175007 0.084029615
000080 f4 fe c6 38 3e 7c ab 3d 7c 9b ec 3c c2 7f 76 3e
       9.4888645e-05 0.08373307 0.028882734 0.24072173
000090 48 83 26 3d 65 0e cd 3d 41 df a7 3c d6 fb dc 3c
       0.040652543 0.10012511 0.020492198 0.026975553
0000a0 b0 4c ad 3d 14 f5 3f 3c 3b 7a 33 3c 7c 70 3d 3d
       0.084618926 0.011716146 0.010954435 0.04624985
0000b0 23 4b cd 3c 21 c1 c5 3c 76 84 40 3d 34 a6 79 3a
       0.025060242 0.024139943 0.047001325 0.00095233624
0000c0 31 46 fd 3d 7c 8e d4 3b 4a 42 4b 3e ce 0c a1 39
       0.123669036 0.006486712 0.19849506 0.00030717853
0000d0 35 4d 85 3e c0 6c 38 3e e0 f0 fd 3b 24 68 e9 3e
       0.26035467 0.18010235 0.007749662 0.45587265
0000e0 d7 70 fa 39 2b 02 ec 3d 51 40 a9 3b 87 58 f4 3b
       0.00047767788 0.11523851 0.005165138 0.0074568423
0000f0 d0 49 a8 3d 66 94 d7 3b 6e 6b 85 3d e2 df 0e 3e
       0.082172036 0.00657897 0.06514631 0.13952592

layers.8.weight f4 [64, 64, 2, 2]
000000 1e 0c fe 3c 98 1c aa bd 0a 08 90 ba c1 31 f7 3c
       0.031011637 -0.08306235 -0.0010988724 0.030175092
000010 0e ab 2a bc 63 f8 45 bc c5 4b c7 bc 67 29 e8 3c
       -0.010416759 -0.012083146 -0.024328122 0.028340055
000020 14 b6 83 bd 71 6c bd 3c a1 70 36 3d 51 a1 b9 bb
       -0.06431213 0.023122998 0.044541005 -0.0056649824
000030 67 87 c8 3b c7 32 e4 3c 5c 55 3f 3d 81 c4 1c 3c
       0.006119657 0.027856244 0.046712264 0.009568335
000040 1a 4d 87 3c bb 30 98 bd 4e 3c 57 3b bb 90 fc bc
       0.016516257 -0.074311696 0.003284234 -0.030830732
000050 ee 47 04 3d 0c ee 88 bb f8 1c b8 bc 9e 2e 9f 3c
       0.03229516 -0.004178768 -0.02247475 0.019431408
000060 fe 51 0c bc dc 38 91 bd d3 e0 9b bc e8 b3 a7 3c
       -0.00856447 -0.07090923 -0.019028103 0.020471528
000070 fc 10 d0 3c 5e b8 9e bd d4 d7 09 bb 3c c2 ee 3c
       0.025398724 -0.07750009 -0.0021033185 0.029145353
000080 32 1d 08 bd 74 13 e0 bc ce ad c0 3b a4 e4 b4 bc
       -0.033230968 -0.027353026 0.005880094 -0.02208168
000090 48 dc e4 3c 43 8a 4e bd 0f a6 3d 3d 05 07 0d 3d
       0.02793707 -0.050424825 0.046300944 0.034430522
0000a0 d1 17 61 bb 20 0d 03 3d ea 91 3e 3c bc d9 a1 bd
       -0.003434647 0.03199494 0.011631468 -0.07902858
0000b0 16 7e 93 bd c6 66 dc 3c 6c 41 5a 3d 3e e1 c3 bc
       -0.07201783 0.026904475 0.053285047 -0.023911115
0000c0 11 5b 35 3d 2c 43 62 3d e1 af ce bd 07 9f 10 be
       0.0442763 0.05523984 -0.1009214 -0.14123164
0000d0 75 74 97 3d fd e7 07 be 68 60 b5 bc 70 38 19 bd
       0.07395259 -0.1327209 -0.022140697 -0.03740734
0000e0 e2 78 4f 3b fd ef 3f 3c c3 e5 b4 3a 42 96 99 bd
       0.0031657745 0.0117149325 0.0013801384 -0.074993625
0000f0 ba eb 6d bd 98 15 b9 bc 9a d3 a0 3b 46 2e 70 bd
       -0.058086134 -0.022593305 0.0049080374 -0.05863788
000100 db 87 00 bd 6e 79 8a 3d 06 0f 01 bc 2d e0 12 bd
       -0.031379562 0.06761442 -0.007877117 -0.035858322
000110 c1 a1 68 bd a6 a8 9c 3b ee bc 7b 3d 76 53 71 bd
       -0.056794886 0.0047808466 0.061459474 -0.058917485
000120 50 ad e8 3c df 70 44 3c 04 51 a6 bc 86 90 7d bc
       0.028402954 0.011989801 -0.020302303 -0.015476352
000130 f3 b4 95 3c 29 0b 9b bc 20 f8 12 bd 12 99 99 3c
       0.01827476 -0.01892622 -0.03588116 0.018749747
000140 04 ac 20 bd 1b a3 d5 3c a8 3b 12 3d e4 c1 90 bc
       -0.039226547 0.026078751 0.035701424 -0.01767058
000150 e3 7f 7e bc f9 aa 2c 3b 7a 0e 83 bd 89 92 36 3d
       -0.01553342 0.0026347025 -0.063992456 0.04457334
000160 89 89 a1 3d 61 92 cb bd ad 99 bb bb 98 6e 17 3c
       0.07887561 -0.09940029 -0.0057251067 0.009242676
000170 af 10 28 be 5c 9e 9a bd 9e 6b 84 3d 9a 53 57 bc
       -0.16412614 -0.07549736 0.06465839 -0.013142491
000180 29 0c 0a 3d e0 15 f8 bc 55 25 0c bd cd 79 6c 3b
       0.033703003 -0.030283868 -0.03421529 0.003608334
000190 5c 0f b6 3a 93 28 2f 3d aa 57 c6 3c 38 ee 65 bd
       0.0013890075 0.042763304 0.024211723 -0.056135386
0001a0 3b 4b f5 3b f3 39 89 3d 43 94 25 bd 8e 6d a4 3b
       0.007485775 0.06700506 -0.040424597 0.0050179427
0001b0 78 60 cc bc 08 55 09 bd a5 61 54 bd 94 40 f9 3b
       -0.024948344 -0.033528358 -0.051850934 0.0076065753
0001c0 b5 39 87 bd cb d1 05 b9 43 8b 0f be 92 ab 14 3b
       -0.066028036 -0.00012762022 -0.14017968 0.0022685272
0001d0 62 3e b7 bb 9e e5 c1 bd 63 b9 b6 bc fd 91 ee bc
       -0.0055921534 -0.09467624 -0.022305196 -0.029122347
0001e0 d4 92 a8 3c 8a ef bc bc a8 e3 86 bc 53 0b e4 bc
       0.020577826 -0.02306344 -0.016465977 -0.027837431
0001f0 91 08 5f 3c 1f ee 3a 3d 36 c6 c5 bd dd 77 89 bd
       0.013612882 0.045637246 -0.09656946 -0.06712315
000200 e5 03 e1 bb 7c a0 83 bd f9 aa d1 bb d0 8a f3 bc
       -0.0068669193 -0.06427094 -0.0063985554 -0.029729277
000210 93 0c 1f 3d 0d e5 d3 bd 72 1e c3 bc 04 2b 45 bd
       0.03883035 -0.10346422 -0.023818228 -0.048136726
000220 8c 28 ee bd 6d fe f1 3c 9d 0d 6b 3d 9e 13 6f bd
       -0.116288275 0.029540265 0.05738603 -0.058368318
000230 f9 37 69 bd 36 fc 0b 3d 59 51 f0 3c ce a6 8d 3c
       -0.056938145 0.034176074 0.029335665 0.017291453
000240 ff 13 cc bd 41 1c 72 3d 62 ca 24 3d 2e 9c 93 3b
       -0.099647515 0.059108976 0.04023207 0.004504702
000250 b4 4f ce bd 3b 4c f0 3a 28 96 fa 3c 4a 60 0e bd
       -0.10073796 0.0018333265 0.030589178 -0.034759797
000260 be 7c 87 bd 5b 3a 42 3d 73 23 16 3d 75 37 01 bd
       -0.066155896 0.047418933 0.0366549 -0.03154703
000270 ea c4 ae bc 20 09 10 bd ba 72 30 3d cd 4c cd bd
       -0.02133413 -0.035164952 0.04307816 -0.10024414
000280 4a 6c 90 3c 86 2e 5b bd 5d 6f 9a bc d7 e3 6e 3d
       0.017629761 -0.053511165 -0.01885193 0.058322754
000290 be d6 23 be 14 7f 00 bd 8a 08 53 3d 2b 44 d7 bb
       -0.15999886 -0.03137119 0.051521815 -0.0065694056
0002a0 7a 19 45 bd 21 e3 bc 3d 43 0e 98 bd 48 23 73 3d
       -0.04812 0.09223009 -0.07424595 0.05935982
0002b0 83 1a 76 3b 56 bf a1 bd 0e b9 7f 3d 06 18 12 bd
       0.0037552423 -0.078978226 0.06243234 -0.03566744
0002c0 71 47 a9 bc d8 86 19 bd 8b f2 19 be 4b e2 f2 bd
       -0.020663949 -0.037482113 -0.15033929 -0.11859568
0002d0 a5 94 ba bc fa fc 14 bd 33 4d 67 bc 43 40 2d bd
       -0.022775957 -0.03637407 -0.014117527 -0.042297613
0002e0 4a ee 87 3c 74 5e 5b bc 75 39 bd bc 56 1d cf bc
       0.016593117 -0.013389219 -0.023098687 -0.025282543
0002f0 b9 31 4a bc a8 67 44 bd c0 17 38 3d 0b e7 a4 bc
       -0.012340956 -0.047950417 0.044944525 -0.020129701
000300 fd 24 d3 3c 70 e6 a9 bc 98 18 7a 3c cd e1 cb bc
       0.025774473 -0.020739764 0.015264653 -0.024887944
000310 77 05 d8 bd a0 7c 5b bd 21 b4 b1 3c c4 6e aa 3d
       -0.10547917 -0.05358565 0.021692337 0.08321908
000320 96 c2 2f bd 96 8f 85 bd ac 3a cd bc bd 8d ba bc
       -0.04291018 -0.065215275 -0.025052391 -0.022772664
000330 64 a8 ab bd 2b de 50 3c f9 60 c7 bc c9 ad 0d 3d
       -0.08381727 0.0127482815 -0.024338232 0.034589563
000340 7e 4d bd bd 27 52 ce 3c c5 1e de b9 be d3 48 3d
       -0.09243296 0.025185658 -0.00042366065 0.049030058
000350 b9 ed d7 bb 6f 48 c3 bb 94 f1 f4 bc 92 05 95 3c
       -0.006589618 -0.0059595625 -0.02990035 0.018191133
000360 65 ad bf 3c 2b 60 6e 3d 42 19 bc 3c 00 41 28 bd
       0.02339811 0.05819718 0.022961263 -0.041077614
000370 a9 5f f4 bc 10 f5 61 bd 2c 23 3e 3c f0 6c dd 3a
       -0.02983077 -0.05516535 0.011605065 0.0016893428
000380 87 0c 53 bd 24 db 4c bd 1e c3 99 bc 47 95 c8 bb
       -0.05152562 -0.050013676 -0.018769797 -0.006121311
000390 e4 4a 81 bd 8f ec 31 bd 4d 21 aa bb 8b 04 a5 bc
       -0.063131124 -0.04343849 -0.005191958 -0.020143768
0003a0 ce d6 88 bc 7a 25 7e bd 90 25 99 bc 6a b1 aa 3c
       -0.01670399 -0.06204746 -0.018694669 0.02083655
0003b0 fa 54 95 3c 37 c5 56 bd 2b e7 b5 bc 44 ae 08 3d
       0.018228997 -0.052434172 -0.022204956 0.033369318
0003c0 ab 2c 1b bc 5b 99 1a 3c e9 f8 01 be a8 43 00 be
       -0.009471099 0.009435977 -0.12692608 -0.12525809
0003d0 5a 12 2c bd e8 54 23 be 65 f0 cf bb 91 9f 69 bd
       -0.04200969 -0.15950358 -0.006345796 -0.05703694
0003e0 a6 a2 87 bd 94 e2 16 be 58 c0 d6 bd c6 1a 83 3d
       -0.066228196 -0.1473487 -0.104859054 0.06401591
0003f0 82 54 19 bd 85 cc 8f 3d ef 0e 11 ba 4a 7b 72 bd
       -0.03743411 0.07021431 -0.00055335363 -0.05919961

layers.8.bias f4 [64]
000000 ac aa 41 bd e3 c6 ee bd ca ed 02 be a9 73 ff bd
       -0.047281906 -0.116590284 -0.12786022 -0.12473232
000010 d8 b1 c7 bd dc 0a b7 bd 41 19 6f 3d ef 3b 17 be
       -0.09750718 -0.08937618 0.058373693 -0.14768957
000020 7f 57 23 be 26 70 bf bc d6 ab 57 3d ee 99 7c 3d
       -0.15951346 -0.023368906 0.05265411 0.061670236
000030 ae 80 b9 3c 8c 3b 8b bd 64 c6 40 3d cd 7f fc bd
       0.022644367 -0.06798467 0.0470642 -0.123290636
000040 88 fc 32 be 60 d7 f0 bd 45 5f 03 be d4 b2 0e 3d
       -0.17479146 -0.117598295 -0.12829311 0.034838513
000050 77 ec 3a bc 21 d9 d5 bd 0a 25 32 3d 42 41 59 bd
       -0.011408917 -0.10441805 0.043492354 -0.05304075
000060 87 e8 b3 bc 09 3e 5a bb 4d 0f 71 3c f9 05 1a 3d
       -0.021961464 -0.0033301136 0.014713121 0.037603352
000070 c4 b1 b5 bd 7b b6 b9 3c 66 48 b3 bc 06 9a e3 3c
       -0.08871797 0.022670021 -0.021885108 0.027783405
000080 3c e6 1e be 2a 9b f0 bb ac 3b bc 3c 98 18 29 3d
       -0.15517515 -0.0073427157 0.022977673 0.04128322
000090 50 9d 55 bb 6a 8f 0f be e4 d4 d2 bd 9f 4c ee bd
       -0.0032594986 -0.14019552 -0.10294512 -0.11635708
0000a0 19 c0 75 bd ee 68 8c 3b 85 f6 ce bd cd 9f 41 bd
       -0.05999765 0.0042849695 -0.101056136 -0.04727154
0000b0 2f fc 95 bd 26 30 13 3d 1e 52 73 bd 9b b0 c8 bd
       -0.07323491 0.03593459 -0.059404485 -0.0979931
0000c0 c7 27 03 bc 82 e4 0e bd 3d 70 28 bd 2f d3 a2 bd
       -0.008005089 -0.03488589 -0.041122664 -0.07950436
0000d0 40 09 1b bc 4e 0e fb 3c 8c 8b 06 be 27 90 9f 3d
       -0.009462655 0.03064647 -0.1313917 0.07791167
0000e0 5c 70 3f be dd ad 9d bd 69 43 69 bd 4c ae 1b bd
       -0.18695205 -0.076991774 -0.056949053 -0.03800802
0000f0 cc 4f dc bd 34 26 95 bd 3c d2 90 bd e2 4e b4 3c
       -0.107574075 -0.07282677 -0.07071349 0.02201027

layers.10.weight f4 [64]
000000 62 61 ff 3f 9d ea ff 3f 1a 9f fe 3f 45 ad 00 40
       1.9951594 1.9993473 1.9892304 2.0105755
000010 1f bf ff 3f da 21 ff 3f 16 29 00 40 ed 38 ff 3f
       1.99802 1.9932206 2.0025077 1.9939247
000020 d8 fb ff 3f d7 3c 00 40 0a 9f 00 40 91 5c 00 40
       1.9998732 2.0037134 2.009707 2.0056498
000030 88 43 01 40 ec 5a ff 3f 0e e0 00 40 b0 33 00 40
       2.0197468 1.9949622 2.0136752 2.0031548
000040 15 23 ff 3f 22 74 fd 3f 3a b6 ff 3f 3d 4f 00 40
       1.9932581 1.9801066 1.9977486 2.0048363
000050 64 e7 00 40 54 39 00 40 af d2 00 40 b7 26 00 40
       2.014123 2.003499 2.012859 2.002363
000060 c8 56 00 40 81 b3 00 40 25 7c 00 40 3b 0a 01 40
       2.0052967 2.010956 2.0075772 2.0162494
000070 45 24 ff 3f d4 c1 00 40 da bb 00 40 38 b2 00 40
       1.9932944 2.0118303 2.0114655 2.0108776
000080 0e 3f ff 3f ad 3b 00 40 17 c9 00 40 94 cf 00 40
       1.9941118 2.0036423 2.0122736 2.0126696
000090 32 36 00 40 98 44 00 40 52 d6 00 40 84 6e ff 3f
       2.0033078 2.0041866 2.013081 1.9955602
0000a0 39 c1 00 40 e7 dd 00 40 00 23 01 40 a7 e5 00 40
       2.0117934 2.0135438 2.0177612 2.0140169
0000b0 07 db 00 40 59 07 01 40 3c bf 00 40 e6 01 01 40
       2.0133684 2.0160735 2.011672 2.0157409
0000c0 dd f2 00 40 15 c9 00 40 73 31 00 40 63 47 ff 3f
       2.0148232 2.012273 2.0030181 1.994366
0000d0 80 c9 00 40 62 7e 00 40 c5 d8 fe 3f 8c 58 00 40
       2.0122986 2.0077138 1.9909903 2.0054045
0000e0 7b 8f ff 3f 65 5a 00 40 63 60 00 40 48 8e 00 40
       1.9965662 2.0055172 2.005883 2.0086842
0000f0 74 c9 ff 3f df a6 ff 3f 3c 49 00 40 72 47 01 40
       1.9983354 1.99728 2.0044699 2.0199857

layers.10.bias f4 [64]
000000 56 71 86 3f 6f be 82 3f a0 51 7e 3f c5 37 8a 3f
       1.0503337 1.0214366 0.993433 1.079827
000010 22 e5 85 3f d5 cc 67 bf 97 7b 7f 3f 8b 01 6e bf
       1.0460551 -0.90546924 0.9979796 -0.92971104
000020 fa 46 89 3f dc d3 80 3f 08 4a 81 3f 36 66 80 3f
       1.0724785 1.0064654 1.0100718 1.0031192
000030 90 1d 82 3f 53 e4 81 3f 89 a4 82 3f dd f8 84 3f
       1.0165272 1.0147804 1.0206462 1.0388447
000040 5b 85 84 3f 88 a6 82 bf 6b 32 85 3f 58 e6 7f 3f
       1.0353197 -1.0207071 1.0406011 0.9996085
000050 a9 42 82 3f 42 74 68 bf a6 e2 81 3f 25 49 6f bf
       1.0176593 -0.90802395 1.0147293 -0.93470985
000060 ed 6e 80 3f 5f 92 81 3f c6 9b 80 3f 43 2c 82 3f
       1.0033852 1.0122794 1.0047538 1.0169758
000070 55 b7 86 3f 67 46 81 3f 79 d3 81 3f 47 1b 81 3f
       1.0524698 1.009961 1.0142661 1.0086449
000080 cb a5 85 3f 9d 42 80 3f 4b 86 81 3f 01 00 82 3f
       1.0441221 1.0020329 1.0119108 1.0156251
000090 9c 77 80 3f 6f 65 86 3f be ed 73 bf 74 6a 8a 3f
       1.0036502 1.0499705 -0.9528464 1.0813737
0000a0 9a b4 81 3f 88 b6 81 3f 23 2f 69 bf 01 5a 82 3f
       1.013324 1.0133829 -0.9108755 1.0183717
0000b0 b8 fc 6f bf 75 90 81 3f a4 d5 6a bf 63 4f 72 bf
       -0.93744993 1.012221 -0.9173224 -0.94652385
0000c0 67 a2 81 3f c1 93 64 bf 31 e1 80 3f e6 af 87 3f
       1.0127686 -0.89287955 1.0068723 1.0600555
0000d0 c9 89 81 3f e1 b2 80 3f ea a8 87 3f 8a 96 80 3f
       1.0120174 1.005459 1.0598423 1.0045941
0000e0 d1 df 8a 3f 99 71 8b 3f 3c 94 85 3f ed 9f 65 bf
       1.0849553 1.0894042 1.0435863 -0.8969715
0000f0 39 47 8c 3f e7 4b 8c 3f 08 96 6a 3f 93 59 80 3f
       1.0959235 1.0960664 0.9163518 1.0027336

layers.10.running_mean f4 [64]
000000 38 4e 38 3c 29 fb 2e 3d 5c 96 a5 3c 28 32 f8 3d
       0.011249118 0.042719994 0.020213298 0.121189415
000010 78 39 36 3e 02 83 84 3e 42 cb 20 3e 2d 3c 5a 3e
       0.1779536 0.258812 0.15702537 0.21312018
000020 56 53 02 3e ae ea 20 3e 6d 4d 78 3e 05 bf 52 3e
       0.12727103 0.15714523 0.24248286 0.2058068
000030 de 6b 62 3e 08 e2 2b 3e d9 b1 3d 3e 66 34 56 3e
       0.2211146 0.16785443 0.18524875 0.20918426
000040 b6 d7 00 3e 1a 02 b1 3e 36 4a ea 3d 71 43 53 3e
       0.12582287 0.34571916 0.11439936 0.20631196
000050 04 81 47 3e 18 4f f8 3c 6b 62 82 3e c1 cd de 3c
       0.1948281 0.030311152 0.25465712 0.02719772
000060 eb 39 44 3e a1 ff 3c 3e 70 8c 31 3e 1f 11 74 3e
       0.19162719 0.1845689 0.17338729 0.23834656
000070 3a 0a e8 3d 73 a6 64 3e 02 0a 56 3e 50 30 1f 3e
       0.113300756 0.2232912 0.20902255 0.15545774
000080 ce e0 09 3e 0e 40 2c 3e 9c a6 7e 3e e1 81 80 3e
       0.13464662 0.1682131 0.24868244 0.2509909
000090 6b f1 4e 3e 57 d5 f6 3d 57 e2 95 3c 73 73 37 3e
       0.20209281 0.1205241 0.018296404 0.17915134
0000a0 08 8c 71 3e 3c 9d 27 3e eb 72 28 3d 2c b2 2e 3e
       0.23588574 0.16368574 0.04112522 0.17060155
0000b0 9a fe 02 3d a5 af 80 3e df aa 9a 3d 69 4b b7 3d
       0.03198109 0.25134006 0.07552122 0.0894993
0000c0 88 d2 26 3e 69 0b 53 3d 2d 9e 5b 3e 72 85 08 3e
       0.16291249 0.051524553 0.21447058 0.13332155
0000d0 6d 54 3a 3e b1 bd 51 3e d9 43 31 3e 72 72 38 3e
       0.18196268 0.20482518 0.17311038 0.18012407
0000e0 7f 0a 24 3e b3 aa de 3c 70 ca 9c 3c b5 ea 1b 3d
       0.16019629 0.027181005 0.019139498 0.03806563
0000f0 7c da f8 3d 5c f8 14 3d 63 71 ab 3d 45 8c 29 3e
       0.121510476 0.036369666 0.08371236 0.16557415

layers.10.running_var f4 [64]
000000 3b ce 9b 3b 88 87 da 3c ce 24 24 3c dc f2 fe 3d
       0.004754809 0.026675954 0.010018541 0.124486655
000010 2a fd 55 3e 25 1a 97 3e bd 89 e3 3d 07 7a 83 3e
       0.20897356 0.29512134 0.11110256 0.25679037
000020 ce ed 08 3e df 86 e7 3d cb a0 5c 3e 3b 08 28 3e
       0.13371965 0.113050215 0.21545713 0.1640939
000030 8d da 40 3e b2 38 36 3e 01 b6 16 3e b0 94 7d 3e
       0.1883337 0.17795065 0.14717866 0.24763751
000040 77 35 f4 3d 85 9f dc 3e 43 4e d2 3d ea c0 26 3e
       0.1192426 0.43090454 0.102688335 0.16284528
000050 fc b2 0f 3e 83 d7 56 3c 9b df 79 3e 3e bb 98 3c
       0.14033121 0.013112905 0.24401705 0.018643972
000060 25 2c 16 3e 9c 8a 12 3e 96 53 0a 3e a1 cd 49 3e
       0.14665277 0.14310688 0.13508448 0.19707347
000070 42 42 eb 3d 24 da 43 3e f4 1f 32 3e d0 aa df 3d
       0.11487247 0.19126183 0.17395002 0.10921252
000080 8c d9 0b 3e 9a 69 02 3e 99 fa 4d 3e f0 47 6a 3e
       0.13657206 0.12735596 0.20115127 0.22879004
000090 73 9f 33 3e 03 18 df 3d 3c 4b 18 3c 80 2a 31 3e
       0.17541294 0.10893252 0.009295281 0.17301369
0000a0 c9 e8 56 3e 16 c5 df 3d 25 50 aa 3c d8 65 09 3e
       0.20987238 0.10926263 0.020790169 0.13417757
0000b0 64 e1 b5 3c 45 3a 5b 3e 7a bd 37 3d b3 85 ae 3d
       0.022202201 0.21408947 0.044858433 0.08521595
0000c0 a7 e5 fe 3d ad 45 26 3d 7c 18 2a 3e cf e2 15 3e
       0.124461465 0.04059379 0.16610903 0.14637302
0000d0 af 74 06 3e 46 be 28 3e fb d0 3a 3e 2c 65 0e 3e
       0.13130449 0.16478834 0.18243782 0.13905782
0000e0 87 25 37 3e f2 96 92 3c fb a9 e0 3b f4 19 8c 3c
       0.1788541 0.017894242 0.0068562008 0.01710222
0000f0 bd f3 de 3d a4 1d da 3c 47 4c 56 3d 34 78 04 3e
       0.10886333 0.026625462 0.052318837 0.12936479

actor_classifier.weight f4 [15, 256]
000000 2f 3f 1f bd 0c b8 9a 3c 67 62 f9 3c c6 41 57 3c
       -0.038878616 0.018886589 0.03044243 0.01313824
000010 92 c9 60 3c eb d1 7c 3d ed 4a 30 bd cd af 07 bd
       0.013719933 0.06172363 -0.043040205 -0.03312664
000020 a1 92 03 bd 89 a6 c9 3b 11 96 46 bc a5 fa 5d 3c
       -0.032122258 0.0061538857 -0.01212074 0.013548528
000030 19 84 f7 37 05 55 b2 3c 12 0f e4 3c 5b fa 21 bc
       2.9506207e-05 0.021769056 0.027839217 -0.00988635
000040 1f b8 8f bc ce ef a4 3c 64 b6 6c 3d 21 54 07 3d
       -0.01754385 0.020133879 0.05779113 0.033039216
000050 76 2b 03 bc d1 d3 ca 3c 92 79 93 3d 92 90 94 bc
       -0.008005967 0.024759205 0.07200922 -0.018135343
000060 e8 35 95 3c 3d 43 fc bc 1d 47 89 3d f8 ee 11 bd
       0.018214181 -0.03079378 0.06703017 -0.03562829
000070 e3 00 6d bd c9 6d 34 3c b1 21 cd 3b 33 87 9e bc
       -0.057862174 0.011012503 0.00626012 -0.019351577
000080 aa db 02 bd 29 c2 16 3d 2b 3b 4d bc af f9 43 3c
       -0.03194777 0.03680626 -0.012526314 0.011961385
000090 08 33 75 bc d6 34 38 3d a6 c4 13 bd d6 6a 9e bc
       -0.01496578 0.044972263 -0.03607621 -0.019338053
0000a0 67 2a d3 bc 7f 9d d6 3c 2f 6c da 3c f9 4c 59 3c
       -0.025777055 0.026198147 0.026662914 0.013262981
0000b0 03 e9 0f 3d 5c 76 4d 3b f8 d3 dd 3c db 4b 29 3d
       0.035134327 0.0031351065 0.027078614 0.041332107
0000c0 bb b1 2e bc d0 e7 44 bd ea d7 74 3d 46 84 1f 3d
       -0.010662491 -0.048072636 0.059776224 0.038944505
0000d0 75 1b e3 bc 3c 5f 70 3c 34 ca 9f bb 75 45 89 3c
       -0.027723053 0.014671143 -0.0048763994 0.016756753
0000e0 51 ad fb bb 66 78 1e bd 8b db 11 3d da 62 55 3c
       -0.007680573 -0.03868904 0.035609763 0.013024056
0000f0 8c 86 92 3c a1 00 86 bd f1 e2 23 bd ec 2a b4 3c
       0.017886423 -0.06543089 -0.04001135 0.021993123
000100 0a 9a 53 3d d3 29 d1 bc 71 67 6b 3c 84 0b 96 bc
       0.051660575 -0.025532639 0.014367924 -0.018316038
000110 85 75 ee bc 11 72 2d bc fd 1a 51 3d 72 55 af 3d
       -0.029108772 -0.010586278 0.05105113 0.08561219
000120 95 48 76 3c 74 d1 12 bc 1b 08 39 3c d9 42 e4 3c
       0.015031953 -0.00896107 0.011293436 0.027863907
000130 04 35 45 3d 49 29 1b 3c fb a5 a6 3c fa a2 7f 3c
       0.048146263 0.009470292 0.020342818 0.0156028215
000140 33 d3 1c bd 4e 4d 06 3d 86 89 3a bd 96 08 58 3d
       -0.038287353 0.032788567 -0.04554131 0.052742563
000150 07 fa fa 3a fb 82 cd 3c ad d0 c2 3c 47 98 41 3d
       0.0019148 0.02508687 0.023781145 0.047264364
000160 8e db 4d 3c b8 c2 07 bb c8 ab 6b 3d d3 3a c5 3a
       0.012564553 -0.0020715427 0.05753687 0.0015047438
000170 c0 84 1e bb 06 3b 30 3d 89 d3 18 3d 50 58 81 3c
       -0.0024188012 0.04302504 0.03731111 0.015789181
000180 da c6 aa 3c 62 6f c1 3b 85 ae 88 bc 68 07 81 3c
       0.020846773 0.0059031704 -0.01668478 0.015750602
000190 b1 cc e5 3c bf 13 37 3d cf 19 1f ba 94 05 17 3d
       0.028051706 0.044696566 -0.00060692144 0.036870554
0001a0 ee e3 41 3d 7a c6 29 3d b9 bb 28 bd 28 b0 3d bd
       0.04733651 0.041449048 -0.04119465 -0.046310574
0001b0 e3 7d 1d 3d 5c 26 23 3d 4d 4b d3 bc 5f 5c e3 3c
       0.038450133 0.039831504 -0.025792742 0.027754007
0001c0 a2 7f 8a 3c 37 cc 88 bb d6 02 d6 3c 7a b9 75 3d
       0.016906563 -0.004174735 0.0261244 0.059991337
0001d0 78 b5 6d 3c aa a6 8c 3b 73 40 06 bd 33 55 6e 3d
       0.014508598 0.004292329 -0.032776307 0.05818672
0001e0 a0 b3 eb 3c d3 1a 58 3d 23 b5 64 3c b4 a7 22 3c
       0.028772175 0.052759957 0.013959202 0.009927679
0001f0 e7 19 eb bc 05 53 11 3d 4f c5 39 3d 2b 0d 41 3c
       -0.028698875 0.035479564 0.045354184 0.011782925
000200 00 ad e6 bb 21 a4 9c bc 7d 64 44 3d d7 c3 0c 3d
       -0.007039666 -0.019121232 0.047947396 0.034366455
000210 23 61 ea bc 80 74 95 bb b2 47 68 3d 51 e8 7a 3c
       -0.028610772 -0.004561007 0.056709 0.015314178
000220 e1 3d e0 bc fb d3 53 bc 70 32 69 bc 66 dc 46 bc
       -0.027373256 -0.012928958 -0.014233217 -0.012137508
000230 49 0e f0 bb c2 4a 34 3c 0a f1 00 3d 49 b8 2b bd
       -0.0073259217 0.011004152 0.031479873 -0.041923795
000240 7e 7a 9f 3c 13 39 19 3d 77 d1 b6 3c 79 dd 88 bc
       0.019467589 0.037407946 0.022316677 -0.016707169
000250 3a 2c 2d bb e7 ad 74 3b 06 34 2a 3d 03 bb 14 bd
       -0.0026424066 0.00373351 0.04155352 -0.03631116
000260 59 37 7a bc e3 d4 89 bb d0 9a c1 3c c1 cb 46 bc
       -0.015271985 -0.0042062863 0.02363339 -0.01213354
000270 c3 0e 49 bc b0 ba 13 3d 2c d8 8e bc 2f db 42 3c
       -0.012271586 0.03606671 -0.017437063 0.011893078
000280 ea 35 4f bc 18 83 6f 3c 3d 77 79 bc 06 a5 d5 3c
       -0.012647131 0.0146186575 -0.0152261825 0.026079666
000290 6f dd 5c bd de d5 9a 3b 4f bd 33 3d 37 c3 3e bd
       -0.053922113 0.004725202 0.04388171 -0.04657289
0002a0 ec 70 94 3d d6 17 58 3d 13 0b 6a 3c f5 a0 cf 3c
       0.07248101 0.052757107 0.014284867 0.025345305
0002b0 25 27 22 bd c7 cb 45 3d 02 3a 4a bc 8d 67 68 3c
       -0.039588112 0.04829004 -0.012342932 0.014184845
0002c0 05 07 c7 bc 90 bd 04 bc 67 39 3d 3d ab ed ed 3c
       -0.02429534 -0.008101836 0.04619732 0.029043993
0002d0 de f6 b0 3b 7f c8 4c bd 6b ae df 3c 05 84 14 bd
       0.0054005226 -0.049995895 0.027304849 -0.036258716
0002e0 5a 67 b3 3c 58 34 8e 3d d0 a6 42 bd 70 d7 07 3d
       0.021899868 0.069435775 -0.047522366 0.03316444
0002f0 93 e2 3e bc 33 ad 18 3b 73 9a 13 3d af 51 df 3b
       -0.011650699 0.0023296594 0.036035966 0.0068151574
000300 b9 ce 2e bc fa 4e 5a 3d 34 e7 93 3d d7 64 81 bd
       -0.010669404 0.053297974 0.07221833 -0.06318062
000310 de 53 e5 3c 6e e4 ca 3d a1 e7 5c 3d f5 f5 42 bd
       0.027994093 0.09906851 0.053931836 -0.047597844
000320 ae d1 ef bc 06 d5 92 3c 3f 75 d8 bb d8 e7 02 3d
       -0.029274788 0.017923843 -0.0066057737 0.031959385
000330 5b c8 d5 3a a5 62 46 3d e0 53 84 3d 57 c0 43 3d
       0.0016310321 0.04843392 0.064613104 0.04779085
000340 81 03 c0 3b 09 2b 2d 3d 27 e0 97 3a 32 c9 ce 3c
       0.0058597927 0.04227737 0.0011587188 0.025242422
000350 90 d7 bf bc a7 69 71 3d 61 04 43 bc bf 9c 33 3c
       -0.023418218 0.05893865 -0.0119028995 0.010962664
000360 9d 56 f2 bc d8 70 d2 bc 1f 13 5c 3d 3e 5d ef bc
       -0.029582316 -0.025688574 0.053729173 -0.029219266
000370 76 23 b7 3c e7 dd 02 bc 04 b3 a7 3c 7d e3 00 3d
       0.022355776 -0.007987476 0.020471103 0.03146695
000380 e4 c8 b4 bc f5 b8 27 3c 46 79 61 3d 07 5f f6 3c
       -0.022068448 0.010236968 0.055047296 0.03007461
000390 27 6e a2 3c c7 00 d4 bc 0c 88 2e bd 53 6b 17 bd
       0.019827915 -0.025879277 -0.042610213 -0.036967587
0003a0 49 cf 00 3d 56 ec 3a 3c d9 6e 51 3d 2b c4 4b bd
       0.031447683 0.011408886 0.051131103 -0.049747627
0003b0 b3 f5 90 bc da b9 27 3d 40 ea 46 bd 81 a9 dc 3c
       -0.017695284 0.040948726 -0.048563242 0.026936295
0003c0 d1 a5 47 3d 74 49 89 bc bf 59 ae 3d 94 ff 1c bd
       0.04874212 -0.016758658 0.085132115 -0.038329676
0003d0 62 be 06 3b 72 12 14 bd 9b 24 ce bc 8f 36 49 3d
       0.0020560254 -0.036150403 -0.02516394 0.049124297
0003e0 8f a5 d3 bb 6e ac 24 3d 43 89 25 bc 30 84 c1 bc
       -0.006458945 0.040203504 -0.0101035265 -0.023622602
0003f0 12 b3 a5 3c 67 35 19 bc 94 ef 4d 3d bf cc 2c bd
       0.020226989 -0.009351111 0.050277308 -0.04218745
